<?xml version="1.0"?>
<net name="onnx_Frontend_IR" version="11">
	<layers>
		<layer id="0" name="images" type="Parameter" version="opset1">
			<data shape="1,3,416,416" element_type="f32" />
			<output>
				<port id="0" precision="FP32" names="images">
					<dim>1</dim>
					<dim>3</dim>
					<dim>416</dim>
					<dim>416</dim>
				</port>
			</output>
		</layer>
		<layer id="1" name="/model/model.22/Constant_5_output_0_compressed" type="Const" version="opset1">
			<data element_type="f16" shape="1, 2, 3549" offset="0" size="14196" />
			<output>
				<port id="0" precision="FP16" names="/model/model.22/Constant_5_output_0">
					<dim>1</dim>
					<dim>2</dim>
					<dim>3549</dim>
				</port>
			</output>
		</layer>
		<layer id="2" name="/model/model.22/Constant_5_output_0" type="Convert" version="opset1">
			<data destination_type="f32" />
			<rt_info>
				<attribute name="decompression" version="0" />
			</rt_info>
			<input>
				<port id="0" precision="FP16">
					<dim>1</dim>
					<dim>2</dim>
					<dim>3549</dim>
				</port>
			</input>
			<output>
				<port id="1" precision="FP32">
					<dim>1</dim>
					<dim>2</dim>
					<dim>3549</dim>
				</port>
			</output>
		</layer>
		<layer id="3" name="model.model.0.conv.weight_compressed" type="Const" version="opset1">
			<data element_type="f16" shape="16, 3, 3, 3" offset="14196" size="864" />
			<output>
				<port id="0" precision="FP16" names="model.model.0.conv.weight">
					<dim>16</dim>
					<dim>3</dim>
					<dim>3</dim>
					<dim>3</dim>
				</port>
			</output>
		</layer>
		<layer id="4" name="model.model.0.conv.weight" type="Convert" version="opset1">
			<data destination_type="f32" />
			<rt_info>
				<attribute name="decompression" version="0" />
			</rt_info>
			<input>
				<port id="0" precision="FP16">
					<dim>16</dim>
					<dim>3</dim>
					<dim>3</dim>
					<dim>3</dim>
				</port>
			</input>
			<output>
				<port id="1" precision="FP32">
					<dim>16</dim>
					<dim>3</dim>
					<dim>3</dim>
					<dim>3</dim>
				</port>
			</output>
		</layer>
		<layer id="5" name="/model/model.0/conv/Conv/WithoutBiases" type="Convolution" version="opset1">
			<data strides="2, 2" dilations="1, 1" pads_begin="1, 1" pads_end="1, 1" auto_pad="explicit" />
			<input>
				<port id="0" precision="FP32">
					<dim>1</dim>
					<dim>3</dim>
					<dim>416</dim>
					<dim>416</dim>
				</port>
				<port id="1" precision="FP32">
					<dim>16</dim>
					<dim>3</dim>
					<dim>3</dim>
					<dim>3</dim>
				</port>
			</input>
			<output>
				<port id="2" precision="FP32">
					<dim>1</dim>
					<dim>16</dim>
					<dim>208</dim>
					<dim>208</dim>
				</port>
			</output>
		</layer>
		<layer id="6" name="Reshape_30794_compressed" type="Const" version="opset1">
			<data element_type="f16" shape="1, 16, 1, 1" offset="15060" size="32" />
			<output>
				<port id="0" precision="FP16">
					<dim>1</dim>
					<dim>16</dim>
					<dim>1</dim>
					<dim>1</dim>
				</port>
			</output>
		</layer>
		<layer id="7" name="Reshape_30794" type="Convert" version="opset1">
			<data destination_type="f32" />
			<rt_info>
				<attribute name="decompression" version="0" />
			</rt_info>
			<input>
				<port id="0" precision="FP16">
					<dim>1</dim>
					<dim>16</dim>
					<dim>1</dim>
					<dim>1</dim>
				</port>
			</input>
			<output>
				<port id="1" precision="FP32">
					<dim>1</dim>
					<dim>16</dim>
					<dim>1</dim>
					<dim>1</dim>
				</port>
			</output>
		</layer>
		<layer id="8" name="/model/model.0/conv/Conv" type="Add" version="opset1">
			<data auto_broadcast="numpy" />
			<input>
				<port id="0" precision="FP32">
					<dim>1</dim>
					<dim>16</dim>
					<dim>208</dim>
					<dim>208</dim>
				</port>
				<port id="1" precision="FP32">
					<dim>1</dim>
					<dim>16</dim>
					<dim>1</dim>
					<dim>1</dim>
				</port>
			</input>
			<output>
				<port id="2" precision="FP32" names="/model/model.0/conv/Conv_output_0">
					<dim>1</dim>
					<dim>16</dim>
					<dim>208</dim>
					<dim>208</dim>
				</port>
			</output>
		</layer>
		<layer id="9" name="/model/model.0/act/Mul" type="Swish" version="opset4">
			<input>
				<port id="0" precision="FP32">
					<dim>1</dim>
					<dim>16</dim>
					<dim>208</dim>
					<dim>208</dim>
				</port>
			</input>
			<output>
				<port id="1" precision="FP32" names="/model/model.0/act/Mul_output_0">
					<dim>1</dim>
					<dim>16</dim>
					<dim>208</dim>
					<dim>208</dim>
				</port>
			</output>
		</layer>
		<layer id="10" name="model.model.1.conv.weight_compressed" type="Const" version="opset1">
			<data element_type="f16" shape="32, 16, 3, 3" offset="15092" size="9216" />
			<output>
				<port id="0" precision="FP16" names="model.model.1.conv.weight">
					<dim>32</dim>
					<dim>16</dim>
					<dim>3</dim>
					<dim>3</dim>
				</port>
			</output>
		</layer>
		<layer id="11" name="model.model.1.conv.weight" type="Convert" version="opset1">
			<data destination_type="f32" />
			<rt_info>
				<attribute name="decompression" version="0" />
			</rt_info>
			<input>
				<port id="0" precision="FP16">
					<dim>32</dim>
					<dim>16</dim>
					<dim>3</dim>
					<dim>3</dim>
				</port>
			</input>
			<output>
				<port id="1" precision="FP32">
					<dim>32</dim>
					<dim>16</dim>
					<dim>3</dim>
					<dim>3</dim>
				</port>
			</output>
		</layer>
		<layer id="12" name="/model/model.1/conv/Conv/WithoutBiases" type="Convolution" version="opset1">
			<data strides="2, 2" dilations="1, 1" pads_begin="1, 1" pads_end="1, 1" auto_pad="explicit" />
			<input>
				<port id="0" precision="FP32">
					<dim>1</dim>
					<dim>16</dim>
					<dim>208</dim>
					<dim>208</dim>
				</port>
				<port id="1" precision="FP32">
					<dim>32</dim>
					<dim>16</dim>
					<dim>3</dim>
					<dim>3</dim>
				</port>
			</input>
			<output>
				<port id="2" precision="FP32">
					<dim>1</dim>
					<dim>32</dim>
					<dim>104</dim>
					<dim>104</dim>
				</port>
			</output>
		</layer>
		<layer id="13" name="Reshape_30811" type="Const" version="opset1">
			<data element_type="f32" shape="1, 32, 1, 1" offset="24308" size="128" />
			<output>
				<port id="0" precision="FP32">
					<dim>1</dim>
					<dim>32</dim>
					<dim>1</dim>
					<dim>1</dim>
				</port>
			</output>
		</layer>
		<layer id="14" name="/model/model.1/conv/Conv" type="Add" version="opset1">
			<data auto_broadcast="numpy" />
			<input>
				<port id="0" precision="FP32">
					<dim>1</dim>
					<dim>32</dim>
					<dim>104</dim>
					<dim>104</dim>
				</port>
				<port id="1" precision="FP32">
					<dim>1</dim>
					<dim>32</dim>
					<dim>1</dim>
					<dim>1</dim>
				</port>
			</input>
			<output>
				<port id="2" precision="FP32" names="/model/model.1/conv/Conv_output_0">
					<dim>1</dim>
					<dim>32</dim>
					<dim>104</dim>
					<dim>104</dim>
				</port>
			</output>
		</layer>
		<layer id="15" name="/model/model.1/act/Mul" type="Swish" version="opset4">
			<input>
				<port id="0" precision="FP32">
					<dim>1</dim>
					<dim>32</dim>
					<dim>104</dim>
					<dim>104</dim>
				</port>
			</input>
			<output>
				<port id="1" precision="FP32" names="/model/model.1/act/Mul_output_0">
					<dim>1</dim>
					<dim>32</dim>
					<dim>104</dim>
					<dim>104</dim>
				</port>
			</output>
		</layer>
		<layer id="16" name="model.model.2.cv1.conv.weight_compressed" type="Const" version="opset1">
			<data element_type="f16" shape="32, 32, 1, 1" offset="24436" size="2048" />
			<output>
				<port id="0" precision="FP16" names="model.model.2.cv1.conv.weight">
					<dim>32</dim>
					<dim>32</dim>
					<dim>1</dim>
					<dim>1</dim>
				</port>
			</output>
		</layer>
		<layer id="17" name="model.model.2.cv1.conv.weight" type="Convert" version="opset1">
			<data destination_type="f32" />
			<rt_info>
				<attribute name="decompression" version="0" />
			</rt_info>
			<input>
				<port id="0" precision="FP16">
					<dim>32</dim>
					<dim>32</dim>
					<dim>1</dim>
					<dim>1</dim>
				</port>
			</input>
			<output>
				<port id="1" precision="FP32">
					<dim>32</dim>
					<dim>32</dim>
					<dim>1</dim>
					<dim>1</dim>
				</port>
			</output>
		</layer>
		<layer id="18" name="/model/model.2/cv1/conv/Conv/WithoutBiases" type="Convolution" version="opset1">
			<data strides="1, 1" dilations="1, 1" pads_begin="0, 0" pads_end="0, 0" auto_pad="explicit" />
			<input>
				<port id="0" precision="FP32">
					<dim>1</dim>
					<dim>32</dim>
					<dim>104</dim>
					<dim>104</dim>
				</port>
				<port id="1" precision="FP32">
					<dim>32</dim>
					<dim>32</dim>
					<dim>1</dim>
					<dim>1</dim>
				</port>
			</input>
			<output>
				<port id="2" precision="FP32">
					<dim>1</dim>
					<dim>32</dim>
					<dim>104</dim>
					<dim>104</dim>
				</port>
			</output>
		</layer>
		<layer id="19" name="Reshape_30828" type="Const" version="opset1">
			<data element_type="f32" shape="1, 32, 1, 1" offset="26484" size="128" />
			<output>
				<port id="0" precision="FP32">
					<dim>1</dim>
					<dim>32</dim>
					<dim>1</dim>
					<dim>1</dim>
				</port>
			</output>
		</layer>
		<layer id="20" name="/model/model.2/cv1/conv/Conv" type="Add" version="opset1">
			<data auto_broadcast="numpy" />
			<input>
				<port id="0" precision="FP32">
					<dim>1</dim>
					<dim>32</dim>
					<dim>104</dim>
					<dim>104</dim>
				</port>
				<port id="1" precision="FP32">
					<dim>1</dim>
					<dim>32</dim>
					<dim>1</dim>
					<dim>1</dim>
				</port>
			</input>
			<output>
				<port id="2" precision="FP32" names="/model/model.2/cv1/conv/Conv_output_0">
					<dim>1</dim>
					<dim>32</dim>
					<dim>104</dim>
					<dim>104</dim>
				</port>
			</output>
		</layer>
		<layer id="21" name="/model/model.2/cv1/act/Mul" type="Swish" version="opset4">
			<input>
				<port id="0" precision="FP32">
					<dim>1</dim>
					<dim>32</dim>
					<dim>104</dim>
					<dim>104</dim>
				</port>
			</input>
			<output>
				<port id="1" precision="FP32" names="/model/model.2/cv1/act/Mul_output_0">
					<dim>1</dim>
					<dim>32</dim>
					<dim>104</dim>
					<dim>104</dim>
				</port>
			</output>
		</layer>
		<layer id="22" name="/model/model.2/Constant_2_output_0" type="Const" version="opset1">
			<data element_type="i64" shape="1" offset="26612" size="8" />
			<output>
				<port id="0" precision="I64" names="/model/model.2/Constant_2_output_0">
					<dim>1</dim>
				</port>
			</output>
		</layer>
		<layer id="23" name="/model/model.2/Div_output_0" type="Const" version="opset1">
			<data element_type="i64" shape="1" offset="26620" size="8" />
			<output>
				<port id="0" precision="I64" names="/model/model.2/Div_output_0">
					<dim>1</dim>
				</port>
			</output>
		</layer>
		<layer id="24" name="Broadcast_30837" type="Const" version="opset1">
			<data element_type="i64" shape="1" offset="26628" size="8" />
			<output>
				<port id="0" precision="I64">
					<dim>1</dim>
				</port>
			</output>
		</layer>
		<layer id="25" name="/model/model.2/Constant_1_output_0" type="Const" version="opset1">
			<data element_type="i64" shape="1" offset="26628" size="8" />
			<output>
				<port id="0" precision="I64" names="/model/model.2/Constant_1_output_0">
					<dim>1</dim>
				</port>
			</output>
		</layer>
		<layer id="26" name="/model/model.2/Slice" type="Slice" version="opset8">
			<input>
				<port id="0" precision="FP32">
					<dim>1</dim>
					<dim>32</dim>
					<dim>104</dim>
					<dim>104</dim>
				</port>
				<port id="1" precision="I64">
					<dim>1</dim>
				</port>
				<port id="2" precision="I64">
					<dim>1</dim>
				</port>
				<port id="3" precision="I64">
					<dim>1</dim>
				</port>
				<port id="4" precision="I64">
					<dim>1</dim>
				</port>
			</input>
			<output>
				<port id="5" precision="FP32" names="/model/model.2/Slice_output_0">
					<dim>1</dim>
					<dim>16</dim>
					<dim>104</dim>
					<dim>104</dim>
				</port>
			</output>
		</layer>
		<layer id="27" name="/model/model.2/Mul_1_output_0" type="Const" version="opset1">
			<data element_type="i64" shape="1" offset="26636" size="8" />
			<output>
				<port id="0" precision="I64" names="/model/model.2/Mul_1_output_0">
					<dim>1</dim>
				</port>
			</output>
		</layer>
		<layer id="28" name="Broadcast_30845" type="Const" version="opset1">
			<data element_type="i64" shape="1" offset="26628" size="8" />
			<output>
				<port id="0" precision="I64">
					<dim>1</dim>
				</port>
			</output>
		</layer>
		<layer id="29" name="/model/model.2/Slice_1" type="Slice" version="opset8">
			<input>
				<port id="0" precision="FP32">
					<dim>1</dim>
					<dim>32</dim>
					<dim>104</dim>
					<dim>104</dim>
				</port>
				<port id="1" precision="I64">
					<dim>1</dim>
				</port>
				<port id="2" precision="I64">
					<dim>1</dim>
				</port>
				<port id="3" precision="I64">
					<dim>1</dim>
				</port>
				<port id="4" precision="I64">
					<dim>1</dim>
				</port>
			</input>
			<output>
				<port id="5" precision="FP32" names="/model/model.2/Slice_1_output_0">
					<dim>1</dim>
					<dim>16</dim>
					<dim>104</dim>
					<dim>104</dim>
				</port>
			</output>
		</layer>
		<layer id="30" name="model.model.2.cv2.conv.weight_compressed" type="Const" version="opset1">
			<data element_type="f16" shape="16, 16, 3, 3" offset="26644" size="4608" />
			<output>
				<port id="0" precision="FP16" names="model.model.2.cv2.conv.weight">
					<dim>16</dim>
					<dim>16</dim>
					<dim>3</dim>
					<dim>3</dim>
				</port>
			</output>
		</layer>
		<layer id="31" name="model.model.2.cv2.conv.weight" type="Convert" version="opset1">
			<data destination_type="f32" />
			<rt_info>
				<attribute name="decompression" version="0" />
			</rt_info>
			<input>
				<port id="0" precision="FP16">
					<dim>16</dim>
					<dim>16</dim>
					<dim>3</dim>
					<dim>3</dim>
				</port>
			</input>
			<output>
				<port id="1" precision="FP32">
					<dim>16</dim>
					<dim>16</dim>
					<dim>3</dim>
					<dim>3</dim>
				</port>
			</output>
		</layer>
		<layer id="32" name="/model/model.2/cv2/conv/Conv/WithoutBiases" type="Convolution" version="opset1">
			<data strides="1, 1" dilations="1, 1" pads_begin="1, 1" pads_end="1, 1" auto_pad="explicit" />
			<input>
				<port id="0" precision="FP32">
					<dim>1</dim>
					<dim>16</dim>
					<dim>104</dim>
					<dim>104</dim>
				</port>
				<port id="1" precision="FP32">
					<dim>16</dim>
					<dim>16</dim>
					<dim>3</dim>
					<dim>3</dim>
				</port>
			</input>
			<output>
				<port id="2" precision="FP32">
					<dim>1</dim>
					<dim>16</dim>
					<dim>104</dim>
					<dim>104</dim>
				</port>
			</output>
		</layer>
		<layer id="33" name="Reshape_30863_compressed" type="Const" version="opset1">
			<data element_type="f16" shape="1, 16, 1, 1" offset="31252" size="32" />
			<output>
				<port id="0" precision="FP16">
					<dim>1</dim>
					<dim>16</dim>
					<dim>1</dim>
					<dim>1</dim>
				</port>
			</output>
		</layer>
		<layer id="34" name="Reshape_30863" type="Convert" version="opset1">
			<data destination_type="f32" />
			<rt_info>
				<attribute name="decompression" version="0" />
			</rt_info>
			<input>
				<port id="0" precision="FP16">
					<dim>1</dim>
					<dim>16</dim>
					<dim>1</dim>
					<dim>1</dim>
				</port>
			</input>
			<output>
				<port id="1" precision="FP32">
					<dim>1</dim>
					<dim>16</dim>
					<dim>1</dim>
					<dim>1</dim>
				</port>
			</output>
		</layer>
		<layer id="35" name="/model/model.2/cv2/conv/Conv" type="Add" version="opset1">
			<data auto_broadcast="numpy" />
			<input>
				<port id="0" precision="FP32">
					<dim>1</dim>
					<dim>16</dim>
					<dim>104</dim>
					<dim>104</dim>
				</port>
				<port id="1" precision="FP32">
					<dim>1</dim>
					<dim>16</dim>
					<dim>1</dim>
					<dim>1</dim>
				</port>
			</input>
			<output>
				<port id="2" precision="FP32" names="/model/model.2/cv2/conv/Conv_output_0">
					<dim>1</dim>
					<dim>16</dim>
					<dim>104</dim>
					<dim>104</dim>
				</port>
			</output>
		</layer>
		<layer id="36" name="/model/model.2/cv2/act/Mul" type="Swish" version="opset4">
			<input>
				<port id="0" precision="FP32">
					<dim>1</dim>
					<dim>16</dim>
					<dim>104</dim>
					<dim>104</dim>
				</port>
			</input>
			<output>
				<port id="1" precision="FP32" names="/model/model.2/cv2/act/Mul_output_0">
					<dim>1</dim>
					<dim>16</dim>
					<dim>104</dim>
					<dim>104</dim>
				</port>
			</output>
		</layer>
		<layer id="37" name="model.model.2.cv3.conv.weight_compressed" type="Const" version="opset1">
			<data element_type="f16" shape="16, 16, 3, 3" offset="31284" size="4608" />
			<output>
				<port id="0" precision="FP16" names="model.model.2.cv3.conv.weight">
					<dim>16</dim>
					<dim>16</dim>
					<dim>3</dim>
					<dim>3</dim>
				</port>
			</output>
		</layer>
		<layer id="38" name="model.model.2.cv3.conv.weight" type="Convert" version="opset1">
			<data destination_type="f32" />
			<rt_info>
				<attribute name="decompression" version="0" />
			</rt_info>
			<input>
				<port id="0" precision="FP16">
					<dim>16</dim>
					<dim>16</dim>
					<dim>3</dim>
					<dim>3</dim>
				</port>
			</input>
			<output>
				<port id="1" precision="FP32">
					<dim>16</dim>
					<dim>16</dim>
					<dim>3</dim>
					<dim>3</dim>
				</port>
			</output>
		</layer>
		<layer id="39" name="/model/model.2/cv3/conv/Conv/WithoutBiases" type="Convolution" version="opset1">
			<data strides="1, 1" dilations="1, 1" pads_begin="1, 1" pads_end="1, 1" auto_pad="explicit" />
			<input>
				<port id="0" precision="FP32">
					<dim>1</dim>
					<dim>16</dim>
					<dim>104</dim>
					<dim>104</dim>
				</port>
				<port id="1" precision="FP32">
					<dim>16</dim>
					<dim>16</dim>
					<dim>3</dim>
					<dim>3</dim>
				</port>
			</input>
			<output>
				<port id="2" precision="FP32">
					<dim>1</dim>
					<dim>16</dim>
					<dim>104</dim>
					<dim>104</dim>
				</port>
			</output>
		</layer>
		<layer id="40" name="Reshape_30880" type="Const" version="opset1">
			<data element_type="f32" shape="1, 16, 1, 1" offset="35892" size="64" />
			<output>
				<port id="0" precision="FP32">
					<dim>1</dim>
					<dim>16</dim>
					<dim>1</dim>
					<dim>1</dim>
				</port>
			</output>
		</layer>
		<layer id="41" name="/model/model.2/cv3/conv/Conv" type="Add" version="opset1">
			<data auto_broadcast="numpy" />
			<input>
				<port id="0" precision="FP32">
					<dim>1</dim>
					<dim>16</dim>
					<dim>104</dim>
					<dim>104</dim>
				</port>
				<port id="1" precision="FP32">
					<dim>1</dim>
					<dim>16</dim>
					<dim>1</dim>
					<dim>1</dim>
				</port>
			</input>
			<output>
				<port id="2" precision="FP32" names="/model/model.2/cv3/conv/Conv_output_0">
					<dim>1</dim>
					<dim>16</dim>
					<dim>104</dim>
					<dim>104</dim>
				</port>
			</output>
		</layer>
		<layer id="42" name="/model/model.2/cv3/act/Mul" type="Swish" version="opset4">
			<input>
				<port id="0" precision="FP32">
					<dim>1</dim>
					<dim>16</dim>
					<dim>104</dim>
					<dim>104</dim>
				</port>
			</input>
			<output>
				<port id="1" precision="FP32" names="/model/model.2/cv3/act/Mul_output_0">
					<dim>1</dim>
					<dim>16</dim>
					<dim>104</dim>
					<dim>104</dim>
				</port>
			</output>
		</layer>
		<layer id="43" name="/model/model.2/Concat" type="Concat" version="opset1">
			<data axis="1" />
			<input>
				<port id="0" precision="FP32">
					<dim>1</dim>
					<dim>16</dim>
					<dim>104</dim>
					<dim>104</dim>
				</port>
				<port id="1" precision="FP32">
					<dim>1</dim>
					<dim>16</dim>
					<dim>104</dim>
					<dim>104</dim>
				</port>
				<port id="2" precision="FP32">
					<dim>1</dim>
					<dim>16</dim>
					<dim>104</dim>
					<dim>104</dim>
				</port>
				<port id="3" precision="FP32">
					<dim>1</dim>
					<dim>16</dim>
					<dim>104</dim>
					<dim>104</dim>
				</port>
			</input>
			<output>
				<port id="4" precision="FP32" names="/model/model.2/Concat_output_0">
					<dim>1</dim>
					<dim>64</dim>
					<dim>104</dim>
					<dim>104</dim>
				</port>
			</output>
		</layer>
		<layer id="44" name="model.model.2.cv4.conv.weight_compressed" type="Const" version="opset1">
			<data element_type="f16" shape="32, 64, 1, 1" offset="35956" size="4096" />
			<output>
				<port id="0" precision="FP16" names="model.model.2.cv4.conv.weight">
					<dim>32</dim>
					<dim>64</dim>
					<dim>1</dim>
					<dim>1</dim>
				</port>
			</output>
		</layer>
		<layer id="45" name="model.model.2.cv4.conv.weight" type="Convert" version="opset1">
			<data destination_type="f32" />
			<rt_info>
				<attribute name="decompression" version="0" />
			</rt_info>
			<input>
				<port id="0" precision="FP16">
					<dim>32</dim>
					<dim>64</dim>
					<dim>1</dim>
					<dim>1</dim>
				</port>
			</input>
			<output>
				<port id="1" precision="FP32">
					<dim>32</dim>
					<dim>64</dim>
					<dim>1</dim>
					<dim>1</dim>
				</port>
			</output>
		</layer>
		<layer id="46" name="/model/model.2/cv4/conv/Conv/WithoutBiases" type="Convolution" version="opset1">
			<data strides="1, 1" dilations="1, 1" pads_begin="0, 0" pads_end="0, 0" auto_pad="explicit" />
			<input>
				<port id="0" precision="FP32">
					<dim>1</dim>
					<dim>64</dim>
					<dim>104</dim>
					<dim>104</dim>
				</port>
				<port id="1" precision="FP32">
					<dim>32</dim>
					<dim>64</dim>
					<dim>1</dim>
					<dim>1</dim>
				</port>
			</input>
			<output>
				<port id="2" precision="FP32">
					<dim>1</dim>
					<dim>32</dim>
					<dim>104</dim>
					<dim>104</dim>
				</port>
			</output>
		</layer>
		<layer id="47" name="Reshape_30898_compressed" type="Const" version="opset1">
			<data element_type="f16" shape="1, 32, 1, 1" offset="40052" size="64" />
			<output>
				<port id="0" precision="FP16">
					<dim>1</dim>
					<dim>32</dim>
					<dim>1</dim>
					<dim>1</dim>
				</port>
			</output>
		</layer>
		<layer id="48" name="Reshape_30898" type="Convert" version="opset1">
			<data destination_type="f32" />
			<rt_info>
				<attribute name="decompression" version="0" />
			</rt_info>
			<input>
				<port id="0" precision="FP16">
					<dim>1</dim>
					<dim>32</dim>
					<dim>1</dim>
					<dim>1</dim>
				</port>
			</input>
			<output>
				<port id="1" precision="FP32">
					<dim>1</dim>
					<dim>32</dim>
					<dim>1</dim>
					<dim>1</dim>
				</port>
			</output>
		</layer>
		<layer id="49" name="/model/model.2/cv4/conv/Conv" type="Add" version="opset1">
			<data auto_broadcast="numpy" />
			<input>
				<port id="0" precision="FP32">
					<dim>1</dim>
					<dim>32</dim>
					<dim>104</dim>
					<dim>104</dim>
				</port>
				<port id="1" precision="FP32">
					<dim>1</dim>
					<dim>32</dim>
					<dim>1</dim>
					<dim>1</dim>
				</port>
			</input>
			<output>
				<port id="2" precision="FP32" names="/model/model.2/cv4/conv/Conv_output_0">
					<dim>1</dim>
					<dim>32</dim>
					<dim>104</dim>
					<dim>104</dim>
				</port>
			</output>
		</layer>
		<layer id="50" name="/model/model.2/cv4/act/Mul" type="Swish" version="opset4">
			<input>
				<port id="0" precision="FP32">
					<dim>1</dim>
					<dim>32</dim>
					<dim>104</dim>
					<dim>104</dim>
				</port>
			</input>
			<output>
				<port id="1" precision="FP32" names="/model/model.2/cv4/act/Mul_output_0">
					<dim>1</dim>
					<dim>32</dim>
					<dim>104</dim>
					<dim>104</dim>
				</port>
			</output>
		</layer>
		<layer id="51" name="/model/model.3/AveragePool" type="AvgPool" version="opset1">
			<data kernel="2, 2" strides="1, 1" pads_begin="0, 0" pads_end="0, 0" exclude-pad="false" auto_pad="explicit" rounding_type="floor" />
			<input>
				<port id="0" precision="FP32">
					<dim>1</dim>
					<dim>32</dim>
					<dim>104</dim>
					<dim>104</dim>
				</port>
			</input>
			<output>
				<port id="1" precision="FP32" names="/model/model.3/AveragePool_output_0">
					<dim>1</dim>
					<dim>32</dim>
					<dim>103</dim>
					<dim>103</dim>
				</port>
			</output>
		</layer>
		<layer id="52" name="model.model.3.cv1.conv.weight_compressed" type="Const" version="opset1">
			<data element_type="f16" shape="64, 32, 3, 3" offset="40116" size="36864" />
			<output>
				<port id="0" precision="FP16" names="model.model.3.cv1.conv.weight">
					<dim>64</dim>
					<dim>32</dim>
					<dim>3</dim>
					<dim>3</dim>
				</port>
			</output>
		</layer>
		<layer id="53" name="model.model.3.cv1.conv.weight" type="Convert" version="opset1">
			<data destination_type="f32" />
			<rt_info>
				<attribute name="decompression" version="0" />
			</rt_info>
			<input>
				<port id="0" precision="FP16">
					<dim>64</dim>
					<dim>32</dim>
					<dim>3</dim>
					<dim>3</dim>
				</port>
			</input>
			<output>
				<port id="1" precision="FP32">
					<dim>64</dim>
					<dim>32</dim>
					<dim>3</dim>
					<dim>3</dim>
				</port>
			</output>
		</layer>
		<layer id="54" name="/model/model.3/cv1/conv/Conv/WithoutBiases" type="Convolution" version="opset1">
			<data strides="2, 2" dilations="1, 1" pads_begin="1, 1" pads_end="1, 1" auto_pad="explicit" />
			<input>
				<port id="0" precision="FP32">
					<dim>1</dim>
					<dim>32</dim>
					<dim>103</dim>
					<dim>103</dim>
				</port>
				<port id="1" precision="FP32">
					<dim>64</dim>
					<dim>32</dim>
					<dim>3</dim>
					<dim>3</dim>
				</port>
			</input>
			<output>
				<port id="2" precision="FP32">
					<dim>1</dim>
					<dim>64</dim>
					<dim>52</dim>
					<dim>52</dim>
				</port>
			</output>
		</layer>
		<layer id="55" name="Reshape_30916_compressed" type="Const" version="opset1">
			<data element_type="f16" shape="1, 64, 1, 1" offset="76980" size="128" />
			<output>
				<port id="0" precision="FP16">
					<dim>1</dim>
					<dim>64</dim>
					<dim>1</dim>
					<dim>1</dim>
				</port>
			</output>
		</layer>
		<layer id="56" name="Reshape_30916" type="Convert" version="opset1">
			<data destination_type="f32" />
			<rt_info>
				<attribute name="decompression" version="0" />
			</rt_info>
			<input>
				<port id="0" precision="FP16">
					<dim>1</dim>
					<dim>64</dim>
					<dim>1</dim>
					<dim>1</dim>
				</port>
			</input>
			<output>
				<port id="1" precision="FP32">
					<dim>1</dim>
					<dim>64</dim>
					<dim>1</dim>
					<dim>1</dim>
				</port>
			</output>
		</layer>
		<layer id="57" name="/model/model.3/cv1/conv/Conv" type="Add" version="opset1">
			<data auto_broadcast="numpy" />
			<input>
				<port id="0" precision="FP32">
					<dim>1</dim>
					<dim>64</dim>
					<dim>52</dim>
					<dim>52</dim>
				</port>
				<port id="1" precision="FP32">
					<dim>1</dim>
					<dim>64</dim>
					<dim>1</dim>
					<dim>1</dim>
				</port>
			</input>
			<output>
				<port id="2" precision="FP32" names="/model/model.3/cv1/conv/Conv_output_0">
					<dim>1</dim>
					<dim>64</dim>
					<dim>52</dim>
					<dim>52</dim>
				</port>
			</output>
		</layer>
		<layer id="58" name="/model/model.3/cv1/act/Mul" type="Swish" version="opset4">
			<input>
				<port id="0" precision="FP32">
					<dim>1</dim>
					<dim>64</dim>
					<dim>52</dim>
					<dim>52</dim>
				</port>
			</input>
			<output>
				<port id="1" precision="FP32" names="/model/model.3/cv1/act/Mul_output_0">
					<dim>1</dim>
					<dim>64</dim>
					<dim>52</dim>
					<dim>52</dim>
				</port>
			</output>
		</layer>
		<layer id="59" name="model.model.4.cv1.conv.weight_compressed" type="Const" version="opset1">
			<data element_type="f16" shape="64, 64, 1, 1" offset="77108" size="8192" />
			<output>
				<port id="0" precision="FP16" names="model.model.4.cv1.conv.weight">
					<dim>64</dim>
					<dim>64</dim>
					<dim>1</dim>
					<dim>1</dim>
				</port>
			</output>
		</layer>
		<layer id="60" name="model.model.4.cv1.conv.weight" type="Convert" version="opset1">
			<data destination_type="f32" />
			<rt_info>
				<attribute name="decompression" version="0" />
			</rt_info>
			<input>
				<port id="0" precision="FP16">
					<dim>64</dim>
					<dim>64</dim>
					<dim>1</dim>
					<dim>1</dim>
				</port>
			</input>
			<output>
				<port id="1" precision="FP32">
					<dim>64</dim>
					<dim>64</dim>
					<dim>1</dim>
					<dim>1</dim>
				</port>
			</output>
		</layer>
		<layer id="61" name="/model/model.4/cv1/conv/Conv/WithoutBiases" type="Convolution" version="opset1">
			<data strides="1, 1" dilations="1, 1" pads_begin="0, 0" pads_end="0, 0" auto_pad="explicit" />
			<input>
				<port id="0" precision="FP32">
					<dim>1</dim>
					<dim>64</dim>
					<dim>52</dim>
					<dim>52</dim>
				</port>
				<port id="1" precision="FP32">
					<dim>64</dim>
					<dim>64</dim>
					<dim>1</dim>
					<dim>1</dim>
				</port>
			</input>
			<output>
				<port id="2" precision="FP32">
					<dim>1</dim>
					<dim>64</dim>
					<dim>52</dim>
					<dim>52</dim>
				</port>
			</output>
		</layer>
		<layer id="62" name="Reshape_30933" type="Const" version="opset1">
			<data element_type="f32" shape="1, 64, 1, 1" offset="85300" size="256" />
			<output>
				<port id="0" precision="FP32">
					<dim>1</dim>
					<dim>64</dim>
					<dim>1</dim>
					<dim>1</dim>
				</port>
			</output>
		</layer>
		<layer id="63" name="/model/model.4/cv1/conv/Conv" type="Add" version="opset1">
			<data auto_broadcast="numpy" />
			<input>
				<port id="0" precision="FP32">
					<dim>1</dim>
					<dim>64</dim>
					<dim>52</dim>
					<dim>52</dim>
				</port>
				<port id="1" precision="FP32">
					<dim>1</dim>
					<dim>64</dim>
					<dim>1</dim>
					<dim>1</dim>
				</port>
			</input>
			<output>
				<port id="2" precision="FP32" names="/model/model.4/cv1/conv/Conv_output_0">
					<dim>1</dim>
					<dim>64</dim>
					<dim>52</dim>
					<dim>52</dim>
				</port>
			</output>
		</layer>
		<layer id="64" name="/model/model.4/cv1/act/Mul" type="Swish" version="opset4">
			<input>
				<port id="0" precision="FP32">
					<dim>1</dim>
					<dim>64</dim>
					<dim>52</dim>
					<dim>52</dim>
				</port>
			</input>
			<output>
				<port id="1" precision="FP32" names="/model/model.4/cv1/act/Mul_output_0">
					<dim>1</dim>
					<dim>64</dim>
					<dim>52</dim>
					<dim>52</dim>
				</port>
			</output>
		</layer>
		<layer id="65" name="/model/model.4/Slice" type="Slice" version="opset8">
			<input>
				<port id="0" precision="FP32">
					<dim>1</dim>
					<dim>64</dim>
					<dim>52</dim>
					<dim>52</dim>
				</port>
				<port id="1" precision="I64">
					<dim>1</dim>
				</port>
				<port id="2" precision="I64">
					<dim>1</dim>
				</port>
				<port id="3" precision="I64">
					<dim>1</dim>
				</port>
				<port id="4" precision="I64">
					<dim>1</dim>
				</port>
			</input>
			<output>
				<port id="5" precision="FP32" names="/model/model.4/Slice_output_0">
					<dim>1</dim>
					<dim>32</dim>
					<dim>52</dim>
					<dim>52</dim>
				</port>
			</output>
		</layer>
		<layer id="66" name="/model/model.4/Mul_1_output_0" type="Const" version="opset1">
			<data element_type="i64" shape="1" offset="85556" size="8" />
			<output>
				<port id="0" precision="I64" names="/model/model.4/Mul_1_output_0">
					<dim>1</dim>
				</port>
			</output>
		</layer>
		<layer id="67" name="Broadcast_30947" type="Const" version="opset1">
			<data element_type="i64" shape="1" offset="26628" size="8" />
			<output>
				<port id="0" precision="I64">
					<dim>1</dim>
				</port>
			</output>
		</layer>
		<layer id="68" name="/model/model.4/Slice_1" type="Slice" version="opset8">
			<input>
				<port id="0" precision="FP32">
					<dim>1</dim>
					<dim>64</dim>
					<dim>52</dim>
					<dim>52</dim>
				</port>
				<port id="1" precision="I64">
					<dim>1</dim>
				</port>
				<port id="2" precision="I64">
					<dim>1</dim>
				</port>
				<port id="3" precision="I64">
					<dim>1</dim>
				</port>
				<port id="4" precision="I64">
					<dim>1</dim>
				</port>
			</input>
			<output>
				<port id="5" precision="FP32" names="/model/model.4/Slice_1_output_0">
					<dim>1</dim>
					<dim>32</dim>
					<dim>52</dim>
					<dim>52</dim>
				</port>
			</output>
		</layer>
		<layer id="69" name="model.model.4.cv2.0.cv1.conv.weight_compressed" type="Const" version="opset1">
			<data element_type="f16" shape="16, 32, 1, 1" offset="85564" size="1024" />
			<output>
				<port id="0" precision="FP16" names="model.model.4.cv2.0.cv1.conv.weight">
					<dim>16</dim>
					<dim>32</dim>
					<dim>1</dim>
					<dim>1</dim>
				</port>
			</output>
		</layer>
		<layer id="70" name="model.model.4.cv2.0.cv1.conv.weight" type="Convert" version="opset1">
			<data destination_type="f32" />
			<rt_info>
				<attribute name="decompression" version="0" />
			</rt_info>
			<input>
				<port id="0" precision="FP16">
					<dim>16</dim>
					<dim>32</dim>
					<dim>1</dim>
					<dim>1</dim>
				</port>
			</input>
			<output>
				<port id="1" precision="FP32">
					<dim>16</dim>
					<dim>32</dim>
					<dim>1</dim>
					<dim>1</dim>
				</port>
			</output>
		</layer>
		<layer id="71" name="/model/model.4/cv2/cv2.0/cv1/conv/Conv/WithoutBiases" type="Convolution" version="opset1">
			<data strides="1, 1" dilations="1, 1" pads_begin="0, 0" pads_end="0, 0" auto_pad="explicit" />
			<input>
				<port id="0" precision="FP32">
					<dim>1</dim>
					<dim>32</dim>
					<dim>52</dim>
					<dim>52</dim>
				</port>
				<port id="1" precision="FP32">
					<dim>16</dim>
					<dim>32</dim>
					<dim>1</dim>
					<dim>1</dim>
				</port>
			</input>
			<output>
				<port id="2" precision="FP32">
					<dim>1</dim>
					<dim>16</dim>
					<dim>52</dim>
					<dim>52</dim>
				</port>
			</output>
		</layer>
		<layer id="72" name="Reshape_30965_compressed" type="Const" version="opset1">
			<data element_type="f16" shape="1, 16, 1, 1" offset="86588" size="32" />
			<output>
				<port id="0" precision="FP16">
					<dim>1</dim>
					<dim>16</dim>
					<dim>1</dim>
					<dim>1</dim>
				</port>
			</output>
		</layer>
		<layer id="73" name="Reshape_30965" type="Convert" version="opset1">
			<data destination_type="f32" />
			<rt_info>
				<attribute name="decompression" version="0" />
			</rt_info>
			<input>
				<port id="0" precision="FP16">
					<dim>1</dim>
					<dim>16</dim>
					<dim>1</dim>
					<dim>1</dim>
				</port>
			</input>
			<output>
				<port id="1" precision="FP32">
					<dim>1</dim>
					<dim>16</dim>
					<dim>1</dim>
					<dim>1</dim>
				</port>
			</output>
		</layer>
		<layer id="74" name="/model/model.4/cv2/cv2.0/cv1/conv/Conv" type="Add" version="opset1">
			<data auto_broadcast="numpy" />
			<input>
				<port id="0" precision="FP32">
					<dim>1</dim>
					<dim>16</dim>
					<dim>52</dim>
					<dim>52</dim>
				</port>
				<port id="1" precision="FP32">
					<dim>1</dim>
					<dim>16</dim>
					<dim>1</dim>
					<dim>1</dim>
				</port>
			</input>
			<output>
				<port id="2" precision="FP32" names="/model/model.4/cv2/cv2.0/cv1/conv/Conv_output_0">
					<dim>1</dim>
					<dim>16</dim>
					<dim>52</dim>
					<dim>52</dim>
				</port>
			</output>
		</layer>
		<layer id="75" name="/model/model.4/cv2/cv2.0/cv1/act/Mul" type="Swish" version="opset4">
			<input>
				<port id="0" precision="FP32">
					<dim>1</dim>
					<dim>16</dim>
					<dim>52</dim>
					<dim>52</dim>
				</port>
			</input>
			<output>
				<port id="1" precision="FP32" names="/model/model.4/cv2/cv2.0/cv1/act/Mul_output_0">
					<dim>1</dim>
					<dim>16</dim>
					<dim>52</dim>
					<dim>52</dim>
				</port>
			</output>
		</layer>
		<layer id="76" name="model.model.4.cv2.0.m.0.cv1.conv.weight_compressed" type="Const" version="opset1">
			<data element_type="f16" shape="16, 16, 3, 3" offset="86620" size="4608" />
			<output>
				<port id="0" precision="FP16" names="model.model.4.cv2.0.m.0.cv1.conv.weight">
					<dim>16</dim>
					<dim>16</dim>
					<dim>3</dim>
					<dim>3</dim>
				</port>
			</output>
		</layer>
		<layer id="77" name="model.model.4.cv2.0.m.0.cv1.conv.weight" type="Convert" version="opset1">
			<data destination_type="f32" />
			<rt_info>
				<attribute name="decompression" version="0" />
			</rt_info>
			<input>
				<port id="0" precision="FP16">
					<dim>16</dim>
					<dim>16</dim>
					<dim>3</dim>
					<dim>3</dim>
				</port>
			</input>
			<output>
				<port id="1" precision="FP32">
					<dim>16</dim>
					<dim>16</dim>
					<dim>3</dim>
					<dim>3</dim>
				</port>
			</output>
		</layer>
		<layer id="78" name="/model/model.4/cv2/cv2.0/m/m.0/cv1/conv/Conv/WithoutBiases" type="Convolution" version="opset1">
			<data strides="1, 1" dilations="1, 1" pads_begin="1, 1" pads_end="1, 1" auto_pad="explicit" />
			<input>
				<port id="0" precision="FP32">
					<dim>1</dim>
					<dim>16</dim>
					<dim>52</dim>
					<dim>52</dim>
				</port>
				<port id="1" precision="FP32">
					<dim>16</dim>
					<dim>16</dim>
					<dim>3</dim>
					<dim>3</dim>
				</port>
			</input>
			<output>
				<port id="2" precision="FP32">
					<dim>1</dim>
					<dim>16</dim>
					<dim>52</dim>
					<dim>52</dim>
				</port>
			</output>
		</layer>
		<layer id="79" name="Reshape_30999" type="Const" version="opset1">
			<data element_type="f32" shape="1, 16, 1, 1" offset="91228" size="64" />
			<output>
				<port id="0" precision="FP32">
					<dim>1</dim>
					<dim>16</dim>
					<dim>1</dim>
					<dim>1</dim>
				</port>
			</output>
		</layer>
		<layer id="80" name="/model/model.4/cv2/cv2.0/m/m.0/cv1/conv/Conv" type="Add" version="opset1">
			<data auto_broadcast="numpy" />
			<input>
				<port id="0" precision="FP32">
					<dim>1</dim>
					<dim>16</dim>
					<dim>52</dim>
					<dim>52</dim>
				</port>
				<port id="1" precision="FP32">
					<dim>1</dim>
					<dim>16</dim>
					<dim>1</dim>
					<dim>1</dim>
				</port>
			</input>
			<output>
				<port id="2" precision="FP32" names="/model/model.4/cv2/cv2.0/m/m.0/cv1/conv/Conv_output_0">
					<dim>1</dim>
					<dim>16</dim>
					<dim>52</dim>
					<dim>52</dim>
				</port>
			</output>
		</layer>
		<layer id="81" name="/model/model.4/cv2/cv2.0/m/m.0/cv1/act/Mul" type="Swish" version="opset4">
			<input>
				<port id="0" precision="FP32">
					<dim>1</dim>
					<dim>16</dim>
					<dim>52</dim>
					<dim>52</dim>
				</port>
			</input>
			<output>
				<port id="1" precision="FP32" names="/model/model.4/cv2/cv2.0/m/m.0/cv1/act/Mul_output_0">
					<dim>1</dim>
					<dim>16</dim>
					<dim>52</dim>
					<dim>52</dim>
				</port>
			</output>
		</layer>
		<layer id="82" name="model.model.4.cv2.0.m.0.cv2.conv.weight_compressed" type="Const" version="opset1">
			<data element_type="f16" shape="16, 16, 3, 3" offset="91292" size="4608" />
			<output>
				<port id="0" precision="FP16" names="model.model.4.cv2.0.m.0.cv2.conv.weight">
					<dim>16</dim>
					<dim>16</dim>
					<dim>3</dim>
					<dim>3</dim>
				</port>
			</output>
		</layer>
		<layer id="83" name="model.model.4.cv2.0.m.0.cv2.conv.weight" type="Convert" version="opset1">
			<data destination_type="f32" />
			<rt_info>
				<attribute name="decompression" version="0" />
			</rt_info>
			<input>
				<port id="0" precision="FP16">
					<dim>16</dim>
					<dim>16</dim>
					<dim>3</dim>
					<dim>3</dim>
				</port>
			</input>
			<output>
				<port id="1" precision="FP32">
					<dim>16</dim>
					<dim>16</dim>
					<dim>3</dim>
					<dim>3</dim>
				</port>
			</output>
		</layer>
		<layer id="84" name="/model/model.4/cv2/cv2.0/m/m.0/cv2/conv/Conv/WithoutBiases" type="Convolution" version="opset1">
			<data strides="1, 1" dilations="1, 1" pads_begin="1, 1" pads_end="1, 1" auto_pad="explicit" />
			<input>
				<port id="0" precision="FP32">
					<dim>1</dim>
					<dim>16</dim>
					<dim>52</dim>
					<dim>52</dim>
				</port>
				<port id="1" precision="FP32">
					<dim>16</dim>
					<dim>16</dim>
					<dim>3</dim>
					<dim>3</dim>
				</port>
			</input>
			<output>
				<port id="2" precision="FP32">
					<dim>1</dim>
					<dim>16</dim>
					<dim>52</dim>
					<dim>52</dim>
				</port>
			</output>
		</layer>
		<layer id="85" name="Reshape_31016" type="Const" version="opset1">
			<data element_type="f32" shape="1, 16, 1, 1" offset="95900" size="64" />
			<output>
				<port id="0" precision="FP32">
					<dim>1</dim>
					<dim>16</dim>
					<dim>1</dim>
					<dim>1</dim>
				</port>
			</output>
		</layer>
		<layer id="86" name="/model/model.4/cv2/cv2.0/m/m.0/cv2/conv/Conv" type="Add" version="opset1">
			<data auto_broadcast="numpy" />
			<input>
				<port id="0" precision="FP32">
					<dim>1</dim>
					<dim>16</dim>
					<dim>52</dim>
					<dim>52</dim>
				</port>
				<port id="1" precision="FP32">
					<dim>1</dim>
					<dim>16</dim>
					<dim>1</dim>
					<dim>1</dim>
				</port>
			</input>
			<output>
				<port id="2" precision="FP32" names="/model/model.4/cv2/cv2.0/m/m.0/cv2/conv/Conv_output_0">
					<dim>1</dim>
					<dim>16</dim>
					<dim>52</dim>
					<dim>52</dim>
				</port>
			</output>
		</layer>
		<layer id="87" name="/model/model.4/cv2/cv2.0/m/m.0/cv2/act/Mul" type="Swish" version="opset4">
			<input>
				<port id="0" precision="FP32">
					<dim>1</dim>
					<dim>16</dim>
					<dim>52</dim>
					<dim>52</dim>
				</port>
			</input>
			<output>
				<port id="1" precision="FP32" names="/model/model.4/cv2/cv2.0/m/m.0/cv2/act/Mul_output_0">
					<dim>1</dim>
					<dim>16</dim>
					<dim>52</dim>
					<dim>52</dim>
				</port>
			</output>
		</layer>
		<layer id="88" name="/model/model.4/cv2/cv2.0/m/m.0/Add" type="Add" version="opset1">
			<data auto_broadcast="numpy" />
			<input>
				<port id="0" precision="FP32">
					<dim>1</dim>
					<dim>16</dim>
					<dim>52</dim>
					<dim>52</dim>
				</port>
				<port id="1" precision="FP32">
					<dim>1</dim>
					<dim>16</dim>
					<dim>52</dim>
					<dim>52</dim>
				</port>
			</input>
			<output>
				<port id="2" precision="FP32" names="/model/model.4/cv2/cv2.0/m/m.0/Add_output_0">
					<dim>1</dim>
					<dim>16</dim>
					<dim>52</dim>
					<dim>52</dim>
				</port>
			</output>
		</layer>
		<layer id="89" name="model.model.4.cv2.0.m.1.cv1.conv.weight_compressed" type="Const" version="opset1">
			<data element_type="f16" shape="16, 16, 3, 3" offset="95964" size="4608" />
			<output>
				<port id="0" precision="FP16" names="model.model.4.cv2.0.m.1.cv1.conv.weight">
					<dim>16</dim>
					<dim>16</dim>
					<dim>3</dim>
					<dim>3</dim>
				</port>
			</output>
		</layer>
		<layer id="90" name="model.model.4.cv2.0.m.1.cv1.conv.weight" type="Convert" version="opset1">
			<data destination_type="f32" />
			<rt_info>
				<attribute name="decompression" version="0" />
			</rt_info>
			<input>
				<port id="0" precision="FP16">
					<dim>16</dim>
					<dim>16</dim>
					<dim>3</dim>
					<dim>3</dim>
				</port>
			</input>
			<output>
				<port id="1" precision="FP32">
					<dim>16</dim>
					<dim>16</dim>
					<dim>3</dim>
					<dim>3</dim>
				</port>
			</output>
		</layer>
		<layer id="91" name="/model/model.4/cv2/cv2.0/m/m.1/cv1/conv/Conv/WithoutBiases" type="Convolution" version="opset1">
			<data strides="1, 1" dilations="1, 1" pads_begin="1, 1" pads_end="1, 1" auto_pad="explicit" />
			<input>
				<port id="0" precision="FP32">
					<dim>1</dim>
					<dim>16</dim>
					<dim>52</dim>
					<dim>52</dim>
				</port>
				<port id="1" precision="FP32">
					<dim>16</dim>
					<dim>16</dim>
					<dim>3</dim>
					<dim>3</dim>
				</port>
			</input>
			<output>
				<port id="2" precision="FP32">
					<dim>1</dim>
					<dim>16</dim>
					<dim>52</dim>
					<dim>52</dim>
				</port>
			</output>
		</layer>
		<layer id="92" name="Reshape_31034" type="Const" version="opset1">
			<data element_type="f32" shape="1, 16, 1, 1" offset="100572" size="64" />
			<output>
				<port id="0" precision="FP32">
					<dim>1</dim>
					<dim>16</dim>
					<dim>1</dim>
					<dim>1</dim>
				</port>
			</output>
		</layer>
		<layer id="93" name="/model/model.4/cv2/cv2.0/m/m.1/cv1/conv/Conv" type="Add" version="opset1">
			<data auto_broadcast="numpy" />
			<input>
				<port id="0" precision="FP32">
					<dim>1</dim>
					<dim>16</dim>
					<dim>52</dim>
					<dim>52</dim>
				</port>
				<port id="1" precision="FP32">
					<dim>1</dim>
					<dim>16</dim>
					<dim>1</dim>
					<dim>1</dim>
				</port>
			</input>
			<output>
				<port id="2" precision="FP32" names="/model/model.4/cv2/cv2.0/m/m.1/cv1/conv/Conv_output_0">
					<dim>1</dim>
					<dim>16</dim>
					<dim>52</dim>
					<dim>52</dim>
				</port>
			</output>
		</layer>
		<layer id="94" name="/model/model.4/cv2/cv2.0/m/m.1/cv1/act/Mul" type="Swish" version="opset4">
			<input>
				<port id="0" precision="FP32">
					<dim>1</dim>
					<dim>16</dim>
					<dim>52</dim>
					<dim>52</dim>
				</port>
			</input>
			<output>
				<port id="1" precision="FP32" names="/model/model.4/cv2/cv2.0/m/m.1/cv1/act/Mul_output_0">
					<dim>1</dim>
					<dim>16</dim>
					<dim>52</dim>
					<dim>52</dim>
				</port>
			</output>
		</layer>
		<layer id="95" name="model.model.4.cv2.0.m.1.cv2.conv.weight_compressed" type="Const" version="opset1">
			<data element_type="f16" shape="16, 16, 3, 3" offset="100636" size="4608" />
			<output>
				<port id="0" precision="FP16" names="model.model.4.cv2.0.m.1.cv2.conv.weight">
					<dim>16</dim>
					<dim>16</dim>
					<dim>3</dim>
					<dim>3</dim>
				</port>
			</output>
		</layer>
		<layer id="96" name="model.model.4.cv2.0.m.1.cv2.conv.weight" type="Convert" version="opset1">
			<data destination_type="f32" />
			<rt_info>
				<attribute name="decompression" version="0" />
			</rt_info>
			<input>
				<port id="0" precision="FP16">
					<dim>16</dim>
					<dim>16</dim>
					<dim>3</dim>
					<dim>3</dim>
				</port>
			</input>
			<output>
				<port id="1" precision="FP32">
					<dim>16</dim>
					<dim>16</dim>
					<dim>3</dim>
					<dim>3</dim>
				</port>
			</output>
		</layer>
		<layer id="97" name="/model/model.4/cv2/cv2.0/m/m.1/cv2/conv/Conv/WithoutBiases" type="Convolution" version="opset1">
			<data strides="1, 1" dilations="1, 1" pads_begin="1, 1" pads_end="1, 1" auto_pad="explicit" />
			<input>
				<port id="0" precision="FP32">
					<dim>1</dim>
					<dim>16</dim>
					<dim>52</dim>
					<dim>52</dim>
				</port>
				<port id="1" precision="FP32">
					<dim>16</dim>
					<dim>16</dim>
					<dim>3</dim>
					<dim>3</dim>
				</port>
			</input>
			<output>
				<port id="2" precision="FP32">
					<dim>1</dim>
					<dim>16</dim>
					<dim>52</dim>
					<dim>52</dim>
				</port>
			</output>
		</layer>
		<layer id="98" name="Reshape_31051" type="Const" version="opset1">
			<data element_type="f32" shape="1, 16, 1, 1" offset="105244" size="64" />
			<output>
				<port id="0" precision="FP32">
					<dim>1</dim>
					<dim>16</dim>
					<dim>1</dim>
					<dim>1</dim>
				</port>
			</output>
		</layer>
		<layer id="99" name="/model/model.4/cv2/cv2.0/m/m.1/cv2/conv/Conv" type="Add" version="opset1">
			<data auto_broadcast="numpy" />
			<input>
				<port id="0" precision="FP32">
					<dim>1</dim>
					<dim>16</dim>
					<dim>52</dim>
					<dim>52</dim>
				</port>
				<port id="1" precision="FP32">
					<dim>1</dim>
					<dim>16</dim>
					<dim>1</dim>
					<dim>1</dim>
				</port>
			</input>
			<output>
				<port id="2" precision="FP32" names="/model/model.4/cv2/cv2.0/m/m.1/cv2/conv/Conv_output_0">
					<dim>1</dim>
					<dim>16</dim>
					<dim>52</dim>
					<dim>52</dim>
				</port>
			</output>
		</layer>
		<layer id="100" name="/model/model.4/cv2/cv2.0/m/m.1/cv2/act/Mul" type="Swish" version="opset4">
			<input>
				<port id="0" precision="FP32">
					<dim>1</dim>
					<dim>16</dim>
					<dim>52</dim>
					<dim>52</dim>
				</port>
			</input>
			<output>
				<port id="1" precision="FP32" names="/model/model.4/cv2/cv2.0/m/m.1/cv2/act/Mul_output_0">
					<dim>1</dim>
					<dim>16</dim>
					<dim>52</dim>
					<dim>52</dim>
				</port>
			</output>
		</layer>
		<layer id="101" name="/model/model.4/cv2/cv2.0/m/m.1/Add" type="Add" version="opset1">
			<data auto_broadcast="numpy" />
			<input>
				<port id="0" precision="FP32">
					<dim>1</dim>
					<dim>16</dim>
					<dim>52</dim>
					<dim>52</dim>
				</port>
				<port id="1" precision="FP32">
					<dim>1</dim>
					<dim>16</dim>
					<dim>52</dim>
					<dim>52</dim>
				</port>
			</input>
			<output>
				<port id="2" precision="FP32" names="/model/model.4/cv2/cv2.0/m/m.1/Add_output_0">
					<dim>1</dim>
					<dim>16</dim>
					<dim>52</dim>
					<dim>52</dim>
				</port>
			</output>
		</layer>
		<layer id="102" name="model.model.4.cv2.0.m.2.cv1.conv.weight_compressed" type="Const" version="opset1">
			<data element_type="f16" shape="16, 16, 3, 3" offset="105308" size="4608" />
			<output>
				<port id="0" precision="FP16" names="model.model.4.cv2.0.m.2.cv1.conv.weight">
					<dim>16</dim>
					<dim>16</dim>
					<dim>3</dim>
					<dim>3</dim>
				</port>
			</output>
		</layer>
		<layer id="103" name="model.model.4.cv2.0.m.2.cv1.conv.weight" type="Convert" version="opset1">
			<data destination_type="f32" />
			<rt_info>
				<attribute name="decompression" version="0" />
			</rt_info>
			<input>
				<port id="0" precision="FP16">
					<dim>16</dim>
					<dim>16</dim>
					<dim>3</dim>
					<dim>3</dim>
				</port>
			</input>
			<output>
				<port id="1" precision="FP32">
					<dim>16</dim>
					<dim>16</dim>
					<dim>3</dim>
					<dim>3</dim>
				</port>
			</output>
		</layer>
		<layer id="104" name="/model/model.4/cv2/cv2.0/m/m.2/cv1/conv/Conv/WithoutBiases" type="Convolution" version="opset1">
			<data strides="1, 1" dilations="1, 1" pads_begin="1, 1" pads_end="1, 1" auto_pad="explicit" />
			<input>
				<port id="0" precision="FP32">
					<dim>1</dim>
					<dim>16</dim>
					<dim>52</dim>
					<dim>52</dim>
				</port>
				<port id="1" precision="FP32">
					<dim>16</dim>
					<dim>16</dim>
					<dim>3</dim>
					<dim>3</dim>
				</port>
			</input>
			<output>
				<port id="2" precision="FP32">
					<dim>1</dim>
					<dim>16</dim>
					<dim>52</dim>
					<dim>52</dim>
				</port>
			</output>
		</layer>
		<layer id="105" name="Reshape_31069" type="Const" version="opset1">
			<data element_type="f32" shape="1, 16, 1, 1" offset="109916" size="64" />
			<output>
				<port id="0" precision="FP32">
					<dim>1</dim>
					<dim>16</dim>
					<dim>1</dim>
					<dim>1</dim>
				</port>
			</output>
		</layer>
		<layer id="106" name="/model/model.4/cv2/cv2.0/m/m.2/cv1/conv/Conv" type="Add" version="opset1">
			<data auto_broadcast="numpy" />
			<input>
				<port id="0" precision="FP32">
					<dim>1</dim>
					<dim>16</dim>
					<dim>52</dim>
					<dim>52</dim>
				</port>
				<port id="1" precision="FP32">
					<dim>1</dim>
					<dim>16</dim>
					<dim>1</dim>
					<dim>1</dim>
				</port>
			</input>
			<output>
				<port id="2" precision="FP32" names="/model/model.4/cv2/cv2.0/m/m.2/cv1/conv/Conv_output_0">
					<dim>1</dim>
					<dim>16</dim>
					<dim>52</dim>
					<dim>52</dim>
				</port>
			</output>
		</layer>
		<layer id="107" name="/model/model.4/cv2/cv2.0/m/m.2/cv1/act/Mul" type="Swish" version="opset4">
			<input>
				<port id="0" precision="FP32">
					<dim>1</dim>
					<dim>16</dim>
					<dim>52</dim>
					<dim>52</dim>
				</port>
			</input>
			<output>
				<port id="1" precision="FP32" names="/model/model.4/cv2/cv2.0/m/m.2/cv1/act/Mul_output_0">
					<dim>1</dim>
					<dim>16</dim>
					<dim>52</dim>
					<dim>52</dim>
				</port>
			</output>
		</layer>
		<layer id="108" name="model.model.4.cv2.0.m.2.cv2.conv.weight_compressed" type="Const" version="opset1">
			<data element_type="f16" shape="16, 16, 3, 3" offset="109980" size="4608" />
			<output>
				<port id="0" precision="FP16" names="model.model.4.cv2.0.m.2.cv2.conv.weight">
					<dim>16</dim>
					<dim>16</dim>
					<dim>3</dim>
					<dim>3</dim>
				</port>
			</output>
		</layer>
		<layer id="109" name="model.model.4.cv2.0.m.2.cv2.conv.weight" type="Convert" version="opset1">
			<data destination_type="f32" />
			<rt_info>
				<attribute name="decompression" version="0" />
			</rt_info>
			<input>
				<port id="0" precision="FP16">
					<dim>16</dim>
					<dim>16</dim>
					<dim>3</dim>
					<dim>3</dim>
				</port>
			</input>
			<output>
				<port id="1" precision="FP32">
					<dim>16</dim>
					<dim>16</dim>
					<dim>3</dim>
					<dim>3</dim>
				</port>
			</output>
		</layer>
		<layer id="110" name="/model/model.4/cv2/cv2.0/m/m.2/cv2/conv/Conv/WithoutBiases" type="Convolution" version="opset1">
			<data strides="1, 1" dilations="1, 1" pads_begin="1, 1" pads_end="1, 1" auto_pad="explicit" />
			<input>
				<port id="0" precision="FP32">
					<dim>1</dim>
					<dim>16</dim>
					<dim>52</dim>
					<dim>52</dim>
				</port>
				<port id="1" precision="FP32">
					<dim>16</dim>
					<dim>16</dim>
					<dim>3</dim>
					<dim>3</dim>
				</port>
			</input>
			<output>
				<port id="2" precision="FP32">
					<dim>1</dim>
					<dim>16</dim>
					<dim>52</dim>
					<dim>52</dim>
				</port>
			</output>
		</layer>
		<layer id="111" name="Reshape_31086_compressed" type="Const" version="opset1">
			<data element_type="f16" shape="1, 16, 1, 1" offset="114588" size="32" />
			<output>
				<port id="0" precision="FP16">
					<dim>1</dim>
					<dim>16</dim>
					<dim>1</dim>
					<dim>1</dim>
				</port>
			</output>
		</layer>
		<layer id="112" name="Reshape_31086" type="Convert" version="opset1">
			<data destination_type="f32" />
			<rt_info>
				<attribute name="decompression" version="0" />
			</rt_info>
			<input>
				<port id="0" precision="FP16">
					<dim>1</dim>
					<dim>16</dim>
					<dim>1</dim>
					<dim>1</dim>
				</port>
			</input>
			<output>
				<port id="1" precision="FP32">
					<dim>1</dim>
					<dim>16</dim>
					<dim>1</dim>
					<dim>1</dim>
				</port>
			</output>
		</layer>
		<layer id="113" name="/model/model.4/cv2/cv2.0/m/m.2/cv2/conv/Conv" type="Add" version="opset1">
			<data auto_broadcast="numpy" />
			<input>
				<port id="0" precision="FP32">
					<dim>1</dim>
					<dim>16</dim>
					<dim>52</dim>
					<dim>52</dim>
				</port>
				<port id="1" precision="FP32">
					<dim>1</dim>
					<dim>16</dim>
					<dim>1</dim>
					<dim>1</dim>
				</port>
			</input>
			<output>
				<port id="2" precision="FP32" names="/model/model.4/cv2/cv2.0/m/m.2/cv2/conv/Conv_output_0">
					<dim>1</dim>
					<dim>16</dim>
					<dim>52</dim>
					<dim>52</dim>
				</port>
			</output>
		</layer>
		<layer id="114" name="/model/model.4/cv2/cv2.0/m/m.2/cv2/act/Mul" type="Swish" version="opset4">
			<input>
				<port id="0" precision="FP32">
					<dim>1</dim>
					<dim>16</dim>
					<dim>52</dim>
					<dim>52</dim>
				</port>
			</input>
			<output>
				<port id="1" precision="FP32" names="/model/model.4/cv2/cv2.0/m/m.2/cv2/act/Mul_output_0">
					<dim>1</dim>
					<dim>16</dim>
					<dim>52</dim>
					<dim>52</dim>
				</port>
			</output>
		</layer>
		<layer id="115" name="/model/model.4/cv2/cv2.0/m/m.2/Add" type="Add" version="opset1">
			<data auto_broadcast="numpy" />
			<input>
				<port id="0" precision="FP32">
					<dim>1</dim>
					<dim>16</dim>
					<dim>52</dim>
					<dim>52</dim>
				</port>
				<port id="1" precision="FP32">
					<dim>1</dim>
					<dim>16</dim>
					<dim>52</dim>
					<dim>52</dim>
				</port>
			</input>
			<output>
				<port id="2" precision="FP32" names="/model/model.4/cv2/cv2.0/m/m.2/Add_output_0">
					<dim>1</dim>
					<dim>16</dim>
					<dim>52</dim>
					<dim>52</dim>
				</port>
			</output>
		</layer>
		<layer id="116" name="model.model.4.cv2.0.cv2.conv.weight_compressed" type="Const" version="opset1">
			<data element_type="f16" shape="16, 32, 1, 1" offset="114620" size="1024" />
			<output>
				<port id="0" precision="FP16" names="model.model.4.cv2.0.cv2.conv.weight">
					<dim>16</dim>
					<dim>32</dim>
					<dim>1</dim>
					<dim>1</dim>
				</port>
			</output>
		</layer>
		<layer id="117" name="model.model.4.cv2.0.cv2.conv.weight" type="Convert" version="opset1">
			<data destination_type="f32" />
			<rt_info>
				<attribute name="decompression" version="0" />
			</rt_info>
			<input>
				<port id="0" precision="FP16">
					<dim>16</dim>
					<dim>32</dim>
					<dim>1</dim>
					<dim>1</dim>
				</port>
			</input>
			<output>
				<port id="1" precision="FP32">
					<dim>16</dim>
					<dim>32</dim>
					<dim>1</dim>
					<dim>1</dim>
				</port>
			</output>
		</layer>
		<layer id="118" name="/model/model.4/cv2/cv2.0/cv2/conv/Conv/WithoutBiases" type="Convolution" version="opset1">
			<data strides="1, 1" dilations="1, 1" pads_begin="0, 0" pads_end="0, 0" auto_pad="explicit" />
			<input>
				<port id="0" precision="FP32">
					<dim>1</dim>
					<dim>32</dim>
					<dim>52</dim>
					<dim>52</dim>
				</port>
				<port id="1" precision="FP32">
					<dim>16</dim>
					<dim>32</dim>
					<dim>1</dim>
					<dim>1</dim>
				</port>
			</input>
			<output>
				<port id="2" precision="FP32">
					<dim>1</dim>
					<dim>16</dim>
					<dim>52</dim>
					<dim>52</dim>
				</port>
			</output>
		</layer>
		<layer id="119" name="Reshape_30980_compressed" type="Const" version="opset1">
			<data element_type="f16" shape="1, 16, 1, 1" offset="115644" size="32" />
			<output>
				<port id="0" precision="FP16">
					<dim>1</dim>
					<dim>16</dim>
					<dim>1</dim>
					<dim>1</dim>
				</port>
			</output>
		</layer>
		<layer id="120" name="Reshape_30980" type="Convert" version="opset1">
			<data destination_type="f32" />
			<rt_info>
				<attribute name="decompression" version="0" />
			</rt_info>
			<input>
				<port id="0" precision="FP16">
					<dim>1</dim>
					<dim>16</dim>
					<dim>1</dim>
					<dim>1</dim>
				</port>
			</input>
			<output>
				<port id="1" precision="FP32">
					<dim>1</dim>
					<dim>16</dim>
					<dim>1</dim>
					<dim>1</dim>
				</port>
			</output>
		</layer>
		<layer id="121" name="/model/model.4/cv2/cv2.0/cv2/conv/Conv" type="Add" version="opset1">
			<data auto_broadcast="numpy" />
			<input>
				<port id="0" precision="FP32">
					<dim>1</dim>
					<dim>16</dim>
					<dim>52</dim>
					<dim>52</dim>
				</port>
				<port id="1" precision="FP32">
					<dim>1</dim>
					<dim>16</dim>
					<dim>1</dim>
					<dim>1</dim>
				</port>
			</input>
			<output>
				<port id="2" precision="FP32" names="/model/model.4/cv2/cv2.0/cv2/conv/Conv_output_0">
					<dim>1</dim>
					<dim>16</dim>
					<dim>52</dim>
					<dim>52</dim>
				</port>
			</output>
		</layer>
		<layer id="122" name="/model/model.4/cv2/cv2.0/cv2/act/Mul" type="Swish" version="opset4">
			<input>
				<port id="0" precision="FP32">
					<dim>1</dim>
					<dim>16</dim>
					<dim>52</dim>
					<dim>52</dim>
				</port>
			</input>
			<output>
				<port id="1" precision="FP32" names="/model/model.4/cv2/cv2.0/cv2/act/Mul_output_0">
					<dim>1</dim>
					<dim>16</dim>
					<dim>52</dim>
					<dim>52</dim>
				</port>
			</output>
		</layer>
		<layer id="123" name="/model/model.4/cv2/cv2.0/Concat" type="Concat" version="opset1">
			<data axis="1" />
			<input>
				<port id="0" precision="FP32">
					<dim>1</dim>
					<dim>16</dim>
					<dim>52</dim>
					<dim>52</dim>
				</port>
				<port id="1" precision="FP32">
					<dim>1</dim>
					<dim>16</dim>
					<dim>52</dim>
					<dim>52</dim>
				</port>
			</input>
			<output>
				<port id="2" precision="FP32" names="/model/model.4/cv2/cv2.0/Concat_output_0">
					<dim>1</dim>
					<dim>32</dim>
					<dim>52</dim>
					<dim>52</dim>
				</port>
			</output>
		</layer>
		<layer id="124" name="model.model.4.cv2.0.cv3.conv.weight_compressed" type="Const" version="opset1">
			<data element_type="f16" shape="32, 32, 1, 1" offset="115676" size="2048" />
			<output>
				<port id="0" precision="FP16" names="model.model.4.cv2.0.cv3.conv.weight">
					<dim>32</dim>
					<dim>32</dim>
					<dim>1</dim>
					<dim>1</dim>
				</port>
			</output>
		</layer>
		<layer id="125" name="model.model.4.cv2.0.cv3.conv.weight" type="Convert" version="opset1">
			<data destination_type="f32" />
			<rt_info>
				<attribute name="decompression" version="0" />
			</rt_info>
			<input>
				<port id="0" precision="FP16">
					<dim>32</dim>
					<dim>32</dim>
					<dim>1</dim>
					<dim>1</dim>
				</port>
			</input>
			<output>
				<port id="1" precision="FP32">
					<dim>32</dim>
					<dim>32</dim>
					<dim>1</dim>
					<dim>1</dim>
				</port>
			</output>
		</layer>
		<layer id="126" name="/model/model.4/cv2/cv2.0/cv3/conv/Conv/WithoutBiases" type="Convolution" version="opset1">
			<data strides="1, 1" dilations="1, 1" pads_begin="0, 0" pads_end="0, 0" auto_pad="explicit" />
			<input>
				<port id="0" precision="FP32">
					<dim>1</dim>
					<dim>32</dim>
					<dim>52</dim>
					<dim>52</dim>
				</port>
				<port id="1" precision="FP32">
					<dim>32</dim>
					<dim>32</dim>
					<dim>1</dim>
					<dim>1</dim>
				</port>
			</input>
			<output>
				<port id="2" precision="FP32">
					<dim>1</dim>
					<dim>32</dim>
					<dim>52</dim>
					<dim>52</dim>
				</port>
			</output>
		</layer>
		<layer id="127" name="Reshape_31105" type="Const" version="opset1">
			<data element_type="f32" shape="1, 32, 1, 1" offset="117724" size="128" />
			<output>
				<port id="0" precision="FP32">
					<dim>1</dim>
					<dim>32</dim>
					<dim>1</dim>
					<dim>1</dim>
				</port>
			</output>
		</layer>
		<layer id="128" name="/model/model.4/cv2/cv2.0/cv3/conv/Conv" type="Add" version="opset1">
			<data auto_broadcast="numpy" />
			<input>
				<port id="0" precision="FP32">
					<dim>1</dim>
					<dim>32</dim>
					<dim>52</dim>
					<dim>52</dim>
				</port>
				<port id="1" precision="FP32">
					<dim>1</dim>
					<dim>32</dim>
					<dim>1</dim>
					<dim>1</dim>
				</port>
			</input>
			<output>
				<port id="2" precision="FP32" names="/model/model.4/cv2/cv2.0/cv3/conv/Conv_output_0">
					<dim>1</dim>
					<dim>32</dim>
					<dim>52</dim>
					<dim>52</dim>
				</port>
			</output>
		</layer>
		<layer id="129" name="/model/model.4/cv2/cv2.0/cv3/act/Mul" type="Swish" version="opset4">
			<input>
				<port id="0" precision="FP32">
					<dim>1</dim>
					<dim>32</dim>
					<dim>52</dim>
					<dim>52</dim>
				</port>
			</input>
			<output>
				<port id="1" precision="FP32" names="/model/model.4/cv2/cv2.0/cv3/act/Mul_output_0">
					<dim>1</dim>
					<dim>32</dim>
					<dim>52</dim>
					<dim>52</dim>
				</port>
			</output>
		</layer>
		<layer id="130" name="model.model.4.cv2.1.conv.weight_compressed" type="Const" version="opset1">
			<data element_type="f16" shape="32, 32, 3, 3" offset="117852" size="18432" />
			<output>
				<port id="0" precision="FP16" names="model.model.4.cv2.1.conv.weight">
					<dim>32</dim>
					<dim>32</dim>
					<dim>3</dim>
					<dim>3</dim>
				</port>
			</output>
		</layer>
		<layer id="131" name="model.model.4.cv2.1.conv.weight" type="Convert" version="opset1">
			<data destination_type="f32" />
			<rt_info>
				<attribute name="decompression" version="0" />
			</rt_info>
			<input>
				<port id="0" precision="FP16">
					<dim>32</dim>
					<dim>32</dim>
					<dim>3</dim>
					<dim>3</dim>
				</port>
			</input>
			<output>
				<port id="1" precision="FP32">
					<dim>32</dim>
					<dim>32</dim>
					<dim>3</dim>
					<dim>3</dim>
				</port>
			</output>
		</layer>
		<layer id="132" name="/model/model.4/cv2/cv2.1/conv/Conv/WithoutBiases" type="Convolution" version="opset1">
			<data strides="1, 1" dilations="1, 1" pads_begin="1, 1" pads_end="1, 1" auto_pad="explicit" />
			<input>
				<port id="0" precision="FP32">
					<dim>1</dim>
					<dim>32</dim>
					<dim>52</dim>
					<dim>52</dim>
				</port>
				<port id="1" precision="FP32">
					<dim>32</dim>
					<dim>32</dim>
					<dim>3</dim>
					<dim>3</dim>
				</port>
			</input>
			<output>
				<port id="2" precision="FP32">
					<dim>1</dim>
					<dim>32</dim>
					<dim>52</dim>
					<dim>52</dim>
				</port>
			</output>
		</layer>
		<layer id="133" name="Reshape_31122_compressed" type="Const" version="opset1">
			<data element_type="f16" shape="1, 32, 1, 1" offset="136284" size="64" />
			<output>
				<port id="0" precision="FP16">
					<dim>1</dim>
					<dim>32</dim>
					<dim>1</dim>
					<dim>1</dim>
				</port>
			</output>
		</layer>
		<layer id="134" name="Reshape_31122" type="Convert" version="opset1">
			<data destination_type="f32" />
			<rt_info>
				<attribute name="decompression" version="0" />
			</rt_info>
			<input>
				<port id="0" precision="FP16">
					<dim>1</dim>
					<dim>32</dim>
					<dim>1</dim>
					<dim>1</dim>
				</port>
			</input>
			<output>
				<port id="1" precision="FP32">
					<dim>1</dim>
					<dim>32</dim>
					<dim>1</dim>
					<dim>1</dim>
				</port>
			</output>
		</layer>
		<layer id="135" name="/model/model.4/cv2/cv2.1/conv/Conv" type="Add" version="opset1">
			<data auto_broadcast="numpy" />
			<input>
				<port id="0" precision="FP32">
					<dim>1</dim>
					<dim>32</dim>
					<dim>52</dim>
					<dim>52</dim>
				</port>
				<port id="1" precision="FP32">
					<dim>1</dim>
					<dim>32</dim>
					<dim>1</dim>
					<dim>1</dim>
				</port>
			</input>
			<output>
				<port id="2" precision="FP32" names="/model/model.4/cv2/cv2.1/conv/Conv_output_0">
					<dim>1</dim>
					<dim>32</dim>
					<dim>52</dim>
					<dim>52</dim>
				</port>
			</output>
		</layer>
		<layer id="136" name="/model/model.4/cv2/cv2.1/act/Mul" type="Swish" version="opset4">
			<input>
				<port id="0" precision="FP32">
					<dim>1</dim>
					<dim>32</dim>
					<dim>52</dim>
					<dim>52</dim>
				</port>
			</input>
			<output>
				<port id="1" precision="FP32" names="/model/model.4/cv2/cv2.1/act/Mul_output_0">
					<dim>1</dim>
					<dim>32</dim>
					<dim>52</dim>
					<dim>52</dim>
				</port>
			</output>
		</layer>
		<layer id="137" name="model.model.4.cv3.0.cv1.conv.weight_compressed" type="Const" version="opset1">
			<data element_type="f16" shape="16, 32, 1, 1" offset="136348" size="1024" />
			<output>
				<port id="0" precision="FP16" names="model.model.4.cv3.0.cv1.conv.weight">
					<dim>16</dim>
					<dim>32</dim>
					<dim>1</dim>
					<dim>1</dim>
				</port>
			</output>
		</layer>
		<layer id="138" name="model.model.4.cv3.0.cv1.conv.weight" type="Convert" version="opset1">
			<data destination_type="f32" />
			<rt_info>
				<attribute name="decompression" version="0" />
			</rt_info>
			<input>
				<port id="0" precision="FP16">
					<dim>16</dim>
					<dim>32</dim>
					<dim>1</dim>
					<dim>1</dim>
				</port>
			</input>
			<output>
				<port id="1" precision="FP32">
					<dim>16</dim>
					<dim>32</dim>
					<dim>1</dim>
					<dim>1</dim>
				</port>
			</output>
		</layer>
		<layer id="139" name="/model/model.4/cv3/cv3.0/cv1/conv/Conv/WithoutBiases" type="Convolution" version="opset1">
			<data strides="1, 1" dilations="1, 1" pads_begin="0, 0" pads_end="0, 0" auto_pad="explicit" />
			<input>
				<port id="0" precision="FP32">
					<dim>1</dim>
					<dim>32</dim>
					<dim>52</dim>
					<dim>52</dim>
				</port>
				<port id="1" precision="FP32">
					<dim>16</dim>
					<dim>32</dim>
					<dim>1</dim>
					<dim>1</dim>
				</port>
			</input>
			<output>
				<port id="2" precision="FP32">
					<dim>1</dim>
					<dim>16</dim>
					<dim>52</dim>
					<dim>52</dim>
				</port>
			</output>
		</layer>
		<layer id="140" name="Reshape_31139" type="Const" version="opset1">
			<data element_type="f32" shape="1, 16, 1, 1" offset="137372" size="64" />
			<output>
				<port id="0" precision="FP32">
					<dim>1</dim>
					<dim>16</dim>
					<dim>1</dim>
					<dim>1</dim>
				</port>
			</output>
		</layer>
		<layer id="141" name="/model/model.4/cv3/cv3.0/cv1/conv/Conv" type="Add" version="opset1">
			<data auto_broadcast="numpy" />
			<input>
				<port id="0" precision="FP32">
					<dim>1</dim>
					<dim>16</dim>
					<dim>52</dim>
					<dim>52</dim>
				</port>
				<port id="1" precision="FP32">
					<dim>1</dim>
					<dim>16</dim>
					<dim>1</dim>
					<dim>1</dim>
				</port>
			</input>
			<output>
				<port id="2" precision="FP32" names="/model/model.4/cv3/cv3.0/cv1/conv/Conv_output_0">
					<dim>1</dim>
					<dim>16</dim>
					<dim>52</dim>
					<dim>52</dim>
				</port>
			</output>
		</layer>
		<layer id="142" name="/model/model.4/cv3/cv3.0/cv1/act/Mul" type="Swish" version="opset4">
			<input>
				<port id="0" precision="FP32">
					<dim>1</dim>
					<dim>16</dim>
					<dim>52</dim>
					<dim>52</dim>
				</port>
			</input>
			<output>
				<port id="1" precision="FP32" names="/model/model.4/cv3/cv3.0/cv1/act/Mul_output_0">
					<dim>1</dim>
					<dim>16</dim>
					<dim>52</dim>
					<dim>52</dim>
				</port>
			</output>
		</layer>
		<layer id="143" name="model.model.4.cv3.0.m.0.cv1.conv.weight_compressed" type="Const" version="opset1">
			<data element_type="f16" shape="16, 16, 3, 3" offset="137436" size="4608" />
			<output>
				<port id="0" precision="FP16" names="model.model.4.cv3.0.m.0.cv1.conv.weight">
					<dim>16</dim>
					<dim>16</dim>
					<dim>3</dim>
					<dim>3</dim>
				</port>
			</output>
		</layer>
		<layer id="144" name="model.model.4.cv3.0.m.0.cv1.conv.weight" type="Convert" version="opset1">
			<data destination_type="f32" />
			<rt_info>
				<attribute name="decompression" version="0" />
			</rt_info>
			<input>
				<port id="0" precision="FP16">
					<dim>16</dim>
					<dim>16</dim>
					<dim>3</dim>
					<dim>3</dim>
				</port>
			</input>
			<output>
				<port id="1" precision="FP32">
					<dim>16</dim>
					<dim>16</dim>
					<dim>3</dim>
					<dim>3</dim>
				</port>
			</output>
		</layer>
		<layer id="145" name="/model/model.4/cv3/cv3.0/m/m.0/cv1/conv/Conv/WithoutBiases" type="Convolution" version="opset1">
			<data strides="1, 1" dilations="1, 1" pads_begin="1, 1" pads_end="1, 1" auto_pad="explicit" />
			<input>
				<port id="0" precision="FP32">
					<dim>1</dim>
					<dim>16</dim>
					<dim>52</dim>
					<dim>52</dim>
				</port>
				<port id="1" precision="FP32">
					<dim>16</dim>
					<dim>16</dim>
					<dim>3</dim>
					<dim>3</dim>
				</port>
			</input>
			<output>
				<port id="2" precision="FP32">
					<dim>1</dim>
					<dim>16</dim>
					<dim>52</dim>
					<dim>52</dim>
				</port>
			</output>
		</layer>
		<layer id="146" name="Reshape_31173_compressed" type="Const" version="opset1">
			<data element_type="f16" shape="1, 16, 1, 1" offset="142044" size="32" />
			<output>
				<port id="0" precision="FP16">
					<dim>1</dim>
					<dim>16</dim>
					<dim>1</dim>
					<dim>1</dim>
				</port>
			</output>
		</layer>
		<layer id="147" name="Reshape_31173" type="Convert" version="opset1">
			<data destination_type="f32" />
			<rt_info>
				<attribute name="decompression" version="0" />
			</rt_info>
			<input>
				<port id="0" precision="FP16">
					<dim>1</dim>
					<dim>16</dim>
					<dim>1</dim>
					<dim>1</dim>
				</port>
			</input>
			<output>
				<port id="1" precision="FP32">
					<dim>1</dim>
					<dim>16</dim>
					<dim>1</dim>
					<dim>1</dim>
				</port>
			</output>
		</layer>
		<layer id="148" name="/model/model.4/cv3/cv3.0/m/m.0/cv1/conv/Conv" type="Add" version="opset1">
			<data auto_broadcast="numpy" />
			<input>
				<port id="0" precision="FP32">
					<dim>1</dim>
					<dim>16</dim>
					<dim>52</dim>
					<dim>52</dim>
				</port>
				<port id="1" precision="FP32">
					<dim>1</dim>
					<dim>16</dim>
					<dim>1</dim>
					<dim>1</dim>
				</port>
			</input>
			<output>
				<port id="2" precision="FP32" names="/model/model.4/cv3/cv3.0/m/m.0/cv1/conv/Conv_output_0">
					<dim>1</dim>
					<dim>16</dim>
					<dim>52</dim>
					<dim>52</dim>
				</port>
			</output>
		</layer>
		<layer id="149" name="/model/model.4/cv3/cv3.0/m/m.0/cv1/act/Mul" type="Swish" version="opset4">
			<input>
				<port id="0" precision="FP32">
					<dim>1</dim>
					<dim>16</dim>
					<dim>52</dim>
					<dim>52</dim>
				</port>
			</input>
			<output>
				<port id="1" precision="FP32" names="/model/model.4/cv3/cv3.0/m/m.0/cv1/act/Mul_output_0">
					<dim>1</dim>
					<dim>16</dim>
					<dim>52</dim>
					<dim>52</dim>
				</port>
			</output>
		</layer>
		<layer id="150" name="model.model.4.cv3.0.m.0.cv2.conv.weight_compressed" type="Const" version="opset1">
			<data element_type="f16" shape="16, 16, 3, 3" offset="142076" size="4608" />
			<output>
				<port id="0" precision="FP16" names="model.model.4.cv3.0.m.0.cv2.conv.weight">
					<dim>16</dim>
					<dim>16</dim>
					<dim>3</dim>
					<dim>3</dim>
				</port>
			</output>
		</layer>
		<layer id="151" name="model.model.4.cv3.0.m.0.cv2.conv.weight" type="Convert" version="opset1">
			<data destination_type="f32" />
			<rt_info>
				<attribute name="decompression" version="0" />
			</rt_info>
			<input>
				<port id="0" precision="FP16">
					<dim>16</dim>
					<dim>16</dim>
					<dim>3</dim>
					<dim>3</dim>
				</port>
			</input>
			<output>
				<port id="1" precision="FP32">
					<dim>16</dim>
					<dim>16</dim>
					<dim>3</dim>
					<dim>3</dim>
				</port>
			</output>
		</layer>
		<layer id="152" name="/model/model.4/cv3/cv3.0/m/m.0/cv2/conv/Conv/WithoutBiases" type="Convolution" version="opset1">
			<data strides="1, 1" dilations="1, 1" pads_begin="1, 1" pads_end="1, 1" auto_pad="explicit" />
			<input>
				<port id="0" precision="FP32">
					<dim>1</dim>
					<dim>16</dim>
					<dim>52</dim>
					<dim>52</dim>
				</port>
				<port id="1" precision="FP32">
					<dim>16</dim>
					<dim>16</dim>
					<dim>3</dim>
					<dim>3</dim>
				</port>
			</input>
			<output>
				<port id="2" precision="FP32">
					<dim>1</dim>
					<dim>16</dim>
					<dim>52</dim>
					<dim>52</dim>
				</port>
			</output>
		</layer>
		<layer id="153" name="Reshape_31190" type="Const" version="opset1">
			<data element_type="f32" shape="1, 16, 1, 1" offset="146684" size="64" />
			<output>
				<port id="0" precision="FP32">
					<dim>1</dim>
					<dim>16</dim>
					<dim>1</dim>
					<dim>1</dim>
				</port>
			</output>
		</layer>
		<layer id="154" name="/model/model.4/cv3/cv3.0/m/m.0/cv2/conv/Conv" type="Add" version="opset1">
			<data auto_broadcast="numpy" />
			<input>
				<port id="0" precision="FP32">
					<dim>1</dim>
					<dim>16</dim>
					<dim>52</dim>
					<dim>52</dim>
				</port>
				<port id="1" precision="FP32">
					<dim>1</dim>
					<dim>16</dim>
					<dim>1</dim>
					<dim>1</dim>
				</port>
			</input>
			<output>
				<port id="2" precision="FP32" names="/model/model.4/cv3/cv3.0/m/m.0/cv2/conv/Conv_output_0">
					<dim>1</dim>
					<dim>16</dim>
					<dim>52</dim>
					<dim>52</dim>
				</port>
			</output>
		</layer>
		<layer id="155" name="/model/model.4/cv3/cv3.0/m/m.0/cv2/act/Mul" type="Swish" version="opset4">
			<input>
				<port id="0" precision="FP32">
					<dim>1</dim>
					<dim>16</dim>
					<dim>52</dim>
					<dim>52</dim>
				</port>
			</input>
			<output>
				<port id="1" precision="FP32" names="/model/model.4/cv3/cv3.0/m/m.0/cv2/act/Mul_output_0">
					<dim>1</dim>
					<dim>16</dim>
					<dim>52</dim>
					<dim>52</dim>
				</port>
			</output>
		</layer>
		<layer id="156" name="/model/model.4/cv3/cv3.0/m/m.0/Add" type="Add" version="opset1">
			<data auto_broadcast="numpy" />
			<input>
				<port id="0" precision="FP32">
					<dim>1</dim>
					<dim>16</dim>
					<dim>52</dim>
					<dim>52</dim>
				</port>
				<port id="1" precision="FP32">
					<dim>1</dim>
					<dim>16</dim>
					<dim>52</dim>
					<dim>52</dim>
				</port>
			</input>
			<output>
				<port id="2" precision="FP32" names="/model/model.4/cv3/cv3.0/m/m.0/Add_output_0">
					<dim>1</dim>
					<dim>16</dim>
					<dim>52</dim>
					<dim>52</dim>
				</port>
			</output>
		</layer>
		<layer id="157" name="model.model.4.cv3.0.m.1.cv1.conv.weight_compressed" type="Const" version="opset1">
			<data element_type="f16" shape="16, 16, 3, 3" offset="146748" size="4608" />
			<output>
				<port id="0" precision="FP16" names="model.model.4.cv3.0.m.1.cv1.conv.weight">
					<dim>16</dim>
					<dim>16</dim>
					<dim>3</dim>
					<dim>3</dim>
				</port>
			</output>
		</layer>
		<layer id="158" name="model.model.4.cv3.0.m.1.cv1.conv.weight" type="Convert" version="opset1">
			<data destination_type="f32" />
			<rt_info>
				<attribute name="decompression" version="0" />
			</rt_info>
			<input>
				<port id="0" precision="FP16">
					<dim>16</dim>
					<dim>16</dim>
					<dim>3</dim>
					<dim>3</dim>
				</port>
			</input>
			<output>
				<port id="1" precision="FP32">
					<dim>16</dim>
					<dim>16</dim>
					<dim>3</dim>
					<dim>3</dim>
				</port>
			</output>
		</layer>
		<layer id="159" name="/model/model.4/cv3/cv3.0/m/m.1/cv1/conv/Conv/WithoutBiases" type="Convolution" version="opset1">
			<data strides="1, 1" dilations="1, 1" pads_begin="1, 1" pads_end="1, 1" auto_pad="explicit" />
			<input>
				<port id="0" precision="FP32">
					<dim>1</dim>
					<dim>16</dim>
					<dim>52</dim>
					<dim>52</dim>
				</port>
				<port id="1" precision="FP32">
					<dim>16</dim>
					<dim>16</dim>
					<dim>3</dim>
					<dim>3</dim>
				</port>
			</input>
			<output>
				<port id="2" precision="FP32">
					<dim>1</dim>
					<dim>16</dim>
					<dim>52</dim>
					<dim>52</dim>
				</port>
			</output>
		</layer>
		<layer id="160" name="Reshape_31208_compressed" type="Const" version="opset1">
			<data element_type="f16" shape="1, 16, 1, 1" offset="151356" size="32" />
			<output>
				<port id="0" precision="FP16">
					<dim>1</dim>
					<dim>16</dim>
					<dim>1</dim>
					<dim>1</dim>
				</port>
			</output>
		</layer>
		<layer id="161" name="Reshape_31208" type="Convert" version="opset1">
			<data destination_type="f32" />
			<rt_info>
				<attribute name="decompression" version="0" />
			</rt_info>
			<input>
				<port id="0" precision="FP16">
					<dim>1</dim>
					<dim>16</dim>
					<dim>1</dim>
					<dim>1</dim>
				</port>
			</input>
			<output>
				<port id="1" precision="FP32">
					<dim>1</dim>
					<dim>16</dim>
					<dim>1</dim>
					<dim>1</dim>
				</port>
			</output>
		</layer>
		<layer id="162" name="/model/model.4/cv3/cv3.0/m/m.1/cv1/conv/Conv" type="Add" version="opset1">
			<data auto_broadcast="numpy" />
			<input>
				<port id="0" precision="FP32">
					<dim>1</dim>
					<dim>16</dim>
					<dim>52</dim>
					<dim>52</dim>
				</port>
				<port id="1" precision="FP32">
					<dim>1</dim>
					<dim>16</dim>
					<dim>1</dim>
					<dim>1</dim>
				</port>
			</input>
			<output>
				<port id="2" precision="FP32" names="/model/model.4/cv3/cv3.0/m/m.1/cv1/conv/Conv_output_0">
					<dim>1</dim>
					<dim>16</dim>
					<dim>52</dim>
					<dim>52</dim>
				</port>
			</output>
		</layer>
		<layer id="163" name="/model/model.4/cv3/cv3.0/m/m.1/cv1/act/Mul" type="Swish" version="opset4">
			<input>
				<port id="0" precision="FP32">
					<dim>1</dim>
					<dim>16</dim>
					<dim>52</dim>
					<dim>52</dim>
				</port>
			</input>
			<output>
				<port id="1" precision="FP32" names="/model/model.4/cv3/cv3.0/m/m.1/cv1/act/Mul_output_0">
					<dim>1</dim>
					<dim>16</dim>
					<dim>52</dim>
					<dim>52</dim>
				</port>
			</output>
		</layer>
		<layer id="164" name="model.model.4.cv3.0.m.1.cv2.conv.weight_compressed" type="Const" version="opset1">
			<data element_type="f16" shape="16, 16, 3, 3" offset="151388" size="4608" />
			<output>
				<port id="0" precision="FP16" names="model.model.4.cv3.0.m.1.cv2.conv.weight">
					<dim>16</dim>
					<dim>16</dim>
					<dim>3</dim>
					<dim>3</dim>
				</port>
			</output>
		</layer>
		<layer id="165" name="model.model.4.cv3.0.m.1.cv2.conv.weight" type="Convert" version="opset1">
			<data destination_type="f32" />
			<rt_info>
				<attribute name="decompression" version="0" />
			</rt_info>
			<input>
				<port id="0" precision="FP16">
					<dim>16</dim>
					<dim>16</dim>
					<dim>3</dim>
					<dim>3</dim>
				</port>
			</input>
			<output>
				<port id="1" precision="FP32">
					<dim>16</dim>
					<dim>16</dim>
					<dim>3</dim>
					<dim>3</dim>
				</port>
			</output>
		</layer>
		<layer id="166" name="/model/model.4/cv3/cv3.0/m/m.1/cv2/conv/Conv/WithoutBiases" type="Convolution" version="opset1">
			<data strides="1, 1" dilations="1, 1" pads_begin="1, 1" pads_end="1, 1" auto_pad="explicit" />
			<input>
				<port id="0" precision="FP32">
					<dim>1</dim>
					<dim>16</dim>
					<dim>52</dim>
					<dim>52</dim>
				</port>
				<port id="1" precision="FP32">
					<dim>16</dim>
					<dim>16</dim>
					<dim>3</dim>
					<dim>3</dim>
				</port>
			</input>
			<output>
				<port id="2" precision="FP32">
					<dim>1</dim>
					<dim>16</dim>
					<dim>52</dim>
					<dim>52</dim>
				</port>
			</output>
		</layer>
		<layer id="167" name="Reshape_31225" type="Const" version="opset1">
			<data element_type="f32" shape="1, 16, 1, 1" offset="155996" size="64" />
			<output>
				<port id="0" precision="FP32">
					<dim>1</dim>
					<dim>16</dim>
					<dim>1</dim>
					<dim>1</dim>
				</port>
			</output>
		</layer>
		<layer id="168" name="/model/model.4/cv3/cv3.0/m/m.1/cv2/conv/Conv" type="Add" version="opset1">
			<data auto_broadcast="numpy" />
			<input>
				<port id="0" precision="FP32">
					<dim>1</dim>
					<dim>16</dim>
					<dim>52</dim>
					<dim>52</dim>
				</port>
				<port id="1" precision="FP32">
					<dim>1</dim>
					<dim>16</dim>
					<dim>1</dim>
					<dim>1</dim>
				</port>
			</input>
			<output>
				<port id="2" precision="FP32" names="/model/model.4/cv3/cv3.0/m/m.1/cv2/conv/Conv_output_0">
					<dim>1</dim>
					<dim>16</dim>
					<dim>52</dim>
					<dim>52</dim>
				</port>
			</output>
		</layer>
		<layer id="169" name="/model/model.4/cv3/cv3.0/m/m.1/cv2/act/Mul" type="Swish" version="opset4">
			<input>
				<port id="0" precision="FP32">
					<dim>1</dim>
					<dim>16</dim>
					<dim>52</dim>
					<dim>52</dim>
				</port>
			</input>
			<output>
				<port id="1" precision="FP32" names="/model/model.4/cv3/cv3.0/m/m.1/cv2/act/Mul_output_0">
					<dim>1</dim>
					<dim>16</dim>
					<dim>52</dim>
					<dim>52</dim>
				</port>
			</output>
		</layer>
		<layer id="170" name="/model/model.4/cv3/cv3.0/m/m.1/Add" type="Add" version="opset1">
			<data auto_broadcast="numpy" />
			<input>
				<port id="0" precision="FP32">
					<dim>1</dim>
					<dim>16</dim>
					<dim>52</dim>
					<dim>52</dim>
				</port>
				<port id="1" precision="FP32">
					<dim>1</dim>
					<dim>16</dim>
					<dim>52</dim>
					<dim>52</dim>
				</port>
			</input>
			<output>
				<port id="2" precision="FP32" names="/model/model.4/cv3/cv3.0/m/m.1/Add_output_0">
					<dim>1</dim>
					<dim>16</dim>
					<dim>52</dim>
					<dim>52</dim>
				</port>
			</output>
		</layer>
		<layer id="171" name="model.model.4.cv3.0.m.2.cv1.conv.weight_compressed" type="Const" version="opset1">
			<data element_type="f16" shape="16, 16, 3, 3" offset="156060" size="4608" />
			<output>
				<port id="0" precision="FP16" names="model.model.4.cv3.0.m.2.cv1.conv.weight">
					<dim>16</dim>
					<dim>16</dim>
					<dim>3</dim>
					<dim>3</dim>
				</port>
			</output>
		</layer>
		<layer id="172" name="model.model.4.cv3.0.m.2.cv1.conv.weight" type="Convert" version="opset1">
			<data destination_type="f32" />
			<rt_info>
				<attribute name="decompression" version="0" />
			</rt_info>
			<input>
				<port id="0" precision="FP16">
					<dim>16</dim>
					<dim>16</dim>
					<dim>3</dim>
					<dim>3</dim>
				</port>
			</input>
			<output>
				<port id="1" precision="FP32">
					<dim>16</dim>
					<dim>16</dim>
					<dim>3</dim>
					<dim>3</dim>
				</port>
			</output>
		</layer>
		<layer id="173" name="/model/model.4/cv3/cv3.0/m/m.2/cv1/conv/Conv/WithoutBiases" type="Convolution" version="opset1">
			<data strides="1, 1" dilations="1, 1" pads_begin="1, 1" pads_end="1, 1" auto_pad="explicit" />
			<input>
				<port id="0" precision="FP32">
					<dim>1</dim>
					<dim>16</dim>
					<dim>52</dim>
					<dim>52</dim>
				</port>
				<port id="1" precision="FP32">
					<dim>16</dim>
					<dim>16</dim>
					<dim>3</dim>
					<dim>3</dim>
				</port>
			</input>
			<output>
				<port id="2" precision="FP32">
					<dim>1</dim>
					<dim>16</dim>
					<dim>52</dim>
					<dim>52</dim>
				</port>
			</output>
		</layer>
		<layer id="174" name="Reshape_31243" type="Const" version="opset1">
			<data element_type="f32" shape="1, 16, 1, 1" offset="160668" size="64" />
			<output>
				<port id="0" precision="FP32">
					<dim>1</dim>
					<dim>16</dim>
					<dim>1</dim>
					<dim>1</dim>
				</port>
			</output>
		</layer>
		<layer id="175" name="/model/model.4/cv3/cv3.0/m/m.2/cv1/conv/Conv" type="Add" version="opset1">
			<data auto_broadcast="numpy" />
			<input>
				<port id="0" precision="FP32">
					<dim>1</dim>
					<dim>16</dim>
					<dim>52</dim>
					<dim>52</dim>
				</port>
				<port id="1" precision="FP32">
					<dim>1</dim>
					<dim>16</dim>
					<dim>1</dim>
					<dim>1</dim>
				</port>
			</input>
			<output>
				<port id="2" precision="FP32" names="/model/model.4/cv3/cv3.0/m/m.2/cv1/conv/Conv_output_0">
					<dim>1</dim>
					<dim>16</dim>
					<dim>52</dim>
					<dim>52</dim>
				</port>
			</output>
		</layer>
		<layer id="176" name="/model/model.4/cv3/cv3.0/m/m.2/cv1/act/Mul" type="Swish" version="opset4">
			<input>
				<port id="0" precision="FP32">
					<dim>1</dim>
					<dim>16</dim>
					<dim>52</dim>
					<dim>52</dim>
				</port>
			</input>
			<output>
				<port id="1" precision="FP32" names="/model/model.4/cv3/cv3.0/m/m.2/cv1/act/Mul_output_0">
					<dim>1</dim>
					<dim>16</dim>
					<dim>52</dim>
					<dim>52</dim>
				</port>
			</output>
		</layer>
		<layer id="177" name="model.model.4.cv3.0.m.2.cv2.conv.weight_compressed" type="Const" version="opset1">
			<data element_type="f16" shape="16, 16, 3, 3" offset="160732" size="4608" />
			<output>
				<port id="0" precision="FP16" names="model.model.4.cv3.0.m.2.cv2.conv.weight">
					<dim>16</dim>
					<dim>16</dim>
					<dim>3</dim>
					<dim>3</dim>
				</port>
			</output>
		</layer>
		<layer id="178" name="model.model.4.cv3.0.m.2.cv2.conv.weight" type="Convert" version="opset1">
			<data destination_type="f32" />
			<rt_info>
				<attribute name="decompression" version="0" />
			</rt_info>
			<input>
				<port id="0" precision="FP16">
					<dim>16</dim>
					<dim>16</dim>
					<dim>3</dim>
					<dim>3</dim>
				</port>
			</input>
			<output>
				<port id="1" precision="FP32">
					<dim>16</dim>
					<dim>16</dim>
					<dim>3</dim>
					<dim>3</dim>
				</port>
			</output>
		</layer>
		<layer id="179" name="/model/model.4/cv3/cv3.0/m/m.2/cv2/conv/Conv/WithoutBiases" type="Convolution" version="opset1">
			<data strides="1, 1" dilations="1, 1" pads_begin="1, 1" pads_end="1, 1" auto_pad="explicit" />
			<input>
				<port id="0" precision="FP32">
					<dim>1</dim>
					<dim>16</dim>
					<dim>52</dim>
					<dim>52</dim>
				</port>
				<port id="1" precision="FP32">
					<dim>16</dim>
					<dim>16</dim>
					<dim>3</dim>
					<dim>3</dim>
				</port>
			</input>
			<output>
				<port id="2" precision="FP32">
					<dim>1</dim>
					<dim>16</dim>
					<dim>52</dim>
					<dim>52</dim>
				</port>
			</output>
		</layer>
		<layer id="180" name="Reshape_31260" type="Const" version="opset1">
			<data element_type="f32" shape="1, 16, 1, 1" offset="165340" size="64" />
			<output>
				<port id="0" precision="FP32">
					<dim>1</dim>
					<dim>16</dim>
					<dim>1</dim>
					<dim>1</dim>
				</port>
			</output>
		</layer>
		<layer id="181" name="/model/model.4/cv3/cv3.0/m/m.2/cv2/conv/Conv" type="Add" version="opset1">
			<data auto_broadcast="numpy" />
			<input>
				<port id="0" precision="FP32">
					<dim>1</dim>
					<dim>16</dim>
					<dim>52</dim>
					<dim>52</dim>
				</port>
				<port id="1" precision="FP32">
					<dim>1</dim>
					<dim>16</dim>
					<dim>1</dim>
					<dim>1</dim>
				</port>
			</input>
			<output>
				<port id="2" precision="FP32" names="/model/model.4/cv3/cv3.0/m/m.2/cv2/conv/Conv_output_0">
					<dim>1</dim>
					<dim>16</dim>
					<dim>52</dim>
					<dim>52</dim>
				</port>
			</output>
		</layer>
		<layer id="182" name="/model/model.4/cv3/cv3.0/m/m.2/cv2/act/Mul" type="Swish" version="opset4">
			<input>
				<port id="0" precision="FP32">
					<dim>1</dim>
					<dim>16</dim>
					<dim>52</dim>
					<dim>52</dim>
				</port>
			</input>
			<output>
				<port id="1" precision="FP32" names="/model/model.4/cv3/cv3.0/m/m.2/cv2/act/Mul_output_0">
					<dim>1</dim>
					<dim>16</dim>
					<dim>52</dim>
					<dim>52</dim>
				</port>
			</output>
		</layer>
		<layer id="183" name="/model/model.4/cv3/cv3.0/m/m.2/Add" type="Add" version="opset1">
			<data auto_broadcast="numpy" />
			<input>
				<port id="0" precision="FP32">
					<dim>1</dim>
					<dim>16</dim>
					<dim>52</dim>
					<dim>52</dim>
				</port>
				<port id="1" precision="FP32">
					<dim>1</dim>
					<dim>16</dim>
					<dim>52</dim>
					<dim>52</dim>
				</port>
			</input>
			<output>
				<port id="2" precision="FP32" names="/model/model.4/cv3/cv3.0/m/m.2/Add_output_0">
					<dim>1</dim>
					<dim>16</dim>
					<dim>52</dim>
					<dim>52</dim>
				</port>
			</output>
		</layer>
		<layer id="184" name="model.model.4.cv3.0.cv2.conv.weight_compressed" type="Const" version="opset1">
			<data element_type="f16" shape="16, 32, 1, 1" offset="165404" size="1024" />
			<output>
				<port id="0" precision="FP16" names="model.model.4.cv3.0.cv2.conv.weight">
					<dim>16</dim>
					<dim>32</dim>
					<dim>1</dim>
					<dim>1</dim>
				</port>
			</output>
		</layer>
		<layer id="185" name="model.model.4.cv3.0.cv2.conv.weight" type="Convert" version="opset1">
			<data destination_type="f32" />
			<rt_info>
				<attribute name="decompression" version="0" />
			</rt_info>
			<input>
				<port id="0" precision="FP16">
					<dim>16</dim>
					<dim>32</dim>
					<dim>1</dim>
					<dim>1</dim>
				</port>
			</input>
			<output>
				<port id="1" precision="FP32">
					<dim>16</dim>
					<dim>32</dim>
					<dim>1</dim>
					<dim>1</dim>
				</port>
			</output>
		</layer>
		<layer id="186" name="/model/model.4/cv3/cv3.0/cv2/conv/Conv/WithoutBiases" type="Convolution" version="opset1">
			<data strides="1, 1" dilations="1, 1" pads_begin="0, 0" pads_end="0, 0" auto_pad="explicit" />
			<input>
				<port id="0" precision="FP32">
					<dim>1</dim>
					<dim>32</dim>
					<dim>52</dim>
					<dim>52</dim>
				</port>
				<port id="1" precision="FP32">
					<dim>16</dim>
					<dim>32</dim>
					<dim>1</dim>
					<dim>1</dim>
				</port>
			</input>
			<output>
				<port id="2" precision="FP32">
					<dim>1</dim>
					<dim>16</dim>
					<dim>52</dim>
					<dim>52</dim>
				</port>
			</output>
		</layer>
		<layer id="187" name="Reshape_31154" type="Const" version="opset1">
			<data element_type="f32" shape="1, 16, 1, 1" offset="166428" size="64" />
			<output>
				<port id="0" precision="FP32">
					<dim>1</dim>
					<dim>16</dim>
					<dim>1</dim>
					<dim>1</dim>
				</port>
			</output>
		</layer>
		<layer id="188" name="/model/model.4/cv3/cv3.0/cv2/conv/Conv" type="Add" version="opset1">
			<data auto_broadcast="numpy" />
			<input>
				<port id="0" precision="FP32">
					<dim>1</dim>
					<dim>16</dim>
					<dim>52</dim>
					<dim>52</dim>
				</port>
				<port id="1" precision="FP32">
					<dim>1</dim>
					<dim>16</dim>
					<dim>1</dim>
					<dim>1</dim>
				</port>
			</input>
			<output>
				<port id="2" precision="FP32" names="/model/model.4/cv3/cv3.0/cv2/conv/Conv_output_0">
					<dim>1</dim>
					<dim>16</dim>
					<dim>52</dim>
					<dim>52</dim>
				</port>
			</output>
		</layer>
		<layer id="189" name="/model/model.4/cv3/cv3.0/cv2/act/Mul" type="Swish" version="opset4">
			<input>
				<port id="0" precision="FP32">
					<dim>1</dim>
					<dim>16</dim>
					<dim>52</dim>
					<dim>52</dim>
				</port>
			</input>
			<output>
				<port id="1" precision="FP32" names="/model/model.4/cv3/cv3.0/cv2/act/Mul_output_0">
					<dim>1</dim>
					<dim>16</dim>
					<dim>52</dim>
					<dim>52</dim>
				</port>
			</output>
		</layer>
		<layer id="190" name="/model/model.4/cv3/cv3.0/Concat" type="Concat" version="opset1">
			<data axis="1" />
			<input>
				<port id="0" precision="FP32">
					<dim>1</dim>
					<dim>16</dim>
					<dim>52</dim>
					<dim>52</dim>
				</port>
				<port id="1" precision="FP32">
					<dim>1</dim>
					<dim>16</dim>
					<dim>52</dim>
					<dim>52</dim>
				</port>
			</input>
			<output>
				<port id="2" precision="FP32" names="/model/model.4/cv3/cv3.0/Concat_output_0">
					<dim>1</dim>
					<dim>32</dim>
					<dim>52</dim>
					<dim>52</dim>
				</port>
			</output>
		</layer>
		<layer id="191" name="model.model.4.cv3.0.cv3.conv.weight_compressed" type="Const" version="opset1">
			<data element_type="f16" shape="32, 32, 1, 1" offset="166492" size="2048" />
			<output>
				<port id="0" precision="FP16" names="model.model.4.cv3.0.cv3.conv.weight">
					<dim>32</dim>
					<dim>32</dim>
					<dim>1</dim>
					<dim>1</dim>
				</port>
			</output>
		</layer>
		<layer id="192" name="model.model.4.cv3.0.cv3.conv.weight" type="Convert" version="opset1">
			<data destination_type="f32" />
			<rt_info>
				<attribute name="decompression" version="0" />
			</rt_info>
			<input>
				<port id="0" precision="FP16">
					<dim>32</dim>
					<dim>32</dim>
					<dim>1</dim>
					<dim>1</dim>
				</port>
			</input>
			<output>
				<port id="1" precision="FP32">
					<dim>32</dim>
					<dim>32</dim>
					<dim>1</dim>
					<dim>1</dim>
				</port>
			</output>
		</layer>
		<layer id="193" name="/model/model.4/cv3/cv3.0/cv3/conv/Conv/WithoutBiases" type="Convolution" version="opset1">
			<data strides="1, 1" dilations="1, 1" pads_begin="0, 0" pads_end="0, 0" auto_pad="explicit" />
			<input>
				<port id="0" precision="FP32">
					<dim>1</dim>
					<dim>32</dim>
					<dim>52</dim>
					<dim>52</dim>
				</port>
				<port id="1" precision="FP32">
					<dim>32</dim>
					<dim>32</dim>
					<dim>1</dim>
					<dim>1</dim>
				</port>
			</input>
			<output>
				<port id="2" precision="FP32">
					<dim>1</dim>
					<dim>32</dim>
					<dim>52</dim>
					<dim>52</dim>
				</port>
			</output>
		</layer>
		<layer id="194" name="Reshape_31279_compressed" type="Const" version="opset1">
			<data element_type="f16" shape="1, 32, 1, 1" offset="168540" size="64" />
			<output>
				<port id="0" precision="FP16">
					<dim>1</dim>
					<dim>32</dim>
					<dim>1</dim>
					<dim>1</dim>
				</port>
			</output>
		</layer>
		<layer id="195" name="Reshape_31279" type="Convert" version="opset1">
			<data destination_type="f32" />
			<rt_info>
				<attribute name="decompression" version="0" />
			</rt_info>
			<input>
				<port id="0" precision="FP16">
					<dim>1</dim>
					<dim>32</dim>
					<dim>1</dim>
					<dim>1</dim>
				</port>
			</input>
			<output>
				<port id="1" precision="FP32">
					<dim>1</dim>
					<dim>32</dim>
					<dim>1</dim>
					<dim>1</dim>
				</port>
			</output>
		</layer>
		<layer id="196" name="/model/model.4/cv3/cv3.0/cv3/conv/Conv" type="Add" version="opset1">
			<data auto_broadcast="numpy" />
			<input>
				<port id="0" precision="FP32">
					<dim>1</dim>
					<dim>32</dim>
					<dim>52</dim>
					<dim>52</dim>
				</port>
				<port id="1" precision="FP32">
					<dim>1</dim>
					<dim>32</dim>
					<dim>1</dim>
					<dim>1</dim>
				</port>
			</input>
			<output>
				<port id="2" precision="FP32" names="/model/model.4/cv3/cv3.0/cv3/conv/Conv_output_0">
					<dim>1</dim>
					<dim>32</dim>
					<dim>52</dim>
					<dim>52</dim>
				</port>
			</output>
		</layer>
		<layer id="197" name="/model/model.4/cv3/cv3.0/cv3/act/Mul" type="Swish" version="opset4">
			<input>
				<port id="0" precision="FP32">
					<dim>1</dim>
					<dim>32</dim>
					<dim>52</dim>
					<dim>52</dim>
				</port>
			</input>
			<output>
				<port id="1" precision="FP32" names="/model/model.4/cv3/cv3.0/cv3/act/Mul_output_0">
					<dim>1</dim>
					<dim>32</dim>
					<dim>52</dim>
					<dim>52</dim>
				</port>
			</output>
		</layer>
		<layer id="198" name="model.model.4.cv3.1.conv.weight_compressed" type="Const" version="opset1">
			<data element_type="f16" shape="32, 32, 3, 3" offset="168604" size="18432" />
			<output>
				<port id="0" precision="FP16" names="model.model.4.cv3.1.conv.weight">
					<dim>32</dim>
					<dim>32</dim>
					<dim>3</dim>
					<dim>3</dim>
				</port>
			</output>
		</layer>
		<layer id="199" name="model.model.4.cv3.1.conv.weight" type="Convert" version="opset1">
			<data destination_type="f32" />
			<rt_info>
				<attribute name="decompression" version="0" />
			</rt_info>
			<input>
				<port id="0" precision="FP16">
					<dim>32</dim>
					<dim>32</dim>
					<dim>3</dim>
					<dim>3</dim>
				</port>
			</input>
			<output>
				<port id="1" precision="FP32">
					<dim>32</dim>
					<dim>32</dim>
					<dim>3</dim>
					<dim>3</dim>
				</port>
			</output>
		</layer>
		<layer id="200" name="/model/model.4/cv3/cv3.1/conv/Conv/WithoutBiases" type="Convolution" version="opset1">
			<data strides="1, 1" dilations="1, 1" pads_begin="1, 1" pads_end="1, 1" auto_pad="explicit" />
			<input>
				<port id="0" precision="FP32">
					<dim>1</dim>
					<dim>32</dim>
					<dim>52</dim>
					<dim>52</dim>
				</port>
				<port id="1" precision="FP32">
					<dim>32</dim>
					<dim>32</dim>
					<dim>3</dim>
					<dim>3</dim>
				</port>
			</input>
			<output>
				<port id="2" precision="FP32">
					<dim>1</dim>
					<dim>32</dim>
					<dim>52</dim>
					<dim>52</dim>
				</port>
			</output>
		</layer>
		<layer id="201" name="Reshape_31296" type="Const" version="opset1">
			<data element_type="f32" shape="1, 32, 1, 1" offset="187036" size="128" />
			<output>
				<port id="0" precision="FP32">
					<dim>1</dim>
					<dim>32</dim>
					<dim>1</dim>
					<dim>1</dim>
				</port>
			</output>
		</layer>
		<layer id="202" name="/model/model.4/cv3/cv3.1/conv/Conv" type="Add" version="opset1">
			<data auto_broadcast="numpy" />
			<input>
				<port id="0" precision="FP32">
					<dim>1</dim>
					<dim>32</dim>
					<dim>52</dim>
					<dim>52</dim>
				</port>
				<port id="1" precision="FP32">
					<dim>1</dim>
					<dim>32</dim>
					<dim>1</dim>
					<dim>1</dim>
				</port>
			</input>
			<output>
				<port id="2" precision="FP32" names="/model/model.4/cv3/cv3.1/conv/Conv_output_0">
					<dim>1</dim>
					<dim>32</dim>
					<dim>52</dim>
					<dim>52</dim>
				</port>
			</output>
		</layer>
		<layer id="203" name="/model/model.4/cv3/cv3.1/act/Mul" type="Swish" version="opset4">
			<input>
				<port id="0" precision="FP32">
					<dim>1</dim>
					<dim>32</dim>
					<dim>52</dim>
					<dim>52</dim>
				</port>
			</input>
			<output>
				<port id="1" precision="FP32" names="/model/model.4/cv3/cv3.1/act/Mul_output_0">
					<dim>1</dim>
					<dim>32</dim>
					<dim>52</dim>
					<dim>52</dim>
				</port>
			</output>
		</layer>
		<layer id="204" name="/model/model.4/Concat" type="Concat" version="opset1">
			<data axis="1" />
			<input>
				<port id="0" precision="FP32">
					<dim>1</dim>
					<dim>32</dim>
					<dim>52</dim>
					<dim>52</dim>
				</port>
				<port id="1" precision="FP32">
					<dim>1</dim>
					<dim>32</dim>
					<dim>52</dim>
					<dim>52</dim>
				</port>
				<port id="2" precision="FP32">
					<dim>1</dim>
					<dim>32</dim>
					<dim>52</dim>
					<dim>52</dim>
				</port>
				<port id="3" precision="FP32">
					<dim>1</dim>
					<dim>32</dim>
					<dim>52</dim>
					<dim>52</dim>
				</port>
			</input>
			<output>
				<port id="4" precision="FP32" names="/model/model.4/Concat_output_0">
					<dim>1</dim>
					<dim>128</dim>
					<dim>52</dim>
					<dim>52</dim>
				</port>
			</output>
		</layer>
		<layer id="205" name="model.model.4.cv4.conv.weight_compressed" type="Const" version="opset1">
			<data element_type="f16" shape="64, 128, 1, 1" offset="187164" size="16384" />
			<output>
				<port id="0" precision="FP16" names="model.model.4.cv4.conv.weight">
					<dim>64</dim>
					<dim>128</dim>
					<dim>1</dim>
					<dim>1</dim>
				</port>
			</output>
		</layer>
		<layer id="206" name="model.model.4.cv4.conv.weight" type="Convert" version="opset1">
			<data destination_type="f32" />
			<rt_info>
				<attribute name="decompression" version="0" />
			</rt_info>
			<input>
				<port id="0" precision="FP16">
					<dim>64</dim>
					<dim>128</dim>
					<dim>1</dim>
					<dim>1</dim>
				</port>
			</input>
			<output>
				<port id="1" precision="FP32">
					<dim>64</dim>
					<dim>128</dim>
					<dim>1</dim>
					<dim>1</dim>
				</port>
			</output>
		</layer>
		<layer id="207" name="/model/model.4/cv4/conv/Conv/WithoutBiases" type="Convolution" version="opset1">
			<data strides="1, 1" dilations="1, 1" pads_begin="0, 0" pads_end="0, 0" auto_pad="explicit" />
			<input>
				<port id="0" precision="FP32">
					<dim>1</dim>
					<dim>128</dim>
					<dim>52</dim>
					<dim>52</dim>
				</port>
				<port id="1" precision="FP32">
					<dim>64</dim>
					<dim>128</dim>
					<dim>1</dim>
					<dim>1</dim>
				</port>
			</input>
			<output>
				<port id="2" precision="FP32">
					<dim>1</dim>
					<dim>64</dim>
					<dim>52</dim>
					<dim>52</dim>
				</port>
			</output>
		</layer>
		<layer id="208" name="Reshape_31314_compressed" type="Const" version="opset1">
			<data element_type="f16" shape="1, 64, 1, 1" offset="203548" size="128" />
			<output>
				<port id="0" precision="FP16">
					<dim>1</dim>
					<dim>64</dim>
					<dim>1</dim>
					<dim>1</dim>
				</port>
			</output>
		</layer>
		<layer id="209" name="Reshape_31314" type="Convert" version="opset1">
			<data destination_type="f32" />
			<rt_info>
				<attribute name="decompression" version="0" />
			</rt_info>
			<input>
				<port id="0" precision="FP16">
					<dim>1</dim>
					<dim>64</dim>
					<dim>1</dim>
					<dim>1</dim>
				</port>
			</input>
			<output>
				<port id="1" precision="FP32">
					<dim>1</dim>
					<dim>64</dim>
					<dim>1</dim>
					<dim>1</dim>
				</port>
			</output>
		</layer>
		<layer id="210" name="/model/model.4/cv4/conv/Conv" type="Add" version="opset1">
			<data auto_broadcast="numpy" />
			<input>
				<port id="0" precision="FP32">
					<dim>1</dim>
					<dim>64</dim>
					<dim>52</dim>
					<dim>52</dim>
				</port>
				<port id="1" precision="FP32">
					<dim>1</dim>
					<dim>64</dim>
					<dim>1</dim>
					<dim>1</dim>
				</port>
			</input>
			<output>
				<port id="2" precision="FP32" names="/model/model.4/cv4/conv/Conv_output_0">
					<dim>1</dim>
					<dim>64</dim>
					<dim>52</dim>
					<dim>52</dim>
				</port>
			</output>
		</layer>
		<layer id="211" name="/model/model.4/cv4/act/Mul" type="Swish" version="opset4">
			<input>
				<port id="0" precision="FP32">
					<dim>1</dim>
					<dim>64</dim>
					<dim>52</dim>
					<dim>52</dim>
				</port>
			</input>
			<output>
				<port id="1" precision="FP32" names="/model/model.4/cv4/act/Mul_output_0">
					<dim>1</dim>
					<dim>64</dim>
					<dim>52</dim>
					<dim>52</dim>
				</port>
			</output>
		</layer>
		<layer id="212" name="/model/model.5/AveragePool" type="AvgPool" version="opset1">
			<data kernel="2, 2" strides="1, 1" pads_begin="0, 0" pads_end="0, 0" exclude-pad="false" auto_pad="explicit" rounding_type="floor" />
			<input>
				<port id="0" precision="FP32">
					<dim>1</dim>
					<dim>64</dim>
					<dim>52</dim>
					<dim>52</dim>
				</port>
			</input>
			<output>
				<port id="1" precision="FP32" names="/model/model.5/AveragePool_output_0">
					<dim>1</dim>
					<dim>64</dim>
					<dim>51</dim>
					<dim>51</dim>
				</port>
			</output>
		</layer>
		<layer id="213" name="model.model.5.cv1.conv.weight_compressed" type="Const" version="opset1">
			<data element_type="f16" shape="96, 64, 3, 3" offset="203676" size="110592" />
			<output>
				<port id="0" precision="FP16" names="model.model.5.cv1.conv.weight">
					<dim>96</dim>
					<dim>64</dim>
					<dim>3</dim>
					<dim>3</dim>
				</port>
			</output>
		</layer>
		<layer id="214" name="model.model.5.cv1.conv.weight" type="Convert" version="opset1">
			<data destination_type="f32" />
			<rt_info>
				<attribute name="decompression" version="0" />
			</rt_info>
			<input>
				<port id="0" precision="FP16">
					<dim>96</dim>
					<dim>64</dim>
					<dim>3</dim>
					<dim>3</dim>
				</port>
			</input>
			<output>
				<port id="1" precision="FP32">
					<dim>96</dim>
					<dim>64</dim>
					<dim>3</dim>
					<dim>3</dim>
				</port>
			</output>
		</layer>
		<layer id="215" name="/model/model.5/cv1/conv/Conv/WithoutBiases" type="Convolution" version="opset1">
			<data strides="2, 2" dilations="1, 1" pads_begin="1, 1" pads_end="1, 1" auto_pad="explicit" />
			<input>
				<port id="0" precision="FP32">
					<dim>1</dim>
					<dim>64</dim>
					<dim>51</dim>
					<dim>51</dim>
				</port>
				<port id="1" precision="FP32">
					<dim>96</dim>
					<dim>64</dim>
					<dim>3</dim>
					<dim>3</dim>
				</port>
			</input>
			<output>
				<port id="2" precision="FP32">
					<dim>1</dim>
					<dim>96</dim>
					<dim>26</dim>
					<dim>26</dim>
				</port>
			</output>
		</layer>
		<layer id="216" name="Reshape_31332_compressed" type="Const" version="opset1">
			<data element_type="f16" shape="1, 96, 1, 1" offset="314268" size="192" />
			<output>
				<port id="0" precision="FP16">
					<dim>1</dim>
					<dim>96</dim>
					<dim>1</dim>
					<dim>1</dim>
				</port>
			</output>
		</layer>
		<layer id="217" name="Reshape_31332" type="Convert" version="opset1">
			<data destination_type="f32" />
			<rt_info>
				<attribute name="decompression" version="0" />
			</rt_info>
			<input>
				<port id="0" precision="FP16">
					<dim>1</dim>
					<dim>96</dim>
					<dim>1</dim>
					<dim>1</dim>
				</port>
			</input>
			<output>
				<port id="1" precision="FP32">
					<dim>1</dim>
					<dim>96</dim>
					<dim>1</dim>
					<dim>1</dim>
				</port>
			</output>
		</layer>
		<layer id="218" name="/model/model.5/cv1/conv/Conv" type="Add" version="opset1">
			<data auto_broadcast="numpy" />
			<input>
				<port id="0" precision="FP32">
					<dim>1</dim>
					<dim>96</dim>
					<dim>26</dim>
					<dim>26</dim>
				</port>
				<port id="1" precision="FP32">
					<dim>1</dim>
					<dim>96</dim>
					<dim>1</dim>
					<dim>1</dim>
				</port>
			</input>
			<output>
				<port id="2" precision="FP32" names="/model/model.5/cv1/conv/Conv_output_0">
					<dim>1</dim>
					<dim>96</dim>
					<dim>26</dim>
					<dim>26</dim>
				</port>
			</output>
		</layer>
		<layer id="219" name="/model/model.5/cv1/act/Mul" type="Swish" version="opset4">
			<input>
				<port id="0" precision="FP32">
					<dim>1</dim>
					<dim>96</dim>
					<dim>26</dim>
					<dim>26</dim>
				</port>
			</input>
			<output>
				<port id="1" precision="FP32" names="/model/model.5/cv1/act/Mul_output_0">
					<dim>1</dim>
					<dim>96</dim>
					<dim>26</dim>
					<dim>26</dim>
				</port>
			</output>
		</layer>
		<layer id="220" name="model.model.6.cv1.conv.weight_compressed" type="Const" version="opset1">
			<data element_type="f16" shape="96, 96, 1, 1" offset="314460" size="18432" />
			<output>
				<port id="0" precision="FP16" names="model.model.6.cv1.conv.weight">
					<dim>96</dim>
					<dim>96</dim>
					<dim>1</dim>
					<dim>1</dim>
				</port>
			</output>
		</layer>
		<layer id="221" name="model.model.6.cv1.conv.weight" type="Convert" version="opset1">
			<data destination_type="f32" />
			<rt_info>
				<attribute name="decompression" version="0" />
			</rt_info>
			<input>
				<port id="0" precision="FP16">
					<dim>96</dim>
					<dim>96</dim>
					<dim>1</dim>
					<dim>1</dim>
				</port>
			</input>
			<output>
				<port id="1" precision="FP32">
					<dim>96</dim>
					<dim>96</dim>
					<dim>1</dim>
					<dim>1</dim>
				</port>
			</output>
		</layer>
		<layer id="222" name="/model/model.6/cv1/conv/Conv/WithoutBiases" type="Convolution" version="opset1">
			<data strides="1, 1" dilations="1, 1" pads_begin="0, 0" pads_end="0, 0" auto_pad="explicit" />
			<input>
				<port id="0" precision="FP32">
					<dim>1</dim>
					<dim>96</dim>
					<dim>26</dim>
					<dim>26</dim>
				</port>
				<port id="1" precision="FP32">
					<dim>96</dim>
					<dim>96</dim>
					<dim>1</dim>
					<dim>1</dim>
				</port>
			</input>
			<output>
				<port id="2" precision="FP32">
					<dim>1</dim>
					<dim>96</dim>
					<dim>26</dim>
					<dim>26</dim>
				</port>
			</output>
		</layer>
		<layer id="223" name="Reshape_31349_compressed" type="Const" version="opset1">
			<data element_type="f16" shape="1, 96, 1, 1" offset="332892" size="192" />
			<output>
				<port id="0" precision="FP16">
					<dim>1</dim>
					<dim>96</dim>
					<dim>1</dim>
					<dim>1</dim>
				</port>
			</output>
		</layer>
		<layer id="224" name="Reshape_31349" type="Convert" version="opset1">
			<data destination_type="f32" />
			<rt_info>
				<attribute name="decompression" version="0" />
			</rt_info>
			<input>
				<port id="0" precision="FP16">
					<dim>1</dim>
					<dim>96</dim>
					<dim>1</dim>
					<dim>1</dim>
				</port>
			</input>
			<output>
				<port id="1" precision="FP32">
					<dim>1</dim>
					<dim>96</dim>
					<dim>1</dim>
					<dim>1</dim>
				</port>
			</output>
		</layer>
		<layer id="225" name="/model/model.6/cv1/conv/Conv" type="Add" version="opset1">
			<data auto_broadcast="numpy" />
			<input>
				<port id="0" precision="FP32">
					<dim>1</dim>
					<dim>96</dim>
					<dim>26</dim>
					<dim>26</dim>
				</port>
				<port id="1" precision="FP32">
					<dim>1</dim>
					<dim>96</dim>
					<dim>1</dim>
					<dim>1</dim>
				</port>
			</input>
			<output>
				<port id="2" precision="FP32" names="/model/model.6/cv1/conv/Conv_output_0">
					<dim>1</dim>
					<dim>96</dim>
					<dim>26</dim>
					<dim>26</dim>
				</port>
			</output>
		</layer>
		<layer id="226" name="/model/model.6/cv1/act/Mul" type="Swish" version="opset4">
			<input>
				<port id="0" precision="FP32">
					<dim>1</dim>
					<dim>96</dim>
					<dim>26</dim>
					<dim>26</dim>
				</port>
			</input>
			<output>
				<port id="1" precision="FP32" names="/model/model.6/cv1/act/Mul_output_0">
					<dim>1</dim>
					<dim>96</dim>
					<dim>26</dim>
					<dim>26</dim>
				</port>
			</output>
		</layer>
		<layer id="227" name="/model/model.6/Div_output_0" type="Const" version="opset1">
			<data element_type="i64" shape="1" offset="333084" size="8" />
			<output>
				<port id="0" precision="I64" names="/model/model.6/Div_output_0">
					<dim>1</dim>
				</port>
			</output>
		</layer>
		<layer id="228" name="/model/model.6/Slice" type="Slice" version="opset8">
			<input>
				<port id="0" precision="FP32">
					<dim>1</dim>
					<dim>96</dim>
					<dim>26</dim>
					<dim>26</dim>
				</port>
				<port id="1" precision="I64">
					<dim>1</dim>
				</port>
				<port id="2" precision="I64">
					<dim>1</dim>
				</port>
				<port id="3" precision="I64">
					<dim>1</dim>
				</port>
				<port id="4" precision="I64">
					<dim>1</dim>
				</port>
			</input>
			<output>
				<port id="5" precision="FP32" names="/model/model.6/Slice_output_0">
					<dim>1</dim>
					<dim>48</dim>
					<dim>26</dim>
					<dim>26</dim>
				</port>
			</output>
		</layer>
		<layer id="229" name="/model/model.6/Mul_1_output_0" type="Const" version="opset1">
			<data element_type="i64" shape="1" offset="333092" size="8" />
			<output>
				<port id="0" precision="I64" names="/model/model.6/Mul_1_output_0">
					<dim>1</dim>
				</port>
			</output>
		</layer>
		<layer id="230" name="Broadcast_31364" type="Const" version="opset1">
			<data element_type="i64" shape="1" offset="26628" size="8" />
			<output>
				<port id="0" precision="I64">
					<dim>1</dim>
				</port>
			</output>
		</layer>
		<layer id="231" name="/model/model.6/Slice_1" type="Slice" version="opset8">
			<input>
				<port id="0" precision="FP32">
					<dim>1</dim>
					<dim>96</dim>
					<dim>26</dim>
					<dim>26</dim>
				</port>
				<port id="1" precision="I64">
					<dim>1</dim>
				</port>
				<port id="2" precision="I64">
					<dim>1</dim>
				</port>
				<port id="3" precision="I64">
					<dim>1</dim>
				</port>
				<port id="4" precision="I64">
					<dim>1</dim>
				</port>
			</input>
			<output>
				<port id="5" precision="FP32" names="/model/model.6/Slice_1_output_0">
					<dim>1</dim>
					<dim>48</dim>
					<dim>26</dim>
					<dim>26</dim>
				</port>
			</output>
		</layer>
		<layer id="232" name="model.model.6.cv2.0.cv1.conv.weight_compressed" type="Const" version="opset1">
			<data element_type="f16" shape="24, 48, 1, 1" offset="333100" size="2304" />
			<output>
				<port id="0" precision="FP16" names="model.model.6.cv2.0.cv1.conv.weight">
					<dim>24</dim>
					<dim>48</dim>
					<dim>1</dim>
					<dim>1</dim>
				</port>
			</output>
		</layer>
		<layer id="233" name="model.model.6.cv2.0.cv1.conv.weight" type="Convert" version="opset1">
			<data destination_type="f32" />
			<rt_info>
				<attribute name="decompression" version="0" />
			</rt_info>
			<input>
				<port id="0" precision="FP16">
					<dim>24</dim>
					<dim>48</dim>
					<dim>1</dim>
					<dim>1</dim>
				</port>
			</input>
			<output>
				<port id="1" precision="FP32">
					<dim>24</dim>
					<dim>48</dim>
					<dim>1</dim>
					<dim>1</dim>
				</port>
			</output>
		</layer>
		<layer id="234" name="/model/model.6/cv2/cv2.0/cv1/conv/Conv/WithoutBiases" type="Convolution" version="opset1">
			<data strides="1, 1" dilations="1, 1" pads_begin="0, 0" pads_end="0, 0" auto_pad="explicit" />
			<input>
				<port id="0" precision="FP32">
					<dim>1</dim>
					<dim>48</dim>
					<dim>26</dim>
					<dim>26</dim>
				</port>
				<port id="1" precision="FP32">
					<dim>24</dim>
					<dim>48</dim>
					<dim>1</dim>
					<dim>1</dim>
				</port>
			</input>
			<output>
				<port id="2" precision="FP32">
					<dim>1</dim>
					<dim>24</dim>
					<dim>26</dim>
					<dim>26</dim>
				</port>
			</output>
		</layer>
		<layer id="235" name="Reshape_31382" type="Const" version="opset1">
			<data element_type="f32" shape="1, 24, 1, 1" offset="335404" size="96" />
			<output>
				<port id="0" precision="FP32">
					<dim>1</dim>
					<dim>24</dim>
					<dim>1</dim>
					<dim>1</dim>
				</port>
			</output>
		</layer>
		<layer id="236" name="/model/model.6/cv2/cv2.0/cv1/conv/Conv" type="Add" version="opset1">
			<data auto_broadcast="numpy" />
			<input>
				<port id="0" precision="FP32">
					<dim>1</dim>
					<dim>24</dim>
					<dim>26</dim>
					<dim>26</dim>
				</port>
				<port id="1" precision="FP32">
					<dim>1</dim>
					<dim>24</dim>
					<dim>1</dim>
					<dim>1</dim>
				</port>
			</input>
			<output>
				<port id="2" precision="FP32" names="/model/model.6/cv2/cv2.0/cv1/conv/Conv_output_0">
					<dim>1</dim>
					<dim>24</dim>
					<dim>26</dim>
					<dim>26</dim>
				</port>
			</output>
		</layer>
		<layer id="237" name="/model/model.6/cv2/cv2.0/cv1/act/Mul" type="Swish" version="opset4">
			<input>
				<port id="0" precision="FP32">
					<dim>1</dim>
					<dim>24</dim>
					<dim>26</dim>
					<dim>26</dim>
				</port>
			</input>
			<output>
				<port id="1" precision="FP32" names="/model/model.6/cv2/cv2.0/cv1/act/Mul_output_0">
					<dim>1</dim>
					<dim>24</dim>
					<dim>26</dim>
					<dim>26</dim>
				</port>
			</output>
		</layer>
		<layer id="238" name="model.model.6.cv2.0.m.0.cv1.conv.weight_compressed" type="Const" version="opset1">
			<data element_type="f16" shape="24, 24, 3, 3" offset="335500" size="10368" />
			<output>
				<port id="0" precision="FP16" names="model.model.6.cv2.0.m.0.cv1.conv.weight">
					<dim>24</dim>
					<dim>24</dim>
					<dim>3</dim>
					<dim>3</dim>
				</port>
			</output>
		</layer>
		<layer id="239" name="model.model.6.cv2.0.m.0.cv1.conv.weight" type="Convert" version="opset1">
			<data destination_type="f32" />
			<rt_info>
				<attribute name="decompression" version="0" />
			</rt_info>
			<input>
				<port id="0" precision="FP16">
					<dim>24</dim>
					<dim>24</dim>
					<dim>3</dim>
					<dim>3</dim>
				</port>
			</input>
			<output>
				<port id="1" precision="FP32">
					<dim>24</dim>
					<dim>24</dim>
					<dim>3</dim>
					<dim>3</dim>
				</port>
			</output>
		</layer>
		<layer id="240" name="/model/model.6/cv2/cv2.0/m/m.0/cv1/conv/Conv/WithoutBiases" type="Convolution" version="opset1">
			<data strides="1, 1" dilations="1, 1" pads_begin="1, 1" pads_end="1, 1" auto_pad="explicit" />
			<input>
				<port id="0" precision="FP32">
					<dim>1</dim>
					<dim>24</dim>
					<dim>26</dim>
					<dim>26</dim>
				</port>
				<port id="1" precision="FP32">
					<dim>24</dim>
					<dim>24</dim>
					<dim>3</dim>
					<dim>3</dim>
				</port>
			</input>
			<output>
				<port id="2" precision="FP32">
					<dim>1</dim>
					<dim>24</dim>
					<dim>26</dim>
					<dim>26</dim>
				</port>
			</output>
		</layer>
		<layer id="241" name="Reshape_31416_compressed" type="Const" version="opset1">
			<data element_type="f16" shape="1, 24, 1, 1" offset="345868" size="48" />
			<output>
				<port id="0" precision="FP16">
					<dim>1</dim>
					<dim>24</dim>
					<dim>1</dim>
					<dim>1</dim>
				</port>
			</output>
		</layer>
		<layer id="242" name="Reshape_31416" type="Convert" version="opset1">
			<data destination_type="f32" />
			<rt_info>
				<attribute name="decompression" version="0" />
			</rt_info>
			<input>
				<port id="0" precision="FP16">
					<dim>1</dim>
					<dim>24</dim>
					<dim>1</dim>
					<dim>1</dim>
				</port>
			</input>
			<output>
				<port id="1" precision="FP32">
					<dim>1</dim>
					<dim>24</dim>
					<dim>1</dim>
					<dim>1</dim>
				</port>
			</output>
		</layer>
		<layer id="243" name="/model/model.6/cv2/cv2.0/m/m.0/cv1/conv/Conv" type="Add" version="opset1">
			<data auto_broadcast="numpy" />
			<input>
				<port id="0" precision="FP32">
					<dim>1</dim>
					<dim>24</dim>
					<dim>26</dim>
					<dim>26</dim>
				</port>
				<port id="1" precision="FP32">
					<dim>1</dim>
					<dim>24</dim>
					<dim>1</dim>
					<dim>1</dim>
				</port>
			</input>
			<output>
				<port id="2" precision="FP32" names="/model/model.6/cv2/cv2.0/m/m.0/cv1/conv/Conv_output_0">
					<dim>1</dim>
					<dim>24</dim>
					<dim>26</dim>
					<dim>26</dim>
				</port>
			</output>
		</layer>
		<layer id="244" name="/model/model.6/cv2/cv2.0/m/m.0/cv1/act/Mul" type="Swish" version="opset4">
			<input>
				<port id="0" precision="FP32">
					<dim>1</dim>
					<dim>24</dim>
					<dim>26</dim>
					<dim>26</dim>
				</port>
			</input>
			<output>
				<port id="1" precision="FP32" names="/model/model.6/cv2/cv2.0/m/m.0/cv1/act/Mul_output_0">
					<dim>1</dim>
					<dim>24</dim>
					<dim>26</dim>
					<dim>26</dim>
				</port>
			</output>
		</layer>
		<layer id="245" name="model.model.6.cv2.0.m.0.cv2.conv.weight_compressed" type="Const" version="opset1">
			<data element_type="f16" shape="24, 24, 3, 3" offset="345916" size="10368" />
			<output>
				<port id="0" precision="FP16" names="model.model.6.cv2.0.m.0.cv2.conv.weight">
					<dim>24</dim>
					<dim>24</dim>
					<dim>3</dim>
					<dim>3</dim>
				</port>
			</output>
		</layer>
		<layer id="246" name="model.model.6.cv2.0.m.0.cv2.conv.weight" type="Convert" version="opset1">
			<data destination_type="f32" />
			<rt_info>
				<attribute name="decompression" version="0" />
			</rt_info>
			<input>
				<port id="0" precision="FP16">
					<dim>24</dim>
					<dim>24</dim>
					<dim>3</dim>
					<dim>3</dim>
				</port>
			</input>
			<output>
				<port id="1" precision="FP32">
					<dim>24</dim>
					<dim>24</dim>
					<dim>3</dim>
					<dim>3</dim>
				</port>
			</output>
		</layer>
		<layer id="247" name="/model/model.6/cv2/cv2.0/m/m.0/cv2/conv/Conv/WithoutBiases" type="Convolution" version="opset1">
			<data strides="1, 1" dilations="1, 1" pads_begin="1, 1" pads_end="1, 1" auto_pad="explicit" />
			<input>
				<port id="0" precision="FP32">
					<dim>1</dim>
					<dim>24</dim>
					<dim>26</dim>
					<dim>26</dim>
				</port>
				<port id="1" precision="FP32">
					<dim>24</dim>
					<dim>24</dim>
					<dim>3</dim>
					<dim>3</dim>
				</port>
			</input>
			<output>
				<port id="2" precision="FP32">
					<dim>1</dim>
					<dim>24</dim>
					<dim>26</dim>
					<dim>26</dim>
				</port>
			</output>
		</layer>
		<layer id="248" name="Reshape_31433" type="Const" version="opset1">
			<data element_type="f32" shape="1, 24, 1, 1" offset="356284" size="96" />
			<output>
				<port id="0" precision="FP32">
					<dim>1</dim>
					<dim>24</dim>
					<dim>1</dim>
					<dim>1</dim>
				</port>
			</output>
		</layer>
		<layer id="249" name="/model/model.6/cv2/cv2.0/m/m.0/cv2/conv/Conv" type="Add" version="opset1">
			<data auto_broadcast="numpy" />
			<input>
				<port id="0" precision="FP32">
					<dim>1</dim>
					<dim>24</dim>
					<dim>26</dim>
					<dim>26</dim>
				</port>
				<port id="1" precision="FP32">
					<dim>1</dim>
					<dim>24</dim>
					<dim>1</dim>
					<dim>1</dim>
				</port>
			</input>
			<output>
				<port id="2" precision="FP32" names="/model/model.6/cv2/cv2.0/m/m.0/cv2/conv/Conv_output_0">
					<dim>1</dim>
					<dim>24</dim>
					<dim>26</dim>
					<dim>26</dim>
				</port>
			</output>
		</layer>
		<layer id="250" name="/model/model.6/cv2/cv2.0/m/m.0/cv2/act/Mul" type="Swish" version="opset4">
			<input>
				<port id="0" precision="FP32">
					<dim>1</dim>
					<dim>24</dim>
					<dim>26</dim>
					<dim>26</dim>
				</port>
			</input>
			<output>
				<port id="1" precision="FP32" names="/model/model.6/cv2/cv2.0/m/m.0/cv2/act/Mul_output_0">
					<dim>1</dim>
					<dim>24</dim>
					<dim>26</dim>
					<dim>26</dim>
				</port>
			</output>
		</layer>
		<layer id="251" name="/model/model.6/cv2/cv2.0/m/m.0/Add" type="Add" version="opset1">
			<data auto_broadcast="numpy" />
			<input>
				<port id="0" precision="FP32">
					<dim>1</dim>
					<dim>24</dim>
					<dim>26</dim>
					<dim>26</dim>
				</port>
				<port id="1" precision="FP32">
					<dim>1</dim>
					<dim>24</dim>
					<dim>26</dim>
					<dim>26</dim>
				</port>
			</input>
			<output>
				<port id="2" precision="FP32" names="/model/model.6/cv2/cv2.0/m/m.0/Add_output_0">
					<dim>1</dim>
					<dim>24</dim>
					<dim>26</dim>
					<dim>26</dim>
				</port>
			</output>
		</layer>
		<layer id="252" name="model.model.6.cv2.0.m.1.cv1.conv.weight_compressed" type="Const" version="opset1">
			<data element_type="f16" shape="24, 24, 3, 3" offset="356380" size="10368" />
			<output>
				<port id="0" precision="FP16" names="model.model.6.cv2.0.m.1.cv1.conv.weight">
					<dim>24</dim>
					<dim>24</dim>
					<dim>3</dim>
					<dim>3</dim>
				</port>
			</output>
		</layer>
		<layer id="253" name="model.model.6.cv2.0.m.1.cv1.conv.weight" type="Convert" version="opset1">
			<data destination_type="f32" />
			<rt_info>
				<attribute name="decompression" version="0" />
			</rt_info>
			<input>
				<port id="0" precision="FP16">
					<dim>24</dim>
					<dim>24</dim>
					<dim>3</dim>
					<dim>3</dim>
				</port>
			</input>
			<output>
				<port id="1" precision="FP32">
					<dim>24</dim>
					<dim>24</dim>
					<dim>3</dim>
					<dim>3</dim>
				</port>
			</output>
		</layer>
		<layer id="254" name="/model/model.6/cv2/cv2.0/m/m.1/cv1/conv/Conv/WithoutBiases" type="Convolution" version="opset1">
			<data strides="1, 1" dilations="1, 1" pads_begin="1, 1" pads_end="1, 1" auto_pad="explicit" />
			<input>
				<port id="0" precision="FP32">
					<dim>1</dim>
					<dim>24</dim>
					<dim>26</dim>
					<dim>26</dim>
				</port>
				<port id="1" precision="FP32">
					<dim>24</dim>
					<dim>24</dim>
					<dim>3</dim>
					<dim>3</dim>
				</port>
			</input>
			<output>
				<port id="2" precision="FP32">
					<dim>1</dim>
					<dim>24</dim>
					<dim>26</dim>
					<dim>26</dim>
				</port>
			</output>
		</layer>
		<layer id="255" name="Reshape_31451_compressed" type="Const" version="opset1">
			<data element_type="f16" shape="1, 24, 1, 1" offset="366748" size="48" />
			<output>
				<port id="0" precision="FP16">
					<dim>1</dim>
					<dim>24</dim>
					<dim>1</dim>
					<dim>1</dim>
				</port>
			</output>
		</layer>
		<layer id="256" name="Reshape_31451" type="Convert" version="opset1">
			<data destination_type="f32" />
			<rt_info>
				<attribute name="decompression" version="0" />
			</rt_info>
			<input>
				<port id="0" precision="FP16">
					<dim>1</dim>
					<dim>24</dim>
					<dim>1</dim>
					<dim>1</dim>
				</port>
			</input>
			<output>
				<port id="1" precision="FP32">
					<dim>1</dim>
					<dim>24</dim>
					<dim>1</dim>
					<dim>1</dim>
				</port>
			</output>
		</layer>
		<layer id="257" name="/model/model.6/cv2/cv2.0/m/m.1/cv1/conv/Conv" type="Add" version="opset1">
			<data auto_broadcast="numpy" />
			<input>
				<port id="0" precision="FP32">
					<dim>1</dim>
					<dim>24</dim>
					<dim>26</dim>
					<dim>26</dim>
				</port>
				<port id="1" precision="FP32">
					<dim>1</dim>
					<dim>24</dim>
					<dim>1</dim>
					<dim>1</dim>
				</port>
			</input>
			<output>
				<port id="2" precision="FP32" names="/model/model.6/cv2/cv2.0/m/m.1/cv1/conv/Conv_output_0">
					<dim>1</dim>
					<dim>24</dim>
					<dim>26</dim>
					<dim>26</dim>
				</port>
			</output>
		</layer>
		<layer id="258" name="/model/model.6/cv2/cv2.0/m/m.1/cv1/act/Mul" type="Swish" version="opset4">
			<input>
				<port id="0" precision="FP32">
					<dim>1</dim>
					<dim>24</dim>
					<dim>26</dim>
					<dim>26</dim>
				</port>
			</input>
			<output>
				<port id="1" precision="FP32" names="/model/model.6/cv2/cv2.0/m/m.1/cv1/act/Mul_output_0">
					<dim>1</dim>
					<dim>24</dim>
					<dim>26</dim>
					<dim>26</dim>
				</port>
			</output>
		</layer>
		<layer id="259" name="model.model.6.cv2.0.m.1.cv2.conv.weight_compressed" type="Const" version="opset1">
			<data element_type="f16" shape="24, 24, 3, 3" offset="366796" size="10368" />
			<output>
				<port id="0" precision="FP16" names="model.model.6.cv2.0.m.1.cv2.conv.weight">
					<dim>24</dim>
					<dim>24</dim>
					<dim>3</dim>
					<dim>3</dim>
				</port>
			</output>
		</layer>
		<layer id="260" name="model.model.6.cv2.0.m.1.cv2.conv.weight" type="Convert" version="opset1">
			<data destination_type="f32" />
			<rt_info>
				<attribute name="decompression" version="0" />
			</rt_info>
			<input>
				<port id="0" precision="FP16">
					<dim>24</dim>
					<dim>24</dim>
					<dim>3</dim>
					<dim>3</dim>
				</port>
			</input>
			<output>
				<port id="1" precision="FP32">
					<dim>24</dim>
					<dim>24</dim>
					<dim>3</dim>
					<dim>3</dim>
				</port>
			</output>
		</layer>
		<layer id="261" name="/model/model.6/cv2/cv2.0/m/m.1/cv2/conv/Conv/WithoutBiases" type="Convolution" version="opset1">
			<data strides="1, 1" dilations="1, 1" pads_begin="1, 1" pads_end="1, 1" auto_pad="explicit" />
			<input>
				<port id="0" precision="FP32">
					<dim>1</dim>
					<dim>24</dim>
					<dim>26</dim>
					<dim>26</dim>
				</port>
				<port id="1" precision="FP32">
					<dim>24</dim>
					<dim>24</dim>
					<dim>3</dim>
					<dim>3</dim>
				</port>
			</input>
			<output>
				<port id="2" precision="FP32">
					<dim>1</dim>
					<dim>24</dim>
					<dim>26</dim>
					<dim>26</dim>
				</port>
			</output>
		</layer>
		<layer id="262" name="Reshape_31468_compressed" type="Const" version="opset1">
			<data element_type="f16" shape="1, 24, 1, 1" offset="377164" size="48" />
			<output>
				<port id="0" precision="FP16">
					<dim>1</dim>
					<dim>24</dim>
					<dim>1</dim>
					<dim>1</dim>
				</port>
			</output>
		</layer>
		<layer id="263" name="Reshape_31468" type="Convert" version="opset1">
			<data destination_type="f32" />
			<rt_info>
				<attribute name="decompression" version="0" />
			</rt_info>
			<input>
				<port id="0" precision="FP16">
					<dim>1</dim>
					<dim>24</dim>
					<dim>1</dim>
					<dim>1</dim>
				</port>
			</input>
			<output>
				<port id="1" precision="FP32">
					<dim>1</dim>
					<dim>24</dim>
					<dim>1</dim>
					<dim>1</dim>
				</port>
			</output>
		</layer>
		<layer id="264" name="/model/model.6/cv2/cv2.0/m/m.1/cv2/conv/Conv" type="Add" version="opset1">
			<data auto_broadcast="numpy" />
			<input>
				<port id="0" precision="FP32">
					<dim>1</dim>
					<dim>24</dim>
					<dim>26</dim>
					<dim>26</dim>
				</port>
				<port id="1" precision="FP32">
					<dim>1</dim>
					<dim>24</dim>
					<dim>1</dim>
					<dim>1</dim>
				</port>
			</input>
			<output>
				<port id="2" precision="FP32" names="/model/model.6/cv2/cv2.0/m/m.1/cv2/conv/Conv_output_0">
					<dim>1</dim>
					<dim>24</dim>
					<dim>26</dim>
					<dim>26</dim>
				</port>
			</output>
		</layer>
		<layer id="265" name="/model/model.6/cv2/cv2.0/m/m.1/cv2/act/Mul" type="Swish" version="opset4">
			<input>
				<port id="0" precision="FP32">
					<dim>1</dim>
					<dim>24</dim>
					<dim>26</dim>
					<dim>26</dim>
				</port>
			</input>
			<output>
				<port id="1" precision="FP32" names="/model/model.6/cv2/cv2.0/m/m.1/cv2/act/Mul_output_0">
					<dim>1</dim>
					<dim>24</dim>
					<dim>26</dim>
					<dim>26</dim>
				</port>
			</output>
		</layer>
		<layer id="266" name="/model/model.6/cv2/cv2.0/m/m.1/Add" type="Add" version="opset1">
			<data auto_broadcast="numpy" />
			<input>
				<port id="0" precision="FP32">
					<dim>1</dim>
					<dim>24</dim>
					<dim>26</dim>
					<dim>26</dim>
				</port>
				<port id="1" precision="FP32">
					<dim>1</dim>
					<dim>24</dim>
					<dim>26</dim>
					<dim>26</dim>
				</port>
			</input>
			<output>
				<port id="2" precision="FP32" names="/model/model.6/cv2/cv2.0/m/m.1/Add_output_0">
					<dim>1</dim>
					<dim>24</dim>
					<dim>26</dim>
					<dim>26</dim>
				</port>
			</output>
		</layer>
		<layer id="267" name="model.model.6.cv2.0.m.2.cv1.conv.weight_compressed" type="Const" version="opset1">
			<data element_type="f16" shape="24, 24, 3, 3" offset="377212" size="10368" />
			<output>
				<port id="0" precision="FP16" names="model.model.6.cv2.0.m.2.cv1.conv.weight">
					<dim>24</dim>
					<dim>24</dim>
					<dim>3</dim>
					<dim>3</dim>
				</port>
			</output>
		</layer>
		<layer id="268" name="model.model.6.cv2.0.m.2.cv1.conv.weight" type="Convert" version="opset1">
			<data destination_type="f32" />
			<rt_info>
				<attribute name="decompression" version="0" />
			</rt_info>
			<input>
				<port id="0" precision="FP16">
					<dim>24</dim>
					<dim>24</dim>
					<dim>3</dim>
					<dim>3</dim>
				</port>
			</input>
			<output>
				<port id="1" precision="FP32">
					<dim>24</dim>
					<dim>24</dim>
					<dim>3</dim>
					<dim>3</dim>
				</port>
			</output>
		</layer>
		<layer id="269" name="/model/model.6/cv2/cv2.0/m/m.2/cv1/conv/Conv/WithoutBiases" type="Convolution" version="opset1">
			<data strides="1, 1" dilations="1, 1" pads_begin="1, 1" pads_end="1, 1" auto_pad="explicit" />
			<input>
				<port id="0" precision="FP32">
					<dim>1</dim>
					<dim>24</dim>
					<dim>26</dim>
					<dim>26</dim>
				</port>
				<port id="1" precision="FP32">
					<dim>24</dim>
					<dim>24</dim>
					<dim>3</dim>
					<dim>3</dim>
				</port>
			</input>
			<output>
				<port id="2" precision="FP32">
					<dim>1</dim>
					<dim>24</dim>
					<dim>26</dim>
					<dim>26</dim>
				</port>
			</output>
		</layer>
		<layer id="270" name="Reshape_31486" type="Const" version="opset1">
			<data element_type="f32" shape="1, 24, 1, 1" offset="387580" size="96" />
			<output>
				<port id="0" precision="FP32">
					<dim>1</dim>
					<dim>24</dim>
					<dim>1</dim>
					<dim>1</dim>
				</port>
			</output>
		</layer>
		<layer id="271" name="/model/model.6/cv2/cv2.0/m/m.2/cv1/conv/Conv" type="Add" version="opset1">
			<data auto_broadcast="numpy" />
			<input>
				<port id="0" precision="FP32">
					<dim>1</dim>
					<dim>24</dim>
					<dim>26</dim>
					<dim>26</dim>
				</port>
				<port id="1" precision="FP32">
					<dim>1</dim>
					<dim>24</dim>
					<dim>1</dim>
					<dim>1</dim>
				</port>
			</input>
			<output>
				<port id="2" precision="FP32" names="/model/model.6/cv2/cv2.0/m/m.2/cv1/conv/Conv_output_0">
					<dim>1</dim>
					<dim>24</dim>
					<dim>26</dim>
					<dim>26</dim>
				</port>
			</output>
		</layer>
		<layer id="272" name="/model/model.6/cv2/cv2.0/m/m.2/cv1/act/Mul" type="Swish" version="opset4">
			<input>
				<port id="0" precision="FP32">
					<dim>1</dim>
					<dim>24</dim>
					<dim>26</dim>
					<dim>26</dim>
				</port>
			</input>
			<output>
				<port id="1" precision="FP32" names="/model/model.6/cv2/cv2.0/m/m.2/cv1/act/Mul_output_0">
					<dim>1</dim>
					<dim>24</dim>
					<dim>26</dim>
					<dim>26</dim>
				</port>
			</output>
		</layer>
		<layer id="273" name="model.model.6.cv2.0.m.2.cv2.conv.weight_compressed" type="Const" version="opset1">
			<data element_type="f16" shape="24, 24, 3, 3" offset="387676" size="10368" />
			<output>
				<port id="0" precision="FP16" names="model.model.6.cv2.0.m.2.cv2.conv.weight">
					<dim>24</dim>
					<dim>24</dim>
					<dim>3</dim>
					<dim>3</dim>
				</port>
			</output>
		</layer>
		<layer id="274" name="model.model.6.cv2.0.m.2.cv2.conv.weight" type="Convert" version="opset1">
			<data destination_type="f32" />
			<rt_info>
				<attribute name="decompression" version="0" />
			</rt_info>
			<input>
				<port id="0" precision="FP16">
					<dim>24</dim>
					<dim>24</dim>
					<dim>3</dim>
					<dim>3</dim>
				</port>
			</input>
			<output>
				<port id="1" precision="FP32">
					<dim>24</dim>
					<dim>24</dim>
					<dim>3</dim>
					<dim>3</dim>
				</port>
			</output>
		</layer>
		<layer id="275" name="/model/model.6/cv2/cv2.0/m/m.2/cv2/conv/Conv/WithoutBiases" type="Convolution" version="opset1">
			<data strides="1, 1" dilations="1, 1" pads_begin="1, 1" pads_end="1, 1" auto_pad="explicit" />
			<input>
				<port id="0" precision="FP32">
					<dim>1</dim>
					<dim>24</dim>
					<dim>26</dim>
					<dim>26</dim>
				</port>
				<port id="1" precision="FP32">
					<dim>24</dim>
					<dim>24</dim>
					<dim>3</dim>
					<dim>3</dim>
				</port>
			</input>
			<output>
				<port id="2" precision="FP32">
					<dim>1</dim>
					<dim>24</dim>
					<dim>26</dim>
					<dim>26</dim>
				</port>
			</output>
		</layer>
		<layer id="276" name="Reshape_31503_compressed" type="Const" version="opset1">
			<data element_type="f16" shape="1, 24, 1, 1" offset="398044" size="48" />
			<output>
				<port id="0" precision="FP16">
					<dim>1</dim>
					<dim>24</dim>
					<dim>1</dim>
					<dim>1</dim>
				</port>
			</output>
		</layer>
		<layer id="277" name="Reshape_31503" type="Convert" version="opset1">
			<data destination_type="f32" />
			<rt_info>
				<attribute name="decompression" version="0" />
			</rt_info>
			<input>
				<port id="0" precision="FP16">
					<dim>1</dim>
					<dim>24</dim>
					<dim>1</dim>
					<dim>1</dim>
				</port>
			</input>
			<output>
				<port id="1" precision="FP32">
					<dim>1</dim>
					<dim>24</dim>
					<dim>1</dim>
					<dim>1</dim>
				</port>
			</output>
		</layer>
		<layer id="278" name="/model/model.6/cv2/cv2.0/m/m.2/cv2/conv/Conv" type="Add" version="opset1">
			<data auto_broadcast="numpy" />
			<input>
				<port id="0" precision="FP32">
					<dim>1</dim>
					<dim>24</dim>
					<dim>26</dim>
					<dim>26</dim>
				</port>
				<port id="1" precision="FP32">
					<dim>1</dim>
					<dim>24</dim>
					<dim>1</dim>
					<dim>1</dim>
				</port>
			</input>
			<output>
				<port id="2" precision="FP32" names="/model/model.6/cv2/cv2.0/m/m.2/cv2/conv/Conv_output_0">
					<dim>1</dim>
					<dim>24</dim>
					<dim>26</dim>
					<dim>26</dim>
				</port>
			</output>
		</layer>
		<layer id="279" name="/model/model.6/cv2/cv2.0/m/m.2/cv2/act/Mul" type="Swish" version="opset4">
			<input>
				<port id="0" precision="FP32">
					<dim>1</dim>
					<dim>24</dim>
					<dim>26</dim>
					<dim>26</dim>
				</port>
			</input>
			<output>
				<port id="1" precision="FP32" names="/model/model.6/cv2/cv2.0/m/m.2/cv2/act/Mul_output_0">
					<dim>1</dim>
					<dim>24</dim>
					<dim>26</dim>
					<dim>26</dim>
				</port>
			</output>
		</layer>
		<layer id="280" name="/model/model.6/cv2/cv2.0/m/m.2/Add" type="Add" version="opset1">
			<data auto_broadcast="numpy" />
			<input>
				<port id="0" precision="FP32">
					<dim>1</dim>
					<dim>24</dim>
					<dim>26</dim>
					<dim>26</dim>
				</port>
				<port id="1" precision="FP32">
					<dim>1</dim>
					<dim>24</dim>
					<dim>26</dim>
					<dim>26</dim>
				</port>
			</input>
			<output>
				<port id="2" precision="FP32" names="/model/model.6/cv2/cv2.0/m/m.2/Add_output_0">
					<dim>1</dim>
					<dim>24</dim>
					<dim>26</dim>
					<dim>26</dim>
				</port>
			</output>
		</layer>
		<layer id="281" name="model.model.6.cv2.0.cv2.conv.weight_compressed" type="Const" version="opset1">
			<data element_type="f16" shape="24, 48, 1, 1" offset="398092" size="2304" />
			<output>
				<port id="0" precision="FP16" names="model.model.6.cv2.0.cv2.conv.weight">
					<dim>24</dim>
					<dim>48</dim>
					<dim>1</dim>
					<dim>1</dim>
				</port>
			</output>
		</layer>
		<layer id="282" name="model.model.6.cv2.0.cv2.conv.weight" type="Convert" version="opset1">
			<data destination_type="f32" />
			<rt_info>
				<attribute name="decompression" version="0" />
			</rt_info>
			<input>
				<port id="0" precision="FP16">
					<dim>24</dim>
					<dim>48</dim>
					<dim>1</dim>
					<dim>1</dim>
				</port>
			</input>
			<output>
				<port id="1" precision="FP32">
					<dim>24</dim>
					<dim>48</dim>
					<dim>1</dim>
					<dim>1</dim>
				</port>
			</output>
		</layer>
		<layer id="283" name="/model/model.6/cv2/cv2.0/cv2/conv/Conv/WithoutBiases" type="Convolution" version="opset1">
			<data strides="1, 1" dilations="1, 1" pads_begin="0, 0" pads_end="0, 0" auto_pad="explicit" />
			<input>
				<port id="0" precision="FP32">
					<dim>1</dim>
					<dim>48</dim>
					<dim>26</dim>
					<dim>26</dim>
				</port>
				<port id="1" precision="FP32">
					<dim>24</dim>
					<dim>48</dim>
					<dim>1</dim>
					<dim>1</dim>
				</port>
			</input>
			<output>
				<port id="2" precision="FP32">
					<dim>1</dim>
					<dim>24</dim>
					<dim>26</dim>
					<dim>26</dim>
				</port>
			</output>
		</layer>
		<layer id="284" name="Reshape_31397_compressed" type="Const" version="opset1">
			<data element_type="f16" shape="1, 24, 1, 1" offset="400396" size="48" />
			<output>
				<port id="0" precision="FP16">
					<dim>1</dim>
					<dim>24</dim>
					<dim>1</dim>
					<dim>1</dim>
				</port>
			</output>
		</layer>
		<layer id="285" name="Reshape_31397" type="Convert" version="opset1">
			<data destination_type="f32" />
			<rt_info>
				<attribute name="decompression" version="0" />
			</rt_info>
			<input>
				<port id="0" precision="FP16">
					<dim>1</dim>
					<dim>24</dim>
					<dim>1</dim>
					<dim>1</dim>
				</port>
			</input>
			<output>
				<port id="1" precision="FP32">
					<dim>1</dim>
					<dim>24</dim>
					<dim>1</dim>
					<dim>1</dim>
				</port>
			</output>
		</layer>
		<layer id="286" name="/model/model.6/cv2/cv2.0/cv2/conv/Conv" type="Add" version="opset1">
			<data auto_broadcast="numpy" />
			<input>
				<port id="0" precision="FP32">
					<dim>1</dim>
					<dim>24</dim>
					<dim>26</dim>
					<dim>26</dim>
				</port>
				<port id="1" precision="FP32">
					<dim>1</dim>
					<dim>24</dim>
					<dim>1</dim>
					<dim>1</dim>
				</port>
			</input>
			<output>
				<port id="2" precision="FP32" names="/model/model.6/cv2/cv2.0/cv2/conv/Conv_output_0">
					<dim>1</dim>
					<dim>24</dim>
					<dim>26</dim>
					<dim>26</dim>
				</port>
			</output>
		</layer>
		<layer id="287" name="/model/model.6/cv2/cv2.0/cv2/act/Mul" type="Swish" version="opset4">
			<input>
				<port id="0" precision="FP32">
					<dim>1</dim>
					<dim>24</dim>
					<dim>26</dim>
					<dim>26</dim>
				</port>
			</input>
			<output>
				<port id="1" precision="FP32" names="/model/model.6/cv2/cv2.0/cv2/act/Mul_output_0">
					<dim>1</dim>
					<dim>24</dim>
					<dim>26</dim>
					<dim>26</dim>
				</port>
			</output>
		</layer>
		<layer id="288" name="/model/model.6/cv2/cv2.0/Concat" type="Concat" version="opset1">
			<data axis="1" />
			<input>
				<port id="0" precision="FP32">
					<dim>1</dim>
					<dim>24</dim>
					<dim>26</dim>
					<dim>26</dim>
				</port>
				<port id="1" precision="FP32">
					<dim>1</dim>
					<dim>24</dim>
					<dim>26</dim>
					<dim>26</dim>
				</port>
			</input>
			<output>
				<port id="2" precision="FP32" names="/model/model.6/cv2/cv2.0/Concat_output_0">
					<dim>1</dim>
					<dim>48</dim>
					<dim>26</dim>
					<dim>26</dim>
				</port>
			</output>
		</layer>
		<layer id="289" name="model.model.6.cv2.0.cv3.conv.weight_compressed" type="Const" version="opset1">
			<data element_type="f16" shape="48, 48, 1, 1" offset="400444" size="4608" />
			<output>
				<port id="0" precision="FP16" names="model.model.6.cv2.0.cv3.conv.weight">
					<dim>48</dim>
					<dim>48</dim>
					<dim>1</dim>
					<dim>1</dim>
				</port>
			</output>
		</layer>
		<layer id="290" name="model.model.6.cv2.0.cv3.conv.weight" type="Convert" version="opset1">
			<data destination_type="f32" />
			<rt_info>
				<attribute name="decompression" version="0" />
			</rt_info>
			<input>
				<port id="0" precision="FP16">
					<dim>48</dim>
					<dim>48</dim>
					<dim>1</dim>
					<dim>1</dim>
				</port>
			</input>
			<output>
				<port id="1" precision="FP32">
					<dim>48</dim>
					<dim>48</dim>
					<dim>1</dim>
					<dim>1</dim>
				</port>
			</output>
		</layer>
		<layer id="291" name="/model/model.6/cv2/cv2.0/cv3/conv/Conv/WithoutBiases" type="Convolution" version="opset1">
			<data strides="1, 1" dilations="1, 1" pads_begin="0, 0" pads_end="0, 0" auto_pad="explicit" />
			<input>
				<port id="0" precision="FP32">
					<dim>1</dim>
					<dim>48</dim>
					<dim>26</dim>
					<dim>26</dim>
				</port>
				<port id="1" precision="FP32">
					<dim>48</dim>
					<dim>48</dim>
					<dim>1</dim>
					<dim>1</dim>
				</port>
			</input>
			<output>
				<port id="2" precision="FP32">
					<dim>1</dim>
					<dim>48</dim>
					<dim>26</dim>
					<dim>26</dim>
				</port>
			</output>
		</layer>
		<layer id="292" name="Reshape_31522_compressed" type="Const" version="opset1">
			<data element_type="f16" shape="1, 48, 1, 1" offset="405052" size="96" />
			<output>
				<port id="0" precision="FP16">
					<dim>1</dim>
					<dim>48</dim>
					<dim>1</dim>
					<dim>1</dim>
				</port>
			</output>
		</layer>
		<layer id="293" name="Reshape_31522" type="Convert" version="opset1">
			<data destination_type="f32" />
			<rt_info>
				<attribute name="decompression" version="0" />
			</rt_info>
			<input>
				<port id="0" precision="FP16">
					<dim>1</dim>
					<dim>48</dim>
					<dim>1</dim>
					<dim>1</dim>
				</port>
			</input>
			<output>
				<port id="1" precision="FP32">
					<dim>1</dim>
					<dim>48</dim>
					<dim>1</dim>
					<dim>1</dim>
				</port>
			</output>
		</layer>
		<layer id="294" name="/model/model.6/cv2/cv2.0/cv3/conv/Conv" type="Add" version="opset1">
			<data auto_broadcast="numpy" />
			<input>
				<port id="0" precision="FP32">
					<dim>1</dim>
					<dim>48</dim>
					<dim>26</dim>
					<dim>26</dim>
				</port>
				<port id="1" precision="FP32">
					<dim>1</dim>
					<dim>48</dim>
					<dim>1</dim>
					<dim>1</dim>
				</port>
			</input>
			<output>
				<port id="2" precision="FP32" names="/model/model.6/cv2/cv2.0/cv3/conv/Conv_output_0">
					<dim>1</dim>
					<dim>48</dim>
					<dim>26</dim>
					<dim>26</dim>
				</port>
			</output>
		</layer>
		<layer id="295" name="/model/model.6/cv2/cv2.0/cv3/act/Mul" type="Swish" version="opset4">
			<input>
				<port id="0" precision="FP32">
					<dim>1</dim>
					<dim>48</dim>
					<dim>26</dim>
					<dim>26</dim>
				</port>
			</input>
			<output>
				<port id="1" precision="FP32" names="/model/model.6/cv2/cv2.0/cv3/act/Mul_output_0">
					<dim>1</dim>
					<dim>48</dim>
					<dim>26</dim>
					<dim>26</dim>
				</port>
			</output>
		</layer>
		<layer id="296" name="model.model.6.cv2.1.conv.weight_compressed" type="Const" version="opset1">
			<data element_type="f16" shape="48, 48, 3, 3" offset="405148" size="41472" />
			<output>
				<port id="0" precision="FP16" names="model.model.6.cv2.1.conv.weight">
					<dim>48</dim>
					<dim>48</dim>
					<dim>3</dim>
					<dim>3</dim>
				</port>
			</output>
		</layer>
		<layer id="297" name="model.model.6.cv2.1.conv.weight" type="Convert" version="opset1">
			<data destination_type="f32" />
			<rt_info>
				<attribute name="decompression" version="0" />
			</rt_info>
			<input>
				<port id="0" precision="FP16">
					<dim>48</dim>
					<dim>48</dim>
					<dim>3</dim>
					<dim>3</dim>
				</port>
			</input>
			<output>
				<port id="1" precision="FP32">
					<dim>48</dim>
					<dim>48</dim>
					<dim>3</dim>
					<dim>3</dim>
				</port>
			</output>
		</layer>
		<layer id="298" name="/model/model.6/cv2/cv2.1/conv/Conv/WithoutBiases" type="Convolution" version="opset1">
			<data strides="1, 1" dilations="1, 1" pads_begin="1, 1" pads_end="1, 1" auto_pad="explicit" />
			<input>
				<port id="0" precision="FP32">
					<dim>1</dim>
					<dim>48</dim>
					<dim>26</dim>
					<dim>26</dim>
				</port>
				<port id="1" precision="FP32">
					<dim>48</dim>
					<dim>48</dim>
					<dim>3</dim>
					<dim>3</dim>
				</port>
			</input>
			<output>
				<port id="2" precision="FP32">
					<dim>1</dim>
					<dim>48</dim>
					<dim>26</dim>
					<dim>26</dim>
				</port>
			</output>
		</layer>
		<layer id="299" name="Reshape_31539" type="Const" version="opset1">
			<data element_type="f32" shape="1, 48, 1, 1" offset="446620" size="192" />
			<output>
				<port id="0" precision="FP32">
					<dim>1</dim>
					<dim>48</dim>
					<dim>1</dim>
					<dim>1</dim>
				</port>
			</output>
		</layer>
		<layer id="300" name="/model/model.6/cv2/cv2.1/conv/Conv" type="Add" version="opset1">
			<data auto_broadcast="numpy" />
			<input>
				<port id="0" precision="FP32">
					<dim>1</dim>
					<dim>48</dim>
					<dim>26</dim>
					<dim>26</dim>
				</port>
				<port id="1" precision="FP32">
					<dim>1</dim>
					<dim>48</dim>
					<dim>1</dim>
					<dim>1</dim>
				</port>
			</input>
			<output>
				<port id="2" precision="FP32" names="/model/model.6/cv2/cv2.1/conv/Conv_output_0">
					<dim>1</dim>
					<dim>48</dim>
					<dim>26</dim>
					<dim>26</dim>
				</port>
			</output>
		</layer>
		<layer id="301" name="/model/model.6/cv2/cv2.1/act/Mul" type="Swish" version="opset4">
			<input>
				<port id="0" precision="FP32">
					<dim>1</dim>
					<dim>48</dim>
					<dim>26</dim>
					<dim>26</dim>
				</port>
			</input>
			<output>
				<port id="1" precision="FP32" names="/model/model.6/cv2/cv2.1/act/Mul_output_0">
					<dim>1</dim>
					<dim>48</dim>
					<dim>26</dim>
					<dim>26</dim>
				</port>
			</output>
		</layer>
		<layer id="302" name="model.model.6.cv3.0.cv1.conv.weight_compressed" type="Const" version="opset1">
			<data element_type="f16" shape="24, 48, 1, 1" offset="446812" size="2304" />
			<output>
				<port id="0" precision="FP16" names="model.model.6.cv3.0.cv1.conv.weight">
					<dim>24</dim>
					<dim>48</dim>
					<dim>1</dim>
					<dim>1</dim>
				</port>
			</output>
		</layer>
		<layer id="303" name="model.model.6.cv3.0.cv1.conv.weight" type="Convert" version="opset1">
			<data destination_type="f32" />
			<rt_info>
				<attribute name="decompression" version="0" />
			</rt_info>
			<input>
				<port id="0" precision="FP16">
					<dim>24</dim>
					<dim>48</dim>
					<dim>1</dim>
					<dim>1</dim>
				</port>
			</input>
			<output>
				<port id="1" precision="FP32">
					<dim>24</dim>
					<dim>48</dim>
					<dim>1</dim>
					<dim>1</dim>
				</port>
			</output>
		</layer>
		<layer id="304" name="/model/model.6/cv3/cv3.0/cv1/conv/Conv/WithoutBiases" type="Convolution" version="opset1">
			<data strides="1, 1" dilations="1, 1" pads_begin="0, 0" pads_end="0, 0" auto_pad="explicit" />
			<input>
				<port id="0" precision="FP32">
					<dim>1</dim>
					<dim>48</dim>
					<dim>26</dim>
					<dim>26</dim>
				</port>
				<port id="1" precision="FP32">
					<dim>24</dim>
					<dim>48</dim>
					<dim>1</dim>
					<dim>1</dim>
				</port>
			</input>
			<output>
				<port id="2" precision="FP32">
					<dim>1</dim>
					<dim>24</dim>
					<dim>26</dim>
					<dim>26</dim>
				</port>
			</output>
		</layer>
		<layer id="305" name="Reshape_31556_compressed" type="Const" version="opset1">
			<data element_type="f16" shape="1, 24, 1, 1" offset="449116" size="48" />
			<output>
				<port id="0" precision="FP16">
					<dim>1</dim>
					<dim>24</dim>
					<dim>1</dim>
					<dim>1</dim>
				</port>
			</output>
		</layer>
		<layer id="306" name="Reshape_31556" type="Convert" version="opset1">
			<data destination_type="f32" />
			<rt_info>
				<attribute name="decompression" version="0" />
			</rt_info>
			<input>
				<port id="0" precision="FP16">
					<dim>1</dim>
					<dim>24</dim>
					<dim>1</dim>
					<dim>1</dim>
				</port>
			</input>
			<output>
				<port id="1" precision="FP32">
					<dim>1</dim>
					<dim>24</dim>
					<dim>1</dim>
					<dim>1</dim>
				</port>
			</output>
		</layer>
		<layer id="307" name="/model/model.6/cv3/cv3.0/cv1/conv/Conv" type="Add" version="opset1">
			<data auto_broadcast="numpy" />
			<input>
				<port id="0" precision="FP32">
					<dim>1</dim>
					<dim>24</dim>
					<dim>26</dim>
					<dim>26</dim>
				</port>
				<port id="1" precision="FP32">
					<dim>1</dim>
					<dim>24</dim>
					<dim>1</dim>
					<dim>1</dim>
				</port>
			</input>
			<output>
				<port id="2" precision="FP32" names="/model/model.6/cv3/cv3.0/cv1/conv/Conv_output_0">
					<dim>1</dim>
					<dim>24</dim>
					<dim>26</dim>
					<dim>26</dim>
				</port>
			</output>
		</layer>
		<layer id="308" name="/model/model.6/cv3/cv3.0/cv1/act/Mul" type="Swish" version="opset4">
			<input>
				<port id="0" precision="FP32">
					<dim>1</dim>
					<dim>24</dim>
					<dim>26</dim>
					<dim>26</dim>
				</port>
			</input>
			<output>
				<port id="1" precision="FP32" names="/model/model.6/cv3/cv3.0/cv1/act/Mul_output_0">
					<dim>1</dim>
					<dim>24</dim>
					<dim>26</dim>
					<dim>26</dim>
				</port>
			</output>
		</layer>
		<layer id="309" name="model.model.6.cv3.0.m.0.cv1.conv.weight_compressed" type="Const" version="opset1">
			<data element_type="f16" shape="24, 24, 3, 3" offset="449164" size="10368" />
			<output>
…
		<edge from-layer="791" from-port="0" to-layer="792" to-port="0" />
		<edge from-layer="792" from-port="1" to-layer="793" to-port="1" />
		<edge from-layer="793" from-port="2" to-layer="794" to-port="0" />
		<edge from-layer="794" from-port="1" to-layer="795" to-port="1" />
		<edge from-layer="795" from-port="2" to-layer="803" to-port="0" />
		<edge from-layer="796" from-port="0" to-layer="797" to-port="0" />
		<edge from-layer="797" from-port="1" to-layer="798" to-port="1" />
		<edge from-layer="798" from-port="2" to-layer="801" to-port="0" />
		<edge from-layer="799" from-port="0" to-layer="800" to-port="0" />
		<edge from-layer="800" from-port="1" to-layer="801" to-port="1" />
		<edge from-layer="801" from-port="2" to-layer="802" to-port="0" />
		<edge from-layer="802" from-port="1" to-layer="803" to-port="1" />
		<edge from-layer="803" from-port="2" to-layer="806" to-port="0" />
		<edge from-layer="804" from-port="0" to-layer="805" to-port="0" />
		<edge from-layer="805" from-port="1" to-layer="806" to-port="1" />
		<edge from-layer="806" from-port="2" to-layer="808" to-port="0" />
		<edge from-layer="807" from-port="0" to-layer="808" to-port="1" />
		<edge from-layer="808" from-port="2" to-layer="809" to-port="0" />
		<edge from-layer="809" from-port="1" to-layer="812" to-port="0" />
		<edge from-layer="810" from-port="0" to-layer="811" to-port="0" />
		<edge from-layer="811" from-port="1" to-layer="812" to-port="1" />
		<edge from-layer="812" from-port="2" to-layer="815" to-port="0" />
		<edge from-layer="813" from-port="0" to-layer="814" to-port="0" />
		<edge from-layer="814" from-port="1" to-layer="815" to-port="1" />
		<edge from-layer="815" from-port="2" to-layer="816" to-port="0" />
		<edge from-layer="816" from-port="1" to-layer="886" to-port="2" />
		<edge from-layer="816" from-port="1" to-layer="868" to-port="0" />
		<edge from-layer="816" from-port="1" to-layer="819" to-port="0" />
		<edge from-layer="817" from-port="0" to-layer="818" to-port="0" />
		<edge from-layer="818" from-port="1" to-layer="819" to-port="1" />
		<edge from-layer="819" from-port="2" to-layer="822" to-port="0" />
		<edge from-layer="820" from-port="0" to-layer="821" to-port="0" />
		<edge from-layer="821" from-port="1" to-layer="822" to-port="1" />
		<edge from-layer="822" from-port="2" to-layer="823" to-port="0" />
		<edge from-layer="823" from-port="1" to-layer="836" to-port="0" />
		<edge from-layer="823" from-port="1" to-layer="826" to-port="0" />
		<edge from-layer="824" from-port="0" to-layer="825" to-port="0" />
		<edge from-layer="825" from-port="1" to-layer="826" to-port="1" />
		<edge from-layer="826" from-port="2" to-layer="828" to-port="0" />
		<edge from-layer="827" from-port="0" to-layer="828" to-port="1" />
		<edge from-layer="828" from-port="2" to-layer="829" to-port="0" />
		<edge from-layer="829" from-port="1" to-layer="832" to-port="0" />
		<edge from-layer="830" from-port="0" to-layer="831" to-port="0" />
		<edge from-layer="831" from-port="1" to-layer="832" to-port="1" />
		<edge from-layer="832" from-port="2" to-layer="834" to-port="0" />
		<edge from-layer="833" from-port="0" to-layer="834" to-port="1" />
		<edge from-layer="834" from-port="2" to-layer="835" to-port="0" />
		<edge from-layer="835" from-port="1" to-layer="836" to-port="1" />
		<edge from-layer="836" from-port="2" to-layer="839" to-port="0" />
		<edge from-layer="836" from-port="2" to-layer="851" to-port="0" />
		<edge from-layer="837" from-port="0" to-layer="838" to-port="0" />
		<edge from-layer="838" from-port="1" to-layer="839" to-port="1" />
		<edge from-layer="839" from-port="2" to-layer="842" to-port="0" />
		<edge from-layer="840" from-port="0" to-layer="841" to-port="0" />
		<edge from-layer="841" from-port="1" to-layer="842" to-port="1" />
		<edge from-layer="842" from-port="2" to-layer="843" to-port="0" />
		<edge from-layer="843" from-port="1" to-layer="846" to-port="0" />
		<edge from-layer="844" from-port="0" to-layer="845" to-port="0" />
		<edge from-layer="845" from-port="1" to-layer="846" to-port="1" />
		<edge from-layer="846" from-port="2" to-layer="849" to-port="0" />
		<edge from-layer="847" from-port="0" to-layer="848" to-port="0" />
		<edge from-layer="848" from-port="1" to-layer="849" to-port="1" />
		<edge from-layer="849" from-port="2" to-layer="850" to-port="0" />
		<edge from-layer="850" from-port="1" to-layer="851" to-port="1" />
		<edge from-layer="851" from-port="2" to-layer="854" to-port="0" />
		<edge from-layer="851" from-port="2" to-layer="865" to-port="0" />
		<edge from-layer="852" from-port="0" to-layer="853" to-port="0" />
		<edge from-layer="853" from-port="1" to-layer="854" to-port="1" />
		<edge from-layer="854" from-port="2" to-layer="857" to-port="0" />
		<edge from-layer="855" from-port="0" to-layer="856" to-port="0" />
		<edge from-layer="856" from-port="1" to-layer="857" to-port="1" />
		<edge from-layer="857" from-port="2" to-layer="858" to-port="0" />
		<edge from-layer="858" from-port="1" to-layer="861" to-port="0" />
		<edge from-layer="859" from-port="0" to-layer="860" to-port="0" />
		<edge from-layer="860" from-port="1" to-layer="861" to-port="1" />
		<edge from-layer="861" from-port="2" to-layer="863" to-port="0" />
		<edge from-layer="862" from-port="0" to-layer="863" to-port="1" />
		<edge from-layer="863" from-port="2" to-layer="864" to-port="0" />
		<edge from-layer="864" from-port="1" to-layer="865" to-port="1" />
		<edge from-layer="865" from-port="2" to-layer="873" to-port="0" />
		<edge from-layer="866" from-port="0" to-layer="867" to-port="0" />
		<edge from-layer="867" from-port="1" to-layer="868" to-port="1" />
		<edge from-layer="868" from-port="2" to-layer="871" to-port="0" />
		<edge from-layer="869" from-port="0" to-layer="870" to-port="0" />
		<edge from-layer="870" from-port="1" to-layer="871" to-port="1" />
		<edge from-layer="871" from-port="2" to-layer="872" to-port="0" />
		<edge from-layer="872" from-port="1" to-layer="873" to-port="1" />
		<edge from-layer="873" from-port="2" to-layer="876" to-port="0" />
		<edge from-layer="874" from-port="0" to-layer="875" to-port="0" />
		<edge from-layer="875" from-port="1" to-layer="876" to-port="1" />
		<edge from-layer="876" from-port="2" to-layer="878" to-port="0" />
		<edge from-layer="877" from-port="0" to-layer="878" to-port="1" />
		<edge from-layer="878" from-port="2" to-layer="879" to-port="0" />
		<edge from-layer="879" from-port="1" to-layer="882" to-port="0" />
		<edge from-layer="880" from-port="0" to-layer="881" to-port="0" />
		<edge from-layer="881" from-port="1" to-layer="882" to-port="1" />
		<edge from-layer="882" from-port="2" to-layer="884" to-port="0" />
		<edge from-layer="883" from-port="0" to-layer="884" to-port="1" />
		<edge from-layer="884" from-port="2" to-layer="885" to-port="0" />
		<edge from-layer="885" from-port="1" to-layer="886" to-port="3" />
		<edge from-layer="886" from-port="4" to-layer="889" to-port="0" />
		<edge from-layer="887" from-port="0" to-layer="888" to-port="0" />
		<edge from-layer="888" from-port="1" to-layer="889" to-port="1" />
		<edge from-layer="889" from-port="2" to-layer="892" to-port="0" />
		<edge from-layer="890" from-port="0" to-layer="891" to-port="0" />
		<edge from-layer="891" from-port="1" to-layer="892" to-port="1" />
		<edge from-layer="892" from-port="2" to-layer="893" to-port="0" />
		<edge from-layer="893" from-port="1" to-layer="936" to-port="0" />
		<edge from-layer="893" from-port="1" to-layer="915" to-port="0" />
		<edge from-layer="893" from-port="1" to-layer="896" to-port="0" />
		<edge from-layer="894" from-port="0" to-layer="895" to-port="0" />
		<edge from-layer="895" from-port="1" to-layer="896" to-port="1" />
		<edge from-layer="896" from-port="2" to-layer="898" to-port="0" />
		<edge from-layer="897" from-port="0" to-layer="898" to-port="1" />
		<edge from-layer="898" from-port="2" to-layer="899" to-port="0" />
		<edge from-layer="899" from-port="1" to-layer="902" to-port="0" />
		<edge from-layer="900" from-port="0" to-layer="901" to-port="0" />
		<edge from-layer="901" from-port="1" to-layer="902" to-port="1" />
		<edge from-layer="902" from-port="2" to-layer="905" to-port="0" />
		<edge from-layer="903" from-port="0" to-layer="904" to-port="0" />
		<edge from-layer="904" from-port="1" to-layer="905" to-port="1" />
		<edge from-layer="905" from-port="2" to-layer="906" to-port="0" />
		<edge from-layer="906" from-port="1" to-layer="909" to-port="0" />
		<edge from-layer="907" from-port="0" to-layer="908" to-port="0" />
		<edge from-layer="908" from-port="1" to-layer="909" to-port="1" />
		<edge from-layer="909" from-port="2" to-layer="912" to-port="0" />
		<edge from-layer="910" from-port="0" to-layer="911" to-port="0" />
		<edge from-layer="911" from-port="1" to-layer="912" to-port="1" />
		<edge from-layer="912" from-port="2" to-layer="933" to-port="0" />
		<edge from-layer="913" from-port="0" to-layer="914" to-port="0" />
		<edge from-layer="914" from-port="1" to-layer="915" to-port="1" />
		<edge from-layer="915" from-port="2" to-layer="918" to-port="0" />
		<edge from-layer="916" from-port="0" to-layer="917" to-port="0" />
		<edge from-layer="917" from-port="1" to-layer="918" to-port="1" />
		<edge from-layer="918" from-port="2" to-layer="919" to-port="0" />
		<edge from-layer="919" from-port="1" to-layer="922" to-port="0" />
		<edge from-layer="920" from-port="0" to-layer="921" to-port="0" />
		<edge from-layer="921" from-port="1" to-layer="922" to-port="1" />
		<edge from-layer="922" from-port="2" to-layer="925" to-port="0" />
		<edge from-layer="923" from-port="0" to-layer="924" to-port="0" />
		<edge from-layer="924" from-port="1" to-layer="925" to-port="1" />
		<edge from-layer="925" from-port="2" to-layer="926" to-port="0" />
		<edge from-layer="926" from-port="1" to-layer="929" to-port="0" />
		<edge from-layer="927" from-port="0" to-layer="928" to-port="0" />
		<edge from-layer="928" from-port="1" to-layer="929" to-port="1" />
		<edge from-layer="929" from-port="2" to-layer="932" to-port="0" />
		<edge from-layer="930" from-port="0" to-layer="931" to-port="0" />
		<edge from-layer="931" from-port="1" to-layer="932" to-port="1" />
		<edge from-layer="932" from-port="2" to-layer="933" to-port="1" />
		<edge from-layer="933" from-port="2" to-layer="935" to-port="0" />
		<edge from-layer="934" from-port="0" to-layer="1143" to-port="1" />
		<edge from-layer="934" from-port="0" to-layer="935" to-port="1" />
		<edge from-layer="934" from-port="0" to-layer="1349" to-port="1" />
		<edge from-layer="935" from-port="2" to-layer="1350" to-port="0" />
		<edge from-layer="936" from-port="1" to-layer="939" to-port="0" />
		<edge from-layer="937" from-port="0" to-layer="938" to-port="0" />
		<edge from-layer="938" from-port="1" to-layer="939" to-port="1" />
		<edge from-layer="939" from-port="2" to-layer="942" to-port="0" />
		<edge from-layer="940" from-port="0" to-layer="941" to-port="0" />
		<edge from-layer="941" from-port="1" to-layer="942" to-port="1" />
		<edge from-layer="942" from-port="2" to-layer="943" to-port="0" />
		<edge from-layer="943" from-port="1" to-layer="944" to-port="0" />
		<edge from-layer="944" from-port="2" to-layer="947" to-port="0" />
		<edge from-layer="945" from-port="0" to-layer="946" to-port="0" />
		<edge from-layer="946" from-port="1" to-layer="947" to-port="1" />
		<edge from-layer="947" from-port="2" to-layer="950" to-port="0" />
		<edge from-layer="948" from-port="0" to-layer="949" to-port="0" />
		<edge from-layer="949" from-port="1" to-layer="950" to-port="1" />
		<edge from-layer="950" from-port="2" to-layer="951" to-port="0" />
		<edge from-layer="951" from-port="1" to-layer="953" to-port="0" />
		<edge from-layer="951" from-port="1" to-layer="952" to-port="0" />
		<edge from-layer="952" from-port="5" to-layer="1094" to-port="0" />
		<edge from-layer="953" from-port="5" to-layer="1004" to-port="0" />
		<edge from-layer="953" from-port="5" to-layer="956" to-port="0" />
		<edge from-layer="953" from-port="5" to-layer="1094" to-port="1" />
		<edge from-layer="954" from-port="0" to-layer="955" to-port="0" />
		<edge from-layer="955" from-port="1" to-layer="956" to-port="1" />
		<edge from-layer="956" from-port="2" to-layer="958" to-port="0" />
		<edge from-layer="957" from-port="0" to-layer="958" to-port="1" />
		<edge from-layer="958" from-port="2" to-layer="959" to-port="0" />
		<edge from-layer="959" from-port="1" to-layer="972" to-port="0" />
		<edge from-layer="959" from-port="1" to-layer="962" to-port="0" />
		<edge from-layer="960" from-port="0" to-layer="961" to-port="0" />
		<edge from-layer="961" from-port="1" to-layer="962" to-port="1" />
		<edge from-layer="962" from-port="2" to-layer="964" to-port="0" />
		<edge from-layer="963" from-port="0" to-layer="964" to-port="1" />
		<edge from-layer="964" from-port="2" to-layer="965" to-port="0" />
		<edge from-layer="965" from-port="1" to-layer="968" to-port="0" />
		<edge from-layer="966" from-port="0" to-layer="967" to-port="0" />
		<edge from-layer="967" from-port="1" to-layer="968" to-port="1" />
		<edge from-layer="968" from-port="2" to-layer="970" to-port="0" />
		<edge from-layer="969" from-port="0" to-layer="970" to-port="1" />
		<edge from-layer="970" from-port="2" to-layer="971" to-port="0" />
		<edge from-layer="971" from-port="1" to-layer="972" to-port="1" />
		<edge from-layer="972" from-port="2" to-layer="987" to-port="0" />
		<edge from-layer="972" from-port="2" to-layer="975" to-port="0" />
		<edge from-layer="973" from-port="0" to-layer="974" to-port="0" />
		<edge from-layer="974" from-port="1" to-layer="975" to-port="1" />
		<edge from-layer="975" from-port="2" to-layer="978" to-port="0" />
		<edge from-layer="976" from-port="0" to-layer="977" to-port="0" />
		<edge from-layer="977" from-port="1" to-layer="978" to-port="1" />
		<edge from-layer="978" from-port="2" to-layer="979" to-port="0" />
		<edge from-layer="979" from-port="1" to-layer="982" to-port="0" />
		<edge from-layer="980" from-port="0" to-layer="981" to-port="0" />
		<edge from-layer="981" from-port="1" to-layer="982" to-port="1" />
		<edge from-layer="982" from-port="2" to-layer="985" to-port="0" />
		<edge from-layer="983" from-port="0" to-layer="984" to-port="0" />
		<edge from-layer="984" from-port="1" to-layer="985" to-port="1" />
		<edge from-layer="985" from-port="2" to-layer="986" to-port="0" />
		<edge from-layer="986" from-port="1" to-layer="987" to-port="1" />
		<edge from-layer="987" from-port="2" to-layer="990" to-port="0" />
		<edge from-layer="987" from-port="2" to-layer="1001" to-port="0" />
		<edge from-layer="988" from-port="0" to-layer="989" to-port="0" />
		<edge from-layer="989" from-port="1" to-layer="990" to-port="1" />
		<edge from-layer="990" from-port="2" to-layer="993" to-port="0" />
		<edge from-layer="991" from-port="0" to-layer="992" to-port="0" />
		<edge from-layer="992" from-port="1" to-layer="993" to-port="1" />
		<edge from-layer="993" from-port="2" to-layer="994" to-port="0" />
		<edge from-layer="994" from-port="1" to-layer="997" to-port="0" />
		<edge from-layer="995" from-port="0" to-layer="996" to-port="0" />
		<edge from-layer="996" from-port="1" to-layer="997" to-port="1" />
		<edge from-layer="997" from-port="2" to-layer="999" to-port="0" />
		<edge from-layer="998" from-port="0" to-layer="999" to-port="1" />
		<edge from-layer="999" from-port="2" to-layer="1000" to-port="0" />
		<edge from-layer="1000" from-port="1" to-layer="1001" to-port="1" />
		<edge from-layer="1001" from-port="2" to-layer="1008" to-port="0" />
		<edge from-layer="1002" from-port="0" to-layer="1003" to-port="0" />
		<edge from-layer="1003" from-port="1" to-layer="1004" to-port="1" />
		<edge from-layer="1004" from-port="2" to-layer="1006" to-port="0" />
		<edge from-layer="1005" from-port="0" to-layer="1006" to-port="1" />
		<edge from-layer="1006" from-port="2" to-layer="1007" to-port="0" />
		<edge from-layer="1007" from-port="1" to-layer="1008" to-port="1" />
		<edge from-layer="1008" from-port="2" to-layer="1011" to-port="0" />
		<edge from-layer="1009" from-port="0" to-layer="1010" to-port="0" />
		<edge from-layer="1010" from-port="1" to-layer="1011" to-port="1" />
		<edge from-layer="1011" from-port="2" to-layer="1014" to-port="0" />
		<edge from-layer="1012" from-port="0" to-layer="1013" to-port="0" />
		<edge from-layer="1013" from-port="1" to-layer="1014" to-port="1" />
		<edge from-layer="1014" from-port="2" to-layer="1015" to-port="0" />
		<edge from-layer="1015" from-port="1" to-layer="1018" to-port="0" />
		<edge from-layer="1016" from-port="0" to-layer="1017" to-port="0" />
		<edge from-layer="1017" from-port="1" to-layer="1018" to-port="1" />
		<edge from-layer="1018" from-port="2" to-layer="1020" to-port="0" />
		<edge from-layer="1019" from-port="0" to-layer="1020" to-port="1" />
		<edge from-layer="1020" from-port="2" to-layer="1021" to-port="0" />
		<edge from-layer="1021" from-port="1" to-layer="1074" to-port="0" />
		<edge from-layer="1021" from-port="1" to-layer="1094" to-port="2" />
		<edge from-layer="1021" from-port="1" to-layer="1024" to-port="0" />
		<edge from-layer="1022" from-port="0" to-layer="1023" to-port="0" />
		<edge from-layer="1023" from-port="1" to-layer="1024" to-port="1" />
		<edge from-layer="1024" from-port="2" to-layer="1027" to-port="0" />
		<edge from-layer="1025" from-port="0" to-layer="1026" to-port="0" />
		<edge from-layer="1026" from-port="1" to-layer="1027" to-port="1" />
		<edge from-layer="1027" from-port="2" to-layer="1028" to-port="0" />
		<edge from-layer="1028" from-port="1" to-layer="1031" to-port="0" />
		<edge from-layer="1028" from-port="1" to-layer="1042" to-port="0" />
		<edge from-layer="1029" from-port="0" to-layer="1030" to-port="0" />
		<edge from-layer="1030" from-port="1" to-layer="1031" to-port="1" />
		<edge from-layer="1031" from-port="2" to-layer="1033" to-port="0" />
		<edge from-layer="1032" from-port="0" to-layer="1033" to-port="1" />
		<edge from-layer="1033" from-port="2" to-layer="1034" to-port="0" />
		<edge from-layer="1034" from-port="1" to-layer="1037" to-port="0" />
		<edge from-layer="1035" from-port="0" to-layer="1036" to-port="0" />
		<edge from-layer="1036" from-port="1" to-layer="1037" to-port="1" />
		<edge from-layer="1037" from-port="2" to-layer="1040" to-port="0" />
		<edge from-layer="1038" from-port="0" to-layer="1039" to-port="0" />
		<edge from-layer="1039" from-port="1" to-layer="1040" to-port="1" />
		<edge from-layer="1040" from-port="2" to-layer="1041" to-port="0" />
		<edge from-layer="1041" from-port="1" to-layer="1042" to-port="1" />
		<edge from-layer="1042" from-port="2" to-layer="1056" to-port="0" />
		<edge from-layer="1042" from-port="2" to-layer="1045" to-port="0" />
		<edge from-layer="1043" from-port="0" to-layer="1044" to-port="0" />
		<edge from-layer="1044" from-port="1" to-layer="1045" to-port="1" />
		<edge from-layer="1045" from-port="2" to-layer="1047" to-port="0" />
		<edge from-layer="1046" from-port="0" to-layer="1047" to-port="1" />
		<edge from-layer="1047" from-port="2" to-layer="1048" to-port="0" />
		<edge from-layer="1048" from-port="1" to-layer="1051" to-port="0" />
		<edge from-layer="1049" from-port="0" to-layer="1050" to-port="0" />
		<edge from-layer="1050" from-port="1" to-layer="1051" to-port="1" />
		<edge from-layer="1051" from-port="2" to-layer="1054" to-port="0" />
		<edge from-layer="1052" from-port="0" to-layer="1053" to-port="0" />
		<edge from-layer="1053" from-port="1" to-layer="1054" to-port="1" />
		<edge from-layer="1054" from-port="2" to-layer="1055" to-port="0" />
		<edge from-layer="1055" from-port="1" to-layer="1056" to-port="1" />
		<edge from-layer="1056" from-port="2" to-layer="1059" to-port="0" />
		<edge from-layer="1056" from-port="2" to-layer="1071" to-port="0" />
		<edge from-layer="1057" from-port="0" to-layer="1058" to-port="0" />
		<edge from-layer="1058" from-port="1" to-layer="1059" to-port="1" />
		<edge from-layer="1059" from-port="2" to-layer="1062" to-port="0" />
		<edge from-layer="1060" from-port="0" to-layer="1061" to-port="0" />
		<edge from-layer="1061" from-port="1" to-layer="1062" to-port="1" />
		<edge from-layer="1062" from-port="2" to-layer="1063" to-port="0" />
		<edge from-layer="1063" from-port="1" to-layer="1066" to-port="0" />
		<edge from-layer="1064" from-port="0" to-layer="1065" to-port="0" />
		<edge from-layer="1065" from-port="1" to-layer="1066" to-port="1" />
		<edge from-layer="1066" from-port="2" to-layer="1069" to-port="0" />
		<edge from-layer="1067" from-port="0" to-layer="1068" to-port="0" />
		<edge from-layer="1068" from-port="1" to-layer="1069" to-port="1" />
		<edge from-layer="1069" from-port="2" to-layer="1070" to-port="0" />
		<edge from-layer="1070" from-port="1" to-layer="1071" to-port="1" />
		<edge from-layer="1071" from-port="2" to-layer="1079" to-port="0" />
		<edge from-layer="1072" from-port="0" to-layer="1073" to-port="0" />
		<edge from-layer="1073" from-port="1" to-layer="1074" to-port="1" />
		<edge from-layer="1074" from-port="2" to-layer="1077" to-port="0" />
		<edge from-layer="1075" from-port="0" to-layer="1076" to-port="0" />
		<edge from-layer="1076" from-port="1" to-layer="1077" to-port="1" />
		<edge from-layer="1077" from-port="2" to-layer="1078" to-port="0" />
		<edge from-layer="1078" from-port="1" to-layer="1079" to-port="1" />
		<edge from-layer="1079" from-port="2" to-layer="1082" to-port="0" />
		<edge from-layer="1080" from-port="0" to-layer="1081" to-port="0" />
		<edge from-layer="1081" from-port="1" to-layer="1082" to-port="1" />
		<edge from-layer="1082" from-port="2" to-layer="1085" to-port="0" />
		<edge from-layer="1083" from-port="0" to-layer="1084" to-port="0" />
		<edge from-layer="1084" from-port="1" to-layer="1085" to-port="1" />
		<edge from-layer="1085" from-port="2" to-layer="1086" to-port="0" />
		<edge from-layer="1086" from-port="1" to-layer="1089" to-port="0" />
		<edge from-layer="1087" from-port="0" to-layer="1088" to-port="0" />
		<edge from-layer="1088" from-port="1" to-layer="1089" to-port="1" />
		<edge from-layer="1089" from-port="2" to-layer="1092" to-port="0" />
		<edge from-layer="1090" from-port="0" to-layer="1091" to-port="0" />
		<edge from-layer="1091" from-port="1" to-layer="1092" to-port="1" />
		<edge from-layer="1092" from-port="2" to-layer="1093" to-port="0" />
		<edge from-layer="1093" from-port="1" to-layer="1094" to-port="3" />
		<edge from-layer="1094" from-port="4" to-layer="1097" to-port="0" />
		<edge from-layer="1095" from-port="0" to-layer="1096" to-port="0" />
		<edge from-layer="1096" from-port="1" to-layer="1097" to-port="1" />
		<edge from-layer="1097" from-port="2" to-layer="1100" to-port="0" />
		<edge from-layer="1098" from-port="0" to-layer="1099" to-port="0" />
		<edge from-layer="1099" from-port="1" to-layer="1100" to-port="1" />
		<edge from-layer="1100" from-port="2" to-layer="1101" to-port="0" />
		<edge from-layer="1101" from-port="1" to-layer="1124" to-port="0" />
		<edge from-layer="1101" from-port="1" to-layer="1104" to-port="0" />
		<edge from-layer="1101" from-port="1" to-layer="1144" to-port="0" />
		<edge from-layer="1102" from-port="0" to-layer="1103" to-port="0" />
		<edge from-layer="1103" from-port="1" to-layer="1104" to-port="1" />
		<edge from-layer="1104" from-port="2" to-layer="1107" to-port="0" />
		<edge from-layer="1105" from-port="0" to-layer="1106" to-port="0" />
		<edge from-layer="1106" from-port="1" to-layer="1107" to-port="1" />
		<edge from-layer="1107" from-port="2" to-layer="1108" to-port="0" />
		<edge from-layer="1108" from-port="1" to-layer="1111" to-port="0" />
		<edge from-layer="1109" from-port="0" to-layer="1110" to-port="0" />
		<edge from-layer="1110" from-port="1" to-layer="1111" to-port="1" />
		<edge from-layer="1111" from-port="2" to-layer="1114" to-port="0" />
		<edge from-layer="1112" from-port="0" to-layer="1113" to-port="0" />
		<edge from-layer="1113" from-port="1" to-layer="1114" to-port="1" />
		<edge from-layer="1114" from-port="2" to-layer="1115" to-port="0" />
		<edge from-layer="1115" from-port="1" to-layer="1118" to-port="0" />
		<edge from-layer="1116" from-port="0" to-layer="1117" to-port="0" />
		<edge from-layer="1117" from-port="1" to-layer="1118" to-port="1" />
		<edge from-layer="1118" from-port="2" to-layer="1121" to-port="0" />
		<edge from-layer="1119" from-port="0" to-layer="1120" to-port="0" />
		<edge from-layer="1120" from-port="1" to-layer="1121" to-port="1" />
		<edge from-layer="1121" from-port="2" to-layer="1142" to-port="0" />
		<edge from-layer="1122" from-port="0" to-layer="1123" to-port="0" />
		<edge from-layer="1123" from-port="1" to-layer="1124" to-port="1" />
		<edge from-layer="1124" from-port="2" to-layer="1127" to-port="0" />
		<edge from-layer="1125" from-port="0" to-layer="1126" to-port="0" />
		<edge from-layer="1126" from-port="1" to-layer="1127" to-port="1" />
		<edge from-layer="1127" from-port="2" to-layer="1128" to-port="0" />
		<edge from-layer="1128" from-port="1" to-layer="1131" to-port="0" />
		<edge from-layer="1129" from-port="0" to-layer="1130" to-port="0" />
		<edge from-layer="1130" from-port="1" to-layer="1131" to-port="1" />
		<edge from-layer="1131" from-port="2" to-layer="1134" to-port="0" />
		<edge from-layer="1132" from-port="0" to-layer="1133" to-port="0" />
		<edge from-layer="1133" from-port="1" to-layer="1134" to-port="1" />
		<edge from-layer="1134" from-port="2" to-layer="1135" to-port="0" />
		<edge from-layer="1135" from-port="1" to-layer="1138" to-port="0" />
		<edge from-layer="1136" from-port="0" to-layer="1137" to-port="0" />
		<edge from-layer="1137" from-port="1" to-layer="1138" to-port="1" />
		<edge from-layer="1138" from-port="2" to-layer="1141" to-port="0" />
		<edge from-layer="1139" from-port="0" to-layer="1140" to-port="0" />
		<edge from-layer="1140" from-port="1" to-layer="1141" to-port="1" />
		<edge from-layer="1141" from-port="2" to-layer="1142" to-port="1" />
		<edge from-layer="1142" from-port="2" to-layer="1143" to-port="0" />
		<edge from-layer="1143" from-port="2" to-layer="1350" to-port="1" />
		<edge from-layer="1144" from-port="1" to-layer="1147" to-port="0" />
		<edge from-layer="1145" from-port="0" to-layer="1146" to-port="0" />
		<edge from-layer="1146" from-port="1" to-layer="1147" to-port="1" />
		<edge from-layer="1147" from-port="2" to-layer="1150" to-port="0" />
		<edge from-layer="1148" from-port="0" to-layer="1149" to-port="0" />
		<edge from-layer="1149" from-port="1" to-layer="1150" to-port="1" />
		<edge from-layer="1150" from-port="2" to-layer="1151" to-port="0" />
		<edge from-layer="1151" from-port="1" to-layer="1152" to-port="0" />
		<edge from-layer="1152" from-port="2" to-layer="1155" to-port="0" />
		<edge from-layer="1153" from-port="0" to-layer="1154" to-port="0" />
		<edge from-layer="1154" from-port="1" to-layer="1155" to-port="1" />
		<edge from-layer="1155" from-port="2" to-layer="1158" to-port="0" />
		<edge from-layer="1156" from-port="0" to-layer="1157" to-port="0" />
		<edge from-layer="1157" from-port="1" to-layer="1158" to-port="1" />
		<edge from-layer="1158" from-port="2" to-layer="1159" to-port="0" />
		<edge from-layer="1159" from-port="1" to-layer="1160" to-port="0" />
		<edge from-layer="1159" from-port="1" to-layer="1161" to-port="0" />
		<edge from-layer="1160" from-port="5" to-layer="1301" to-port="0" />
		<edge from-layer="1161" from-port="5" to-layer="1301" to-port="1" />
		<edge from-layer="1161" from-port="5" to-layer="1164" to-port="0" />
		<edge from-layer="1161" from-port="5" to-layer="1213" to-port="0" />
		<edge from-layer="1162" from-port="0" to-layer="1163" to-port="0" />
		<edge from-layer="1163" from-port="1" to-layer="1164" to-port="1" />
		<edge from-layer="1164" from-port="2" to-layer="1166" to-port="0" />
		<edge from-layer="1165" from-port="0" to-layer="1166" to-port="1" />
		<edge from-layer="1166" from-port="2" to-layer="1167" to-port="0" />
		<edge from-layer="1167" from-port="1" to-layer="1182" to-port="0" />
		<edge from-layer="1167" from-port="1" to-layer="1170" to-port="0" />
		<edge from-layer="1168" from-port="0" to-layer="1169" to-port="0" />
		<edge from-layer="1169" from-port="1" to-layer="1170" to-port="1" />
		<edge from-layer="1170" from-port="2" to-layer="1173" to-port="0" />
		<edge from-layer="1171" from-port="0" to-layer="1172" to-port="0" />
		<edge from-layer="1172" from-port="1" to-layer="1173" to-port="1" />
		<edge from-layer="1173" from-port="2" to-layer="1174" to-port="0" />
		<edge from-layer="1174" from-port="1" to-layer="1177" to-port="0" />
		<edge from-layer="1175" from-port="0" to-layer="1176" to-port="0" />
		<edge from-layer="1176" from-port="1" to-layer="1177" to-port="1" />
		<edge from-layer="1177" from-port="2" to-layer="1180" to-port="0" />
		<edge from-layer="1178" from-port="0" to-layer="1179" to-port="0" />
		<edge from-layer="1179" from-port="1" to-layer="1180" to-port="1" />
		<edge from-layer="1180" from-port="2" to-layer="1181" to-port="0" />
		<edge from-layer="1181" from-port="1" to-layer="1182" to-port="1" />
		<edge from-layer="1182" from-port="2" to-layer="1196" to-port="0" />
		<edge from-layer="1182" from-port="2" to-layer="1185" to-port="0" />
		<edge from-layer="1183" from-port="0" to-layer="1184" to-port="0" />
		<edge from-layer="1184" from-port="1" to-layer="1185" to-port="1" />
		<edge from-layer="1185" from-port="2" to-layer="1187" to-port="0" />
		<edge from-layer="1186" from-port="0" to-layer="1187" to-port="1" />
		<edge from-layer="1187" from-port="2" to-layer="1188" to-port="0" />
		<edge from-layer="1188" from-port="1" to-layer="1191" to-port="0" />
		<edge from-layer="1189" from-port="0" to-layer="1190" to-port="0" />
		<edge from-layer="1190" from-port="1" to-layer="1191" to-port="1" />
		<edge from-layer="1191" from-port="2" to-layer="1194" to-port="0" />
		<edge from-layer="1192" from-port="0" to-layer="1193" to-port="0" />
		<edge from-layer="1193" from-port="1" to-layer="1194" to-port="1" />
		<edge from-layer="1194" from-port="2" to-layer="1195" to-port="0" />
		<edge from-layer="1195" from-port="1" to-layer="1196" to-port="1" />
		<edge from-layer="1196" from-port="2" to-layer="1199" to-port="0" />
		<edge from-layer="1196" from-port="2" to-layer="1210" to-port="0" />
		<edge from-layer="1197" from-port="0" to-layer="1198" to-port="0" />
		<edge from-layer="1198" from-port="1" to-layer="1199" to-port="1" />
		<edge from-layer="1199" from-port="2" to-layer="1201" to-port="0" />
		<edge from-layer="1200" from-port="0" to-layer="1201" to-port="1" />
		<edge from-layer="1201" from-port="2" to-layer="1202" to-port="0" />
		<edge from-layer="1202" from-port="1" to-layer="1205" to-port="0" />
		<edge from-layer="1203" from-port="0" to-layer="1204" to-port="0" />
		<edge from-layer="1204" from-port="1" to-layer="1205" to-port="1" />
		<edge from-layer="1205" from-port="2" to-layer="1208" to-port="0" />
		<edge from-layer="1206" from-port="0" to-layer="1207" to-port="0" />
		<edge from-layer="1207" from-port="1" to-layer="1208" to-port="1" />
		<edge from-layer="1208" from-port="2" to-layer="1209" to-port="0" />
		<edge from-layer="1209" from-port="1" to-layer="1210" to-port="1" />
		<edge from-layer="1210" from-port="2" to-layer="1217" to-port="0" />
		<edge from-layer="1211" from-port="0" to-layer="1212" to-port="0" />
		<edge from-layer="1212" from-port="1" to-layer="1213" to-port="1" />
		<edge from-layer="1213" from-port="2" to-layer="1215" to-port="0" />
		<edge from-layer="1214" from-port="0" to-layer="1215" to-port="1" />
		<edge from-layer="1215" from-port="2" to-layer="1216" to-port="0" />
		<edge from-layer="1216" from-port="1" to-layer="1217" to-port="1" />
		<edge from-layer="1217" from-port="2" to-layer="1220" to-port="0" />
		<edge from-layer="1218" from-port="0" to-layer="1219" to-port="0" />
		<edge from-layer="1219" from-port="1" to-layer="1220" to-port="1" />
		<edge from-layer="1220" from-port="2" to-layer="1222" to-port="0" />
		<edge from-layer="1221" from-port="0" to-layer="1222" to-port="1" />
		<edge from-layer="1222" from-port="2" to-layer="1223" to-port="0" />
		<edge from-layer="1223" from-port="1" to-layer="1226" to-port="0" />
		<edge from-layer="1224" from-port="0" to-layer="1225" to-port="0" />
		<edge from-layer="1225" from-port="1" to-layer="1226" to-port="1" />
		<edge from-layer="1226" from-port="2" to-layer="1229" to-port="0" />
		<edge from-layer="1227" from-port="0" to-layer="1228" to-port="0" />
		<edge from-layer="1228" from-port="1" to-layer="1229" to-port="1" />
		<edge from-layer="1229" from-port="2" to-layer="1230" to-port="0" />
		<edge from-layer="1230" from-port="1" to-layer="1281" to-port="0" />
		<edge from-layer="1230" from-port="1" to-layer="1233" to-port="0" />
		<edge from-layer="1230" from-port="1" to-layer="1301" to-port="2" />
		<edge from-layer="1231" from-port="0" to-layer="1232" to-port="0" />
		<edge from-layer="1232" from-port="1" to-layer="1233" to-port="1" />
		<edge from-layer="1233" from-port="2" to-layer="1235" to-port="0" />
		<edge from-layer="1234" from-port="0" to-layer="1235" to-port="1" />
		<edge from-layer="1235" from-port="2" to-layer="1236" to-port="0" />
		<edge from-layer="1236" from-port="1" to-layer="1251" to-port="0" />
		<edge from-layer="1236" from-port="1" to-layer="1239" to-port="0" />
		<edge from-layer="1237" from-port="0" to-layer="1238" to-port="0" />
		<edge from-layer="1238" from-port="1" to-layer="1239" to-port="1" />
		<edge from-layer="1239" from-port="2" to-layer="1242" to-port="0" />
		<edge from-layer="1240" from-port="0" to-layer="1241" to-port="0" />
		<edge from-layer="1241" from-port="1" to-layer="1242" to-port="1" />
		<edge from-layer="1242" from-port="2" to-layer="1243" to-port="0" />
		<edge from-layer="1243" from-port="1" to-layer="1246" to-port="0" />
		<edge from-layer="1244" from-port="0" to-layer="1245" to-port="0" />
		<edge from-layer="1245" from-port="1" to-layer="1246" to-port="1" />
		<edge from-layer="1246" from-port="2" to-layer="1249" to-port="0" />
		<edge from-layer="1247" from-port="0" to-layer="1248" to-port="0" />
		<edge from-layer="1248" from-port="1" to-layer="1249" to-port="1" />
		<edge from-layer="1249" from-port="2" to-layer="1250" to-port="0" />
		<edge from-layer="1250" from-port="1" to-layer="1251" to-port="1" />
		<edge from-layer="1251" from-port="2" to-layer="1264" to-port="0" />
		<edge from-layer="1251" from-port="2" to-layer="1254" to-port="0" />
		<edge from-layer="1252" from-port="0" to-layer="1253" to-port="0" />
		<edge from-layer="1253" from-port="1" to-layer="1254" to-port="1" />
		<edge from-layer="1254" from-port="2" to-layer="1256" to-port="0" />
		<edge from-layer="1255" from-port="0" to-layer="1256" to-port="1" />
		<edge from-layer="1256" from-port="2" to-layer="1257" to-port="0" />
		<edge from-layer="1257" from-port="1" to-layer="1260" to-port="0" />
		<edge from-layer="1258" from-port="0" to-layer="1259" to-port="0" />
		<edge from-layer="1259" from-port="1" to-layer="1260" to-port="1" />
		<edge from-layer="1260" from-port="2" to-layer="1262" to-port="0" />
		<edge from-layer="1261" from-port="0" to-layer="1262" to-port="1" />
		<edge from-layer="1262" from-port="2" to-layer="1263" to-port="0" />
		<edge from-layer="1263" from-port="1" to-layer="1264" to-port="1" />
		<edge from-layer="1264" from-port="2" to-layer="1278" to-port="0" />
		<edge from-layer="1264" from-port="2" to-layer="1267" to-port="0" />
		<edge from-layer="1265" from-port="0" to-layer="1266" to-port="0" />
		<edge from-layer="1266" from-port="1" to-layer="1267" to-port="1" />
		<edge from-layer="1267" from-port="2" to-layer="1269" to-port="0" />
		<edge from-layer="1268" from-port="0" to-layer="1269" to-port="1" />
		<edge from-layer="1269" from-port="2" to-layer="1270" to-port="0" />
		<edge from-layer="1270" from-port="1" to-layer="1273" to-port="0" />
		<edge from-layer="1271" from-port="0" to-layer="1272" to-port="0" />
		<edge from-layer="1272" from-port="1" to-layer="1273" to-port="1" />
		<edge from-layer="1273" from-port="2" to-layer="1276" to-port="0" />
		<edge from-layer="1274" from-port="0" to-layer="1275" to-port="0" />
		<edge from-layer="1275" from-port="1" to-layer="1276" to-port="1" />
		<edge from-layer="1276" from-port="2" to-layer="1277" to-port="0" />
		<edge from-layer="1277" from-port="1" to-layer="1278" to-port="1" />
		<edge from-layer="1278" from-port="2" to-layer="1286" to-port="0" />
		<edge from-layer="1279" from-port="0" to-layer="1280" to-port="0" />
		<edge from-layer="1280" from-port="1" to-layer="1281" to-port="1" />
		<edge from-layer="1281" from-port="2" to-layer="1284" to-port="0" />
		<edge from-layer="1282" from-port="0" to-layer="1283" to-port="0" />
		<edge from-layer="1283" from-port="1" to-layer="1284" to-port="1" />
		<edge from-layer="1284" from-port="2" to-layer="1285" to-port="0" />
		<edge from-layer="1285" from-port="1" to-layer="1286" to-port="1" />
		<edge from-layer="1286" from-port="2" to-layer="1289" to-port="0" />
		<edge from-layer="1287" from-port="0" to-layer="1288" to-port="0" />
		<edge from-layer="1288" from-port="1" to-layer="1289" to-port="1" />
		<edge from-layer="1289" from-port="2" to-layer="1292" to-port="0" />
		<edge from-layer="1290" from-port="0" to-layer="1291" to-port="0" />
		<edge from-layer="1291" from-port="1" to-layer="1292" to-port="1" />
		<edge from-layer="1292" from-port="2" to-layer="1293" to-port="0" />
		<edge from-layer="1293" from-port="1" to-layer="1296" to-port="0" />
		<edge from-layer="1294" from-port="0" to-layer="1295" to-port="0" />
		<edge from-layer="1295" from-port="1" to-layer="1296" to-port="1" />
		<edge from-layer="1296" from-port="2" to-layer="1299" to-port="0" />
		<edge from-layer="1297" from-port="0" to-layer="1298" to-port="0" />
		<edge from-layer="1298" from-port="1" to-layer="1299" to-port="1" />
		<edge from-layer="1299" from-port="2" to-layer="1300" to-port="0" />
		<edge from-layer="1300" from-port="1" to-layer="1301" to-port="3" />
		<edge from-layer="1301" from-port="4" to-layer="1304" to-port="0" />
		<edge from-layer="1302" from-port="0" to-layer="1303" to-port="0" />
		<edge from-layer="1303" from-port="1" to-layer="1304" to-port="1" />
		<edge from-layer="1304" from-port="2" to-layer="1307" to-port="0" />
		<edge from-layer="1305" from-port="0" to-layer="1306" to-port="0" />
		<edge from-layer="1306" from-port="1" to-layer="1307" to-port="1" />
		<edge from-layer="1307" from-port="2" to-layer="1308" to-port="0" />
		<edge from-layer="1308" from-port="1" to-layer="1330" to-port="0" />
		<edge from-layer="1308" from-port="1" to-layer="1311" to-port="0" />
		<edge from-layer="1309" from-port="0" to-layer="1310" to-port="0" />
		<edge from-layer="1310" from-port="1" to-layer="1311" to-port="1" />
		<edge from-layer="1311" from-port="2" to-layer="1314" to-port="0" />
		<edge from-layer="1312" from-port="0" to-layer="1313" to-port="0" />
		<edge from-layer="1313" from-port="1" to-layer="1314" to-port="1" />
		<edge from-layer="1314" from-port="2" to-layer="1315" to-port="0" />
		<edge from-layer="1315" from-port="1" to-layer="1318" to-port="0" />
		<edge from-layer="1316" from-port="0" to-layer="1317" to-port="0" />
		<edge from-layer="1317" from-port="1" to-layer="1318" to-port="1" />
		<edge from-layer="1318" from-port="2" to-layer="1320" to-port="0" />
		<edge from-layer="1319" from-port="0" to-layer="1320" to-port="1" />
		<edge from-layer="1320" from-port="2" to-layer="1321" to-port="0" />
		<edge from-layer="1321" from-port="1" to-layer="1324" to-port="0" />
		<edge from-layer="1322" from-port="0" to-layer="1323" to-port="0" />
		<edge from-layer="1323" from-port="1" to-layer="1324" to-port="1" />
		<edge from-layer="1324" from-port="2" to-layer="1327" to-port="0" />
		<edge from-layer="1325" from-port="0" to-layer="1326" to-port="0" />
		<edge from-layer="1326" from-port="1" to-layer="1327" to-port="1" />
		<edge from-layer="1327" from-port="2" to-layer="1348" to-port="0" />
		<edge from-layer="1328" from-port="0" to-layer="1329" to-port="0" />
		<edge from-layer="1329" from-port="1" to-layer="1330" to-port="1" />
		<edge from-layer="1330" from-port="2" to-layer="1333" to-port="0" />
		<edge from-layer="1331" from-port="0" to-layer="1332" to-port="0" />
		<edge from-layer="1332" from-port="1" to-layer="1333" to-port="1" />
		<edge from-layer="1333" from-port="2" to-layer="1334" to-port="0" />
		<edge from-layer="1334" from-port="1" to-layer="1337" to-port="0" />
		<edge from-layer="1335" from-port="0" to-layer="1336" to-port="0" />
		<edge from-layer="1336" from-port="1" to-layer="1337" to-port="1" />
		<edge from-layer="1337" from-port="2" to-layer="1340" to-port="0" />
		<edge from-layer="1338" from-port="0" to-layer="1339" to-port="0" />
		<edge from-layer="1339" from-port="1" to-layer="1340" to-port="1" />
		<edge from-layer="1340" from-port="2" to-layer="1341" to-port="0" />
		<edge from-layer="1341" from-port="1" to-layer="1344" to-port="0" />
		<edge from-layer="1342" from-port="0" to-layer="1343" to-port="0" />
		<edge from-layer="1343" from-port="1" to-layer="1344" to-port="1" />
		<edge from-layer="1344" from-port="2" to-layer="1347" to-port="0" />
		<edge from-layer="1345" from-port="0" to-layer="1346" to-port="0" />
		<edge from-layer="1346" from-port="1" to-layer="1347" to-port="1" />
		<edge from-layer="1347" from-port="2" to-layer="1348" to-port="1" />
		<edge from-layer="1348" from-port="2" to-layer="1349" to-port="0" />
		<edge from-layer="1349" from-port="2" to-layer="1350" to-port="2" />
		<edge from-layer="1350" from-port="3" to-layer="1353" to-port="0" />
		<edge from-layer="1351" from-port="0" to-layer="1353" to-port="1" />
		<edge from-layer="1352" from-port="0" to-layer="1353" to-port="2" />
		<edge from-layer="1353" from-port="3" to-layer="1355" to-port="0" />
		<edge from-layer="1353" from-port="4" to-layer="1378" to-port="0" />
		<edge from-layer="1354" from-port="0" to-layer="1355" to-port="1" />
		<edge from-layer="1355" from-port="2" to-layer="1357" to-port="0" />
		<edge from-layer="1356" from-port="0" to-layer="1357" to-port="1" />
		<edge from-layer="1357" from-port="2" to-layer="1358" to-port="0" />
		<edge from-layer="1358" from-port="1" to-layer="1361" to-port="0" />
		<edge from-layer="1359" from-port="0" to-layer="1360" to-port="0" />
		<edge from-layer="1360" from-port="1" to-layer="1361" to-port="1" />
		<edge from-layer="1361" from-port="2" to-layer="1363" to-port="0" />
		<edge from-layer="1362" from-port="0" to-layer="1363" to-port="1" />
		<edge from-layer="1363" from-port="2" to-layer="1366" to-port="0" />
		<edge from-layer="1364" from-port="0" to-layer="1366" to-port="1" />
		<edge from-layer="1365" from-port="0" to-layer="1366" to-port="2" />
		<edge from-layer="1366" from-port="4" to-layer="1368" to-port="1" />
		<edge from-layer="1366" from-port="3" to-layer="1367" to-port="1" />
		<edge from-layer="1367" from-port="2" to-layer="1369" to-port="0" />
		<edge from-layer="1367" from-port="2" to-layer="1373" to-port="1" />
		<edge from-layer="1368" from-port="2" to-layer="1369" to-port="1" />
		<edge from-layer="1368" from-port="2" to-layer="1373" to-port="0" />
		<edge from-layer="1369" from-port="2" to-layer="1372" to-port="0" />
		<edge from-layer="1370" from-port="0" to-layer="1371" to-port="0" />
		<edge from-layer="1371" from-port="1" to-layer="1372" to-port="1" />
		<edge from-layer="1372" from-port="2" to-layer="1374" to-port="0" />
		<edge from-layer="1373" from-port="2" to-layer="1374" to-port="1" />
		<edge from-layer="1374" from-port="2" to-layer="1377" to-port="0" />
		<edge from-layer="1375" from-port="0" to-layer="1376" to-port="0" />
		<edge from-layer="1376" from-port="1" to-layer="1377" to-port="1" />
		<edge from-layer="1377" from-port="2" to-layer="1379" to-port="0" />
		<edge from-layer="1378" from-port="1" to-layer="1379" to-port="1" />
		<edge from-layer="1379" from-port="2" to-layer="1381" to-port="0" />
		<edge from-layer="1380" from-port="0" to-layer="1381" to-port="1" />
		<edge from-layer="1381" from-port="2" to-layer="1383" to-port="0" />
		<edge from-layer="1381" from-port="2" to-layer="1384" to-port="0" />
		<edge from-layer="1381" from-port="2" to-layer="1386" to-port="0" />
		<edge from-layer="1381" from-port="2" to-layer="1388" to-port="0" />
		<edge from-layer="1381" from-port="2" to-layer="1396" to-port="0" />
		<edge from-layer="1382" from-port="0" to-layer="1383" to-port="4" />
		<edge from-layer="1382" from-port="0" to-layer="1384" to-port="2" />
		<edge from-layer="1382" from-port="0" to-layer="1384" to-port="4" />
		<edge from-layer="1382" from-port="0" to-layer="1386" to-port="1" />
		<edge from-layer="1382" from-port="0" to-layer="1386" to-port="4" />
		<edge from-layer="1382" from-port="0" to-layer="1396" to-port="4" />
		<edge from-layer="1382" from-port="0" to-layer="1388" to-port="4" />
		<edge from-layer="1382" from-port="0" to-layer="1394" to-port="1" />
		<edge from-layer="1382" from-port="0" to-layer="1390" to-port="1" />
		<edge from-layer="1383" from-port="5" to-layer="1389" to-port="0" />
		<edge from-layer="1384" from-port="5" to-layer="1389" to-port="1" />
		<edge from-layer="1385" from-port="0" to-layer="1388" to-port="1" />
		<edge from-layer="1385" from-port="0" to-layer="1386" to-port="2" />
		<edge from-layer="1386" from-port="5" to-layer="1389" to-port="2" />
		<edge from-layer="1387" from-port="0" to-layer="1396" to-port="1" />
		<edge from-layer="1387" from-port="0" to-layer="1388" to-port="2" />
		<edge from-layer="1388" from-port="5" to-layer="1389" to-port="3" />
		<edge from-layer="1389" from-port="4" to-layer="1390" to-port="0" />
		<edge from-layer="1390" from-port="2" to-layer="1393" to-port="0" />
		<edge from-layer="1391" from-port="0" to-layer="1392" to-port="0" />
		<edge from-layer="1392" from-port="1" to-layer="1393" to-port="1" />
		<edge from-layer="1393" from-port="2" to-layer="1394" to-port="0" />
		<edge from-layer="1394" from-port="2" to-layer="1403" to-port="0" />
		<edge from-layer="1394" from-port="2" to-layer="1418" to-port="0" />
		<edge from-layer="1395" from-port="0" to-layer="1396" to-port="2" />
		<edge from-layer="1396" from-port="5" to-layer="1398" to-port="0" />
		<edge from-layer="1396" from-port="5" to-layer="1405" to-port="0" />
		<edge from-layer="1397" from-port="0" to-layer="1398" to-port="1" />
		<edge from-layer="1398" from-port="3" to-layer="1399" to-port="0" />
		<edge from-layer="1398" from-port="3" to-layer="1428" to-port="0" />
		<edge from-layer="1399" from-port="1" to-layer="1402" to-port="0" />
		<edge from-layer="1400" from-port="0" to-layer="1401" to-port="0" />
		<edge from-layer="1401" from-port="1" to-layer="1402" to-port="1" />
		<edge from-layer="1402" from-port="2" to-layer="1403" to-port="1" />
		<edge from-layer="1403" from-port="2" to-layer="1411" to-port="0" />
		<edge from-layer="1404" from-port="0" to-layer="1405" to-port="1" />
		<edge from-layer="1405" from-port="2" to-layer="1433" to-port="0" />
		<edge from-layer="1405" from-port="2" to-layer="1407" to-port="0" />
		<edge from-layer="1406" from-port="0" to-layer="1407" to-port="1" />
		<edge from-layer="1407" from-port="2" to-layer="1411" to-port="1" />
		<edge from-layer="1408" from-port="0" to-layer="1411" to-port="2" />
		<edge from-layer="1409" from-port="0" to-layer="1411" to-port="3" />
		<edge from-layer="1410" from-port="0" to-layer="1411" to-port="4" />
		<edge from-layer="1411" from-port="5" to-layer="1414" to-port="0" />
		<edge from-layer="1411" from-port="5" to-layer="1421" to-port="0" />
		<edge from-layer="1412" from-port="0" to-layer="1414" to-port="1" />
		<edge from-layer="1413" from-port="0" to-layer="1414" to-port="2" />
		<edge from-layer="1414" from-port="3" to-layer="1415" to-port="0" />
		<edge from-layer="1414" from-port="3" to-layer="1423" to-port="0" />
		<edge from-layer="1415" from-port="2" to-layer="1416" to-port="0" />
		<edge from-layer="1416" from-port="1" to-layer="1436" to-port="0" />
		<edge from-layer="1417" from-port="0" to-layer="1418" to-port="1" />
		<edge from-layer="1418" from-port="2" to-layer="1426" to-port="0" />
		<edge from-layer="1419" from-port="0" to-layer="1421" to-port="1" />
		<edge from-layer="1420" from-port="0" to-layer="1421" to-port="2" />
		<edge from-layer="1421" from-port="3" to-layer="1424" to-port="0" />
		<edge from-layer="1422" from-port="0" to-layer="1423" to-port="1" />
		<edge from-layer="1423" from-port="2" to-layer="1424" to-port="1" />
		<edge from-layer="1424" from-port="2" to-layer="1426" to-port="1" />
		<edge from-layer="1424" from-port="2" to-layer="1430" to-port="1" />
		<edge from-layer="1424" from-port="2" to-layer="1435" to-port="1" />
		<edge from-layer="1425" from-port="0" to-layer="1426" to-port="2" />
		<edge from-layer="1426" from-port="3" to-layer="1436" to-port="1" />
		<edge from-layer="1427" from-port="0" to-layer="1428" to-port="1" />
		<edge from-layer="1428" from-port="2" to-layer="1430" to-port="0" />
		<edge from-layer="1429" from-port="0" to-layer="1430" to-port="2" />
		<edge from-layer="1430" from-port="3" to-layer="1431" to-port="0" />
		<edge from-layer="1431" from-port="1" to-layer="1436" to-port="2" />
		<edge from-layer="1432" from-port="0" to-layer="1433" to-port="1" />
		<edge from-layer="1433" from-port="2" to-layer="1435" to-port="0" />
		<edge from-layer="1434" from-port="0" to-layer="1435" to-port="2" />
		<edge from-layer="1435" from-port="3" to-layer="1436" to-port="3" />
		<edge from-layer="1436" from-port="4" to-layer="1437" to-port="0" />
	</edges>
	<rt_info>
		<info name="OpenVINO Runtime" value="2026.2.1-21919-ede283a88e3-releases/2026/2" />
		<Runtime_version value="2026.2.1-21919-ede283a88e3-releases/2026/2" />
		<conversion_parameters>
			<input_model value="DIR/yolo-v9-t-416-license-plates.onnx" />
			<is_python_object value="False" />
		</conversion_parameters>
	</rt_info>
</net>
