<?xml version="1.0"?>
<net name="onnx_Frontend_IR" version="11">
	<layers>
		<layer id="0" name="images" type="Parameter" version="opset1">
			<data shape="1,3,256,256" element_type="f32" />
			<output>
				<port id="0" precision="FP32" names="images">
					<dim>1</dim>
					<dim>3</dim>
					<dim>256</dim>
					<dim>256</dim>
				</port>
			</output>
		</layer>
		<layer id="1" name="/model/model.22/Constant_5_output_0_compressed" type="Const" version="opset1">
			<data element_type="f16" shape="1, 2, 1344" offset="0" size="5376" />
			<output>
				<port id="0" precision="FP16" names="/model/model.22/Constant_5_output_0">
					<dim>1</dim>
					<dim>2</dim>
					<dim>1344</dim>
				</port>
			</output>
		</layer>
		<layer id="2" name="/model/model.22/Constant_5_output_0" type="Convert" version="opset1">
			<data destination_type="f32" />
			<rt_info>
				<attribute name="decompression" version="0" />
			</rt_info>
			<input>
				<port id="0" precision="FP16">
					<dim>1</dim>
					<dim>2</dim>
					<dim>1344</dim>
				</port>
			</input>
			<output>
				<port id="1" precision="FP32">
					<dim>1</dim>
					<dim>2</dim>
					<dim>1344</dim>
				</port>
			</output>
		</layer>
		<layer id="3" name="model.model.0.conv.weight_compressed" type="Const" version="opset1">
			<data element_type="f16" shape="16, 3, 3, 3" offset="5376" size="864" />
			<output>
				<port id="0" precision="FP16" names="model.model.0.conv.weight">
					<dim>16</dim>
					<dim>3</dim>
					<dim>3</dim>
					<dim>3</dim>
				</port>
			</output>
		</layer>
		<layer id="4" name="model.model.0.conv.weight" type="Convert" version="opset1">
			<data destination_type="f32" />
			<rt_info>
				<attribute name="decompression" version="0" />
			</rt_info>
			<input>
				<port id="0" precision="FP16">
					<dim>16</dim>
					<dim>3</dim>
					<dim>3</dim>
					<dim>3</dim>
				</port>
			</input>
			<output>
				<port id="1" precision="FP32">
					<dim>16</dim>
					<dim>3</dim>
					<dim>3</dim>
					<dim>3</dim>
				</port>
			</output>
		</layer>
		<layer id="5" name="/model/model.0/conv/Conv/WithoutBiases" type="Convolution" version="opset1">
			<data strides="2, 2" dilations="1, 1" pads_begin="1, 1" pads_end="1, 1" auto_pad="explicit" />
			<input>
				<port id="0" precision="FP32">
					<dim>1</dim>
					<dim>3</dim>
					<dim>256</dim>
					<dim>256</dim>
				</port>
				<port id="1" precision="FP32">
					<dim>16</dim>
					<dim>3</dim>
					<dim>3</dim>
					<dim>3</dim>
				</port>
			</input>
			<output>
				<port id="2" precision="FP32">
					<dim>1</dim>
					<dim>16</dim>
					<dim>128</dim>
					<dim>128</dim>
				</port>
			</output>
		</layer>
		<layer id="6" name="Reshape_15_compressed" type="Const" version="opset1">
			<data element_type="f16" shape="1, 16, 1, 1" offset="6240" size="32" />
			<output>
				<port id="0" precision="FP16">
					<dim>1</dim>
					<dim>16</dim>
					<dim>1</dim>
					<dim>1</dim>
				</port>
			</output>
		</layer>
		<layer id="7" name="Reshape_15" type="Convert" version="opset1">
			<data destination_type="f32" />
			<rt_info>
				<attribute name="decompression" version="0" />
			</rt_info>
			<input>
				<port id="0" precision="FP16">
					<dim>1</dim>
					<dim>16</dim>
					<dim>1</dim>
					<dim>1</dim>
				</port>
			</input>
			<output>
				<port id="1" precision="FP32">
					<dim>1</dim>
					<dim>16</dim>
					<dim>1</dim>
					<dim>1</dim>
				</port>
			</output>
		</layer>
		<layer id="8" name="/model/model.0/conv/Conv" type="Add" version="opset1">
			<data auto_broadcast="numpy" />
			<input>
				<port id="0" precision="FP32">
					<dim>1</dim>
					<dim>16</dim>
					<dim>128</dim>
					<dim>128</dim>
				</port>
				<port id="1" precision="FP32">
					<dim>1</dim>
					<dim>16</dim>
					<dim>1</dim>
					<dim>1</dim>
				</port>
			</input>
			<output>
				<port id="2" precision="FP32" names="/model/model.0/conv/Conv_output_0">
					<dim>1</dim>
					<dim>16</dim>
					<dim>128</dim>
					<dim>128</dim>
				</port>
			</output>
		</layer>
		<layer id="9" name="/model/model.0/act/Mul" type="Swish" version="opset4">
			<input>
				<port id="0" precision="FP32">
					<dim>1</dim>
					<dim>16</dim>
					<dim>128</dim>
					<dim>128</dim>
				</port>
			</input>
			<output>
				<port id="1" precision="FP32" names="/model/model.0/act/Mul_output_0">
					<dim>1</dim>
					<dim>16</dim>
					<dim>128</dim>
					<dim>128</dim>
				</port>
			</output>
		</layer>
		<layer id="10" name="model.model.1.conv.weight_compressed" type="Const" version="opset1">
			<data element_type="f16" shape="32, 16, 3, 3" offset="6272" size="9216" />
			<output>
				<port id="0" precision="FP16" names="model.model.1.conv.weight">
					<dim>32</dim>
					<dim>16</dim>
					<dim>3</dim>
					<dim>3</dim>
				</port>
			</output>
		</layer>
		<layer id="11" name="model.model.1.conv.weight" type="Convert" version="opset1">
			<data destination_type="f32" />
			<rt_info>
				<attribute name="decompression" version="0" />
			</rt_info>
			<input>
				<port id="0" precision="FP16">
					<dim>32</dim>
					<dim>16</dim>
					<dim>3</dim>
					<dim>3</dim>
				</port>
			</input>
			<output>
				<port id="1" precision="FP32">
					<dim>32</dim>
					<dim>16</dim>
					<dim>3</dim>
					<dim>3</dim>
				</port>
			</output>
		</layer>
		<layer id="12" name="/model/model.1/conv/Conv/WithoutBiases" type="Convolution" version="opset1">
			<data strides="2, 2" dilations="1, 1" pads_begin="1, 1" pads_end="1, 1" auto_pad="explicit" />
			<input>
				<port id="0" precision="FP32">
					<dim>1</dim>
					<dim>16</dim>
					<dim>128</dim>
					<dim>128</dim>
				</port>
				<port id="1" precision="FP32">
					<dim>32</dim>
					<dim>16</dim>
					<dim>3</dim>
					<dim>3</dim>
				</port>
			</input>
			<output>
				<port id="2" precision="FP32">
					<dim>1</dim>
					<dim>32</dim>
					<dim>64</dim>
					<dim>64</dim>
				</port>
			</output>
		</layer>
		<layer id="13" name="Reshape_32_compressed" type="Const" version="opset1">
			<data element_type="f16" shape="1, 32, 1, 1" offset="15488" size="64" />
			<output>
				<port id="0" precision="FP16">
					<dim>1</dim>
					<dim>32</dim>
					<dim>1</dim>
					<dim>1</dim>
				</port>
			</output>
		</layer>
		<layer id="14" name="Reshape_32" type="Convert" version="opset1">
			<data destination_type="f32" />
			<rt_info>
				<attribute name="decompression" version="0" />
			</rt_info>
			<input>
				<port id="0" precision="FP16">
					<dim>1</dim>
					<dim>32</dim>
					<dim>1</dim>
					<dim>1</dim>
				</port>
			</input>
			<output>
				<port id="1" precision="FP32">
					<dim>1</dim>
					<dim>32</dim>
					<dim>1</dim>
					<dim>1</dim>
				</port>
			</output>
		</layer>
		<layer id="15" name="/model/model.1/conv/Conv" type="Add" version="opset1">
			<data auto_broadcast="numpy" />
			<input>
				<port id="0" precision="FP32">
					<dim>1</dim>
					<dim>32</dim>
					<dim>64</dim>
					<dim>64</dim>
				</port>
				<port id="1" precision="FP32">
					<dim>1</dim>
					<dim>32</dim>
					<dim>1</dim>
					<dim>1</dim>
				</port>
			</input>
			<output>
				<port id="2" precision="FP32" names="/model/model.1/conv/Conv_output_0">
					<dim>1</dim>
					<dim>32</dim>
					<dim>64</dim>
					<dim>64</dim>
				</port>
			</output>
		</layer>
		<layer id="16" name="/model/model.1/act/Mul" type="Swish" version="opset4">
			<input>
				<port id="0" precision="FP32">
					<dim>1</dim>
					<dim>32</dim>
					<dim>64</dim>
					<dim>64</dim>
				</port>
			</input>
			<output>
				<port id="1" precision="FP32" names="/model/model.1/act/Mul_output_0">
					<dim>1</dim>
					<dim>32</dim>
					<dim>64</dim>
					<dim>64</dim>
				</port>
			</output>
		</layer>
		<layer id="17" name="model.model.2.cv1.conv.weight_compressed" type="Const" version="opset1">
			<data element_type="f16" shape="32, 32, 1, 1" offset="15552" size="2048" />
			<output>
				<port id="0" precision="FP16" names="model.model.2.cv1.conv.weight">
					<dim>32</dim>
					<dim>32</dim>
					<dim>1</dim>
					<dim>1</dim>
				</port>
			</output>
		</layer>
		<layer id="18" name="model.model.2.cv1.conv.weight" type="Convert" version="opset1">
			<data destination_type="f32" />
			<rt_info>
				<attribute name="decompression" version="0" />
			</rt_info>
			<input>
				<port id="0" precision="FP16">
					<dim>32</dim>
					<dim>32</dim>
					<dim>1</dim>
					<dim>1</dim>
				</port>
			</input>
			<output>
				<port id="1" precision="FP32">
					<dim>32</dim>
					<dim>32</dim>
					<dim>1</dim>
					<dim>1</dim>
				</port>
			</output>
		</layer>
		<layer id="19" name="/model/model.2/cv1/conv/Conv/WithoutBiases" type="Convolution" version="opset1">
			<data strides="1, 1" dilations="1, 1" pads_begin="0, 0" pads_end="0, 0" auto_pad="explicit" />
			<input>
				<port id="0" precision="FP32">
					<dim>1</dim>
					<dim>32</dim>
					<dim>64</dim>
					<dim>64</dim>
				</port>
				<port id="1" precision="FP32">
					<dim>32</dim>
					<dim>32</dim>
					<dim>1</dim>
					<dim>1</dim>
				</port>
			</input>
			<output>
				<port id="2" precision="FP32">
					<dim>1</dim>
					<dim>32</dim>
					<dim>64</dim>
					<dim>64</dim>
				</port>
			</output>
		</layer>
		<layer id="20" name="Reshape_49" type="Const" version="opset1">
			<data element_type="f32" shape="1, 32, 1, 1" offset="17600" size="128" />
			<output>
				<port id="0" precision="FP32">
					<dim>1</dim>
					<dim>32</dim>
					<dim>1</dim>
					<dim>1</dim>
				</port>
			</output>
		</layer>
		<layer id="21" name="/model/model.2/cv1/conv/Conv" type="Add" version="opset1">
			<data auto_broadcast="numpy" />
			<input>
				<port id="0" precision="FP32">
					<dim>1</dim>
					<dim>32</dim>
					<dim>64</dim>
					<dim>64</dim>
				</port>
				<port id="1" precision="FP32">
					<dim>1</dim>
					<dim>32</dim>
					<dim>1</dim>
					<dim>1</dim>
				</port>
			</input>
			<output>
				<port id="2" precision="FP32" names="/model/model.2/cv1/conv/Conv_output_0">
					<dim>1</dim>
					<dim>32</dim>
					<dim>64</dim>
					<dim>64</dim>
				</port>
			</output>
		</layer>
		<layer id="22" name="/model/model.2/cv1/act/Mul" type="Swish" version="opset4">
			<input>
				<port id="0" precision="FP32">
					<dim>1</dim>
					<dim>32</dim>
					<dim>64</dim>
					<dim>64</dim>
				</port>
			</input>
			<output>
				<port id="1" precision="FP32" names="/model/model.2/cv1/act/Mul_output_0">
					<dim>1</dim>
					<dim>32</dim>
					<dim>64</dim>
					<dim>64</dim>
				</port>
			</output>
		</layer>
		<layer id="23" name="/model/model.2/Constant_2_output_0" type="Const" version="opset1">
			<data element_type="i64" shape="1" offset="17728" size="8" />
			<output>
				<port id="0" precision="I64" names="/model/model.2/Constant_2_output_0">
					<dim>1</dim>
				</port>
			</output>
		</layer>
		<layer id="24" name="/model/model.2/Div_output_0" type="Const" version="opset1">
			<data element_type="i64" shape="1" offset="17736" size="8" />
			<output>
				<port id="0" precision="I64" names="/model/model.2/Div_output_0">
					<dim>1</dim>
				</port>
			</output>
		</layer>
		<layer id="25" name="Broadcast_58" type="Const" version="opset1">
			<data element_type="i64" shape="1" offset="17744" size="8" />
			<output>
				<port id="0" precision="I64">
					<dim>1</dim>
				</port>
			</output>
		</layer>
		<layer id="26" name="/model/model.2/Constant_1_output_0" type="Const" version="opset1">
			<data element_type="i64" shape="1" offset="17744" size="8" />
			<output>
				<port id="0" precision="I64" names="/model/model.2/Constant_1_output_0">
					<dim>1</dim>
				</port>
			</output>
		</layer>
		<layer id="27" name="/model/model.2/Slice" type="Slice" version="opset8">
			<input>
				<port id="0" precision="FP32">
					<dim>1</dim>
					<dim>32</dim>
					<dim>64</dim>
					<dim>64</dim>
				</port>
				<port id="1" precision="I64">
					<dim>1</dim>
				</port>
				<port id="2" precision="I64">
					<dim>1</dim>
				</port>
				<port id="3" precision="I64">
					<dim>1</dim>
				</port>
				<port id="4" precision="I64">
					<dim>1</dim>
				</port>
			</input>
			<output>
				<port id="5" precision="FP32" names="/model/model.2/Slice_output_0">
					<dim>1</dim>
					<dim>16</dim>
					<dim>64</dim>
					<dim>64</dim>
				</port>
			</output>
		</layer>
		<layer id="28" name="/model/model.2/Mul_1_output_0" type="Const" version="opset1">
			<data element_type="i64" shape="1" offset="17752" size="8" />
			<output>
				<port id="0" precision="I64" names="/model/model.2/Mul_1_output_0">
					<dim>1</dim>
				</port>
			</output>
		</layer>
		<layer id="29" name="Broadcast_66" type="Const" version="opset1">
			<data element_type="i64" shape="1" offset="17744" size="8" />
			<output>
				<port id="0" precision="I64">
					<dim>1</dim>
				</port>
			</output>
		</layer>
		<layer id="30" name="/model/model.2/Slice_1" type="Slice" version="opset8">
			<input>
				<port id="0" precision="FP32">
					<dim>1</dim>
					<dim>32</dim>
					<dim>64</dim>
					<dim>64</dim>
				</port>
				<port id="1" precision="I64">
					<dim>1</dim>
				</port>
				<port id="2" precision="I64">
					<dim>1</dim>
				</port>
				<port id="3" precision="I64">
					<dim>1</dim>
				</port>
				<port id="4" precision="I64">
					<dim>1</dim>
				</port>
			</input>
			<output>
				<port id="5" precision="FP32" names="/model/model.2/Slice_1_output_0">
					<dim>1</dim>
					<dim>16</dim>
					<dim>64</dim>
					<dim>64</dim>
				</port>
			</output>
		</layer>
		<layer id="31" name="model.model.2.cv2.conv.weight_compressed" type="Const" version="opset1">
			<data element_type="f16" shape="16, 16, 3, 3" offset="17760" size="4608" />
			<output>
				<port id="0" precision="FP16" names="model.model.2.cv2.conv.weight">
					<dim>16</dim>
					<dim>16</dim>
					<dim>3</dim>
					<dim>3</dim>
				</port>
			</output>
		</layer>
		<layer id="32" name="model.model.2.cv2.conv.weight" type="Convert" version="opset1">
			<data destination_type="f32" />
			<rt_info>
				<attribute name="decompression" version="0" />
			</rt_info>
			<input>
				<port id="0" precision="FP16">
					<dim>16</dim>
					<dim>16</dim>
					<dim>3</dim>
					<dim>3</dim>
				</port>
			</input>
			<output>
				<port id="1" precision="FP32">
					<dim>16</dim>
					<dim>16</dim>
					<dim>3</dim>
					<dim>3</dim>
				</port>
			</output>
		</layer>
		<layer id="33" name="/model/model.2/cv2/conv/Conv/WithoutBiases" type="Convolution" version="opset1">
			<data strides="1, 1" dilations="1, 1" pads_begin="1, 1" pads_end="1, 1" auto_pad="explicit" />
			<input>
				<port id="0" precision="FP32">
					<dim>1</dim>
					<dim>16</dim>
					<dim>64</dim>
					<dim>64</dim>
				</port>
				<port id="1" precision="FP32">
					<dim>16</dim>
					<dim>16</dim>
					<dim>3</dim>
					<dim>3</dim>
				</port>
			</input>
			<output>
				<port id="2" precision="FP32">
					<dim>1</dim>
					<dim>16</dim>
					<dim>64</dim>
					<dim>64</dim>
				</port>
			</output>
		</layer>
		<layer id="34" name="Reshape_84" type="Const" version="opset1">
			<data element_type="f32" shape="1, 16, 1, 1" offset="22368" size="64" />
			<output>
				<port id="0" precision="FP32">
					<dim>1</dim>
					<dim>16</dim>
					<dim>1</dim>
					<dim>1</dim>
				</port>
			</output>
		</layer>
		<layer id="35" name="/model/model.2/cv2/conv/Conv" type="Add" version="opset1">
			<data auto_broadcast="numpy" />
			<input>
				<port id="0" precision="FP32">
					<dim>1</dim>
					<dim>16</dim>
					<dim>64</dim>
					<dim>64</dim>
				</port>
				<port id="1" precision="FP32">
					<dim>1</dim>
					<dim>16</dim>
					<dim>1</dim>
					<dim>1</dim>
				</port>
			</input>
			<output>
				<port id="2" precision="FP32" names="/model/model.2/cv2/conv/Conv_output_0">
					<dim>1</dim>
					<dim>16</dim>
					<dim>64</dim>
					<dim>64</dim>
				</port>
			</output>
		</layer>
		<layer id="36" name="/model/model.2/cv2/act/Mul" type="Swish" version="opset4">
			<input>
				<port id="0" precision="FP32">
					<dim>1</dim>
					<dim>16</dim>
					<dim>64</dim>
					<dim>64</dim>
				</port>
			</input>
			<output>
				<port id="1" precision="FP32" names="/model/model.2/cv2/act/Mul_output_0">
					<dim>1</dim>
					<dim>16</dim>
					<dim>64</dim>
					<dim>64</dim>
				</port>
			</output>
		</layer>
		<layer id="37" name="model.model.2.cv3.conv.weight_compressed" type="Const" version="opset1">
			<data element_type="f16" shape="16, 16, 3, 3" offset="22432" size="4608" />
			<output>
				<port id="0" precision="FP16" names="model.model.2.cv3.conv.weight">
					<dim>16</dim>
					<dim>16</dim>
					<dim>3</dim>
					<dim>3</dim>
				</port>
			</output>
		</layer>
		<layer id="38" name="model.model.2.cv3.conv.weight" type="Convert" version="opset1">
			<data destination_type="f32" />
			<rt_info>
				<attribute name="decompression" version="0" />
			</rt_info>
			<input>
				<port id="0" precision="FP16">
					<dim>16</dim>
					<dim>16</dim>
					<dim>3</dim>
					<dim>3</dim>
				</port>
			</input>
			<output>
				<port id="1" precision="FP32">
					<dim>16</dim>
					<dim>16</dim>
					<dim>3</dim>
					<dim>3</dim>
				</port>
			</output>
		</layer>
		<layer id="39" name="/model/model.2/cv3/conv/Conv/WithoutBiases" type="Convolution" version="opset1">
			<data strides="1, 1" dilations="1, 1" pads_begin="1, 1" pads_end="1, 1" auto_pad="explicit" />
			<input>
				<port id="0" precision="FP32">
					<dim>1</dim>
					<dim>16</dim>
					<dim>64</dim>
					<dim>64</dim>
				</port>
				<port id="1" precision="FP32">
					<dim>16</dim>
					<dim>16</dim>
					<dim>3</dim>
					<dim>3</dim>
				</port>
			</input>
			<output>
				<port id="2" precision="FP32">
					<dim>1</dim>
					<dim>16</dim>
					<dim>64</dim>
					<dim>64</dim>
				</port>
			</output>
		</layer>
		<layer id="40" name="Reshape_101_compressed" type="Const" version="opset1">
			<data element_type="f16" shape="1, 16, 1, 1" offset="27040" size="32" />
			<output>
				<port id="0" precision="FP16">
					<dim>1</dim>
					<dim>16</dim>
					<dim>1</dim>
					<dim>1</dim>
				</port>
			</output>
		</layer>
		<layer id="41" name="Reshape_101" type="Convert" version="opset1">
			<data destination_type="f32" />
			<rt_info>
				<attribute name="decompression" version="0" />
			</rt_info>
			<input>
				<port id="0" precision="FP16">
					<dim>1</dim>
					<dim>16</dim>
					<dim>1</dim>
					<dim>1</dim>
				</port>
			</input>
			<output>
				<port id="1" precision="FP32">
					<dim>1</dim>
					<dim>16</dim>
					<dim>1</dim>
					<dim>1</dim>
				</port>
			</output>
		</layer>
		<layer id="42" name="/model/model.2/cv3/conv/Conv" type="Add" version="opset1">
			<data auto_broadcast="numpy" />
			<input>
				<port id="0" precision="FP32">
					<dim>1</dim>
					<dim>16</dim>
					<dim>64</dim>
					<dim>64</dim>
				</port>
				<port id="1" precision="FP32">
					<dim>1</dim>
					<dim>16</dim>
					<dim>1</dim>
					<dim>1</dim>
				</port>
			</input>
			<output>
				<port id="2" precision="FP32" names="/model/model.2/cv3/conv/Conv_output_0">
					<dim>1</dim>
					<dim>16</dim>
					<dim>64</dim>
					<dim>64</dim>
				</port>
			</output>
		</layer>
		<layer id="43" name="/model/model.2/cv3/act/Mul" type="Swish" version="opset4">
			<input>
				<port id="0" precision="FP32">
					<dim>1</dim>
					<dim>16</dim>
					<dim>64</dim>
					<dim>64</dim>
				</port>
			</input>
			<output>
				<port id="1" precision="FP32" names="/model/model.2/cv3/act/Mul_output_0">
					<dim>1</dim>
					<dim>16</dim>
					<dim>64</dim>
					<dim>64</dim>
				</port>
			</output>
		</layer>
		<layer id="44" name="/model/model.2/Concat" type="Concat" version="opset1">
			<data axis="1" />
			<input>
				<port id="0" precision="FP32">
					<dim>1</dim>
					<dim>16</dim>
					<dim>64</dim>
					<dim>64</dim>
				</port>
				<port id="1" precision="FP32">
					<dim>1</dim>
					<dim>16</dim>
					<dim>64</dim>
					<dim>64</dim>
				</port>
				<port id="2" precision="FP32">
					<dim>1</dim>
					<dim>16</dim>
					<dim>64</dim>
					<dim>64</dim>
				</port>
				<port id="3" precision="FP32">
					<dim>1</dim>
					<dim>16</dim>
					<dim>64</dim>
					<dim>64</dim>
				</port>
			</input>
			<output>
				<port id="4" precision="FP32" names="/model/model.2/Concat_output_0">
					<dim>1</dim>
					<dim>64</dim>
					<dim>64</dim>
					<dim>64</dim>
				</port>
			</output>
		</layer>
		<layer id="45" name="model.model.2.cv4.conv.weight_compressed" type="Const" version="opset1">
			<data element_type="f16" shape="32, 64, 1, 1" offset="27072" size="4096" />
			<output>
				<port id="0" precision="FP16" names="model.model.2.cv4.conv.weight">
					<dim>32</dim>
					<dim>64</dim>
					<dim>1</dim>
					<dim>1</dim>
				</port>
			</output>
		</layer>
		<layer id="46" name="model.model.2.cv4.conv.weight" type="Convert" version="opset1">
			<data destination_type="f32" />
			<rt_info>
				<attribute name="decompression" version="0" />
			</rt_info>
			<input>
				<port id="0" precision="FP16">
					<dim>32</dim>
					<dim>64</dim>
					<dim>1</dim>
					<dim>1</dim>
				</port>
			</input>
			<output>
				<port id="1" precision="FP32">
					<dim>32</dim>
					<dim>64</dim>
					<dim>1</dim>
					<dim>1</dim>
				</port>
			</output>
		</layer>
		<layer id="47" name="/model/model.2/cv4/conv/Conv/WithoutBiases" type="Convolution" version="opset1">
			<data strides="1, 1" dilations="1, 1" pads_begin="0, 0" pads_end="0, 0" auto_pad="explicit" />
			<input>
				<port id="0" precision="FP32">
					<dim>1</dim>
					<dim>64</dim>
					<dim>64</dim>
					<dim>64</dim>
				</port>
				<port id="1" precision="FP32">
					<dim>32</dim>
					<dim>64</dim>
					<dim>1</dim>
					<dim>1</dim>
				</port>
			</input>
			<output>
				<port id="2" precision="FP32">
					<dim>1</dim>
					<dim>32</dim>
					<dim>64</dim>
					<dim>64</dim>
				</port>
			</output>
		</layer>
		<layer id="48" name="Reshape_119_compressed" type="Const" version="opset1">
			<data element_type="f16" shape="1, 32, 1, 1" offset="31168" size="64" />
			<output>
				<port id="0" precision="FP16">
					<dim>1</dim>
					<dim>32</dim>
					<dim>1</dim>
					<dim>1</dim>
				</port>
			</output>
		</layer>
		<layer id="49" name="Reshape_119" type="Convert" version="opset1">
			<data destination_type="f32" />
			<rt_info>
				<attribute name="decompression" version="0" />
			</rt_info>
			<input>
				<port id="0" precision="FP16">
					<dim>1</dim>
					<dim>32</dim>
					<dim>1</dim>
					<dim>1</dim>
				</port>
			</input>
			<output>
				<port id="1" precision="FP32">
					<dim>1</dim>
					<dim>32</dim>
					<dim>1</dim>
					<dim>1</dim>
				</port>
			</output>
		</layer>
		<layer id="50" name="/model/model.2/cv4/conv/Conv" type="Add" version="opset1">
			<data auto_broadcast="numpy" />
			<input>
				<port id="0" precision="FP32">
					<dim>1</dim>
					<dim>32</dim>
					<dim>64</dim>
					<dim>64</dim>
				</port>
				<port id="1" precision="FP32">
					<dim>1</dim>
					<dim>32</dim>
					<dim>1</dim>
					<dim>1</dim>
				</port>
			</input>
			<output>
				<port id="2" precision="FP32" names="/model/model.2/cv4/conv/Conv_output_0">
					<dim>1</dim>
					<dim>32</dim>
					<dim>64</dim>
					<dim>64</dim>
				</port>
			</output>
		</layer>
		<layer id="51" name="/model/model.2/cv4/act/Mul" type="Swish" version="opset4">
			<input>
				<port id="0" precision="FP32">
					<dim>1</dim>
					<dim>32</dim>
					<dim>64</dim>
					<dim>64</dim>
				</port>
			</input>
			<output>
				<port id="1" precision="FP32" names="/model/model.2/cv4/act/Mul_output_0">
					<dim>1</dim>
					<dim>32</dim>
					<dim>64</dim>
					<dim>64</dim>
				</port>
			</output>
		</layer>
		<layer id="52" name="/model/model.3/AveragePool" type="AvgPool" version="opset1">
			<data kernel="2, 2" strides="1, 1" pads_begin="0, 0" pads_end="0, 0" exclude-pad="false" auto_pad="explicit" rounding_type="floor" />
			<input>
				<port id="0" precision="FP32">
					<dim>1</dim>
					<dim>32</dim>
					<dim>64</dim>
					<dim>64</dim>
				</port>
			</input>
			<output>
				<port id="1" precision="FP32" names="/model/model.3/AveragePool_output_0">
					<dim>1</dim>
					<dim>32</dim>
					<dim>63</dim>
					<dim>63</dim>
				</port>
			</output>
		</layer>
		<layer id="53" name="model.model.3.cv1.conv.weight_compressed" type="Const" version="opset1">
			<data element_type="f16" shape="64, 32, 3, 3" offset="31232" size="36864" />
			<output>
				<port id="0" precision="FP16" names="model.model.3.cv1.conv.weight">
					<dim>64</dim>
					<dim>32</dim>
					<dim>3</dim>
					<dim>3</dim>
				</port>
			</output>
		</layer>
		<layer id="54" name="model.model.3.cv1.conv.weight" type="Convert" version="opset1">
			<data destination_type="f32" />
			<rt_info>
				<attribute name="decompression" version="0" />
			</rt_info>
			<input>
				<port id="0" precision="FP16">
					<dim>64</dim>
					<dim>32</dim>
					<dim>3</dim>
					<dim>3</dim>
				</port>
			</input>
			<output>
				<port id="1" precision="FP32">
					<dim>64</dim>
					<dim>32</dim>
					<dim>3</dim>
					<dim>3</dim>
				</port>
			</output>
		</layer>
		<layer id="55" name="/model/model.3/cv1/conv/Conv/WithoutBiases" type="Convolution" version="opset1">
			<data strides="2, 2" dilations="1, 1" pads_begin="1, 1" pads_end="1, 1" auto_pad="explicit" />
			<input>
				<port id="0" precision="FP32">
					<dim>1</dim>
					<dim>32</dim>
					<dim>63</dim>
					<dim>63</dim>
				</port>
				<port id="1" precision="FP32">
					<dim>64</dim>
					<dim>32</dim>
					<dim>3</dim>
					<dim>3</dim>
				</port>
			</input>
			<output>
				<port id="2" precision="FP32">
					<dim>1</dim>
					<dim>64</dim>
					<dim>32</dim>
					<dim>32</dim>
				</port>
			</output>
		</layer>
		<layer id="56" name="Reshape_137_compressed" type="Const" version="opset1">
			<data element_type="f16" shape="1, 64, 1, 1" offset="68096" size="128" />
			<output>
				<port id="0" precision="FP16">
					<dim>1</dim>
					<dim>64</dim>
					<dim>1</dim>
					<dim>1</dim>
				</port>
			</output>
		</layer>
		<layer id="57" name="Reshape_137" type="Convert" version="opset1">
			<data destination_type="f32" />
			<rt_info>
				<attribute name="decompression" version="0" />
			</rt_info>
			<input>
				<port id="0" precision="FP16">
					<dim>1</dim>
					<dim>64</dim>
					<dim>1</dim>
					<dim>1</dim>
				</port>
			</input>
			<output>
				<port id="1" precision="FP32">
					<dim>1</dim>
					<dim>64</dim>
					<dim>1</dim>
					<dim>1</dim>
				</port>
			</output>
		</layer>
		<layer id="58" name="/model/model.3/cv1/conv/Conv" type="Add" version="opset1">
			<data auto_broadcast="numpy" />
			<input>
				<port id="0" precision="FP32">
					<dim>1</dim>
					<dim>64</dim>
					<dim>32</dim>
					<dim>32</dim>
				</port>
				<port id="1" precision="FP32">
					<dim>1</dim>
					<dim>64</dim>
					<dim>1</dim>
					<dim>1</dim>
				</port>
			</input>
			<output>
				<port id="2" precision="FP32" names="/model/model.3/cv1/conv/Conv_output_0">
					<dim>1</dim>
					<dim>64</dim>
					<dim>32</dim>
					<dim>32</dim>
				</port>
			</output>
		</layer>
		<layer id="59" name="/model/model.3/cv1/act/Mul" type="Swish" version="opset4">
			<input>
				<port id="0" precision="FP32">
					<dim>1</dim>
					<dim>64</dim>
					<dim>32</dim>
					<dim>32</dim>
				</port>
			</input>
			<output>
				<port id="1" precision="FP32" names="/model/model.3/cv1/act/Mul_output_0">
					<dim>1</dim>
					<dim>64</dim>
					<dim>32</dim>
					<dim>32</dim>
				</port>
			</output>
		</layer>
		<layer id="60" name="model.model.4.cv1.conv.weight_compressed" type="Const" version="opset1">
			<data element_type="f16" shape="64, 64, 1, 1" offset="68224" size="8192" />
			<output>
				<port id="0" precision="FP16" names="model.model.4.cv1.conv.weight">
					<dim>64</dim>
					<dim>64</dim>
					<dim>1</dim>
					<dim>1</dim>
				</port>
			</output>
		</layer>
		<layer id="61" name="model.model.4.cv1.conv.weight" type="Convert" version="opset1">
			<data destination_type="f32" />
			<rt_info>
				<attribute name="decompression" version="0" />
			</rt_info>
			<input>
				<port id="0" precision="FP16">
					<dim>64</dim>
					<dim>64</dim>
					<dim>1</dim>
					<dim>1</dim>
				</port>
			</input>
			<output>
				<port id="1" precision="FP32">
					<dim>64</dim>
					<dim>64</dim>
					<dim>1</dim>
					<dim>1</dim>
				</port>
			</output>
		</layer>
		<layer id="62" name="/model/model.4/cv1/conv/Conv/WithoutBiases" type="Convolution" version="opset1">
			<data strides="1, 1" dilations="1, 1" pads_begin="0, 0" pads_end="0, 0" auto_pad="explicit" />
			<input>
				<port id="0" precision="FP32">
					<dim>1</dim>
					<dim>64</dim>
					<dim>32</dim>
					<dim>32</dim>
				</port>
				<port id="1" precision="FP32">
					<dim>64</dim>
					<dim>64</dim>
					<dim>1</dim>
					<dim>1</dim>
				</port>
			</input>
			<output>
				<port id="2" precision="FP32">
					<dim>1</dim>
					<dim>64</dim>
					<dim>32</dim>
					<dim>32</dim>
				</port>
			</output>
		</layer>
		<layer id="63" name="Reshape_154_compressed" type="Const" version="opset1">
			<data element_type="f16" shape="1, 64, 1, 1" offset="76416" size="128" />
			<output>
				<port id="0" precision="FP16">
					<dim>1</dim>
					<dim>64</dim>
					<dim>1</dim>
					<dim>1</dim>
				</port>
			</output>
		</layer>
		<layer id="64" name="Reshape_154" type="Convert" version="opset1">
			<data destination_type="f32" />
			<rt_info>
				<attribute name="decompression" version="0" />
			</rt_info>
			<input>
				<port id="0" precision="FP16">
					<dim>1</dim>
					<dim>64</dim>
					<dim>1</dim>
					<dim>1</dim>
				</port>
			</input>
			<output>
				<port id="1" precision="FP32">
					<dim>1</dim>
					<dim>64</dim>
					<dim>1</dim>
					<dim>1</dim>
				</port>
			</output>
		</layer>
		<layer id="65" name="/model/model.4/cv1/conv/Conv" type="Add" version="opset1">
			<data auto_broadcast="numpy" />
			<input>
				<port id="0" precision="FP32">
					<dim>1</dim>
					<dim>64</dim>
					<dim>32</dim>
					<dim>32</dim>
				</port>
				<port id="1" precision="FP32">
					<dim>1</dim>
					<dim>64</dim>
					<dim>1</dim>
					<dim>1</dim>
				</port>
			</input>
			<output>
				<port id="2" precision="FP32" names="/model/model.4/cv1/conv/Conv_output_0">
					<dim>1</dim>
					<dim>64</dim>
					<dim>32</dim>
					<dim>32</dim>
				</port>
			</output>
		</layer>
		<layer id="66" name="/model/model.4/cv1/act/Mul" type="Swish" version="opset4">
			<input>
				<port id="0" precision="FP32">
					<dim>1</dim>
					<dim>64</dim>
					<dim>32</dim>
					<dim>32</dim>
				</port>
			</input>
			<output>
				<port id="1" precision="FP32" names="/model/model.4/cv1/act/Mul_output_0">
					<dim>1</dim>
					<dim>64</dim>
					<dim>32</dim>
					<dim>32</dim>
				</port>
			</output>
		</layer>
		<layer id="67" name="/model/model.4/Slice" type="Slice" version="opset8">
			<input>
				<port id="0" precision="FP32">
					<dim>1</dim>
					<dim>64</dim>
					<dim>32</dim>
					<dim>32</dim>
				</port>
				<port id="1" precision="I64">
					<dim>1</dim>
				</port>
				<port id="2" precision="I64">
					<dim>1</dim>
				</port>
				<port id="3" precision="I64">
					<dim>1</dim>
				</port>
				<port id="4" precision="I64">
					<dim>1</dim>
				</port>
			</input>
			<output>
				<port id="5" precision="FP32" names="/model/model.4/Slice_output_0">
					<dim>1</dim>
					<dim>32</dim>
					<dim>32</dim>
					<dim>32</dim>
				</port>
			</output>
		</layer>
		<layer id="68" name="/model/model.4/Mul_1_output_0" type="Const" version="opset1">
			<data element_type="i64" shape="1" offset="76544" size="8" />
			<output>
				<port id="0" precision="I64" names="/model/model.4/Mul_1_output_0">
					<dim>1</dim>
				</port>
			</output>
		</layer>
		<layer id="69" name="Broadcast_168" type="Const" version="opset1">
			<data element_type="i64" shape="1" offset="17744" size="8" />
			<output>
				<port id="0" precision="I64">
					<dim>1</dim>
				</port>
			</output>
		</layer>
		<layer id="70" name="/model/model.4/Slice_1" type="Slice" version="opset8">
			<input>
				<port id="0" precision="FP32">
					<dim>1</dim>
					<dim>64</dim>
					<dim>32</dim>
					<dim>32</dim>
				</port>
				<port id="1" precision="I64">
					<dim>1</dim>
				</port>
				<port id="2" precision="I64">
					<dim>1</dim>
				</port>
				<port id="3" precision="I64">
					<dim>1</dim>
				</port>
				<port id="4" precision="I64">
					<dim>1</dim>
				</port>
			</input>
			<output>
				<port id="5" precision="FP32" names="/model/model.4/Slice_1_output_0">
					<dim>1</dim>
					<dim>32</dim>
					<dim>32</dim>
					<dim>32</dim>
				</port>
			</output>
		</layer>
		<layer id="71" name="model.model.4.cv2.0.cv1.conv.weight_compressed" type="Const" version="opset1">
			<data element_type="f16" shape="16, 32, 1, 1" offset="76552" size="1024" />
			<output>
				<port id="0" precision="FP16" names="model.model.4.cv2.0.cv1.conv.weight">
					<dim>16</dim>
					<dim>32</dim>
					<dim>1</dim>
					<dim>1</dim>
				</port>
			</output>
		</layer>
		<layer id="72" name="model.model.4.cv2.0.cv1.conv.weight" type="Convert" version="opset1">
			<data destination_type="f32" />
			<rt_info>
				<attribute name="decompression" version="0" />
			</rt_info>
			<input>
				<port id="0" precision="FP16">
					<dim>16</dim>
					<dim>32</dim>
					<dim>1</dim>
					<dim>1</dim>
				</port>
			</input>
			<output>
				<port id="1" precision="FP32">
					<dim>16</dim>
					<dim>32</dim>
					<dim>1</dim>
					<dim>1</dim>
				</port>
			</output>
		</layer>
		<layer id="73" name="/model/model.4/cv2/cv2.0/cv1/conv/Conv/WithoutBiases" type="Convolution" version="opset1">
			<data strides="1, 1" dilations="1, 1" pads_begin="0, 0" pads_end="0, 0" auto_pad="explicit" />
			<input>
				<port id="0" precision="FP32">
					<dim>1</dim>
					<dim>32</dim>
					<dim>32</dim>
					<dim>32</dim>
				</port>
				<port id="1" precision="FP32">
					<dim>16</dim>
					<dim>32</dim>
					<dim>1</dim>
					<dim>1</dim>
				</port>
			</input>
			<output>
				<port id="2" precision="FP32">
					<dim>1</dim>
					<dim>16</dim>
					<dim>32</dim>
					<dim>32</dim>
				</port>
			</output>
		</layer>
		<layer id="74" name="Reshape_186" type="Const" version="opset1">
			<data element_type="f32" shape="1, 16, 1, 1" offset="77576" size="64" />
			<output>
				<port id="0" precision="FP32">
					<dim>1</dim>
					<dim>16</dim>
					<dim>1</dim>
					<dim>1</dim>
				</port>
			</output>
		</layer>
		<layer id="75" name="/model/model.4/cv2/cv2.0/cv1/conv/Conv" type="Add" version="opset1">
			<data auto_broadcast="numpy" />
			<input>
				<port id="0" precision="FP32">
					<dim>1</dim>
					<dim>16</dim>
					<dim>32</dim>
					<dim>32</dim>
				</port>
				<port id="1" precision="FP32">
					<dim>1</dim>
					<dim>16</dim>
					<dim>1</dim>
					<dim>1</dim>
				</port>
			</input>
			<output>
				<port id="2" precision="FP32" names="/model/model.4/cv2/cv2.0/cv1/conv/Conv_output_0">
					<dim>1</dim>
					<dim>16</dim>
					<dim>32</dim>
					<dim>32</dim>
				</port>
			</output>
		</layer>
		<layer id="76" name="/model/model.4/cv2/cv2.0/cv1/act/Mul" type="Swish" version="opset4">
			<input>
				<port id="0" precision="FP32">
					<dim>1</dim>
					<dim>16</dim>
					<dim>32</dim>
					<dim>32</dim>
				</port>
			</input>
			<output>
				<port id="1" precision="FP32" names="/model/model.4/cv2/cv2.0/cv1/act/Mul_output_0">
					<dim>1</dim>
					<dim>16</dim>
					<dim>32</dim>
					<dim>32</dim>
				</port>
			</output>
		</layer>
		<layer id="77" name="model.model.4.cv2.0.m.0.cv1.conv.weight_compressed" type="Const" version="opset1">
			<data element_type="f16" shape="16, 16, 3, 3" offset="77640" size="4608" />
			<output>
				<port id="0" precision="FP16" names="model.model.4.cv2.0.m.0.cv1.conv.weight">
					<dim>16</dim>
					<dim>16</dim>
					<dim>3</dim>
					<dim>3</dim>
				</port>
			</output>
		</layer>
		<layer id="78" name="model.model.4.cv2.0.m.0.cv1.conv.weight" type="Convert" version="opset1">
			<data destination_type="f32" />
			<rt_info>
				<attribute name="decompression" version="0" />
			</rt_info>
			<input>
				<port id="0" precision="FP16">
					<dim>16</dim>
					<dim>16</dim>
					<dim>3</dim>
					<dim>3</dim>
				</port>
			</input>
			<output>
				<port id="1" precision="FP32">
					<dim>16</dim>
					<dim>16</dim>
					<dim>3</dim>
					<dim>3</dim>
				</port>
			</output>
		</layer>
		<layer id="79" name="/model/model.4/cv2/cv2.0/m/m.0/cv1/conv/Conv/WithoutBiases" type="Convolution" version="opset1">
			<data strides="1, 1" dilations="1, 1" pads_begin="1, 1" pads_end="1, 1" auto_pad="explicit" />
			<input>
				<port id="0" precision="FP32">
					<dim>1</dim>
					<dim>16</dim>
					<dim>32</dim>
					<dim>32</dim>
				</port>
				<port id="1" precision="FP32">
					<dim>16</dim>
					<dim>16</dim>
					<dim>3</dim>
					<dim>3</dim>
				</port>
			</input>
			<output>
				<port id="2" precision="FP32">
					<dim>1</dim>
					<dim>16</dim>
					<dim>32</dim>
					<dim>32</dim>
				</port>
			</output>
		</layer>
		<layer id="80" name="Reshape_220" type="Const" version="opset1">
			<data element_type="f32" shape="1, 16, 1, 1" offset="82248" size="64" />
			<output>
				<port id="0" precision="FP32">
					<dim>1</dim>
					<dim>16</dim>
					<dim>1</dim>
					<dim>1</dim>
				</port>
			</output>
		</layer>
		<layer id="81" name="/model/model.4/cv2/cv2.0/m/m.0/cv1/conv/Conv" type="Add" version="opset1">
			<data auto_broadcast="numpy" />
			<input>
				<port id="0" precision="FP32">
					<dim>1</dim>
					<dim>16</dim>
					<dim>32</dim>
					<dim>32</dim>
				</port>
				<port id="1" precision="FP32">
					<dim>1</dim>
					<dim>16</dim>
					<dim>1</dim>
					<dim>1</dim>
				</port>
			</input>
			<output>
				<port id="2" precision="FP32" names="/model/model.4/cv2/cv2.0/m/m.0/cv1/conv/Conv_output_0">
					<dim>1</dim>
					<dim>16</dim>
					<dim>32</dim>
					<dim>32</dim>
				</port>
			</output>
		</layer>
		<layer id="82" name="/model/model.4/cv2/cv2.0/m/m.0/cv1/act/Mul" type="Swish" version="opset4">
			<input>
				<port id="0" precision="FP32">
					<dim>1</dim>
					<dim>16</dim>
					<dim>32</dim>
					<dim>32</dim>
				</port>
			</input>
			<output>
				<port id="1" precision="FP32" names="/model/model.4/cv2/cv2.0/m/m.0/cv1/act/Mul_output_0">
					<dim>1</dim>
					<dim>16</dim>
					<dim>32</dim>
					<dim>32</dim>
				</port>
			</output>
		</layer>
		<layer id="83" name="model.model.4.cv2.0.m.0.cv2.conv.weight_compressed" type="Const" version="opset1">
			<data element_type="f16" shape="16, 16, 3, 3" offset="82312" size="4608" />
			<output>
				<port id="0" precision="FP16" names="model.model.4.cv2.0.m.0.cv2.conv.weight">
					<dim>16</dim>
					<dim>16</dim>
					<dim>3</dim>
					<dim>3</dim>
				</port>
			</output>
		</layer>
		<layer id="84" name="model.model.4.cv2.0.m.0.cv2.conv.weight" type="Convert" version="opset1">
			<data destination_type="f32" />
			<rt_info>
				<attribute name="decompression" version="0" />
			</rt_info>
			<input>
				<port id="0" precision="FP16">
					<dim>16</dim>
					<dim>16</dim>
					<dim>3</dim>
					<dim>3</dim>
				</port>
			</input>
			<output>
				<port id="1" precision="FP32">
					<dim>16</dim>
					<dim>16</dim>
					<dim>3</dim>
					<dim>3</dim>
				</port>
			</output>
		</layer>
		<layer id="85" name="/model/model.4/cv2/cv2.0/m/m.0/cv2/conv/Conv/WithoutBiases" type="Convolution" version="opset1">
			<data strides="1, 1" dilations="1, 1" pads_begin="1, 1" pads_end="1, 1" auto_pad="explicit" />
			<input>
				<port id="0" precision="FP32">
					<dim>1</dim>
					<dim>16</dim>
					<dim>32</dim>
					<dim>32</dim>
				</port>
				<port id="1" precision="FP32">
					<dim>16</dim>
					<dim>16</dim>
					<dim>3</dim>
					<dim>3</dim>
				</port>
			</input>
			<output>
				<port id="2" precision="FP32">
					<dim>1</dim>
					<dim>16</dim>
					<dim>32</dim>
					<dim>32</dim>
				</port>
			</output>
		</layer>
		<layer id="86" name="Reshape_237_compressed" type="Const" version="opset1">
			<data element_type="f16" shape="1, 16, 1, 1" offset="86920" size="32" />
			<output>
				<port id="0" precision="FP16">
					<dim>1</dim>
					<dim>16</dim>
					<dim>1</dim>
					<dim>1</dim>
				</port>
			</output>
		</layer>
		<layer id="87" name="Reshape_237" type="Convert" version="opset1">
			<data destination_type="f32" />
			<rt_info>
				<attribute name="decompression" version="0" />
			</rt_info>
			<input>
				<port id="0" precision="FP16">
					<dim>1</dim>
					<dim>16</dim>
					<dim>1</dim>
					<dim>1</dim>
				</port>
			</input>
			<output>
				<port id="1" precision="FP32">
					<dim>1</dim>
					<dim>16</dim>
					<dim>1</dim>
					<dim>1</dim>
				</port>
			</output>
		</layer>
		<layer id="88" name="/model/model.4/cv2/cv2.0/m/m.0/cv2/conv/Conv" type="Add" version="opset1">
			<data auto_broadcast="numpy" />
			<input>
				<port id="0" precision="FP32">
					<dim>1</dim>
					<dim>16</dim>
					<dim>32</dim>
					<dim>32</dim>
				</port>
				<port id="1" precision="FP32">
					<dim>1</dim>
					<dim>16</dim>
					<dim>1</dim>
					<dim>1</dim>
				</port>
			</input>
			<output>
				<port id="2" precision="FP32" names="/model/model.4/cv2/cv2.0/m/m.0/cv2/conv/Conv_output_0">
					<dim>1</dim>
					<dim>16</dim>
					<dim>32</dim>
					<dim>32</dim>
				</port>
			</output>
		</layer>
		<layer id="89" name="/model/model.4/cv2/cv2.0/m/m.0/cv2/act/Mul" type="Swish" version="opset4">
			<input>
				<port id="0" precision="FP32">
					<dim>1</dim>
					<dim>16</dim>
					<dim>32</dim>
					<dim>32</dim>
				</port>
			</input>
			<output>
				<port id="1" precision="FP32" names="/model/model.4/cv2/cv2.0/m/m.0/cv2/act/Mul_output_0">
					<dim>1</dim>
					<dim>16</dim>
					<dim>32</dim>
					<dim>32</dim>
				</port>
			</output>
		</layer>
		<layer id="90" name="/model/model.4/cv2/cv2.0/m/m.0/Add" type="Add" version="opset1">
			<data auto_broadcast="numpy" />
			<input>
				<port id="0" precision="FP32">
					<dim>1</dim>
					<dim>16</dim>
					<dim>32</dim>
					<dim>32</dim>
				</port>
				<port id="1" precision="FP32">
					<dim>1</dim>
					<dim>16</dim>
					<dim>32</dim>
					<dim>32</dim>
				</port>
			</input>
			<output>
				<port id="2" precision="FP32" names="/model/model.4/cv2/cv2.0/m/m.0/Add_output_0">
					<dim>1</dim>
					<dim>16</dim>
					<dim>32</dim>
					<dim>32</dim>
				</port>
			</output>
		</layer>
		<layer id="91" name="model.model.4.cv2.0.m.1.cv1.conv.weight_compressed" type="Const" version="opset1">
			<data element_type="f16" shape="16, 16, 3, 3" offset="86952" size="4608" />
			<output>
				<port id="0" precision="FP16" names="model.model.4.cv2.0.m.1.cv1.conv.weight">
					<dim>16</dim>
					<dim>16</dim>
					<dim>3</dim>
					<dim>3</dim>
				</port>
			</output>
		</layer>
		<layer id="92" name="model.model.4.cv2.0.m.1.cv1.conv.weight" type="Convert" version="opset1">
			<data destination_type="f32" />
			<rt_info>
				<attribute name="decompression" version="0" />
			</rt_info>
			<input>
				<port id="0" precision="FP16">
					<dim>16</dim>
					<dim>16</dim>
					<dim>3</dim>
					<dim>3</dim>
				</port>
			</input>
			<output>
				<port id="1" precision="FP32">
					<dim>16</dim>
					<dim>16</dim>
					<dim>3</dim>
					<dim>3</dim>
				</port>
			</output>
		</layer>
		<layer id="93" name="/model/model.4/cv2/cv2.0/m/m.1/cv1/conv/Conv/WithoutBiases" type="Convolution" version="opset1">
			<data strides="1, 1" dilations="1, 1" pads_begin="1, 1" pads_end="1, 1" auto_pad="explicit" />
			<input>
				<port id="0" precision="FP32">
					<dim>1</dim>
					<dim>16</dim>
					<dim>32</dim>
					<dim>32</dim>
				</port>
				<port id="1" precision="FP32">
					<dim>16</dim>
					<dim>16</dim>
					<dim>3</dim>
					<dim>3</dim>
				</port>
			</input>
			<output>
				<port id="2" precision="FP32">
					<dim>1</dim>
					<dim>16</dim>
					<dim>32</dim>
					<dim>32</dim>
				</port>
			</output>
		</layer>
		<layer id="94" name="Reshape_255_compressed" type="Const" version="opset1">
			<data element_type="f16" shape="1, 16, 1, 1" offset="91560" size="32" />
			<output>
				<port id="0" precision="FP16">
					<dim>1</dim>
					<dim>16</dim>
					<dim>1</dim>
					<dim>1</dim>
				</port>
			</output>
		</layer>
		<layer id="95" name="Reshape_255" type="Convert" version="opset1">
			<data destination_type="f32" />
			<rt_info>
				<attribute name="decompression" version="0" />
			</rt_info>
			<input>
				<port id="0" precision="FP16">
					<dim>1</dim>
					<dim>16</dim>
					<dim>1</dim>
					<dim>1</dim>
				</port>
			</input>
			<output>
				<port id="1" precision="FP32">
					<dim>1</dim>
					<dim>16</dim>
					<dim>1</dim>
					<dim>1</dim>
				</port>
			</output>
		</layer>
		<layer id="96" name="/model/model.4/cv2/cv2.0/m/m.1/cv1/conv/Conv" type="Add" version="opset1">
			<data auto_broadcast="numpy" />
			<input>
				<port id="0" precision="FP32">
					<dim>1</dim>
					<dim>16</dim>
					<dim>32</dim>
					<dim>32</dim>
				</port>
				<port id="1" precision="FP32">
					<dim>1</dim>
					<dim>16</dim>
					<dim>1</dim>
					<dim>1</dim>
				</port>
			</input>
			<output>
				<port id="2" precision="FP32" names="/model/model.4/cv2/cv2.0/m/m.1/cv1/conv/Conv_output_0">
					<dim>1</dim>
					<dim>16</dim>
					<dim>32</dim>
					<dim>32</dim>
				</port>
			</output>
		</layer>
		<layer id="97" name="/model/model.4/cv2/cv2.0/m/m.1/cv1/act/Mul" type="Swish" version="opset4">
			<input>
				<port id="0" precision="FP32">
					<dim>1</dim>
					<dim>16</dim>
					<dim>32</dim>
					<dim>32</dim>
				</port>
			</input>
			<output>
				<port id="1" precision="FP32" names="/model/model.4/cv2/cv2.0/m/m.1/cv1/act/Mul_output_0">
					<dim>1</dim>
					<dim>16</dim>
					<dim>32</dim>
					<dim>32</dim>
				</port>
			</output>
		</layer>
		<layer id="98" name="model.model.4.cv2.0.m.1.cv2.conv.weight_compressed" type="Const" version="opset1">
			<data element_type="f16" shape="16, 16, 3, 3" offset="91592" size="4608" />
			<output>
				<port id="0" precision="FP16" names="model.model.4.cv2.0.m.1.cv2.conv.weight">
					<dim>16</dim>
					<dim>16</dim>
					<dim>3</dim>
					<dim>3</dim>
				</port>
			</output>
		</layer>
		<layer id="99" name="model.model.4.cv2.0.m.1.cv2.conv.weight" type="Convert" version="opset1">
			<data destination_type="f32" />
			<rt_info>
				<attribute name="decompression" version="0" />
			</rt_info>
			<input>
				<port id="0" precision="FP16">
					<dim>16</dim>
					<dim>16</dim>
					<dim>3</dim>
					<dim>3</dim>
				</port>
			</input>
			<output>
				<port id="1" precision="FP32">
					<dim>16</dim>
					<dim>16</dim>
					<dim>3</dim>
					<dim>3</dim>
				</port>
			</output>
		</layer>
		<layer id="100" name="/model/model.4/cv2/cv2.0/m/m.1/cv2/conv/Conv/WithoutBiases" type="Convolution" version="opset1">
			<data strides="1, 1" dilations="1, 1" pads_begin="1, 1" pads_end="1, 1" auto_pad="explicit" />
			<input>
				<port id="0" precision="FP32">
					<dim>1</dim>
					<dim>16</dim>
					<dim>32</dim>
					<dim>32</dim>
				</port>
				<port id="1" precision="FP32">
					<dim>16</dim>
					<dim>16</dim>
					<dim>3</dim>
					<dim>3</dim>
				</port>
			</input>
			<output>
				<port id="2" precision="FP32">
					<dim>1</dim>
					<dim>16</dim>
					<dim>32</dim>
					<dim>32</dim>
				</port>
			</output>
		</layer>
		<layer id="101" name="Reshape_272" type="Const" version="opset1">
			<data element_type="f32" shape="1, 16, 1, 1" offset="96200" size="64" />
			<output>
				<port id="0" precision="FP32">
					<dim>1</dim>
					<dim>16</dim>
					<dim>1</dim>
					<dim>1</dim>
				</port>
			</output>
		</layer>
		<layer id="102" name="/model/model.4/cv2/cv2.0/m/m.1/cv2/conv/Conv" type="Add" version="opset1">
			<data auto_broadcast="numpy" />
			<input>
				<port id="0" precision="FP32">
					<dim>1</dim>
					<dim>16</dim>
					<dim>32</dim>
					<dim>32</dim>
				</port>
				<port id="1" precision="FP32">
					<dim>1</dim>
					<dim>16</dim>
					<dim>1</dim>
					<dim>1</dim>
				</port>
			</input>
			<output>
				<port id="2" precision="FP32" names="/model/model.4/cv2/cv2.0/m/m.1/cv2/conv/Conv_output_0">
					<dim>1</dim>
					<dim>16</dim>
					<dim>32</dim>
					<dim>32</dim>
				</port>
			</output>
		</layer>
		<layer id="103" name="/model/model.4/cv2/cv2.0/m/m.1/cv2/act/Mul" type="Swish" version="opset4">
			<input>
				<port id="0" precision="FP32">
					<dim>1</dim>
					<dim>16</dim>
					<dim>32</dim>
					<dim>32</dim>
				</port>
			</input>
			<output>
				<port id="1" precision="FP32" names="/model/model.4/cv2/cv2.0/m/m.1/cv2/act/Mul_output_0">
					<dim>1</dim>
					<dim>16</dim>
					<dim>32</dim>
					<dim>32</dim>
				</port>
			</output>
		</layer>
		<layer id="104" name="/model/model.4/cv2/cv2.0/m/m.1/Add" type="Add" version="opset1">
			<data auto_broadcast="numpy" />
			<input>
				<port id="0" precision="FP32">
					<dim>1</dim>
					<dim>16</dim>
					<dim>32</dim>
					<dim>32</dim>
				</port>
				<port id="1" precision="FP32">
					<dim>1</dim>
					<dim>16</dim>
					<dim>32</dim>
					<dim>32</dim>
				</port>
			</input>
			<output>
				<port id="2" precision="FP32" names="/model/model.4/cv2/cv2.0/m/m.1/Add_output_0">
					<dim>1</dim>
					<dim>16</dim>
					<dim>32</dim>
					<dim>32</dim>
				</port>
			</output>
		</layer>
		<layer id="105" name="model.model.4.cv2.0.m.2.cv1.conv.weight_compressed" type="Const" version="opset1">
			<data element_type="f16" shape="16, 16, 3, 3" offset="96264" size="4608" />
			<output>
				<port id="0" precision="FP16" names="model.model.4.cv2.0.m.2.cv1.conv.weight">
					<dim>16</dim>
					<dim>16</dim>
					<dim>3</dim>
					<dim>3</dim>
				</port>
			</output>
		</layer>
		<layer id="106" name="model.model.4.cv2.0.m.2.cv1.conv.weight" type="Convert" version="opset1">
			<data destination_type="f32" />
			<rt_info>
				<attribute name="decompression" version="0" />
			</rt_info>
			<input>
				<port id="0" precision="FP16">
					<dim>16</dim>
					<dim>16</dim>
					<dim>3</dim>
					<dim>3</dim>
				</port>
			</input>
			<output>
				<port id="1" precision="FP32">
					<dim>16</dim>
					<dim>16</dim>
					<dim>3</dim>
					<dim>3</dim>
				</port>
			</output>
		</layer>
		<layer id="107" name="/model/model.4/cv2/cv2.0/m/m.2/cv1/conv/Conv/WithoutBiases" type="Convolution" version="opset1">
			<data strides="1, 1" dilations="1, 1" pads_begin="1, 1" pads_end="1, 1" auto_pad="explicit" />
			<input>
				<port id="0" precision="FP32">
					<dim>1</dim>
					<dim>16</dim>
					<dim>32</dim>
					<dim>32</dim>
				</port>
				<port id="1" precision="FP32">
					<dim>16</dim>
					<dim>16</dim>
					<dim>3</dim>
					<dim>3</dim>
				</port>
			</input>
			<output>
				<port id="2" precision="FP32">
					<dim>1</dim>
					<dim>16</dim>
					<dim>32</dim>
					<dim>32</dim>
				</port>
			</output>
		</layer>
		<layer id="108" name="Reshape_290_compressed" type="Const" version="opset1">
			<data element_type="f16" shape="1, 16, 1, 1" offset="100872" size="32" />
			<output>
				<port id="0" precision="FP16">
					<dim>1</dim>
					<dim>16</dim>
					<dim>1</dim>
					<dim>1</dim>
				</port>
			</output>
		</layer>
		<layer id="109" name="Reshape_290" type="Convert" version="opset1">
			<data destination_type="f32" />
			<rt_info>
				<attribute name="decompression" version="0" />
			</rt_info>
			<input>
				<port id="0" precision="FP16">
					<dim>1</dim>
					<dim>16</dim>
					<dim>1</dim>
					<dim>1</dim>
				</port>
			</input>
			<output>
				<port id="1" precision="FP32">
					<dim>1</dim>
					<dim>16</dim>
					<dim>1</dim>
					<dim>1</dim>
				</port>
			</output>
		</layer>
		<layer id="110" name="/model/model.4/cv2/cv2.0/m/m.2/cv1/conv/Conv" type="Add" version="opset1">
			<data auto_broadcast="numpy" />
			<input>
				<port id="0" precision="FP32">
					<dim>1</dim>
					<dim>16</dim>
					<dim>32</dim>
					<dim>32</dim>
				</port>
				<port id="1" precision="FP32">
					<dim>1</dim>
					<dim>16</dim>
					<dim>1</dim>
					<dim>1</dim>
				</port>
			</input>
			<output>
				<port id="2" precision="FP32" names="/model/model.4/cv2/cv2.0/m/m.2/cv1/conv/Conv_output_0">
					<dim>1</dim>
					<dim>16</dim>
					<dim>32</dim>
					<dim>32</dim>
				</port>
			</output>
		</layer>
		<layer id="111" name="/model/model.4/cv2/cv2.0/m/m.2/cv1/act/Mul" type="Swish" version="opset4">
			<input>
				<port id="0" precision="FP32">
					<dim>1</dim>
					<dim>16</dim>
					<dim>32</dim>
					<dim>32</dim>
				</port>
			</input>
			<output>
				<port id="1" precision="FP32" names="/model/model.4/cv2/cv2.0/m/m.2/cv1/act/Mul_output_0">
					<dim>1</dim>
					<dim>16</dim>
					<dim>32</dim>
					<dim>32</dim>
				</port>
			</output>
		</layer>
		<layer id="112" name="model.model.4.cv2.0.m.2.cv2.conv.weight_compressed" type="Const" version="opset1">
			<data element_type="f16" shape="16, 16, 3, 3" offset="100904" size="4608" />
			<output>
				<port id="0" precision="FP16" names="model.model.4.cv2.0.m.2.cv2.conv.weight">
					<dim>16</dim>
					<dim>16</dim>
					<dim>3</dim>
					<dim>3</dim>
				</port>
			</output>
		</layer>
		<layer id="113" name="model.model.4.cv2.0.m.2.cv2.conv.weight" type="Convert" version="opset1">
			<data destination_type="f32" />
			<rt_info>
				<attribute name="decompression" version="0" />
			</rt_info>
			<input>
				<port id="0" precision="FP16">
					<dim>16</dim>
					<dim>16</dim>
					<dim>3</dim>
					<dim>3</dim>
				</port>
			</input>
			<output>
				<port id="1" precision="FP32">
					<dim>16</dim>
					<dim>16</dim>
					<dim>3</dim>
					<dim>3</dim>
				</port>
			</output>
		</layer>
		<layer id="114" name="/model/model.4/cv2/cv2.0/m/m.2/cv2/conv/Conv/WithoutBiases" type="Convolution" version="opset1">
			<data strides="1, 1" dilations="1, 1" pads_begin="1, 1" pads_end="1, 1" auto_pad="explicit" />
			<input>
				<port id="0" precision="FP32">
					<dim>1</dim>
					<dim>16</dim>
					<dim>32</dim>
					<dim>32</dim>
				</port>
				<port id="1" precision="FP32">
					<dim>16</dim>
					<dim>16</dim>
					<dim>3</dim>
					<dim>3</dim>
				</port>
			</input>
			<output>
				<port id="2" precision="FP32">
					<dim>1</dim>
					<dim>16</dim>
					<dim>32</dim>
					<dim>32</dim>
				</port>
			</output>
		</layer>
		<layer id="115" name="Reshape_307" type="Const" version="opset1">
			<data element_type="f32" shape="1, 16, 1, 1" offset="105512" size="64" />
			<output>
				<port id="0" precision="FP32">
					<dim>1</dim>
					<dim>16</dim>
					<dim>1</dim>
					<dim>1</dim>
				</port>
			</output>
		</layer>
		<layer id="116" name="/model/model.4/cv2/cv2.0/m/m.2/cv2/conv/Conv" type="Add" version="opset1">
			<data auto_broadcast="numpy" />
			<input>
				<port id="0" precision="FP32">
					<dim>1</dim>
					<dim>16</dim>
					<dim>32</dim>
					<dim>32</dim>
				</port>
				<port id="1" precision="FP32">
					<dim>1</dim>
					<dim>16</dim>
					<dim>1</dim>
					<dim>1</dim>
				</port>
			</input>
			<output>
				<port id="2" precision="FP32" names="/model/model.4/cv2/cv2.0/m/m.2/cv2/conv/Conv_output_0">
					<dim>1</dim>
					<dim>16</dim>
					<dim>32</dim>
					<dim>32</dim>
				</port>
			</output>
		</layer>
		<layer id="117" name="/model/model.4/cv2/cv2.0/m/m.2/cv2/act/Mul" type="Swish" version="opset4">
			<input>
				<port id="0" precision="FP32">
					<dim>1</dim>
					<dim>16</dim>
					<dim>32</dim>
					<dim>32</dim>
				</port>
			</input>
			<output>
				<port id="1" precision="FP32" names="/model/model.4/cv2/cv2.0/m/m.2/cv2/act/Mul_output_0">
					<dim>1</dim>
					<dim>16</dim>
					<dim>32</dim>
					<dim>32</dim>
				</port>
			</output>
		</layer>
		<layer id="118" name="/model/model.4/cv2/cv2.0/m/m.2/Add" type="Add" version="opset1">
			<data auto_broadcast="numpy" />
			<input>
				<port id="0" precision="FP32">
					<dim>1</dim>
					<dim>16</dim>
					<dim>32</dim>
					<dim>32</dim>
				</port>
				<port id="1" precision="FP32">
					<dim>1</dim>
					<dim>16</dim>
					<dim>32</dim>
					<dim>32</dim>
				</port>
			</input>
			<output>
				<port id="2" precision="FP32" names="/model/model.4/cv2/cv2.0/m/m.2/Add_output_0">
					<dim>1</dim>
					<dim>16</dim>
					<dim>32</dim>
					<dim>32</dim>
				</port>
			</output>
		</layer>
		<layer id="119" name="model.model.4.cv2.0.cv2.conv.weight_compressed" type="Const" version="opset1">
			<data element_type="f16" shape="16, 32, 1, 1" offset="105576" size="1024" />
			<output>
				<port id="0" precision="FP16" names="model.model.4.cv2.0.cv2.conv.weight">
					<dim>16</dim>
					<dim>32</dim>
					<dim>1</dim>
					<dim>1</dim>
				</port>
			</output>
		</layer>
		<layer id="120" name="model.model.4.cv2.0.cv2.conv.weight" type="Convert" version="opset1">
			<data destination_type="f32" />
			<rt_info>
				<attribute name="decompression" version="0" />
			</rt_info>
			<input>
				<port id="0" precision="FP16">
					<dim>16</dim>
					<dim>32</dim>
					<dim>1</dim>
					<dim>1</dim>
				</port>
			</input>
			<output>
				<port id="1" precision="FP32">
					<dim>16</dim>
					<dim>32</dim>
					<dim>1</dim>
					<dim>1</dim>
				</port>
			</output>
		</layer>
		<layer id="121" name="/model/model.4/cv2/cv2.0/cv2/conv/Conv/WithoutBiases" type="Convolution" version="opset1">
			<data strides="1, 1" dilations="1, 1" pads_begin="0, 0" pads_end="0, 0" auto_pad="explicit" />
			<input>
				<port id="0" precision="FP32">
					<dim>1</dim>
					<dim>32</dim>
					<dim>32</dim>
					<dim>32</dim>
				</port>
				<port id="1" precision="FP32">
					<dim>16</dim>
					<dim>32</dim>
					<dim>1</dim>
					<dim>1</dim>
				</port>
			</input>
			<output>
				<port id="2" precision="FP32">
					<dim>1</dim>
					<dim>16</dim>
					<dim>32</dim>
					<dim>32</dim>
				</port>
			</output>
		</layer>
		<layer id="122" name="Reshape_201_compressed" type="Const" version="opset1">
			<data element_type="f16" shape="1, 16, 1, 1" offset="106600" size="32" />
			<output>
				<port id="0" precision="FP16">
					<dim>1</dim>
					<dim>16</dim>
					<dim>1</dim>
					<dim>1</dim>
				</port>
			</output>
		</layer>
		<layer id="123" name="Reshape_201" type="Convert" version="opset1">
			<data destination_type="f32" />
			<rt_info>
				<attribute name="decompression" version="0" />
			</rt_info>
			<input>
				<port id="0" precision="FP16">
					<dim>1</dim>
					<dim>16</dim>
					<dim>1</dim>
					<dim>1</dim>
				</port>
			</input>
			<output>
				<port id="1" precision="FP32">
					<dim>1</dim>
					<dim>16</dim>
					<dim>1</dim>
					<dim>1</dim>
				</port>
			</output>
		</layer>
		<layer id="124" name="/model/model.4/cv2/cv2.0/cv2/conv/Conv" type="Add" version="opset1">
			<data auto_broadcast="numpy" />
			<input>
				<port id="0" precision="FP32">
					<dim>1</dim>
					<dim>16</dim>
					<dim>32</dim>
					<dim>32</dim>
				</port>
				<port id="1" precision="FP32">
					<dim>1</dim>
					<dim>16</dim>
					<dim>1</dim>
					<dim>1</dim>
				</port>
			</input>
			<output>
				<port id="2" precision="FP32" names="/model/model.4/cv2/cv2.0/cv2/conv/Conv_output_0">
					<dim>1</dim>
					<dim>16</dim>
					<dim>32</dim>
					<dim>32</dim>
				</port>
			</output>
		</layer>
		<layer id="125" name="/model/model.4/cv2/cv2.0/cv2/act/Mul" type="Swish" version="opset4">
			<input>
				<port id="0" precision="FP32">
					<dim>1</dim>
					<dim>16</dim>
					<dim>32</dim>
					<dim>32</dim>
				</port>
			</input>
			<output>
				<port id="1" precision="FP32" names="/model/model.4/cv2/cv2.0/cv2/act/Mul_output_0">
					<dim>1</dim>
					<dim>16</dim>
					<dim>32</dim>
					<dim>32</dim>
				</port>
			</output>
		</layer>
		<layer id="126" name="/model/model.4/cv2/cv2.0/Concat" type="Concat" version="opset1">
			<data axis="1" />
			<input>
				<port id="0" precision="FP32">
					<dim>1</dim>
					<dim>16</dim>
					<dim>32</dim>
					<dim>32</dim>
				</port>
				<port id="1" precision="FP32">
					<dim>1</dim>
					<dim>16</dim>
					<dim>32</dim>
					<dim>32</dim>
				</port>
			</input>
			<output>
				<port id="2" precision="FP32" names="/model/model.4/cv2/cv2.0/Concat_output_0">
					<dim>1</dim>
					<dim>32</dim>
					<dim>32</dim>
					<dim>32</dim>
				</port>
			</output>
		</layer>
		<layer id="127" name="model.model.4.cv2.0.cv3.conv.weight_compressed" type="Const" version="opset1">
			<data element_type="f16" shape="32, 32, 1, 1" offset="106632" size="2048" />
			<output>
				<port id="0" precision="FP16" names="model.model.4.cv2.0.cv3.conv.weight">
					<dim>32</dim>
					<dim>32</dim>
					<dim>1</dim>
					<dim>1</dim>
				</port>
			</output>
		</layer>
		<layer id="128" name="model.model.4.cv2.0.cv3.conv.weight" type="Convert" version="opset1">
			<data destination_type="f32" />
			<rt_info>
				<attribute name="decompression" version="0" />
			</rt_info>
			<input>
				<port id="0" precision="FP16">
					<dim>32</dim>
					<dim>32</dim>
					<dim>1</dim>
					<dim>1</dim>
				</port>
			</input>
			<output>
				<port id="1" precision="FP32">
					<dim>32</dim>
					<dim>32</dim>
					<dim>1</dim>
					<dim>1</dim>
				</port>
			</output>
		</layer>
		<layer id="129" name="/model/model.4/cv2/cv2.0/cv3/conv/Conv/WithoutBiases" type="Convolution" version="opset1">
			<data strides="1, 1" dilations="1, 1" pads_begin="0, 0" pads_end="0, 0" auto_pad="explicit" />
			<input>
				<port id="0" precision="FP32">
					<dim>1</dim>
					<dim>32</dim>
					<dim>32</dim>
					<dim>32</dim>
				</port>
				<port id="1" precision="FP32">
					<dim>32</dim>
					<dim>32</dim>
					<dim>1</dim>
					<dim>1</dim>
				</port>
			</input>
			<output>
				<port id="2" precision="FP32">
					<dim>1</dim>
					<dim>32</dim>
					<dim>32</dim>
					<dim>32</dim>
				</port>
			</output>
		</layer>
		<layer id="130" name="Reshape_326_compressed" type="Const" version="opset1">
			<data element_type="f16" shape="1, 32, 1, 1" offset="108680" size="64" />
			<output>
				<port id="0" precision="FP16">
					<dim>1</dim>
					<dim>32</dim>
					<dim>1</dim>
					<dim>1</dim>
				</port>
			</output>
		</layer>
		<layer id="131" name="Reshape_326" type="Convert" version="opset1">
			<data destination_type="f32" />
			<rt_info>
				<attribute name="decompression" version="0" />
			</rt_info>
			<input>
				<port id="0" precision="FP16">
					<dim>1</dim>
					<dim>32</dim>
					<dim>1</dim>
					<dim>1</dim>
				</port>
			</input>
			<output>
				<port id="1" precision="FP32">
					<dim>1</dim>
					<dim>32</dim>
					<dim>1</dim>
					<dim>1</dim>
				</port>
			</output>
		</layer>
		<layer id="132" name="/model/model.4/cv2/cv2.0/cv3/conv/Conv" type="Add" version="opset1">
			<data auto_broadcast="numpy" />
			<input>
				<port id="0" precision="FP32">
					<dim>1</dim>
					<dim>32</dim>
					<dim>32</dim>
					<dim>32</dim>
				</port>
				<port id="1" precision="FP32">
					<dim>1</dim>
					<dim>32</dim>
					<dim>1</dim>
					<dim>1</dim>
				</port>
			</input>
			<output>
				<port id="2" precision="FP32" names="/model/model.4/cv2/cv2.0/cv3/conv/Conv_output_0">
					<dim>1</dim>
					<dim>32</dim>
					<dim>32</dim>
					<dim>32</dim>
				</port>
			</output>
		</layer>
		<layer id="133" name="/model/model.4/cv2/cv2.0/cv3/act/Mul" type="Swish" version="opset4">
			<input>
				<port id="0" precision="FP32">
					<dim>1</dim>
					<dim>32</dim>
					<dim>32</dim>
					<dim>32</dim>
				</port>
			</input>
			<output>
				<port id="1" precision="FP32" names="/model/model.4/cv2/cv2.0/cv3/act/Mul_output_0">
					<dim>1</dim>
					<dim>32</dim>
					<dim>32</dim>
					<dim>32</dim>
				</port>
			</output>
		</layer>
		<layer id="134" name="model.model.4.cv2.1.conv.weight_compressed" type="Const" version="opset1">
			<data element_type="f16" shape="32, 32, 3, 3" offset="108744" size="18432" />
			<output>
				<port id="0" precision="FP16" names="model.model.4.cv2.1.conv.weight">
					<dim>32</dim>
					<dim>32</dim>
					<dim>3</dim>
					<dim>3</dim>
				</port>
			</output>
		</layer>
		<layer id="135" name="model.model.4.cv2.1.conv.weight" type="Convert" version="opset1">
			<data destination_type="f32" />
			<rt_info>
				<attribute name="decompression" version="0" />
			</rt_info>
			<input>
				<port id="0" precision="FP16">
					<dim>32</dim>
					<dim>32</dim>
					<dim>3</dim>
					<dim>3</dim>
				</port>
			</input>
			<output>
				<port id="1" precision="FP32">
					<dim>32</dim>
					<dim>32</dim>
					<dim>3</dim>
					<dim>3</dim>
				</port>
			</output>
		</layer>
		<layer id="136" name="/model/model.4/cv2/cv2.1/conv/Conv/WithoutBiases" type="Convolution" version="opset1">
			<data strides="1, 1" dilations="1, 1" pads_begin="1, 1" pads_end="1, 1" auto_pad="explicit" />
			<input>
				<port id="0" precision="FP32">
					<dim>1</dim>
					<dim>32</dim>
					<dim>32</dim>
					<dim>32</dim>
				</port>
				<port id="1" precision="FP32">
					<dim>32</dim>
					<dim>32</dim>
					<dim>3</dim>
					<dim>3</dim>
				</port>
			</input>
			<output>
				<port id="2" precision="FP32">
					<dim>1</dim>
					<dim>32</dim>
					<dim>32</dim>
					<dim>32</dim>
				</port>
			</output>
		</layer>
		<layer id="137" name="Reshape_343_compressed" type="Const" version="opset1">
			<data element_type="f16" shape="1, 32, 1, 1" offset="127176" size="64" />
			<output>
				<port id="0" precision="FP16">
					<dim>1</dim>
					<dim>32</dim>
					<dim>1</dim>
					<dim>1</dim>
				</port>
			</output>
		</layer>
		<layer id="138" name="Reshape_343" type="Convert" version="opset1">
			<data destination_type="f32" />
			<rt_info>
				<attribute name="decompression" version="0" />
			</rt_info>
			<input>
				<port id="0" precision="FP16">
					<dim>1</dim>
					<dim>32</dim>
					<dim>1</dim>
					<dim>1</dim>
				</port>
			</input>
			<output>
				<port id="1" precision="FP32">
					<dim>1</dim>
					<dim>32</dim>
					<dim>1</dim>
					<dim>1</dim>
				</port>
			</output>
		</layer>
		<layer id="139" name="/model/model.4/cv2/cv2.1/conv/Conv" type="Add" version="opset1">
			<data auto_broadcast="numpy" />
			<input>
				<port id="0" precision="FP32">
					<dim>1</dim>
					<dim>32</dim>
					<dim>32</dim>
					<dim>32</dim>
				</port>
				<port id="1" precision="FP32">
					<dim>1</dim>
					<dim>32</dim>
					<dim>1</dim>
					<dim>1</dim>
				</port>
			</input>
			<output>
				<port id="2" precision="FP32" names="/model/model.4/cv2/cv2.1/conv/Conv_output_0">
					<dim>1</dim>
					<dim>32</dim>
					<dim>32</dim>
					<dim>32</dim>
				</port>
			</output>
		</layer>
		<layer id="140" name="/model/model.4/cv2/cv2.1/act/Mul" type="Swish" version="opset4">
			<input>
				<port id="0" precision="FP32">
					<dim>1</dim>
					<dim>32</dim>
					<dim>32</dim>
					<dim>32</dim>
				</port>
			</input>
			<output>
				<port id="1" precision="FP32" names="/model/model.4/cv2/cv2.1/act/Mul_output_0">
					<dim>1</dim>
					<dim>32</dim>
					<dim>32</dim>
					<dim>32</dim>
				</port>
			</output>
		</layer>
		<layer id="141" name="model.model.4.cv3.0.cv1.conv.weight_compressed" type="Const" version="opset1">
			<data element_type="f16" shape="16, 32, 1, 1" offset="127240" size="1024" />
			<output>
				<port id="0" precision="FP16" names="model.model.4.cv3.0.cv1.conv.weight">
					<dim>16</dim>
					<dim>32</dim>
					<dim>1</dim>
					<dim>1</dim>
				</port>
			</output>
		</layer>
		<layer id="142" name="model.model.4.cv3.0.cv1.conv.weight" type="Convert" version="opset1">
			<data destination_type="f32" />
			<rt_info>
				<attribute name="decompression" version="0" />
			</rt_info>
			<input>
				<port id="0" precision="FP16">
					<dim>16</dim>
					<dim>32</dim>
					<dim>1</dim>
					<dim>1</dim>
				</port>
			</input>
			<output>
				<port id="1" precision="FP32">
					<dim>16</dim>
					<dim>32</dim>
					<dim>1</dim>
					<dim>1</dim>
				</port>
			</output>
		</layer>
		<layer id="143" name="/model/model.4/cv3/cv3.0/cv1/conv/Conv/WithoutBiases" type="Convolution" version="opset1">
			<data strides="1, 1" dilations="1, 1" pads_begin="0, 0" pads_end="0, 0" auto_pad="explicit" />
			<input>
				<port id="0" precision="FP32">
					<dim>1</dim>
					<dim>32</dim>
					<dim>32</dim>
					<dim>32</dim>
				</port>
				<port id="1" precision="FP32">
					<dim>16</dim>
					<dim>32</dim>
					<dim>1</dim>
					<dim>1</dim>
				</port>
			</input>
			<output>
				<port id="2" precision="FP32">
					<dim>1</dim>
					<dim>16</dim>
					<dim>32</dim>
					<dim>32</dim>
				</port>
			</output>
		</layer>
		<layer id="144" name="Reshape_360" type="Const" version="opset1">
			<data element_type="f32" shape="1, 16, 1, 1" offset="128264" size="64" />
			<output>
				<port id="0" precision="FP32">
					<dim>1</dim>
					<dim>16</dim>
					<dim>1</dim>
					<dim>1</dim>
				</port>
			</output>
		</layer>
		<layer id="145" name="/model/model.4/cv3/cv3.0/cv1/conv/Conv" type="Add" version="opset1">
			<data auto_broadcast="numpy" />
			<input>
				<port id="0" precision="FP32">
					<dim>1</dim>
					<dim>16</dim>
					<dim>32</dim>
					<dim>32</dim>
				</port>
				<port id="1" precision="FP32">
					<dim>1</dim>
					<dim>16</dim>
					<dim>1</dim>
					<dim>1</dim>
				</port>
			</input>
			<output>
				<port id="2" precision="FP32" names="/model/model.4/cv3/cv3.0/cv1/conv/Conv_output_0">
					<dim>1</dim>
					<dim>16</dim>
					<dim>32</dim>
					<dim>32</dim>
				</port>
			</output>
		</layer>
		<layer id="146" name="/model/model.4/cv3/cv3.0/cv1/act/Mul" type="Swish" version="opset4">
			<input>
				<port id="0" precision="FP32">
					<dim>1</dim>
					<dim>16</dim>
					<dim>32</dim>
					<dim>32</dim>
				</port>
			</input>
			<output>
				<port id="1" precision="FP32" names="/model/model.4/cv3/cv3.0/cv1/act/Mul_output_0">
					<dim>1</dim>
					<dim>16</dim>
					<dim>32</dim>
					<dim>32</dim>
				</port>
			</output>
		</layer>
		<layer id="147" name="model.model.4.cv3.0.m.0.cv1.conv.weight_compressed" type="Const" version="opset1">
			<data element_type="f16" shape="16, 16, 3, 3" offset="128328" size="4608" />
			<output>
				<port id="0" precision="FP16" names="model.model.4.cv3.0.m.0.cv1.conv.weight">
					<dim>16</dim>
					<dim>16</dim>
					<dim>3</dim>
					<dim>3</dim>
				</port>
			</output>
		</layer>
		<layer id="148" name="model.model.4.cv3.0.m.0.cv1.conv.weight" type="Convert" version="opset1">
			<data destination_type="f32" />
			<rt_info>
				<attribute name="decompression" version="0" />
			</rt_info>
			<input>
				<port id="0" precision="FP16">
					<dim>16</dim>
					<dim>16</dim>
					<dim>3</dim>
					<dim>3</dim>
				</port>
			</input>
			<output>
				<port id="1" precision="FP32">
					<dim>16</dim>
					<dim>16</dim>
					<dim>3</dim>
					<dim>3</dim>
				</port>
			</output>
		</layer>
		<layer id="149" name="/model/model.4/cv3/cv3.0/m/m.0/cv1/conv/Conv/WithoutBiases" type="Convolution" version="opset1">
			<data strides="1, 1" dilations="1, 1" pads_begin="1, 1" pads_end="1, 1" auto_pad="explicit" />
			<input>
				<port id="0" precision="FP32">
					<dim>1</dim>
					<dim>16</dim>
					<dim>32</dim>
					<dim>32</dim>
				</port>
				<port id="1" precision="FP32">
					<dim>16</dim>
					<dim>16</dim>
					<dim>3</dim>
					<dim>3</dim>
				</port>
			</input>
			<output>
				<port id="2" precision="FP32">
					<dim>1</dim>
					<dim>16</dim>
					<dim>32</dim>
					<dim>32</dim>
				</port>
			</output>
		</layer>
		<layer id="150" name="Reshape_394_compressed" type="Const" version="opset1">
			<data element_type="f16" shape="1, 16, 1, 1" offset="132936" size="32" />
			<output>
				<port id="0" precision="FP16">
					<dim>1</dim>
					<dim>16</dim>
					<dim>1</dim>
					<dim>1</dim>
				</port>
			</output>
		</layer>
		<layer id="151" name="Reshape_394" type="Convert" version="opset1">
			<data destination_type="f32" />
			<rt_info>
				<attribute name="decompression" version="0" />
			</rt_info>
			<input>
				<port id="0" precision="FP16">
					<dim>1</dim>
					<dim>16</dim>
					<dim>1</dim>
					<dim>1</dim>
				</port>
			</input>
			<output>
				<port id="1" precision="FP32">
					<dim>1</dim>
					<dim>16</dim>
					<dim>1</dim>
					<dim>1</dim>
				</port>
			</output>
		</layer>
		<layer id="152" name="/model/model.4/cv3/cv3.0/m/m.0/cv1/conv/Conv" type="Add" version="opset1">
			<data auto_broadcast="numpy" />
			<input>
				<port id="0" precision="FP32">
					<dim>1</dim>
					<dim>16</dim>
					<dim>32</dim>
					<dim>32</dim>
				</port>
				<port id="1" precision="FP32">
					<dim>1</dim>
					<dim>16</dim>
					<dim>1</dim>
					<dim>1</dim>
				</port>
			</input>
			<output>
				<port id="2" precision="FP32" names="/model/model.4/cv3/cv3.0/m/m.0/cv1/conv/Conv_output_0">
					<dim>1</dim>
					<dim>16</dim>
					<dim>32</dim>
					<dim>32</dim>
				</port>
			</output>
		</layer>
		<layer id="153" name="/model/model.4/cv3/cv3.0/m/m.0/cv1/act/Mul" type="Swish" version="opset4">
			<input>
				<port id="0" precision="FP32">
					<dim>1</dim>
					<dim>16</dim>
					<dim>32</dim>
					<dim>32</dim>
				</port>
			</input>
			<output>
				<port id="1" precision="FP32" names="/model/model.4/cv3/cv3.0/m/m.0/cv1/act/Mul_output_0">
					<dim>1</dim>
					<dim>16</dim>
					<dim>32</dim>
					<dim>32</dim>
				</port>
			</output>
		</layer>
		<layer id="154" name="model.model.4.cv3.0.m.0.cv2.conv.weight_compressed" type="Const" version="opset1">
			<data element_type="f16" shape="16, 16, 3, 3" offset="132968" size="4608" />
			<output>
				<port id="0" precision="FP16" names="model.model.4.cv3.0.m.0.cv2.conv.weight">
					<dim>16</dim>
					<dim>16</dim>
					<dim>3</dim>
					<dim>3</dim>
				</port>
			</output>
		</layer>
		<layer id="155" name="model.model.4.cv3.0.m.0.cv2.conv.weight" type="Convert" version="opset1">
			<data destination_type="f32" />
			<rt_info>
				<attribute name="decompression" version="0" />
			</rt_info>
			<input>
				<port id="0" precision="FP16">
					<dim>16</dim>
					<dim>16</dim>
					<dim>3</dim>
					<dim>3</dim>
				</port>
			</input>
			<output>
				<port id="1" precision="FP32">
					<dim>16</dim>
					<dim>16</dim>
					<dim>3</dim>
					<dim>3</dim>
				</port>
			</output>
		</layer>
		<layer id="156" name="/model/model.4/cv3/cv3.0/m/m.0/cv2/conv/Conv/WithoutBiases" type="Convolution" version="opset1">
			<data strides="1, 1" dilations="1, 1" pads_begin="1, 1" pads_end="1, 1" auto_pad="explicit" />
			<input>
				<port id="0" precision="FP32">
					<dim>1</dim>
					<dim>16</dim>
					<dim>32</dim>
					<dim>32</dim>
				</port>
				<port id="1" precision="FP32">
					<dim>16</dim>
					<dim>16</dim>
					<dim>3</dim>
					<dim>3</dim>
				</port>
			</input>
			<output>
				<port id="2" precision="FP32">
					<dim>1</dim>
					<dim>16</dim>
					<dim>32</dim>
					<dim>32</dim>
				</port>
			</output>
		</layer>
		<layer id="157" name="Reshape_411" type="Const" version="opset1">
			<data element_type="f32" shape="1, 16, 1, 1" offset="137576" size="64" />
			<output>
				<port id="0" precision="FP32">
					<dim>1</dim>
					<dim>16</dim>
					<dim>1</dim>
					<dim>1</dim>
				</port>
			</output>
		</layer>
		<layer id="158" name="/model/model.4/cv3/cv3.0/m/m.0/cv2/conv/Conv" type="Add" version="opset1">
			<data auto_broadcast="numpy" />
			<input>
				<port id="0" precision="FP32">
					<dim>1</dim>
					<dim>16</dim>
					<dim>32</dim>
					<dim>32</dim>
				</port>
				<port id="1" precision="FP32">
					<dim>1</dim>
					<dim>16</dim>
					<dim>1</dim>
					<dim>1</dim>
				</port>
			</input>
			<output>
				<port id="2" precision="FP32" names="/model/model.4/cv3/cv3.0/m/m.0/cv2/conv/Conv_output_0">
					<dim>1</dim>
					<dim>16</dim>
					<dim>32</dim>
					<dim>32</dim>
				</port>
			</output>
		</layer>
		<layer id="159" name="/model/model.4/cv3/cv3.0/m/m.0/cv2/act/Mul" type="Swish" version="opset4">
			<input>
				<port id="0" precision="FP32">
					<dim>1</dim>
					<dim>16</dim>
					<dim>32</dim>
					<dim>32</dim>
				</port>
			</input>
			<output>
				<port id="1" precision="FP32" names="/model/model.4/cv3/cv3.0/m/m.0/cv2/act/Mul_output_0">
					<dim>1</dim>
					<dim>16</dim>
					<dim>32</dim>
					<dim>32</dim>
				</port>
			</output>
		</layer>
		<layer id="160" name="/model/model.4/cv3/cv3.0/m/m.0/Add" type="Add" version="opset1">
			<data auto_broadcast="numpy" />
			<input>
				<port id="0" precision="FP32">
					<dim>1</dim>
					<dim>16</dim>
					<dim>32</dim>
					<dim>32</dim>
				</port>
				<port id="1" precision="FP32">
					<dim>1</dim>
					<dim>16</dim>
					<dim>32</dim>
					<dim>32</dim>
				</port>
			</input>
			<output>
				<port id="2" precision="FP32" names="/model/model.4/cv3/cv3.0/m/m.0/Add_output_0">
					<dim>1</dim>
					<dim>16</dim>
					<dim>32</dim>
					<dim>32</dim>
				</port>
			</output>
		</layer>
		<layer id="161" name="model.model.4.cv3.0.m.1.cv1.conv.weight_compressed" type="Const" version="opset1">
			<data element_type="f16" shape="16, 16, 3, 3" offset="137640" size="4608" />
			<output>
				<port id="0" precision="FP16" names="model.model.4.cv3.0.m.1.cv1.conv.weight">
					<dim>16</dim>
					<dim>16</dim>
					<dim>3</dim>
					<dim>3</dim>
				</port>
			</output>
		</layer>
		<layer id="162" name="model.model.4.cv3.0.m.1.cv1.conv.weight" type="Convert" version="opset1">
			<data destination_type="f32" />
			<rt_info>
				<attribute name="decompression" version="0" />
			</rt_info>
			<input>
				<port id="0" precision="FP16">
					<dim>16</dim>
					<dim>16</dim>
					<dim>3</dim>
					<dim>3</dim>
				</port>
			</input>
			<output>
				<port id="1" precision="FP32">
					<dim>16</dim>
					<dim>16</dim>
					<dim>3</dim>
					<dim>3</dim>
				</port>
			</output>
		</layer>
		<layer id="163" name="/model/model.4/cv3/cv3.0/m/m.1/cv1/conv/Conv/WithoutBiases" type="Convolution" version="opset1">
			<data strides="1, 1" dilations="1, 1" pads_begin="1, 1" pads_end="1, 1" auto_pad="explicit" />
			<input>
				<port id="0" precision="FP32">
					<dim>1</dim>
					<dim>16</dim>
					<dim>32</dim>
					<dim>32</dim>
				</port>
				<port id="1" precision="FP32">
					<dim>16</dim>
					<dim>16</dim>
					<dim>3</dim>
					<dim>3</dim>
				</port>
			</input>
			<output>
				<port id="2" precision="FP32">
					<dim>1</dim>
					<dim>16</dim>
					<dim>32</dim>
					<dim>32</dim>
				</port>
			</output>
		</layer>
		<layer id="164" name="Reshape_429" type="Const" version="opset1">
			<data element_type="f32" shape="1, 16, 1, 1" offset="142248" size="64" />
			<output>
				<port id="0" precision="FP32">
					<dim>1</dim>
					<dim>16</dim>
					<dim>1</dim>
					<dim>1</dim>
				</port>
			</output>
		</layer>
		<layer id="165" name="/model/model.4/cv3/cv3.0/m/m.1/cv1/conv/Conv" type="Add" version="opset1">
			<data auto_broadcast="numpy" />
			<input>
				<port id="0" precision="FP32">
					<dim>1</dim>
					<dim>16</dim>
					<dim>32</dim>
					<dim>32</dim>
				</port>
				<port id="1" precision="FP32">
					<dim>1</dim>
					<dim>16</dim>
					<dim>1</dim>
					<dim>1</dim>
				</port>
			</input>
			<output>
				<port id="2" precision="FP32" names="/model/model.4/cv3/cv3.0/m/m.1/cv1/conv/Conv_output_0">
					<dim>1</dim>
					<dim>16</dim>
					<dim>32</dim>
					<dim>32</dim>
				</port>
			</output>
		</layer>
		<layer id="166" name="/model/model.4/cv3/cv3.0/m/m.1/cv1/act/Mul" type="Swish" version="opset4">
			<input>
				<port id="0" precision="FP32">
					<dim>1</dim>
					<dim>16</dim>
					<dim>32</dim>
					<dim>32</dim>
				</port>
			</input>
			<output>
				<port id="1" precision="FP32" names="/model/model.4/cv3/cv3.0/m/m.1/cv1/act/Mul_output_0">
					<dim>1</dim>
					<dim>16</dim>
					<dim>32</dim>
					<dim>32</dim>
				</port>
			</output>
		</layer>
		<layer id="167" name="model.model.4.cv3.0.m.1.cv2.conv.weight_compressed" type="Const" version="opset1">
			<data element_type="f16" shape="16, 16, 3, 3" offset="142312" size="4608" />
			<output>
				<port id="0" precision="FP16" names="model.model.4.cv3.0.m.1.cv2.conv.weight">
					<dim>16</dim>
					<dim>16</dim>
					<dim>3</dim>
					<dim>3</dim>
				</port>
			</output>
		</layer>
		<layer id="168" name="model.model.4.cv3.0.m.1.cv2.conv.weight" type="Convert" version="opset1">
			<data destination_type="f32" />
			<rt_info>
				<attribute name="decompression" version="0" />
			</rt_info>
			<input>
				<port id="0" precision="FP16">
					<dim>16</dim>
					<dim>16</dim>
					<dim>3</dim>
					<dim>3</dim>
				</port>
			</input>
			<output>
				<port id="1" precision="FP32">
					<dim>16</dim>
					<dim>16</dim>
					<dim>3</dim>
					<dim>3</dim>
				</port>
			</output>
		</layer>
		<layer id="169" name="/model/model.4/cv3/cv3.0/m/m.1/cv2/conv/Conv/WithoutBiases" type="Convolution" version="opset1">
			<data strides="1, 1" dilations="1, 1" pads_begin="1, 1" pads_end="1, 1" auto_pad="explicit" />
			<input>
				<port id="0" precision="FP32">
					<dim>1</dim>
					<dim>16</dim>
					<dim>32</dim>
					<dim>32</dim>
				</port>
				<port id="1" precision="FP32">
					<dim>16</dim>
					<dim>16</dim>
					<dim>3</dim>
					<dim>3</dim>
				</port>
			</input>
			<output>
				<port id="2" precision="FP32">
					<dim>1</dim>
					<dim>16</dim>
					<dim>32</dim>
					<dim>32</dim>
				</port>
			</output>
		</layer>
		<layer id="170" name="Reshape_446_compressed" type="Const" version="opset1">
			<data element_type="f16" shape="1, 16, 1, 1" offset="146920" size="32" />
			<output>
				<port id="0" precision="FP16">
					<dim>1</dim>
					<dim>16</dim>
					<dim>1</dim>
					<dim>1</dim>
				</port>
			</output>
		</layer>
		<layer id="171" name="Reshape_446" type="Convert" version="opset1">
			<data destination_type="f32" />
			<rt_info>
				<attribute name="decompression" version="0" />
			</rt_info>
			<input>
				<port id="0" precision="FP16">
					<dim>1</dim>
					<dim>16</dim>
					<dim>1</dim>
					<dim>1</dim>
				</port>
			</input>
			<output>
				<port id="1" precision="FP32">
					<dim>1</dim>
					<dim>16</dim>
					<dim>1</dim>
					<dim>1</dim>
				</port>
			</output>
		</layer>
		<layer id="172" name="/model/model.4/cv3/cv3.0/m/m.1/cv2/conv/Conv" type="Add" version="opset1">
			<data auto_broadcast="numpy" />
			<input>
				<port id="0" precision="FP32">
					<dim>1</dim>
					<dim>16</dim>
					<dim>32</dim>
					<dim>32</dim>
				</port>
				<port id="1" precision="FP32">
					<dim>1</dim>
					<dim>16</dim>
					<dim>1</dim>
					<dim>1</dim>
				</port>
			</input>
			<output>
				<port id="2" precision="FP32" names="/model/model.4/cv3/cv3.0/m/m.1/cv2/conv/Conv_output_0">
					<dim>1</dim>
					<dim>16</dim>
					<dim>32</dim>
					<dim>32</dim>
				</port>
			</output>
		</layer>
		<layer id="173" name="/model/model.4/cv3/cv3.0/m/m.1/cv2/act/Mul" type="Swish" version="opset4">
			<input>
				<port id="0" precision="FP32">
					<dim>1</dim>
					<dim>16</dim>
					<dim>32</dim>
					<dim>32</dim>
				</port>
			</input>
			<output>
				<port id="1" precision="FP32" names="/model/model.4/cv3/cv3.0/m/m.1/cv2/act/Mul_output_0">
					<dim>1</dim>
					<dim>16</dim>
					<dim>32</dim>
					<dim>32</dim>
				</port>
			</output>
		</layer>
		<layer id="174" name="/model/model.4/cv3/cv3.0/m/m.1/Add" type="Add" version="opset1">
			<data auto_broadcast="numpy" />
			<input>
				<port id="0" precision="FP32">
					<dim>1</dim>
					<dim>16</dim>
					<dim>32</dim>
					<dim>32</dim>
				</port>
				<port id="1" precision="FP32">
					<dim>1</dim>
					<dim>16</dim>
					<dim>32</dim>
					<dim>32</dim>
				</port>
			</input>
			<output>
				<port id="2" precision="FP32" names="/model/model.4/cv3/cv3.0/m/m.1/Add_output_0">
					<dim>1</dim>
					<dim>16</dim>
					<dim>32</dim>
					<dim>32</dim>
				</port>
			</output>
		</layer>
		<layer id="175" name="model.model.4.cv3.0.m.2.cv1.conv.weight_compressed" type="Const" version="opset1">
			<data element_type="f16" shape="16, 16, 3, 3" offset="146952" size="4608" />
			<output>
				<port id="0" precision="FP16" names="model.model.4.cv3.0.m.2.cv1.conv.weight">
					<dim>16</dim>
					<dim>16</dim>
					<dim>3</dim>
					<dim>3</dim>
				</port>
			</output>
		</layer>
		<layer id="176" name="model.model.4.cv3.0.m.2.cv1.conv.weight" type="Convert" version="opset1">
			<data destination_type="f32" />
			<rt_info>
				<attribute name="decompression" version="0" />
			</rt_info>
			<input>
				<port id="0" precision="FP16">
					<dim>16</dim>
					<dim>16</dim>
					<dim>3</dim>
					<dim>3</dim>
				</port>
			</input>
			<output>
				<port id="1" precision="FP32">
					<dim>16</dim>
					<dim>16</dim>
					<dim>3</dim>
					<dim>3</dim>
				</port>
			</output>
		</layer>
		<layer id="177" name="/model/model.4/cv3/cv3.0/m/m.2/cv1/conv/Conv/WithoutBiases" type="Convolution" version="opset1">
			<data strides="1, 1" dilations="1, 1" pads_begin="1, 1" pads_end="1, 1" auto_pad="explicit" />
			<input>
				<port id="0" precision="FP32">
					<dim>1</dim>
					<dim>16</dim>
					<dim>32</dim>
					<dim>32</dim>
				</port>
				<port id="1" precision="FP32">
					<dim>16</dim>
					<dim>16</dim>
					<dim>3</dim>
					<dim>3</dim>
				</port>
			</input>
			<output>
				<port id="2" precision="FP32">
					<dim>1</dim>
					<dim>16</dim>
					<dim>32</dim>
					<dim>32</dim>
				</port>
			</output>
		</layer>
		<layer id="178" name="Reshape_464_compressed" type="Const" version="opset1">
			<data element_type="f16" shape="1, 16, 1, 1" offset="151560" size="32" />
			<output>
				<port id="0" precision="FP16">
					<dim>1</dim>
					<dim>16</dim>
					<dim>1</dim>
					<dim>1</dim>
				</port>
			</output>
		</layer>
		<layer id="179" name="Reshape_464" type="Convert" version="opset1">
			<data destination_type="f32" />
			<rt_info>
				<attribute name="decompression" version="0" />
			</rt_info>
			<input>
				<port id="0" precision="FP16">
					<dim>1</dim>
					<dim>16</dim>
					<dim>1</dim>
					<dim>1</dim>
				</port>
			</input>
			<output>
				<port id="1" precision="FP32">
					<dim>1</dim>
					<dim>16</dim>
					<dim>1</dim>
					<dim>1</dim>
				</port>
			</output>
		</layer>
		<layer id="180" name="/model/model.4/cv3/cv3.0/m/m.2/cv1/conv/Conv" type="Add" version="opset1">
			<data auto_broadcast="numpy" />
			<input>
				<port id="0" precision="FP32">
					<dim>1</dim>
					<dim>16</dim>
					<dim>32</dim>
					<dim>32</dim>
				</port>
				<port id="1" precision="FP32">
					<dim>1</dim>
					<dim>16</dim>
					<dim>1</dim>
					<dim>1</dim>
				</port>
			</input>
			<output>
				<port id="2" precision="FP32" names="/model/model.4/cv3/cv3.0/m/m.2/cv1/conv/Conv_output_0">
					<dim>1</dim>
					<dim>16</dim>
					<dim>32</dim>
					<dim>32</dim>
				</port>
			</output>
		</layer>
		<layer id="181" name="/model/model.4/cv3/cv3.0/m/m.2/cv1/act/Mul" type="Swish" version="opset4">
			<input>
				<port id="0" precision="FP32">
					<dim>1</dim>
					<dim>16</dim>
					<dim>32</dim>
					<dim>32</dim>
				</port>
			</input>
			<output>
				<port id="1" precision="FP32" names="/model/model.4/cv3/cv3.0/m/m.2/cv1/act/Mul_output_0">
					<dim>1</dim>
					<dim>16</dim>
					<dim>32</dim>
					<dim>32</dim>
				</port>
			</output>
		</layer>
		<layer id="182" name="model.model.4.cv3.0.m.2.cv2.conv.weight_compressed" type="Const" version="opset1">
			<data element_type="f16" shape="16, 16, 3, 3" offset="151592" size="4608" />
			<output>
				<port id="0" precision="FP16" names="model.model.4.cv3.0.m.2.cv2.conv.weight">
					<dim>16</dim>
					<dim>16</dim>
					<dim>3</dim>
					<dim>3</dim>
				</port>
			</output>
		</layer>
		<layer id="183" name="model.model.4.cv3.0.m.2.cv2.conv.weight" type="Convert" version="opset1">
			<data destination_type="f32" />
			<rt_info>
				<attribute name="decompression" version="0" />
			</rt_info>
			<input>
				<port id="0" precision="FP16">
					<dim>16</dim>
					<dim>16</dim>
					<dim>3</dim>
					<dim>3</dim>
				</port>
			</input>
			<output>
				<port id="1" precision="FP32">
					<dim>16</dim>
					<dim>16</dim>
					<dim>3</dim>
					<dim>3</dim>
				</port>
			</output>
		</layer>
		<layer id="184" name="/model/model.4/cv3/cv3.0/m/m.2/cv2/conv/Conv/WithoutBiases" type="Convolution" version="opset1">
			<data strides="1, 1" dilations="1, 1" pads_begin="1, 1" pads_end="1, 1" auto_pad="explicit" />
			<input>
				<port id="0" precision="FP32">
					<dim>1</dim>
					<dim>16</dim>
					<dim>32</dim>
					<dim>32</dim>
				</port>
				<port id="1" precision="FP32">
					<dim>16</dim>
					<dim>16</dim>
					<dim>3</dim>
					<dim>3</dim>
				</port>
			</input>
			<output>
				<port id="2" precision="FP32">
					<dim>1</dim>
					<dim>16</dim>
					<dim>32</dim>
					<dim>32</dim>
				</port>
			</output>
		</layer>
		<layer id="185" name="Reshape_481" type="Const" version="opset1">
			<data element_type="f32" shape="1, 16, 1, 1" offset="156200" size="64" />
			<output>
				<port id="0" precision="FP32">
					<dim>1</dim>
					<dim>16</dim>
					<dim>1</dim>
					<dim>1</dim>
				</port>
			</output>
		</layer>
		<layer id="186" name="/model/model.4/cv3/cv3.0/m/m.2/cv2/conv/Conv" type="Add" version="opset1">
			<data auto_broadcast="numpy" />
			<input>
				<port id="0" precision="FP32">
					<dim>1</dim>
					<dim>16</dim>
					<dim>32</dim>
					<dim>32</dim>
				</port>
				<port id="1" precision="FP32">
					<dim>1</dim>
					<dim>16</dim>
					<dim>1</dim>
					<dim>1</dim>
				</port>
			</input>
			<output>
				<port id="2" precision="FP32" names="/model/model.4/cv3/cv3.0/m/m.2/cv2/conv/Conv_output_0">
					<dim>1</dim>
					<dim>16</dim>
					<dim>32</dim>
					<dim>32</dim>
				</port>
			</output>
		</layer>
		<layer id="187" name="/model/model.4/cv3/cv3.0/m/m.2/cv2/act/Mul" type="Swish" version="opset4">
			<input>
				<port id="0" precision="FP32">
					<dim>1</dim>
					<dim>16</dim>
					<dim>32</dim>
					<dim>32</dim>
				</port>
			</input>
			<output>
				<port id="1" precision="FP32" names="/model/model.4/cv3/cv3.0/m/m.2/cv2/act/Mul_output_0">
					<dim>1</dim>
					<dim>16</dim>
					<dim>32</dim>
					<dim>32</dim>
				</port>
			</output>
		</layer>
		<layer id="188" name="/model/model.4/cv3/cv3.0/m/m.2/Add" type="Add" version="opset1">
			<data auto_broadcast="numpy" />
			<input>
				<port id="0" precision="FP32">
					<dim>1</dim>
					<dim>16</dim>
					<dim>32</dim>
					<dim>32</dim>
				</port>
				<port id="1" precision="FP32">
					<dim>1</dim>
					<dim>16</dim>
					<dim>32</dim>
					<dim>32</dim>
				</port>
			</input>
			<output>
				<port id="2" precision="FP32" names="/model/model.4/cv3/cv3.0/m/m.2/Add_output_0">
					<dim>1</dim>
					<dim>16</dim>
					<dim>32</dim>
					<dim>32</dim>
				</port>
			</output>
		</layer>
		<layer id="189" name="model.model.4.cv3.0.cv2.conv.weight_compressed" type="Const" version="opset1">
			<data element_type="f16" shape="16, 32, 1, 1" offset="156264" size="1024" />
			<output>
				<port id="0" precision="FP16" names="model.model.4.cv3.0.cv2.conv.weight">
					<dim>16</dim>
					<dim>32</dim>
					<dim>1</dim>
					<dim>1</dim>
				</port>
			</output>
		</layer>
		<layer id="190" name="model.model.4.cv3.0.cv2.conv.weight" type="Convert" version="opset1">
			<data destination_type="f32" />
			<rt_info>
				<attribute name="decompression" version="0" />
			</rt_info>
			<input>
				<port id="0" precision="FP16">
					<dim>16</dim>
					<dim>32</dim>
					<dim>1</dim>
					<dim>1</dim>
				</port>
			</input>
			<output>
				<port id="1" precision="FP32">
					<dim>16</dim>
					<dim>32</dim>
					<dim>1</dim>
					<dim>1</dim>
				</port>
			</output>
		</layer>
		<layer id="191" name="/model/model.4/cv3/cv3.0/cv2/conv/Conv/WithoutBiases" type="Convolution" version="opset1">
			<data strides="1, 1" dilations="1, 1" pads_begin="0, 0" pads_end="0, 0" auto_pad="explicit" />
			<input>
				<port id="0" precision="FP32">
					<dim>1</dim>
					<dim>32</dim>
					<dim>32</dim>
					<dim>32</dim>
				</port>
				<port id="1" precision="FP32">
					<dim>16</dim>
					<dim>32</dim>
					<dim>1</dim>
					<dim>1</dim>
				</port>
			</input>
			<output>
				<port id="2" precision="FP32">
					<dim>1</dim>
					<dim>16</dim>
					<dim>32</dim>
					<dim>32</dim>
				</port>
			</output>
		</layer>
		<layer id="192" name="Reshape_375" type="Const" version="opset1">
			<data element_type="f32" shape="1, 16, 1, 1" offset="157288" size="64" />
			<output>
				<port id="0" precision="FP32">
					<dim>1</dim>
					<dim>16</dim>
					<dim>1</dim>
					<dim>1</dim>
				</port>
			</output>
		</layer>
		<layer id="193" name="/model/model.4/cv3/cv3.0/cv2/conv/Conv" type="Add" version="opset1">
			<data auto_broadcast="numpy" />
			<input>
				<port id="0" precision="FP32">
					<dim>1</dim>
					<dim>16</dim>
					<dim>32</dim>
					<dim>32</dim>
				</port>
				<port id="1" precision="FP32">
					<dim>1</dim>
					<dim>16</dim>
					<dim>1</dim>
					<dim>1</dim>
				</port>
			</input>
			<output>
				<port id="2" precision="FP32" names="/model/model.4/cv3/cv3.0/cv2/conv/Conv_output_0">
					<dim>1</dim>
					<dim>16</dim>
					<dim>32</dim>
					<dim>32</dim>
				</port>
			</output>
		</layer>
		<layer id="194" name="/model/model.4/cv3/cv3.0/cv2/act/Mul" type="Swish" version="opset4">
			<input>
				<port id="0" precision="FP32">
					<dim>1</dim>
					<dim>16</dim>
					<dim>32</dim>
					<dim>32</dim>
				</port>
			</input>
			<output>
				<port id="1" precision="FP32" names="/model/model.4/cv3/cv3.0/cv2/act/Mul_output_0">
					<dim>1</dim>
					<dim>16</dim>
					<dim>32</dim>
					<dim>32</dim>
				</port>
			</output>
		</layer>
		<layer id="195" name="/model/model.4/cv3/cv3.0/Concat" type="Concat" version="opset1">
			<data axis="1" />
			<input>
				<port id="0" precision="FP32">
					<dim>1</dim>
					<dim>16</dim>
					<dim>32</dim>
					<dim>32</dim>
				</port>
				<port id="1" precision="FP32">
					<dim>1</dim>
					<dim>16</dim>
					<dim>32</dim>
					<dim>32</dim>
				</port>
			</input>
			<output>
				<port id="2" precision="FP32" names="/model/model.4/cv3/cv3.0/Concat_output_0">
					<dim>1</dim>
					<dim>32</dim>
					<dim>32</dim>
					<dim>32</dim>
				</port>
			</output>
		</layer>
		<layer id="196" name="model.model.4.cv3.0.cv3.conv.weight_compressed" type="Const" version="opset1">
			<data element_type="f16" shape="32, 32, 1, 1" offset="157352" size="2048" />
			<output>
				<port id="0" precision="FP16" names="model.model.4.cv3.0.cv3.conv.weight">
					<dim>32</dim>
					<dim>32</dim>
					<dim>1</dim>
					<dim>1</dim>
				</port>
			</output>
		</layer>
		<layer id="197" name="model.model.4.cv3.0.cv3.conv.weight" type="Convert" version="opset1">
			<data destination_type="f32" />
			<rt_info>
				<attribute name="decompression" version="0" />
			</rt_info>
			<input>
				<port id="0" precision="FP16">
					<dim>32</dim>
					<dim>32</dim>
					<dim>1</dim>
					<dim>1</dim>
				</port>
			</input>
			<output>
				<port id="1" precision="FP32">
					<dim>32</dim>
					<dim>32</dim>
					<dim>1</dim>
					<dim>1</dim>
				</port>
			</output>
		</layer>
		<layer id="198" name="/model/model.4/cv3/cv3.0/cv3/conv/Conv/WithoutBiases" type="Convolution" version="opset1">
			<data strides="1, 1" dilations="1, 1" pads_begin="0, 0" pads_end="0, 0" auto_pad="explicit" />
			<input>
				<port id="0" precision="FP32">
					<dim>1</dim>
					<dim>32</dim>
					<dim>32</dim>
					<dim>32</dim>
				</port>
				<port id="1" precision="FP32">
					<dim>32</dim>
					<dim>32</dim>
					<dim>1</dim>
					<dim>1</dim>
				</port>
			</input>
			<output>
				<port id="2" precision="FP32">
					<dim>1</dim>
					<dim>32</dim>
					<dim>32</dim>
					<dim>32</dim>
				</port>
			</output>
		</layer>
		<layer id="199" name="Reshape_500_compressed" type="Const" version="opset1">
			<data element_type="f16" shape="1, 32, 1, 1" offset="159400" size="64" />
			<output>
				<port id="0" precision="FP16">
					<dim>1</dim>
					<dim>32</dim>
					<dim>1</dim>
					<dim>1</dim>
				</port>
			</output>
		</layer>
		<layer id="200" name="Reshape_500" type="Convert" version="opset1">
			<data destination_type="f32" />
			<rt_info>
				<attribute name="decompression" version="0" />
			</rt_info>
			<input>
				<port id="0" precision="FP16">
					<dim>1</dim>
					<dim>32</dim>
					<dim>1</dim>
					<dim>1</dim>
				</port>
			</input>
			<output>
				<port id="1" precision="FP32">
					<dim>1</dim>
					<dim>32</dim>
					<dim>1</dim>
					<dim>1</dim>
				</port>
			</output>
		</layer>
		<layer id="201" name="/model/model.4/cv3/cv3.0/cv3/conv/Conv" type="Add" version="opset1">
			<data auto_broadcast="numpy" />
			<input>
				<port id="0" precision="FP32">
					<dim>1</dim>
					<dim>32</dim>
					<dim>32</dim>
					<dim>32</dim>
				</port>
				<port id="1" precision="FP32">
					<dim>1</dim>
					<dim>32</dim>
					<dim>1</dim>
					<dim>1</dim>
				</port>
			</input>
			<output>
				<port id="2" precision="FP32" names="/model/model.4/cv3/cv3.0/cv3/conv/Conv_output_0">
					<dim>1</dim>
					<dim>32</dim>
					<dim>32</dim>
					<dim>32</dim>
				</port>
			</output>
		</layer>
		<layer id="202" name="/model/model.4/cv3/cv3.0/cv3/act/Mul" type="Swish" version="opset4">
			<input>
				<port id="0" precision="FP32">
					<dim>1</dim>
					<dim>32</dim>
					<dim>32</dim>
					<dim>32</dim>
				</port>
			</input>
			<output>
				<port id="1" precision="FP32" names="/model/model.4/cv3/cv3.0/cv3/act/Mul_output_0">
					<dim>1</dim>
					<dim>32</dim>
					<dim>32</dim>
					<dim>32</dim>
				</port>
			</output>
		</layer>
		<layer id="203" name="model.model.4.cv3.1.conv.weight_compressed" type="Const" version="opset1">
			<data element_type="f16" shape="32, 32, 3, 3" offset="159464" size="18432" />
			<output>
				<port id="0" precision="FP16" names="model.model.4.cv3.1.conv.weight">
					<dim>32</dim>
					<dim>32</dim>
					<dim>3</dim>
					<dim>3</dim>
				</port>
			</output>
		</layer>
		<layer id="204" name="model.model.4.cv3.1.conv.weight" type="Convert" version="opset1">
			<data destination_type="f32" />
			<rt_info>
				<attribute name="decompression" version="0" />
			</rt_info>
			<input>
				<port id="0" precision="FP16">
					<dim>32</dim>
					<dim>32</dim>
					<dim>3</dim>
					<dim>3</dim>
				</port>
			</input>
			<output>
				<port id="1" precision="FP32">
					<dim>32</dim>
					<dim>32</dim>
					<dim>3</dim>
					<dim>3</dim>
				</port>
			</output>
		</layer>
		<layer id="205" name="/model/model.4/cv3/cv3.1/conv/Conv/WithoutBiases" type="Convolution" version="opset1">
			<data strides="1, 1" dilations="1, 1" pads_begin="1, 1" pads_end="1, 1" auto_pad="explicit" />
			<input>
				<port id="0" precision="FP32">
					<dim>1</dim>
					<dim>32</dim>
					<dim>32</dim>
					<dim>32</dim>
				</port>
				<port id="1" precision="FP32">
					<dim>32</dim>
					<dim>32</dim>
					<dim>3</dim>
					<dim>3</dim>
				</port>
			</input>
			<output>
				<port id="2" precision="FP32">
					<dim>1</dim>
					<dim>32</dim>
					<dim>32</dim>
					<dim>32</dim>
				</port>
			</output>
		</layer>
		<layer id="206" name="Reshape_517_compressed" type="Const" version="opset1">
			<data element_type="f16" shape="1, 32, 1, 1" offset="177896" size="64" />
			<output>
				<port id="0" precision="FP16">
					<dim>1</dim>
					<dim>32</dim>
					<dim>1</dim>
					<dim>1</dim>
				</port>
			</output>
		</layer>
		<layer id="207" name="Reshape_517" type="Convert" version="opset1">
			<data destination_type="f32" />
			<rt_info>
				<attribute name="decompression" version="0" />
			</rt_info>
			<input>
				<port id="0" precision="FP16">
					<dim>1</dim>
					<dim>32</dim>
					<dim>1</dim>
					<dim>1</dim>
				</port>
			</input>
			<output>
				<port id="1" precision="FP32">
					<dim>1</dim>
					<dim>32</dim>
					<dim>1</dim>
					<dim>1</dim>
				</port>
			</output>
		</layer>
		<layer id="208" name="/model/model.4/cv3/cv3.1/conv/Conv" type="Add" version="opset1">
			<data auto_broadcast="numpy" />
			<input>
				<port id="0" precision="FP32">
					<dim>1</dim>
					<dim>32</dim>
					<dim>32</dim>
					<dim>32</dim>
				</port>
				<port id="1" precision="FP32">
					<dim>1</dim>
					<dim>32</dim>
					<dim>1</dim>
					<dim>1</dim>
				</port>
			</input>
			<output>
				<port id="2" precision="FP32" names="/model/model.4/cv3/cv3.1/conv/Conv_output_0">
					<dim>1</dim>
					<dim>32</dim>
					<dim>32</dim>
					<dim>32</dim>
				</port>
			</output>
		</layer>
		<layer id="209" name="/model/model.4/cv3/cv3.1/act/Mul" type="Swish" version="opset4">
			<input>
				<port id="0" precision="FP32">
					<dim>1</dim>
					<dim>32</dim>
					<dim>32</dim>
					<dim>32</dim>
				</port>
			</input>
			<output>
				<port id="1" precision="FP32" names="/model/model.4/cv3/cv3.1/act/Mul_output_0">
					<dim>1</dim>
					<dim>32</dim>
					<dim>32</dim>
					<dim>32</dim>
				</port>
			</output>
		</layer>
		<layer id="210" name="/model/model.4/Concat" type="Concat" version="opset1">
			<data axis="1" />
			<input>
				<port id="0" precision="FP32">
					<dim>1</dim>
					<dim>32</dim>
					<dim>32</dim>
					<dim>32</dim>
				</port>
				<port id="1" precision="FP32">
					<dim>1</dim>
					<dim>32</dim>
					<dim>32</dim>
					<dim>32</dim>
				</port>
				<port id="2" precision="FP32">
					<dim>1</dim>
					<dim>32</dim>
					<dim>32</dim>
					<dim>32</dim>
				</port>
				<port id="3" precision="FP32">
					<dim>1</dim>
					<dim>32</dim>
					<dim>32</dim>
					<dim>32</dim>
				</port>
			</input>
			<output>
				<port id="4" precision="FP32" names="/model/model.4/Concat_output_0">
					<dim>1</dim>
					<dim>128</dim>
					<dim>32</dim>
					<dim>32</dim>
				</port>
			</output>
		</layer>
		<layer id="211" name="model.model.4.cv4.conv.weight_compressed" type="Const" version="opset1">
			<data element_type="f16" shape="64, 128, 1, 1" offset="177960" size="16384" />
			<output>
				<port id="0" precision="FP16" names="model.model.4.cv4.conv.weight">
					<dim>64</dim>
					<dim>128</dim>
					<dim>1</dim>
					<dim>1</dim>
				</port>
			</output>
		</layer>
		<layer id="212" name="model.model.4.cv4.conv.weight" type="Convert" version="opset1">
			<data destination_type="f32" />
			<rt_info>
				<attribute name="decompression" version="0" />
			</rt_info>
			<input>
				<port id="0" precision="FP16">
					<dim>64</dim>
					<dim>128</dim>
					<dim>1</dim>
					<dim>1</dim>
				</port>
			</input>
			<output>
				<port id="1" precision="FP32">
					<dim>64</dim>
					<dim>128</dim>
					<dim>1</dim>
					<dim>1</dim>
				</port>
			</output>
		</layer>
		<layer id="213" name="/model/model.4/cv4/conv/Conv/WithoutBiases" type="Convolution" version="opset1">
			<data strides="1, 1" dilations="1, 1" pads_begin="0, 0" pads_end="0, 0" auto_pad="explicit" />
			<input>
				<port id="0" precision="FP32">
					<dim>1</dim>
					<dim>128</dim>
					<dim>32</dim>
					<dim>32</dim>
				</port>
				<port id="1" precision="FP32">
					<dim>64</dim>
					<dim>128</dim>
					<dim>1</dim>
					<dim>1</dim>
				</port>
			</input>
			<output>
				<port id="2" precision="FP32">
					<dim>1</dim>
					<dim>64</dim>
					<dim>32</dim>
					<dim>32</dim>
				</port>
			</output>
		</layer>
		<layer id="214" name="Reshape_535" type="Const" version="opset1">
			<data element_type="f32" shape="1, 64, 1, 1" offset="194344" size="256" />
			<output>
				<port id="0" precision="FP32">
					<dim>1</dim>
					<dim>64</dim>
					<dim>1</dim>
					<dim>1</dim>
				</port>
			</output>
		</layer>
		<layer id="215" name="/model/model.4/cv4/conv/Conv" type="Add" version="opset1">
			<data auto_broadcast="numpy" />
			<input>
				<port id="0" precision="FP32">
					<dim>1</dim>
					<dim>64</dim>
					<dim>32</dim>
					<dim>32</dim>
				</port>
				<port id="1" precision="FP32">
					<dim>1</dim>
					<dim>64</dim>
					<dim>1</dim>
					<dim>1</dim>
				</port>
			</input>
			<output>
				<port id="2" precision="FP32" names="/model/model.4/cv4/conv/Conv_output_0">
					<dim>1</dim>
					<dim>64</dim>
					<dim>32</dim>
					<dim>32</dim>
				</port>
			</output>
		</layer>
		<layer id="216" name="/model/model.4/cv4/act/Mul" type="Swish" version="opset4">
			<input>
				<port id="0" precision="FP32">
					<dim>1</dim>
					<dim>64</dim>
					<dim>32</dim>
					<dim>32</dim>
				</port>
			</input>
			<output>
				<port id="1" precision="FP32" names="/model/model.4/cv4/act/Mul_output_0">
					<dim>1</dim>
					<dim>64</dim>
					<dim>32</dim>
					<dim>32</dim>
				</port>
			</output>
		</layer>
		<layer id="217" name="/model/model.5/AveragePool" type="AvgPool" version="opset1">
			<data kernel="2, 2" strides="1, 1" pads_begin="0, 0" pads_end="0, 0" exclude-pad="false" auto_pad="explicit" rounding_type="floor" />
			<input>
				<port id="0" precision="FP32">
					<dim>1</dim>
					<dim>64</dim>
					<dim>32</dim>
					<dim>32</dim>
				</port>
			</input>
			<output>
				<port id="1" precision="FP32" names="/model/model.5/AveragePool_output_0">
					<dim>1</dim>
					<dim>64</dim>
					<dim>31</dim>
					<dim>31</dim>
				</port>
			</output>
		</layer>
		<layer id="218" name="model.model.5.cv1.conv.weight_compressed" type="Const" version="opset1">
			<data element_type="f16" shape="96, 64, 3, 3" offset="194600" size="110592" />
			<output>
				<port id="0" precision="FP16" names="model.model.5.cv1.conv.weight">
					<dim>96</dim>
					<dim>64</dim>
					<dim>3</dim>
					<dim>3</dim>
				</port>
			</output>
		</layer>
		<layer id="219" name="model.model.5.cv1.conv.weight" type="Convert" version="opset1">
			<data destination_type="f32" />
			<rt_info>
				<attribute name="decompression" version="0" />
			</rt_info>
			<input>
				<port id="0" precision="FP16">
					<dim>96</dim>
					<dim>64</dim>
					<dim>3</dim>
					<dim>3</dim>
				</port>
			</input>
			<output>
				<port id="1" precision="FP32">
					<dim>96</dim>
					<dim>64</dim>
					<dim>3</dim>
					<dim>3</dim>
				</port>
			</output>
		</layer>
		<layer id="220" name="/model/model.5/cv1/conv/Conv/WithoutBiases" type="Convolution" version="opset1">
			<data strides="2, 2" dilations="1, 1" pads_begin="1, 1" pads_end="1, 1" auto_pad="explicit" />
			<input>
				<port id="0" precision="FP32">
					<dim>1</dim>
					<dim>64</dim>
					<dim>31</dim>
					<dim>31</dim>
				</port>
				<port id="1" precision="FP32">
					<dim>96</dim>
					<dim>64</dim>
					<dim>3</dim>
					<dim>3</dim>
				</port>
			</input>
			<output>
				<port id="2" precision="FP32">
					<dim>1</dim>
					<dim>96</dim>
					<dim>16</dim>
					<dim>16</dim>
				</port>
			</output>
		</layer>
		<layer id="221" name="Reshape_553_compressed" type="Const" version="opset1">
			<data element_type="f16" shape="1, 96, 1, 1" offset="305192" size="192" />
			<output>
				<port id="0" precision="FP16">
					<dim>1</dim>
					<dim>96</dim>
					<dim>1</dim>
					<dim>1</dim>
				</port>
			</output>
		</layer>
		<layer id="222" name="Reshape_553" type="Convert" version="opset1">
			<data destination_type="f32" />
			<rt_info>
				<attribute name="decompression" version="0" />
			</rt_info>
			<input>
				<port id="0" precision="FP16">
					<dim>1</dim>
					<dim>96</dim>
					<dim>1</dim>
					<dim>1</dim>
				</port>
			</input>
			<output>
				<port id="1" precision="FP32">
					<dim>1</dim>
					<dim>96</dim>
					<dim>1</dim>
					<dim>1</dim>
				</port>
			</output>
		</layer>
		<layer id="223" name="/model/model.5/cv1/conv/Conv" type="Add" version="opset1">
			<data auto_broadcast="numpy" />
			<input>
				<port id="0" precision="FP32">
					<dim>1</dim>
					<dim>96</dim>
					<dim>16</dim>
					<dim>16</dim>
				</port>
				<port id="1" precision="FP32">
					<dim>1</dim>
					<dim>96</dim>
					<dim>1</dim>
					<dim>1</dim>
				</port>
			</input>
			<output>
				<port id="2" precision="FP32" names="/model/model.5/cv1/conv/Conv_output_0">
					<dim>1</dim>
					<dim>96</dim>
					<dim>16</dim>
					<dim>16</dim>
				</port>
			</output>
		</layer>
		<layer id="224" name="/model/model.5/cv1/act/Mul" type="Swish" version="opset4">
			<input>
				<port id="0" precision="FP32">
					<dim>1</dim>
					<dim>96</dim>
					<dim>16</dim>
					<dim>16</dim>
				</port>
			</input>
			<output>
				<port id="1" precision="FP32" names="/model/model.5/cv1/act/Mul_output_0">
					<dim>1</dim>
					<dim>96</dim>
					<dim>16</dim>
					<dim>16</dim>
				</port>
			</output>
		</layer>
		<layer id="225" name="model.model.6.cv1.conv.weight_compressed" type="Const" version="opset1">
			<data element_type="f16" shape="96, 96, 1, 1" offset="305384" size="18432" />
			<output>
				<port id="0" precision="FP16" names="model.model.6.cv1.conv.weight">
					<dim>96</dim>
					<dim>96</dim>
					<dim>1</dim>
					<dim>1</dim>
				</port>
			</output>
		</layer>
		<layer id="226" name="model.model.6.cv1.conv.weight" type="Convert" version="opset1">
			<data destination_type="f32" />
			<rt_info>
				<attribute name="decompression" version="0" />
			</rt_info>
			<input>
				<port id="0" precision="FP16">
					<dim>96</dim>
					<dim>96</dim>
					<dim>1</dim>
					<dim>1</dim>
				</port>
			</input>
			<output>
				<port id="1" precision="FP32">
					<dim>96</dim>
					<dim>96</dim>
					<dim>1</dim>
					<dim>1</dim>
				</port>
			</output>
		</layer>
		<layer id="227" name="/model/model.6/cv1/conv/Conv/WithoutBiases" type="Convolution" version="opset1">
			<data strides="1, 1" dilations="1, 1" pads_begin="0, 0" pads_end="0, 0" auto_pad="explicit" />
			<input>
				<port id="0" precision="FP32">
					<dim>1</dim>
					<dim>96</dim>
					<dim>16</dim>
					<dim>16</dim>
				</port>
				<port id="1" precision="FP32">
					<dim>96</dim>
					<dim>96</dim>
					<dim>1</dim>
					<dim>1</dim>
				</port>
			</input>
			<output>
				<port id="2" precision="FP32">
					<dim>1</dim>
					<dim>96</dim>
					<dim>16</dim>
					<dim>16</dim>
				</port>
			</output>
		</layer>
		<layer id="228" name="Reshape_570_compressed" type="Const" version="opset1">
			<data element_type="f16" shape="1, 96, 1, 1" offset="323816" size="192" />
			<output>
				<port id="0" precision="FP16">
					<dim>1</dim>
					<dim>96</dim>
					<dim>1</dim>
					<dim>1</dim>
				</port>
			</output>
		</layer>
		<layer id="229" name="Reshape_570" type="Convert" version="opset1">
			<data destination_type="f32" />
			<rt_info>
				<attribute name="decompression" version="0" />
			</rt_info>
			<input>
				<port id="0" precision="FP16">
					<dim>1</dim>
					<dim>96</dim>
					<dim>1</dim>
					<dim>1</dim>
				</port>
			</input>
			<output>
				<port id="1" precision="FP32">
					<dim>1</dim>
					<dim>96</dim>
					<dim>1</dim>
					<dim>1</dim>
				</port>
			</output>
		</layer>
		<layer id="230" name="/model/model.6/cv1/conv/Conv" type="Add" version="opset1">
			<data auto_broadcast="numpy" />
			<input>
				<port id="0" precision="FP32">
					<dim>1</dim>
					<dim>96</dim>
					<dim>16</dim>
					<dim>16</dim>
				</port>
				<port id="1" precision="FP32">
					<dim>1</dim>
					<dim>96</dim>
					<dim>1</dim>
					<dim>1</dim>
				</port>
			</input>
			<output>
				<port id="2" precision="FP32" names="/model/model.6/cv1/conv/Conv_output_0">
					<dim>1</dim>
					<dim>96</dim>
					<dim>16</dim>
					<dim>16</dim>
				</port>
			</output>
		</layer>
		<layer id="231" name="/model/model.6/cv1/act/Mul" type="Swish" version="opset4">
			<input>
				<port id="0" precision="FP32">
					<dim>1</dim>
					<dim>96</dim>
					<dim>16</dim>
					<dim>16</dim>
				</port>
			</input>
			<output>
				<port id="1" precision="FP32" names="/model/model.6/cv1/act/Mul_output_0">
					<dim>1</dim>
					<dim>96</dim>
					<dim>16</dim>
					<dim>16</dim>
				</port>
			</output>
		</layer>
		<layer id="232" name="/model/model.6/Div_output_0" type="Const" version="opset1">
			<data element_type="i64" shape="1" offset="324008" size="8" />
			<output>
				<port id="0" precision="I64" names="/model/model.6/Div_output_0">
					<dim>1</dim>
				</port>
			</output>
		</layer>
		<layer id="233" name="/model/model.6/Slice" type="Slice" version="opset8">
			<input>
				<port id="0" precision="FP32">
					<dim>1</dim>
					<dim>96</dim>
					<dim>16</dim>
					<dim>16</dim>
				</port>
				<port id="1" precision="I64">
					<dim>1</dim>
				</port>
				<port id="2" precision="I64">
					<dim>1</dim>
				</port>
				<port id="3" precision="I64">
					<dim>1</dim>
				</port>
				<port id="4" precision="I64">
					<dim>1</dim>
				</port>
			</input>
			<output>
				<port id="5" precision="FP32" names="/model/model.6/Slice_output_0">
					<dim>1</dim>
					<dim>48</dim>
					<dim>16</dim>
					<dim>16</dim>
				</port>
			</output>
		</layer>
		<layer id="234" name="/model/model.6/Mul_1_output_0" type="Const" version="opset1">
			<data element_type="i64" shape="1" offset="324016" size="8" />
			<output>
				<port id="0" precision="I64" names="/model/model.6/Mul_1_output_0">
					<dim>1</dim>
				</port>
			</output>
		</layer>
		<layer id="235" name="Broadcast_585" type="Const" version="opset1">
			<data element_type="i64" shape="1" offset="17744" size="8" />
			<output>
				<port id="0" precision="I64">
					<dim>1</dim>
				</port>
			</output>
		</layer>
		<layer id="236" name="/model/model.6/Slice_1" type="Slice" version="opset8">
			<input>
				<port id="0" precision="FP32">
					<dim>1</dim>
					<dim>96</dim>
					<dim>16</dim>
					<dim>16</dim>
				</port>
				<port id="1" precision="I64">
					<dim>1</dim>
				</port>
				<port id="2" precision="I64">
					<dim>1</dim>
				</port>
				<port id="3" precision="I64">
					<dim>1</dim>
				</port>
				<port id="4" precision="I64">
					<dim>1</dim>
				</port>
			</input>
			<output>
				<port id="5" precision="FP32" names="/model/model.6/Slice_1_output_0">
					<dim>1</dim>
					<dim>48</dim>
					<dim>16</dim>
					<dim>16</dim>
				</port>
			</output>
		</layer>
		<layer id="237" name="model.model.6.cv2.0.cv1.conv.weight_compressed" type="Const" version="opset1">
			<data element_type="f16" shape="24, 48, 1, 1" offset="324024" size="2304" />
			<output>
				<port id="0" precision="FP16" names="model.model.6.cv2.0.cv1.conv.weight">
					<dim>24</dim>
					<dim>48</dim>
					<dim>1</dim>
					<dim>1</dim>
				</port>
			</output>
		</layer>
		<layer id="238" name="model.model.6.cv2.0.cv1.conv.weight" type="Convert" version="opset1">
			<data destination_type="f32" />
			<rt_info>
				<attribute name="decompression" version="0" />
			</rt_info>
			<input>
				<port id="0" precision="FP16">
					<dim>24</dim>
					<dim>48</dim>
					<dim>1</dim>
					<dim>1</dim>
				</port>
			</input>
			<output>
				<port id="1" precision="FP32">
					<dim>24</dim>
					<dim>48</dim>
					<dim>1</dim>
					<dim>1</dim>
				</port>
			</output>
		</layer>
		<layer id="239" name="/model/model.6/cv2/cv2.0/cv1/conv/Conv/WithoutBiases" type="Convolution" version="opset1">
			<data strides="1, 1" dilations="1, 1" pads_begin="0, 0" pads_end="0, 0" auto_pad="explicit" />
			<input>
				<port id="0" precision="FP32">
					<dim>1</dim>
					<dim>48</dim>
					<dim>16</dim>
					<dim>16</dim>
				</port>
				<port id="1" precision="FP32">
					<dim>24</dim>
					<dim>48</dim>
					<dim>1</dim>
					<dim>1</dim>
				</port>
			</input>
			<output>
				<port id="2" precision="FP32">
					<dim>1</dim>
					<dim>24</dim>
					<dim>16</dim>
					<dim>16</dim>
				</port>
			</output>
		</layer>
		<layer id="240" name="Reshape_603_compressed" type="Const" version="opset1">
			<data element_type="f16" shape="1, 24, 1, 1" offset="326328" size="48" />
			<output>
				<port id="0" precision="FP16">
					<dim>1</dim>
					<dim>24</dim>
					<dim>1</dim>
					<dim>1</dim>
				</port>
			</output>
		</layer>
		<layer id="241" name="Reshape_603" type="Convert" version="opset1">
			<data destination_type="f32" />
			<rt_info>
				<attribute name="decompression" version="0" />
			</rt_info>
			<input>
				<port id="0" precision="FP16">
					<dim>1</dim>
					<dim>24</dim>
					<dim>1</dim>
					<dim>1</dim>
				</port>
			</input>
			<output>
				<port id="1" precision="FP32">
					<dim>1</dim>
					<dim>24</dim>
					<dim>1</dim>
					<dim>1</dim>
				</port>
			</output>
		</layer>
		<layer id="242" name="/model/model.6/cv2/cv2.0/cv1/conv/Conv" type="Add" version="opset1">
			<data auto_broadcast="numpy" />
			<input>
				<port id="0" precision="FP32">
					<dim>1</dim>
					<dim>24</dim>
					<dim>16</dim>
					<dim>16</dim>
				</port>
				<port id="1" precision="FP32">
					<dim>1</dim>
					<dim>24</dim>
					<dim>1</dim>
					<dim>1</dim>
				</port>
			</input>
			<output>
				<port id="2" precision="FP32" names="/model/model.6/cv2/cv2.0/cv1/conv/Conv_output_0">
					<dim>1</dim>
					<dim>24</dim>
					<dim>16</dim>
					<dim>16</dim>
				</port>
			</output>
		</layer>
		<layer id="243" name="/model/model.6/cv2/cv2.0/cv1/act/Mul" type="Swish" version="opset4">
			<input>
				<port id="0" precision="FP32">
					<dim>1</dim>
					<dim>24</dim>
					<dim>16</dim>
					<dim>16</dim>
				</port>
			</input>
			<output>
				<port id="1" precision="FP32" names="/model/model.6/cv2/cv2.0/cv1/act/Mul_output_0">
					<dim>1</dim>
					<dim>24</dim>
					<dim>16</dim>
					<dim>16</dim>
				</port>
			</output>
		</layer>
		<layer id="244" name="model.model.6.cv2.0.m.0.cv1.conv.weight_compressed" type="Const" version="opset1">
			<data element_type="f16" shape="24, 24, 3, 3" offset="326376" size="10368" />
			<output>
				<port id="0" precision="FP16" names="model.model.6.cv2.0.m.0.cv1.conv.weight">
					<dim>24</dim>
					<dim>24</dim>
					<dim>3</dim>
					<dim>3</dim>
				</port>
			</output>
		</layer>
		<layer id="245" name="model.model.6.cv2.0.m.0.cv1.conv.weight" type="Convert" version="opset1">
			<data destination_type="f32" />
			<rt_info>
				<attribute name="decompression" version="0" />
			</rt_info>
			<input>
				<port id="0" precision="FP16">
					<dim>24</dim>
					<dim>24</dim>
					<dim>3</dim>
					<dim>3</dim>
				</port>
			</input>
			<output>
				<port id="1" precision="FP32">
					<dim>24</dim>
					<dim>24</dim>
					<dim>3</dim>
					<dim>3</dim>
				</port>
			</output>
		</layer>
		<layer id="246" name="/model/model.6/cv2/cv2.0/m/m.0/cv1/conv/Conv/WithoutBiases" type="Convolution" version="opset1">
			<data strides="1, 1" dilations="1, 1" pads_begin="1, 1" pads_end="1, 1" auto_pad="explicit" />
			<input>
				<port id="0" precision="FP32">
					<dim>1</dim>
					<dim>24</dim>
					<dim>16</dim>
					<dim>16</dim>
				</port>
				<port id="1" precision="FP32">
					<dim>24</dim>
					<dim>24</dim>
					<dim>3</dim>
					<dim>3</dim>
				</port>
			</input>
			<output>
				<port id="2" precision="FP32">
					<dim>1</dim>
					<dim>24</dim>
					<dim>16</dim>
					<dim>16</dim>
				</port>
			</output>
		</layer>
		<layer id="247" name="Reshape_637_compressed" type="Const" version="opset1">
			<data element_type="f16" shape="1, 24, 1, 1" offset="336744" size="48" />
			<output>
				<port id="0" precision="FP16">
					<dim>1</dim>
					<dim>24</dim>
					<dim>1</dim>
					<dim>1</dim>
				</port>
			</output>
		</layer>
		<layer id="248" name="Reshape_637" type="Convert" version="opset1">
			<data destination_type="f32" />
			<rt_info>
				<attribute name="decompression" version="0" />
			</rt_info>
			<input>
				<port id="0" precision="FP16">
					<dim>1</dim>
					<dim>24</dim>
					<dim>1</dim>
					<dim>1</dim>
				</port>
			</input>
			<output>
				<port id="1" precision="FP32">
					<dim>1</dim>
					<dim>24</dim>
					<dim>1</dim>
					<dim>1</dim>
				</port>
			</output>
		</layer>
		<layer id="249" name="/model/model.6/cv2/cv2.0/m/m.0/cv1/conv/Conv" type="Add" version="opset1">
			<data auto_broadcast="numpy" />
			<input>
				<port id="0" precision="FP32">
					<dim>1</dim>
					<dim>24</dim>
					<dim>16</dim>
					<dim>16</dim>
				</port>
				<port id="1" precision="FP32">
					<dim>1</dim>
					<dim>24</dim>
					<dim>1</dim>
					<dim>1</dim>
				</port>
			</input>
			<output>
				<port id="2" precision="FP32" names="/model/model.6/cv2/cv2.0/m/m.0/cv1/conv/Conv_output_0">
					<dim>1</dim>
					<dim>24</dim>
					<dim>16</dim>
					<dim>16</dim>
				</port>
			</output>
		</layer>
		<layer id="250" name="/model/model.6/cv2/cv2.0/m/m.0/cv1/act/Mul" type="Swish" version="opset4">
			<input>
				<port id="0" precision="FP32">
					<dim>1</dim>
					<dim>24</dim>
					<dim>16</dim>
					<dim>16</dim>
				</port>
			</input>
			<output>
				<port id="1" precision="FP32" names="/model/model.6/cv2/cv2.0/m/m.0/cv1/act/Mul_output_0">
					<dim>1</dim>
					<dim>24</dim>
					<dim>16</dim>
					<dim>16</dim>
				</port>
			</output>
		</layer>
		<layer id="251" name="model.model.6.cv2.0.m.0.cv2.conv.weight_compressed" type="Const" version="opset1">
			<data element_type="f16" shape="24, 24, 3, 3" offset="336792" size="10368" />
			<output>
				<port id="0" precision="FP16" names="model.model.6.cv2.0.m.0.cv2.conv.weight">
					<dim>24</dim>
					<dim>24</dim>
					<dim>3</dim>
					<dim>3</dim>
				</port>
			</output>
		</layer>
		<layer id="252" name="model.model.6.cv2.0.m.0.cv2.conv.weight" type="Convert" version="opset1">
			<data destination_type="f32" />
			<rt_info>
				<attribute name="decompression" version="0" />
			</rt_info>
			<input>
				<port id="0" precision="FP16">
					<dim>24</dim>
					<dim>24</dim>
					<dim>3</dim>
					<dim>3</dim>
				</port>
			</input>
			<output>
				<port id="1" precision="FP32">
					<dim>24</dim>
					<dim>24</dim>
					<dim>3</dim>
					<dim>3</dim>
				</port>
			</output>
		</layer>
		<layer id="253" name="/model/model.6/cv2/cv2.0/m/m.0/cv2/conv/Conv/WithoutBiases" type="Convolution" version="opset1">
			<data strides="1, 1" dilations="1, 1" pads_begin="1, 1" pads_end="1, 1" auto_pad="explicit" />
			<input>
				<port id="0" precision="FP32">
					<dim>1</dim>
					<dim>24</dim>
					<dim>16</dim>
					<dim>16</dim>
				</port>
				<port id="1" precision="FP32">
					<dim>24</dim>
					<dim>24</dim>
					<dim>3</dim>
					<dim>3</dim>
				</port>
			</input>
			<output>
				<port id="2" precision="FP32">
					<dim>1</dim>
					<dim>24</dim>
					<dim>16</dim>
					<dim>16</dim>
				</port>
			</output>
		</layer>
		<layer id="254" name="Reshape_654" type="Const" version="opset1">
			<data element_type="f32" shape="1, 24, 1, 1" offset="347160" size="96" />
			<output>
				<port id="0" precision="FP32">
					<dim>1</dim>
					<dim>24</dim>
					<dim>1</dim>
					<dim>1</dim>
				</port>
			</output>
		</layer>
		<layer id="255" name="/model/model.6/cv2/cv2.0/m/m.0/cv2/conv/Conv" type="Add" version="opset1">
			<data auto_broadcast="numpy" />
			<input>
				<port id="0" precision="FP32">
					<dim>1</dim>
					<dim>24</dim>
					<dim>16</dim>
					<dim>16</dim>
				</port>
				<port id="1" precision="FP32">
					<dim>1</dim>
					<dim>24</dim>
					<dim>1</dim>
					<dim>1</dim>
				</port>
			</input>
			<output>
				<port id="2" precision="FP32" names="/model/model.6/cv2/cv2.0/m/m.0/cv2/conv/Conv_output_0">
					<dim>1</dim>
					<dim>24</dim>
					<dim>16</dim>
					<dim>16</dim>
				</port>
			</output>
		</layer>
		<layer id="256" name="/model/model.6/cv2/cv2.0/m/m.0/cv2/act/Mul" type="Swish" version="opset4">
			<input>
				<port id="0" precision="FP32">
					<dim>1</dim>
					<dim>24</dim>
					<dim>16</dim>
					<dim>16</dim>
				</port>
			</input>
			<output>
				<port id="1" precision="FP32" names="/model/model.6/cv2/cv2.0/m/m.0/cv2/act/Mul_output_0">
					<dim>1</dim>
					<dim>24</dim>
					<dim>16</dim>
					<dim>16</dim>
				</port>
			</output>
		</layer>
		<layer id="257" name="/model/model.6/cv2/cv2.0/m/m.0/Add" type="Add" version="opset1">
			<data auto_broadcast="numpy" />
			<input>
				<port id="0" precision="FP32">
					<dim>1</dim>
					<dim>24</dim>
					<dim>16</dim>
					<dim>16</dim>
				</port>
				<port id="1" precision="FP32">
					<dim>1</dim>
					<dim>24</dim>
					<dim>16</dim>
					<dim>16</dim>
				</port>
			</input>
			<output>
				<port id="2" precision="FP32" names="/model/model.6/cv2/cv2.0/m/m.0/Add_output_0">
					<dim>1</dim>
					<dim>24</dim>
					<dim>16</dim>
					<dim>16</dim>
				</port>
			</output>
		</layer>
		<layer id="258" name="model.model.6.cv2.0.m.1.cv1.conv.weight_compressed" type="Const" version="opset1">
			<data element_type="f16" shape="24, 24, 3, 3" offset="347256" size="10368" />
			<output>
				<port id="0" precision="FP16" names="model.model.6.cv2.0.m.1.cv1.conv.weight">
					<dim>24</dim>
					<dim>24</dim>
					<dim>3</dim>
					<dim>3</dim>
				</port>
			</output>
		</layer>
		<layer id="259" name="model.model.6.cv2.0.m.1.cv1.conv.weight" type="Convert" version="opset1">
			<data destination_type="f32" />
			<rt_info>
				<attribute name="decompression" version="0" />
			</rt_info>
			<input>
				<port id="0" precision="FP16">
					<dim>24</dim>
					<dim>24</dim>
					<dim>3</dim>
					<dim>3</dim>
				</port>
			</input>
			<output>
				<port id="1" precision="FP32">
					<dim>24</dim>
					<dim>24</dim>
					<dim>3</dim>
					<dim>3</dim>
				</port>
			</output>
		</layer>
		<layer id="260" name="/model/model.6/cv2/cv2.0/m/m.1/cv1/conv/Conv/WithoutBiases" type="Convolution" version="opset1">
			<data strides="1, 1" dilations="1, 1" pads_begin="1, 1" pads_end="1, 1" auto_pad="explicit" />
			<input>
				<port id="0" precision="FP32">
					<dim>1</dim>
					<dim>24</dim>
					<dim>16</dim>
					<dim>16</dim>
				</port>
				<port id="1" precision="FP32">
					<dim>24</dim>
					<dim>24</dim>
					<dim>3</dim>
					<dim>3</dim>
				</port>
			</input>
			<output>
				<port id="2" precision="FP32">
					<dim>1</dim>
					<dim>24</dim>
					<dim>16</dim>
					<dim>16</dim>
				</port>
			</output>
		</layer>
		<layer id="261" name="Reshape_672_compressed" type="Const" version="opset1">
			<data element_type="f16" shape="1, 24, 1, 1" offset="357624" size="48" />
			<output>
				<port id="0" precision="FP16">
					<dim>1</dim>
					<dim>24</dim>
					<dim>1</dim>
					<dim>1</dim>
				</port>
			</output>
		</layer>
		<layer id="262" name="Reshape_672" type="Convert" version="opset1">
			<data destination_type="f32" />
			<rt_info>
				<attribute name="decompression" version="0" />
			</rt_info>
			<input>
				<port id="0" precision="FP16">
					<dim>1</dim>
					<dim>24</dim>
					<dim>1</dim>
					<dim>1</dim>
				</port>
			</input>
			<output>
				<port id="1" precision="FP32">
					<dim>1</dim>
					<dim>24</dim>
					<dim>1</dim>
					<dim>1</dim>
				</port>
			</output>
		</layer>
		<layer id="263" name="/model/model.6/cv2/cv2.0/m/m.1/cv1/conv/Conv" type="Add" version="opset1">
			<data auto_broadcast="numpy" />
			<input>
				<port id="0" precision="FP32">
					<dim>1</dim>
					<dim>24</dim>
					<dim>16</dim>
					<dim>16</dim>
				</port>
				<port id="1" precision="FP32">
					<dim>1</dim>
					<dim>24</dim>
					<dim>1</dim>
					<dim>1</dim>
				</port>
			</input>
			<output>
				<port id="2" precision="FP32" names="/model/model.6/cv2/cv2.0/m/m.1/cv1/conv/Conv_output_0">
					<dim>1</dim>
					<dim>24</dim>
					<dim>16</dim>
					<dim>16</dim>
				</port>
			</output>
		</layer>
		<layer id="264" name="/model/model.6/cv2/cv2.0/m/m.1/cv1/act/Mul" type="Swish" version="opset4">
			<input>
				<port id="0" precision="FP32">
					<dim>1</dim>
					<dim>24</dim>
					<dim>16</dim>
					<dim>16</dim>
				</port>
			</input>
			<output>
				<port id="1" precision="FP32" names="/model/model.6/cv2/cv2.0/m/m.1/cv1/act/Mul_output_0">
					<dim>1</dim>
					<dim>24</dim>
					<dim>16</dim>
					<dim>16</dim>
				</port>
			</output>
		</layer>
		<layer id="265" name="model.model.6.cv2.0.m.1.cv2.conv.weight_compressed" type="Const" version="opset1">
			<data element_type="f16" shape="24, 24, 3, 3" offset="357672" size="10368" />
			<output>
				<port id="0" precision="FP16" names="model.model.6.cv2.0.m.1.cv2.conv.weight">
					<dim>24</dim>
					<dim>24</dim>
					<dim>3</dim>
					<dim>3</dim>
				</port>
			</output>
		</layer>
		<layer id="266" name="model.model.6.cv2.0.m.1.cv2.conv.weight" type="Convert" version="opset1">
			<data destination_type="f32" />
			<rt_info>
				<attribute name="decompression" version="0" />
			</rt_info>
			<input>
				<port id="0" precision="FP16">
					<dim>24</dim>
					<dim>24</dim>
					<dim>3</dim>
					<dim>3</dim>
				</port>
			</input>
			<output>
				<port id="1" precision="FP32">
					<dim>24</dim>
					<dim>24</dim>
					<dim>3</dim>
					<dim>3</dim>
				</port>
			</output>
		</layer>
		<layer id="267" name="/model/model.6/cv2/cv2.0/m/m.1/cv2/conv/Conv/WithoutBiases" type="Convolution" version="opset1">
			<data strides="1, 1" dilations="1, 1" pads_begin="1, 1" pads_end="1, 1" auto_pad="explicit" />
			<input>
				<port id="0" precision="FP32">
					<dim>1</dim>
					<dim>24</dim>
					<dim>16</dim>
					<dim>16</dim>
				</port>
				<port id="1" precision="FP32">
					<dim>24</dim>
					<dim>24</dim>
					<dim>3</dim>
					<dim>3</dim>
				</port>
			</input>
			<output>
				<port id="2" precision="FP32">
					<dim>1</dim>
					<dim>24</dim>
					<dim>16</dim>
					<dim>16</dim>
				</port>
			</output>
		</layer>
		<layer id="268" name="Reshape_689" type="Const" version="opset1">
			<data element_type="f32" shape="1, 24, 1, 1" offset="368040" size="96" />
			<output>
				<port id="0" precision="FP32">
					<dim>1</dim>
					<dim>24</dim>
					<dim>1</dim>
					<dim>1</dim>
				</port>
			</output>
		</layer>
		<layer id="269" name="/model/model.6/cv2/cv2.0/m/m.1/cv2/conv/Conv" type="Add" version="opset1">
			<data auto_broadcast="numpy" />
			<input>
				<port id="0" precision="FP32">
					<dim>1</dim>
					<dim>24</dim>
					<dim>16</dim>
					<dim>16</dim>
				</port>
				<port id="1" precision="FP32">
					<dim>1</dim>
					<dim>24</dim>
					<dim>1</dim>
					<dim>1</dim>
				</port>
			</input>
			<output>
				<port id="2" precision="FP32" names="/model/model.6/cv2/cv2.0/m/m.1/cv2/conv/Conv_output_0">
					<dim>1</dim>
					<dim>24</dim>
					<dim>16</dim>
					<dim>16</dim>
				</port>
			</output>
		</layer>
		<layer id="270" name="/model/model.6/cv2/cv2.0/m/m.1/cv2/act/Mul" type="Swish" version="opset4">
			<input>
				<port id="0" precision="FP32">
					<dim>1</dim>
					<dim>24</dim>
					<dim>16</dim>
					<dim>16</dim>
				</port>
			</input>
			<output>
				<port id="1" precision="FP32" names="/model/model.6/cv2/cv2.0/m/m.1/cv2/act/Mul_output_0">
					<dim>1</dim>
					<dim>24</dim>
					<dim>16</dim>
					<dim>16</dim>
				</port>
			</output>
		</layer>
		<layer id="271" name="/model/model.6/cv2/cv2.0/m/m.1/Add" type="Add" version="opset1">
			<data auto_broadcast="numpy" />
			<input>
				<port id="0" precision="FP32">
					<dim>1</dim>
					<dim>24</dim>
					<dim>16</dim>
					<dim>16</dim>
				</port>
				<port id="1" precision="FP32">
					<dim>1</dim>
					<dim>24</dim>
					<dim>16</dim>
					<dim>16</dim>
				</port>
			</input>
			<output>
				<port id="2" precision="FP32" names="/model/model.6/cv2/cv2.0/m/m.1/Add_output_0">
					<dim>1</dim>
					<dim>24</dim>
					<dim>16</dim>
					<dim>16</dim>
				</port>
			</output>
		</layer>
		<layer id="272" name="model.model.6.cv2.0.m.2.cv1.conv.weight_compressed" type="Const" version="opset1">
			<data element_type="f16" shape="24, 24, 3, 3" offset="368136" size="10368" />
			<output>
				<port id="0" precision="FP16" names="model.model.6.cv2.0.m.2.cv1.conv.weight">
					<dim>24</dim>
					<dim>24</dim>
					<dim>3</dim>
					<dim>3</dim>
				</port>
			</output>
		</layer>
		<layer id="273" name="model.model.6.cv2.0.m.2.cv1.conv.weight" type="Convert" version="opset1">
			<data destination_type="f32" />
			<rt_info>
				<attribute name="decompression" version="0" />
			</rt_info>
			<input>
				<port id="0" precision="FP16">
					<dim>24</dim>
					<dim>24</dim>
					<dim>3</dim>
					<dim>3</dim>
				</port>
			</input>
			<output>
				<port id="1" precision="FP32">
					<dim>24</dim>
					<dim>24</dim>
					<dim>3</dim>
					<dim>3</dim>
				</port>
			</output>
		</layer>
		<layer id="274" name="/model/model.6/cv2/cv2.0/m/m.2/cv1/conv/Conv/WithoutBiases" type="Convolution" version="opset1">
			<data strides="1, 1" dilations="1, 1" pads_begin="1, 1" pads_end="1, 1" auto_pad="explicit" />
			<input>
				<port id="0" precision="FP32">
					<dim>1</dim>
					<dim>24</dim>
					<dim>16</dim>
					<dim>16</dim>
				</port>
				<port id="1" precision="FP32">
					<dim>24</dim>
					<dim>24</dim>
					<dim>3</dim>
					<dim>3</dim>
				</port>
			</input>
			<output>
				<port id="2" precision="FP32">
					<dim>1</dim>
					<dim>24</dim>
					<dim>16</dim>
					<dim>16</dim>
				</port>
			</output>
		</layer>
		<layer id="275" name="Reshape_707_compressed" type="Const" version="opset1">
			<data element_type="f16" shape="1, 24, 1, 1" offset="378504" size="48" />
			<output>
				<port id="0" precision="FP16">
					<dim>1</dim>
					<dim>24</dim>
					<dim>1</dim>
					<dim>1</dim>
				</port>
			</output>
		</layer>
		<layer id="276" name="Reshape_707" type="Convert" version="opset1">
			<data destination_type="f32" />
			<rt_info>
				<attribute name="decompression" version="0" />
			</rt_info>
			<input>
				<port id="0" precision="FP16">
					<dim>1</dim>
					<dim>24</dim>
					<dim>1</dim>
					<dim>1</dim>
				</port>
			</input>
			<output>
				<port id="1" precision="FP32">
					<dim>1</dim>
					<dim>24</dim>
					<dim>1</dim>
					<dim>1</dim>
				</port>
			</output>
		</layer>
		<layer id="277" name="/model/model.6/cv2/cv2.0/m/m.2/cv1/conv/Conv" type="Add" version="opset1">
			<data auto_broadcast="numpy" />
			<input>
				<port id="0" precision="FP32">
					<dim>1</dim>
					<dim>24</dim>
					<dim>16</dim>
					<dim>16</dim>
				</port>
				<port id="1" precision="FP32">
					<dim>1</dim>
					<dim>24</dim>
					<dim>1</dim>
					<dim>1</dim>
				</port>
			</input>
			<output>
				<port id="2" precision="FP32" names="/model/model.6/cv2/cv2.0/m/m.2/cv1/conv/Conv_output_0">
					<dim>1</dim>
					<dim>24</dim>
					<dim>16</dim>
					<dim>16</dim>
				</port>
			</output>
		</layer>
		<layer id="278" name="/model/model.6/cv2/cv2.0/m/m.2/cv1/act/Mul" type="Swish" version="opset4">
			<input>
				<port id="0" precision="FP32">
					<dim>1</dim>
					<dim>24</dim>
					<dim>16</dim>
					<dim>16</dim>
				</port>
			</input>
			<output>
				<port id="1" precision="FP32" names="/model/model.6/cv2/cv2.0/m/m.2/cv1/act/Mul_output_0">
					<dim>1</dim>
					<dim>24</dim>
					<dim>16</dim>
					<dim>16</dim>
				</port>
			</output>
		</layer>
		<layer id="279" name="model.model.6.cv2.0.m.2.cv2.conv.weight_compressed" type="Const" version="opset1">
			<data element_type="f16" shape="24, 24, 3, 3" offset="378552" size="10368" />
			<output>
				<port id="0" precision="FP16" names="model.model.6.cv2.0.m.2.cv2.conv.weight">
					<dim>24</dim>
					<dim>24</dim>
					<dim>3</dim>
					<dim>3</dim>
				</port>
			</output>
		</layer>
		<layer id="280" name="model.model.6.cv2.0.m.2.cv2.conv.weight" type="Convert" version="opset1">
			<data destination_type="f32" />
			<rt_info>
				<attribute name="decompression" version="0" />
			</rt_info>
			<input>
				<port id="0" precision="FP16">
					<dim>24</dim>
					<dim>24</dim>
					<dim>3</dim>
					<dim>3</dim>
				</port>
			</input>
			<output>
				<port id="1" precision="FP32">
					<dim>24</dim>
					<dim>24</dim>
					<dim>3</dim>
					<dim>3</dim>
				</port>
			</output>
		</layer>
		<layer id="281" name="/model/model.6/cv2/cv2.0/m/m.2/cv2/conv/Conv/WithoutBiases" type="Convolution" version="opset1">
			<data strides="1, 1" dilations="1, 1" pads_begin="1, 1" pads_end="1, 1" auto_pad="explicit" />
			<input>
				<port id="0" precision="FP32">
					<dim>1</dim>
					<dim>24</dim>
					<dim>16</dim>
					<dim>16</dim>
				</port>
				<port id="1" precision="FP32">
					<dim>24</dim>
					<dim>24</dim>
					<dim>3</dim>
					<dim>3</dim>
				</port>
			</input>
			<output>
				<port id="2" precision="FP32">
					<dim>1</dim>
					<dim>24</dim>
					<dim>16</dim>
					<dim>16</dim>
				</port>
			</output>
		</layer>
		<layer id="282" name="Reshape_724" type="Const" version="opset1">
			<data element_type="f32" shape="1, 24, 1, 1" offset="388920" size="96" />
			<output>
				<port id="0" precision="FP32">
					<dim>1</dim>
					<dim>24</dim>
					<dim>1</dim>
					<dim>1</dim>
				</port>
			</output>
		</layer>
		<layer id="283" name="/model/model.6/cv2/cv2.0/m/m.2/cv2/conv/Conv" type="Add" version="opset1">
			<data auto_broadcast="numpy" />
			<input>
				<port id="0" precision="FP32">
					<dim>1</dim>
					<dim>24</dim>
					<dim>16</dim>
					<dim>16</dim>
				</port>
				<port id="1" precision="FP32">
					<dim>1</dim>
					<dim>24</dim>
					<dim>1</dim>
					<dim>1</dim>
				</port>
			</input>
			<output>
				<port id="2" precision="FP32" names="/model/model.6/cv2/cv2.0/m/m.2/cv2/conv/Conv_output_0">
					<dim>1</dim>
					<dim>24</dim>
					<dim>16</dim>
					<dim>16</dim>
				</port>
			</output>
		</layer>
		<layer id="284" name="/model/model.6/cv2/cv2.0/m/m.2/cv2/act/Mul" type="Swish" version="opset4">
			<input>
				<port id="0" precision="FP32">
					<dim>1</dim>
					<dim>24</dim>
					<dim>16</dim>
					<dim>16</dim>
				</port>
			</input>
			<output>
				<port id="1" precision="FP32" names="/model/model.6/cv2/cv2.0/m/m.2/cv2/act/Mul_output_0">
					<dim>1</dim>
					<dim>24</dim>
					<dim>16</dim>
					<dim>16</dim>
				</port>
			</output>
		</layer>
		<layer id="285" name="/model/model.6/cv2/cv2.0/m/m.2/Add" type="Add" version="opset1">
			<data auto_broadcast="numpy" />
			<input>
				<port id="0" precision="FP32">
					<dim>1</dim>
					<dim>24</dim>
					<dim>16</dim>
					<dim>16</dim>
				</port>
				<port id="1" precision="FP32">
					<dim>1</dim>
					<dim>24</dim>
					<dim>16</dim>
					<dim>16</dim>
				</port>
			</input>
			<output>
				<port id="2" precision="FP32" names="/model/model.6/cv2/cv2.0/m/m.2/Add_output_0">
					<dim>1</dim>
					<dim>24</dim>
					<dim>16</dim>
					<dim>16</dim>
				</port>
			</output>
		</layer>
		<layer id="286" name="model.model.6.cv2.0.cv2.conv.weight_compressed" type="Const" version="opset1">
			<data element_type="f16" shape="24, 48, 1, 1" offset="389016" size="2304" />
			<output>
				<port id="0" precision="FP16" names="model.model.6.cv2.0.cv2.conv.weight">
					<dim>24</dim>
					<dim>48</dim>
					<dim>1</dim>
					<dim>1</dim>
				</port>
			</output>
		</layer>
		<layer id="287" name="model.model.6.cv2.0.cv2.conv.weight" type="Convert" version="opset1">
			<data destination_type="f32" />
			<rt_info>
				<attribute name="decompression" version="0" />
			</rt_info>
			<input>
				<port id="0" precision="FP16">
					<dim>24</dim>
					<dim>48</dim>
					<dim>1</dim>
					<dim>1</dim>
				</port>
			</input>
			<output>
				<port id="1" precision="FP32">
					<dim>24</dim>
					<dim>48</dim>
					<dim>1</dim>
					<dim>1</dim>
				</port>
			</output>
		</layer>
		<layer id="288" name="/model/model.6/cv2/cv2.0/cv2/conv/Conv/WithoutBiases" type="Convolution" version="opset1">
			<data strides="1, 1" dilations="1, 1" pads_begin="0, 0" pads_end="0, 0" auto_pad="explicit" />
			<input>
				<port id="0" precision="FP32">
					<dim>1</dim>
					<dim>48</dim>
					<dim>16</dim>
					<dim>16</dim>
				</port>
				<port id="1" precision="FP32">
					<dim>24</dim>
					<dim>48</dim>
					<dim>1</dim>
					<dim>1</dim>
				</port>
			</input>
			<output>
				<port id="2" precision="FP32">
					<dim>1</dim>
					<dim>24</dim>
					<dim>16</dim>
					<dim>16</dim>
				</port>
			</output>
		</layer>
		<layer id="289" name="Reshape_618" type="Const" version="opset1">
			<data element_type="f32" shape="1, 24, 1, 1" offset="391320" size="96" />
			<output>
				<port id="0" precision="FP32">
					<dim>1</dim>
					<dim>24</dim>
					<dim>1</dim>
					<dim>1</dim>
				</port>
			</output>
		</layer>
		<layer id="290" name="/model/model.6/cv2/cv2.0/cv2/conv/Conv" type="Add" version="opset1">
			<data auto_broadcast="numpy" />
			<input>
				<port id="0" precision="FP32">
					<dim>1</dim>
					<dim>24</dim>
					<dim>16</dim>
					<dim>16</dim>
				</port>
				<port id="1" precision="FP32">
					<dim>1</dim>
					<dim>24</dim>
					<dim>1</dim>
					<dim>1</dim>
				</port>
			</input>
			<output>
				<port id="2" precision="FP32" names="/model/model.6/cv2/cv2.0/cv2/conv/Conv_output_0">
					<dim>1</dim>
					<dim>24</dim>
					<dim>16</dim>
					<dim>16</dim>
				</port>
			</output>
		</layer>
		<layer id="291" name="/model/model.6/cv2/cv2.0/cv2/act/Mul" type="Swish" version="opset4">
			<input>
				<port id="0" precision="FP32">
					<dim>1</dim>
					<dim>24</dim>
					<dim>16</dim>
					<dim>16</dim>
				</port>
			</input>
			<output>
				<port id="1" precision="FP32" names="/model/model.6/cv2/cv2.0/cv2/act/Mul_output_0">
					<dim>1</dim>
					<dim>24</dim>
					<dim>16</dim>
					<dim>16</dim>
				</port>
			</output>
		</layer>
		<layer id="292" name="/model/model.6/cv2/cv2.0/Concat" type="Concat" version="opset1">
			<data axis="1" />
			<input>
				<port id="0" precision="FP32">
					<dim>1</dim>
					<dim>24</dim>
					<dim>16</dim>
					<dim>16</dim>
				</port>
				<port id="1" precision="FP32">
					<dim>1</dim>
					<dim>24</dim>
					<dim>16</dim>
					<dim>16</dim>
				</port>
			</input>
			<output>
				<port id="2" precision="FP32" names="/model/model.6/cv2/cv2.0/Concat_output_0">
					<dim>1</dim>
					<dim>48</dim>
					<dim>16</dim>
					<dim>16</dim>
				</port>
			</output>
		</layer>
		<layer id="293" name="model.model.6.cv2.0.cv3.conv.weight_compressed" type="Const" version="opset1">
			<data element_type="f16" shape="48, 48, 1, 1" offset="391416" size="4608" />
			<output>
				<port id="0" precision="FP16" names="model.model.6.cv2.0.cv3.conv.weight">
					<dim>48</dim>
					<dim>48</dim>
					<dim>1</dim>
					<dim>1</dim>
				</port>
			</output>
		</layer>
		<layer id="294" name="model.model.6.cv2.0.cv3.conv.weight" type="Convert" version="opset1">
			<data destination_type="f32" />
			<rt_info>
				<attribute name="decompression" version="0" />
			</rt_info>
			<input>
				<port id="0" precision="FP16">
					<dim>48</dim>
					<dim>48</dim>
					<dim>1</dim>
					<dim>1</dim>
				</port>
			</input>
			<output>
				<port id="1" precision="FP32">
					<dim>48</dim>
					<dim>48</dim>
					<dim>1</dim>
					<dim>1</dim>
				</port>
			</output>
		</layer>
		<layer id="295" name="/model/model.6/cv2/cv2.0/cv3/conv/Conv/WithoutBiases" type="Convolution" version="opset1">
			<data strides="1, 1" dilations="1, 1" pads_begin="0, 0" pads_end="0, 0" auto_pad="explicit" />
			<input>
				<port id="0" precision="FP32">
					<dim>1</dim>
					<dim>48</dim>
					<dim>16</dim>
					<dim>16</dim>
				</port>
				<port id="1" precision="FP32">
					<dim>48</dim>
					<dim>48</dim>
					<dim>1</dim>
					<dim>1</dim>
				</port>
			</input>
			<output>
				<port id="2" precision="FP32">
					<dim>1</dim>
					<dim>48</dim>
					<dim>16</dim>
					<dim>16</dim>
				</port>
			</output>
		</layer>
		<layer id="296" name="Reshape_743_compressed" type="Const" version="opset1">
			<data element_type="f16" shape="1, 48, 1, 1" offset="396024" size="96" />
			<output>
				<port id="0" precision="FP16">
					<dim>1</dim>
					<dim>48</dim>
					<dim>1</dim>
					<dim>1</dim>
				</port>
			</output>
		</layer>
		<layer id="297" name="Reshape_743" type="Convert" version="opset1">
			<data destination_type="f32" />
			<rt_info>
				<attribute name="decompression" version="0" />
			</rt_info>
			<input>
				<port id="0" precision="FP16">
					<dim>1</dim>
					<dim>48</dim>
					<dim>1</dim>
					<dim>1</dim>
				</port>
			</input>
			<output>
				<port id="1" precision="FP32">
					<dim>1</dim>
					<dim>48</dim>
					<dim>1</dim>
					<dim>1</dim>
				</port>
			</output>
		</layer>
		<layer id="298" name="/model/model.6/cv2/cv2.0/cv3/conv/Conv" type="Add" version="opset1">
			<data auto_broadcast="numpy" />
			<input>
				<port id="0" precision="FP32">
					<dim>1</dim>
					<dim>48</dim>
					<dim>16</dim>
					<dim>16</dim>
				</port>
				<port id="1" precision="FP32">
					<dim>1</dim>
					<dim>48</dim>
					<dim>1</dim>
					<dim>1</dim>
				</port>
			</input>
			<output>
				<port id="2" precision="FP32" names="/model/model.6/cv2/cv2.0/cv3/conv/Conv_output_0">
					<dim>1</dim>
					<dim>48</dim>
					<dim>16</dim>
					<dim>16</dim>
				</port>
			</output>
		</layer>
		<layer id="299" name="/model/model.6/cv2/cv2.0/cv3/act/Mul" type="Swish" version="opset4">
			<input>
				<port id="0" precision="FP32">
					<dim>1</dim>
					<dim>48</dim>
					<dim>16</dim>
					<dim>16</dim>
				</port>
			</input>
			<output>
				<port id="1" precision="FP32" names="/model/model.6/cv2/cv2.0/cv3/act/Mul_output_0">
					<dim>1</dim>
					<dim>48</dim>
					<dim>16</dim>
					<dim>16</dim>
				</port>
			</output>
		</layer>
		<layer id="300" name="model.model.6.cv2.1.conv.weight_compressed" type="Const" version="opset1">
			<data element_type="f16" shape="48, 48, 3, 3" offset="396120" size="41472" />
			<output>
				<port id="0" precision="FP16" names="model.model.6.cv2.1.conv.weight">
					<dim>48</dim>
					<dim>48</dim>
					<dim>3</dim>
					<dim>3</dim>
				</port>
			</output>
		</layer>
		<layer id="301" name="model.model.6.cv2.1.conv.weight" type="Convert" version="opset1">
			<data destination_type="f32" />
			<rt_info>
				<attribute name="decompression" version="0" />
			</rt_info>
			<input>
				<port id="0" precision="FP16">
					<dim>48</dim>
					<dim>48</dim>
					<dim>3</dim>
					<dim>3</dim>
				</port>
			</input>
			<output>
				<port id="1" precision="FP32">
					<dim>48</dim>
					<dim>48</dim>
					<dim>3</dim>
					<dim>3</dim>
				</port>
			</output>
		</layer>
		<layer id="302" name="/model/model.6/cv2/cv2.1/conv/Conv/WithoutBiases" type="Convolution" version="opset1">
			<data strides="1, 1" dilations="1, 1" pads_begin="1, 1" pads_end="1, 1" auto_pad="explicit" />
			<input>
				<port id="0" precision="FP32">
					<dim>1</dim>
					<dim>48</dim>
					<dim>16</dim>
					<dim>16</dim>
				</port>
				<port id="1" precision="FP32">
					<dim>48</dim>
					<dim>48</dim>
					<dim>3</dim>
					<dim>3</dim>
				</port>
			</input>
			<output>
				<port id="2" precision="FP32">
					<dim>1</dim>
					<dim>48</dim>
					<dim>16</dim>
					<dim>16</dim>
				</port>
			</output>
		</layer>
		<layer id="303" name="Reshape_760" type="Const" version="opset1">
			<data element_type="f32" shape="1, 48, 1, 1" offset="437592" size="192" />
			<output>
				<port id="0" precision="FP32">
					<dim>1</dim>
					<dim>48</dim>
					<dim>1</dim>
					<dim>1</dim>
				</port>
			</output>
		</layer>
		<layer id="304" name="/model/model.6/cv2/cv2.1/conv/Conv" type="Add" version="opset1">
			<data auto_broadcast="numpy" />
			<input>
				<port id="0" precision="FP32">
					<dim>1</dim>
					<dim>48</dim>
					<dim>16</dim>
					<dim>16</dim>
				</port>
				<port id="1" precision="FP32">
					<dim>1</dim>
					<dim>48</dim>
					<dim>1</dim>
					<dim>1</dim>
				</port>
			</input>
			<output>
				<port id="2" precision="FP32" names="/model/model.6/cv2/cv2.1/conv/Conv_output_0">
					<dim>1</dim>
					<dim>48</dim>
					<dim>16</dim>
					<dim>16</dim>
				</port>
			</output>
		</layer>
		<layer id="305" name="/model/model.6/cv2/cv2.1/act/Mul" type="Swish" version="opset4">
			<input>
				<port id="0" precision="FP32">
					<dim>1</dim>
					<dim>48</dim>
					<dim>16</dim>
					<dim>16</dim>
				</port>
			</input>
			<output>
				<port id="1" precision="FP32" names="/model/model.6/cv2/cv2.1/act/Mul_output_0">
					<dim>1</dim>
					<dim>48</dim>
					<dim>16</dim>
					<dim>16</dim>
				</port>
			</output>
		</layer>
		<layer id="306" name="model.model.6.cv3.0.cv1.conv.weight_compressed" type="Const" version="opset1">
			<data element_type="f16" shape="24, 48, 1, 1" offset="437784" size="2304" />
			<output>
				<port id="0" precision="FP16" names="model.model.6.cv3.0.cv1.conv.weight">
					<dim>24</dim>
					<dim>48</dim>
					<dim>1</dim>
					<dim>1</dim>
				</port>
			</output>
		</layer>
		<layer id="307" name="model.model.6.cv3.0.cv1.conv.weight" type="Convert" version="opset1">
			<data destination_type="f32" />
			<rt_info>
				<attribute name="decompression" version="0" />
			</rt_info>
			<input>
				<port id="0" precision="FP16">
					<dim>24</dim>
					<dim>48</dim>
					<dim>1</dim>
					<dim>1</dim>
				</port>
			</input>
			<output>
				<port id="1" precision="FP32">
					<dim>24</dim>
					<dim>48</dim>
					<dim>1</dim>
					<dim>1</dim>
				</port>
			</output>
		</layer>
		<layer id="308" name="/model/model.6/cv3/cv3.0/cv1/conv/Conv/WithoutBiases" type="Convolution" version="opset1">
			<data strides="1, 1" dilations="1, 1" pads_begin="0, 0" pads_end="0, 0" auto_pad="explicit" />
			<input>
				<port id="0" precision="FP32">
					<dim>1</dim>
					<dim>48</dim>
					<dim>16</dim>
					<dim>16</dim>
				</port>
				<port id="1" precision="FP32">
					<dim>24</dim>
					<dim>48</dim>
					<dim>1</dim>
					<dim>1</dim>
				</port>
			</input>
			<output>
				<port id="2" precision="FP32">
					<dim>1</dim>
					<dim>24</dim>
					<dim>16</dim>
					<dim>16</dim>
				</port>
			</output>
		</layer>
		<layer id="309" name="Reshape_777" type="Const" version="opset1">
			<data element_type="f32" shape="1, 24, 1, 1" offset="440088" size="96" />
			<output>
				<port id="0" precision="FP32">
					<dim>1</dim>
					<dim>24</dim>
					<dim>1</dim>
					<dim>1</dim>
				</port>
			</output>
		</layer>
…
		<edge from-layer="786" from-port="1" to-layer="787" to-port="1" />
		<edge from-layer="787" from-port="2" to-layer="794" to-port="0" />
		<edge from-layer="788" from-port="0" to-layer="789" to-port="0" />
		<edge from-layer="789" from-port="1" to-layer="790" to-port="1" />
		<edge from-layer="790" from-port="2" to-layer="792" to-port="0" />
		<edge from-layer="791" from-port="0" to-layer="792" to-port="1" />
		<edge from-layer="792" from-port="2" to-layer="793" to-port="0" />
		<edge from-layer="793" from-port="1" to-layer="794" to-port="1" />
		<edge from-layer="794" from-port="2" to-layer="797" to-port="0" />
		<edge from-layer="795" from-port="0" to-layer="796" to-port="0" />
		<edge from-layer="796" from-port="1" to-layer="797" to-port="1" />
		<edge from-layer="797" from-port="2" to-layer="799" to-port="0" />
		<edge from-layer="798" from-port="0" to-layer="799" to-port="1" />
		<edge from-layer="799" from-port="2" to-layer="800" to-port="0" />
		<edge from-layer="800" from-port="1" to-layer="803" to-port="0" />
		<edge from-layer="801" from-port="0" to-layer="802" to-port="0" />
		<edge from-layer="802" from-port="1" to-layer="803" to-port="1" />
		<edge from-layer="803" from-port="2" to-layer="806" to-port="0" />
		<edge from-layer="804" from-port="0" to-layer="805" to-port="0" />
		<edge from-layer="805" from-port="1" to-layer="806" to-port="1" />
		<edge from-layer="806" from-port="2" to-layer="807" to-port="0" />
		<edge from-layer="807" from-port="1" to-layer="878" to-port="2" />
		<edge from-layer="807" from-port="1" to-layer="859" to-port="0" />
		<edge from-layer="807" from-port="1" to-layer="810" to-port="0" />
		<edge from-layer="808" from-port="0" to-layer="809" to-port="0" />
		<edge from-layer="809" from-port="1" to-layer="810" to-port="1" />
		<edge from-layer="810" from-port="2" to-layer="812" to-port="0" />
		<edge from-layer="811" from-port="0" to-layer="812" to-port="1" />
		<edge from-layer="812" from-port="2" to-layer="813" to-port="0" />
		<edge from-layer="813" from-port="1" to-layer="826" to-port="0" />
		<edge from-layer="813" from-port="1" to-layer="816" to-port="0" />
		<edge from-layer="814" from-port="0" to-layer="815" to-port="0" />
		<edge from-layer="815" from-port="1" to-layer="816" to-port="1" />
		<edge from-layer="816" from-port="2" to-layer="818" to-port="0" />
		<edge from-layer="817" from-port="0" to-layer="818" to-port="1" />
		<edge from-layer="818" from-port="2" to-layer="819" to-port="0" />
		<edge from-layer="819" from-port="1" to-layer="822" to-port="0" />
		<edge from-layer="820" from-port="0" to-layer="821" to-port="0" />
		<edge from-layer="821" from-port="1" to-layer="822" to-port="1" />
		<edge from-layer="822" from-port="2" to-layer="824" to-port="0" />
		<edge from-layer="823" from-port="0" to-layer="824" to-port="1" />
		<edge from-layer="824" from-port="2" to-layer="825" to-port="0" />
		<edge from-layer="825" from-port="1" to-layer="826" to-port="1" />
		<edge from-layer="826" from-port="2" to-layer="841" to-port="0" />
		<edge from-layer="826" from-port="2" to-layer="829" to-port="0" />
		<edge from-layer="827" from-port="0" to-layer="828" to-port="0" />
		<edge from-layer="828" from-port="1" to-layer="829" to-port="1" />
		<edge from-layer="829" from-port="2" to-layer="832" to-port="0" />
		<edge from-layer="830" from-port="0" to-layer="831" to-port="0" />
		<edge from-layer="831" from-port="1" to-layer="832" to-port="1" />
		<edge from-layer="832" from-port="2" to-layer="833" to-port="0" />
		<edge from-layer="833" from-port="1" to-layer="836" to-port="0" />
		<edge from-layer="834" from-port="0" to-layer="835" to-port="0" />
		<edge from-layer="835" from-port="1" to-layer="836" to-port="1" />
		<edge from-layer="836" from-port="2" to-layer="839" to-port="0" />
		<edge from-layer="837" from-port="0" to-layer="838" to-port="0" />
		<edge from-layer="838" from-port="1" to-layer="839" to-port="1" />
		<edge from-layer="839" from-port="2" to-layer="840" to-port="0" />
		<edge from-layer="840" from-port="1" to-layer="841" to-port="1" />
		<edge from-layer="841" from-port="2" to-layer="844" to-port="0" />
		<edge from-layer="841" from-port="2" to-layer="856" to-port="0" />
		<edge from-layer="842" from-port="0" to-layer="843" to-port="0" />
		<edge from-layer="843" from-port="1" to-layer="844" to-port="1" />
		<edge from-layer="844" from-port="2" to-layer="847" to-port="0" />
		<edge from-layer="845" from-port="0" to-layer="846" to-port="0" />
		<edge from-layer="846" from-port="1" to-layer="847" to-port="1" />
		<edge from-layer="847" from-port="2" to-layer="848" to-port="0" />
		<edge from-layer="848" from-port="1" to-layer="851" to-port="0" />
		<edge from-layer="849" from-port="0" to-layer="850" to-port="0" />
		<edge from-layer="850" from-port="1" to-layer="851" to-port="1" />
		<edge from-layer="851" from-port="2" to-layer="854" to-port="0" />
		<edge from-layer="852" from-port="0" to-layer="853" to-port="0" />
		<edge from-layer="853" from-port="1" to-layer="854" to-port="1" />
		<edge from-layer="854" from-port="2" to-layer="855" to-port="0" />
		<edge from-layer="855" from-port="1" to-layer="856" to-port="1" />
		<edge from-layer="856" from-port="2" to-layer="864" to-port="0" />
		<edge from-layer="857" from-port="0" to-layer="858" to-port="0" />
		<edge from-layer="858" from-port="1" to-layer="859" to-port="1" />
		<edge from-layer="859" from-port="2" to-layer="862" to-port="0" />
		<edge from-layer="860" from-port="0" to-layer="861" to-port="0" />
		<edge from-layer="861" from-port="1" to-layer="862" to-port="1" />
		<edge from-layer="862" from-port="2" to-layer="863" to-port="0" />
		<edge from-layer="863" from-port="1" to-layer="864" to-port="1" />
		<edge from-layer="864" from-port="2" to-layer="867" to-port="0" />
		<edge from-layer="865" from-port="0" to-layer="866" to-port="0" />
		<edge from-layer="866" from-port="1" to-layer="867" to-port="1" />
		<edge from-layer="867" from-port="2" to-layer="869" to-port="0" />
		<edge from-layer="868" from-port="0" to-layer="869" to-port="1" />
		<edge from-layer="869" from-port="2" to-layer="870" to-port="0" />
		<edge from-layer="870" from-port="1" to-layer="873" to-port="0" />
		<edge from-layer="871" from-port="0" to-layer="872" to-port="0" />
		<edge from-layer="872" from-port="1" to-layer="873" to-port="1" />
		<edge from-layer="873" from-port="2" to-layer="876" to-port="0" />
		<edge from-layer="874" from-port="0" to-layer="875" to-port="0" />
		<edge from-layer="875" from-port="1" to-layer="876" to-port="1" />
		<edge from-layer="876" from-port="2" to-layer="877" to-port="0" />
		<edge from-layer="877" from-port="1" to-layer="878" to-port="3" />
		<edge from-layer="878" from-port="4" to-layer="881" to-port="0" />
		<edge from-layer="879" from-port="0" to-layer="880" to-port="0" />
		<edge from-layer="880" from-port="1" to-layer="881" to-port="1" />
		<edge from-layer="881" from-port="2" to-layer="884" to-port="0" />
		<edge from-layer="882" from-port="0" to-layer="883" to-port="0" />
		<edge from-layer="883" from-port="1" to-layer="884" to-port="1" />
		<edge from-layer="884" from-port="2" to-layer="885" to-port="0" />
		<edge from-layer="885" from-port="1" to-layer="908" to-port="0" />
		<edge from-layer="885" from-port="1" to-layer="929" to-port="0" />
		<edge from-layer="885" from-port="1" to-layer="888" to-port="0" />
		<edge from-layer="886" from-port="0" to-layer="887" to-port="0" />
		<edge from-layer="887" from-port="1" to-layer="888" to-port="1" />
		<edge from-layer="888" from-port="2" to-layer="891" to-port="0" />
		<edge from-layer="889" from-port="0" to-layer="890" to-port="0" />
		<edge from-layer="890" from-port="1" to-layer="891" to-port="1" />
		<edge from-layer="891" from-port="2" to-layer="892" to-port="0" />
		<edge from-layer="892" from-port="1" to-layer="895" to-port="0" />
		<edge from-layer="893" from-port="0" to-layer="894" to-port="0" />
		<edge from-layer="894" from-port="1" to-layer="895" to-port="1" />
		<edge from-layer="895" from-port="2" to-layer="898" to-port="0" />
		<edge from-layer="896" from-port="0" to-layer="897" to-port="0" />
		<edge from-layer="897" from-port="1" to-layer="898" to-port="1" />
		<edge from-layer="898" from-port="2" to-layer="899" to-port="0" />
		<edge from-layer="899" from-port="1" to-layer="902" to-port="0" />
		<edge from-layer="900" from-port="0" to-layer="901" to-port="0" />
		<edge from-layer="901" from-port="1" to-layer="902" to-port="1" />
		<edge from-layer="902" from-port="2" to-layer="905" to-port="0" />
		<edge from-layer="903" from-port="0" to-layer="904" to-port="0" />
		<edge from-layer="904" from-port="1" to-layer="905" to-port="1" />
		<edge from-layer="905" from-port="2" to-layer="926" to-port="0" />
		<edge from-layer="906" from-port="0" to-layer="907" to-port="0" />
		<edge from-layer="907" from-port="1" to-layer="908" to-port="1" />
		<edge from-layer="908" from-port="2" to-layer="911" to-port="0" />
		<edge from-layer="909" from-port="0" to-layer="910" to-port="0" />
		<edge from-layer="910" from-port="1" to-layer="911" to-port="1" />
		<edge from-layer="911" from-port="2" to-layer="912" to-port="0" />
		<edge from-layer="912" from-port="1" to-layer="915" to-port="0" />
		<edge from-layer="913" from-port="0" to-layer="914" to-port="0" />
		<edge from-layer="914" from-port="1" to-layer="915" to-port="1" />
		<edge from-layer="915" from-port="2" to-layer="918" to-port="0" />
		<edge from-layer="916" from-port="0" to-layer="917" to-port="0" />
		<edge from-layer="917" from-port="1" to-layer="918" to-port="1" />
		<edge from-layer="918" from-port="2" to-layer="919" to-port="0" />
		<edge from-layer="919" from-port="1" to-layer="922" to-port="0" />
		<edge from-layer="920" from-port="0" to-layer="921" to-port="0" />
		<edge from-layer="921" from-port="1" to-layer="922" to-port="1" />
		<edge from-layer="922" from-port="2" to-layer="925" to-port="0" />
		<edge from-layer="923" from-port="0" to-layer="924" to-port="0" />
		<edge from-layer="924" from-port="1" to-layer="925" to-port="1" />
		<edge from-layer="925" from-port="2" to-layer="926" to-port="1" />
		<edge from-layer="926" from-port="2" to-layer="928" to-port="0" />
		<edge from-layer="927" from-port="0" to-layer="1344" to-port="1" />
		<edge from-layer="927" from-port="0" to-layer="928" to-port="1" />
		<edge from-layer="927" from-port="0" to-layer="1135" to-port="1" />
		<edge from-layer="928" from-port="2" to-layer="1345" to-port="0" />
		<edge from-layer="929" from-port="1" to-layer="932" to-port="0" />
		<edge from-layer="930" from-port="0" to-layer="931" to-port="0" />
		<edge from-layer="931" from-port="1" to-layer="932" to-port="1" />
		<edge from-layer="932" from-port="2" to-layer="934" to-port="0" />
		<edge from-layer="933" from-port="0" to-layer="934" to-port="1" />
		<edge from-layer="934" from-port="2" to-layer="935" to-port="0" />
		<edge from-layer="935" from-port="1" to-layer="936" to-port="0" />
		<edge from-layer="936" from-port="2" to-layer="939" to-port="0" />
		<edge from-layer="937" from-port="0" to-layer="938" to-port="0" />
		<edge from-layer="938" from-port="1" to-layer="939" to-port="1" />
		<edge from-layer="939" from-port="2" to-layer="942" to-port="0" />
		<edge from-layer="940" from-port="0" to-layer="941" to-port="0" />
		<edge from-layer="941" from-port="1" to-layer="942" to-port="1" />
		<edge from-layer="942" from-port="2" to-layer="943" to-port="0" />
		<edge from-layer="943" from-port="1" to-layer="944" to-port="0" />
		<edge from-layer="943" from-port="1" to-layer="945" to-port="0" />
		<edge from-layer="944" from-port="5" to-layer="1088" to-port="0" />
		<edge from-layer="945" from-port="5" to-layer="998" to-port="0" />
		<edge from-layer="945" from-port="5" to-layer="1088" to-port="1" />
		<edge from-layer="945" from-port="5" to-layer="948" to-port="0" />
		<edge from-layer="946" from-port="0" to-layer="947" to-port="0" />
		<edge from-layer="947" from-port="1" to-layer="948" to-port="1" />
		<edge from-layer="948" from-port="2" to-layer="951" to-port="0" />
		<edge from-layer="949" from-port="0" to-layer="950" to-port="0" />
		<edge from-layer="950" from-port="1" to-layer="951" to-port="1" />
		<edge from-layer="951" from-port="2" to-layer="952" to-port="0" />
		<edge from-layer="952" from-port="1" to-layer="966" to-port="0" />
		<edge from-layer="952" from-port="1" to-layer="955" to-port="0" />
		<edge from-layer="953" from-port="0" to-layer="954" to-port="0" />
		<edge from-layer="954" from-port="1" to-layer="955" to-port="1" />
		<edge from-layer="955" from-port="2" to-layer="958" to-port="0" />
		<edge from-layer="956" from-port="0" to-layer="957" to-port="0" />
		<edge from-layer="957" from-port="1" to-layer="958" to-port="1" />
		<edge from-layer="958" from-port="2" to-layer="959" to-port="0" />
		<edge from-layer="959" from-port="1" to-layer="962" to-port="0" />
		<edge from-layer="960" from-port="0" to-layer="961" to-port="0" />
		<edge from-layer="961" from-port="1" to-layer="962" to-port="1" />
		<edge from-layer="962" from-port="2" to-layer="964" to-port="0" />
		<edge from-layer="963" from-port="0" to-layer="964" to-port="1" />
		<edge from-layer="964" from-port="2" to-layer="965" to-port="0" />
		<edge from-layer="965" from-port="1" to-layer="966" to-port="1" />
		<edge from-layer="966" from-port="2" to-layer="981" to-port="0" />
		<edge from-layer="966" from-port="2" to-layer="969" to-port="0" />
		<edge from-layer="967" from-port="0" to-layer="968" to-port="0" />
		<edge from-layer="968" from-port="1" to-layer="969" to-port="1" />
		<edge from-layer="969" from-port="2" to-layer="972" to-port="0" />
		<edge from-layer="970" from-port="0" to-layer="971" to-port="0" />
		<edge from-layer="971" from-port="1" to-layer="972" to-port="1" />
		<edge from-layer="972" from-port="2" to-layer="973" to-port="0" />
		<edge from-layer="973" from-port="1" to-layer="976" to-port="0" />
		<edge from-layer="974" from-port="0" to-layer="975" to-port="0" />
		<edge from-layer="975" from-port="1" to-layer="976" to-port="1" />
		<edge from-layer="976" from-port="2" to-layer="979" to-port="0" />
		<edge from-layer="977" from-port="0" to-layer="978" to-port="0" />
		<edge from-layer="978" from-port="1" to-layer="979" to-port="1" />
		<edge from-layer="979" from-port="2" to-layer="980" to-port="0" />
		<edge from-layer="980" from-port="1" to-layer="981" to-port="1" />
		<edge from-layer="981" from-port="2" to-layer="984" to-port="0" />
		<edge from-layer="981" from-port="2" to-layer="995" to-port="0" />
		<edge from-layer="982" from-port="0" to-layer="983" to-port="0" />
		<edge from-layer="983" from-port="1" to-layer="984" to-port="1" />
		<edge from-layer="984" from-port="2" to-layer="986" to-port="0" />
		<edge from-layer="985" from-port="0" to-layer="986" to-port="1" />
		<edge from-layer="986" from-port="2" to-layer="987" to-port="0" />
		<edge from-layer="987" from-port="1" to-layer="990" to-port="0" />
		<edge from-layer="988" from-port="0" to-layer="989" to-port="0" />
		<edge from-layer="989" from-port="1" to-layer="990" to-port="1" />
		<edge from-layer="990" from-port="2" to-layer="993" to-port="0" />
		<edge from-layer="991" from-port="0" to-layer="992" to-port="0" />
		<edge from-layer="992" from-port="1" to-layer="993" to-port="1" />
		<edge from-layer="993" from-port="2" to-layer="994" to-port="0" />
		<edge from-layer="994" from-port="1" to-layer="995" to-port="1" />
		<edge from-layer="995" from-port="2" to-layer="1003" to-port="0" />
		<edge from-layer="996" from-port="0" to-layer="997" to-port="0" />
		<edge from-layer="997" from-port="1" to-layer="998" to-port="1" />
		<edge from-layer="998" from-port="2" to-layer="1001" to-port="0" />
		<edge from-layer="999" from-port="0" to-layer="1000" to-port="0" />
		<edge from-layer="1000" from-port="1" to-layer="1001" to-port="1" />
		<edge from-layer="1001" from-port="2" to-layer="1002" to-port="0" />
		<edge from-layer="1002" from-port="1" to-layer="1003" to-port="1" />
		<edge from-layer="1003" from-port="2" to-layer="1006" to-port="0" />
		<edge from-layer="1004" from-port="0" to-layer="1005" to-port="0" />
		<edge from-layer="1005" from-port="1" to-layer="1006" to-port="1" />
		<edge from-layer="1006" from-port="2" to-layer="1009" to-port="0" />
		<edge from-layer="1007" from-port="0" to-layer="1008" to-port="0" />
		<edge from-layer="1008" from-port="1" to-layer="1009" to-port="1" />
		<edge from-layer="1009" from-port="2" to-layer="1010" to-port="0" />
		<edge from-layer="1010" from-port="1" to-layer="1013" to-port="0" />
		<edge from-layer="1011" from-port="0" to-layer="1012" to-port="0" />
		<edge from-layer="1012" from-port="1" to-layer="1013" to-port="1" />
		<edge from-layer="1013" from-port="2" to-layer="1016" to-port="0" />
		<edge from-layer="1014" from-port="0" to-layer="1015" to-port="0" />
		<edge from-layer="1015" from-port="1" to-layer="1016" to-port="1" />
		<edge from-layer="1016" from-port="2" to-layer="1017" to-port="0" />
		<edge from-layer="1017" from-port="1" to-layer="1069" to-port="0" />
		<edge from-layer="1017" from-port="1" to-layer="1088" to-port="2" />
		<edge from-layer="1017" from-port="1" to-layer="1020" to-port="0" />
		<edge from-layer="1018" from-port="0" to-layer="1019" to-port="0" />
		<edge from-layer="1019" from-port="1" to-layer="1020" to-port="1" />
		<edge from-layer="1020" from-port="2" to-layer="1022" to-port="0" />
		<edge from-layer="1021" from-port="0" to-layer="1022" to-port="1" />
		<edge from-layer="1022" from-port="2" to-layer="1023" to-port="0" />
		<edge from-layer="1023" from-port="1" to-layer="1026" to-port="0" />
		<edge from-layer="1023" from-port="1" to-layer="1037" to-port="0" />
		<edge from-layer="1024" from-port="0" to-layer="1025" to-port="0" />
		<edge from-layer="1025" from-port="1" to-layer="1026" to-port="1" />
		<edge from-layer="1026" from-port="2" to-layer="1029" to-port="0" />
		<edge from-layer="1027" from-port="0" to-layer="1028" to-port="0" />
		<edge from-layer="1028" from-port="1" to-layer="1029" to-port="1" />
		<edge from-layer="1029" from-port="2" to-layer="1030" to-port="0" />
		<edge from-layer="1030" from-port="1" to-layer="1033" to-port="0" />
		<edge from-layer="1031" from-port="0" to-layer="1032" to-port="0" />
		<edge from-layer="1032" from-port="1" to-layer="1033" to-port="1" />
		<edge from-layer="1033" from-port="2" to-layer="1035" to-port="0" />
		<edge from-layer="1034" from-port="0" to-layer="1035" to-port="1" />
		<edge from-layer="1035" from-port="2" to-layer="1036" to-port="0" />
		<edge from-layer="1036" from-port="1" to-layer="1037" to-port="1" />
		<edge from-layer="1037" from-port="2" to-layer="1052" to-port="0" />
		<edge from-layer="1037" from-port="2" to-layer="1040" to-port="0" />
		<edge from-layer="1038" from-port="0" to-layer="1039" to-port="0" />
		<edge from-layer="1039" from-port="1" to-layer="1040" to-port="1" />
		<edge from-layer="1040" from-port="2" to-layer="1043" to-port="0" />
		<edge from-layer="1041" from-port="0" to-layer="1042" to-port="0" />
		<edge from-layer="1042" from-port="1" to-layer="1043" to-port="1" />
		<edge from-layer="1043" from-port="2" to-layer="1044" to-port="0" />
		<edge from-layer="1044" from-port="1" to-layer="1047" to-port="0" />
		<edge from-layer="1045" from-port="0" to-layer="1046" to-port="0" />
		<edge from-layer="1046" from-port="1" to-layer="1047" to-port="1" />
		<edge from-layer="1047" from-port="2" to-layer="1050" to-port="0" />
		<edge from-layer="1048" from-port="0" to-layer="1049" to-port="0" />
		<edge from-layer="1049" from-port="1" to-layer="1050" to-port="1" />
		<edge from-layer="1050" from-port="2" to-layer="1051" to-port="0" />
		<edge from-layer="1051" from-port="1" to-layer="1052" to-port="1" />
		<edge from-layer="1052" from-port="2" to-layer="1055" to-port="0" />
		<edge from-layer="1052" from-port="2" to-layer="1066" to-port="0" />
		<edge from-layer="1053" from-port="0" to-layer="1054" to-port="0" />
		<edge from-layer="1054" from-port="1" to-layer="1055" to-port="1" />
		<edge from-layer="1055" from-port="2" to-layer="1058" to-port="0" />
		<edge from-layer="1056" from-port="0" to-layer="1057" to-port="0" />
		<edge from-layer="1057" from-port="1" to-layer="1058" to-port="1" />
		<edge from-layer="1058" from-port="2" to-layer="1059" to-port="0" />
		<edge from-layer="1059" from-port="1" to-layer="1062" to-port="0" />
		<edge from-layer="1060" from-port="0" to-layer="1061" to-port="0" />
		<edge from-layer="1061" from-port="1" to-layer="1062" to-port="1" />
		<edge from-layer="1062" from-port="2" to-layer="1064" to-port="0" />
		<edge from-layer="1063" from-port="0" to-layer="1064" to-port="1" />
		<edge from-layer="1064" from-port="2" to-layer="1065" to-port="0" />
		<edge from-layer="1065" from-port="1" to-layer="1066" to-port="1" />
		<edge from-layer="1066" from-port="2" to-layer="1074" to-port="0" />
		<edge from-layer="1067" from-port="0" to-layer="1068" to-port="0" />
		<edge from-layer="1068" from-port="1" to-layer="1069" to-port="1" />
		<edge from-layer="1069" from-port="2" to-layer="1072" to-port="0" />
		<edge from-layer="1070" from-port="0" to-layer="1071" to-port="0" />
		<edge from-layer="1071" from-port="1" to-layer="1072" to-port="1" />
		<edge from-layer="1072" from-port="2" to-layer="1073" to-port="0" />
		<edge from-layer="1073" from-port="1" to-layer="1074" to-port="1" />
		<edge from-layer="1074" from-port="2" to-layer="1077" to-port="0" />
		<edge from-layer="1075" from-port="0" to-layer="1076" to-port="0" />
		<edge from-layer="1076" from-port="1" to-layer="1077" to-port="1" />
		<edge from-layer="1077" from-port="2" to-layer="1080" to-port="0" />
		<edge from-layer="1078" from-port="0" to-layer="1079" to-port="0" />
		<edge from-layer="1079" from-port="1" to-layer="1080" to-port="1" />
		<edge from-layer="1080" from-port="2" to-layer="1081" to-port="0" />
		<edge from-layer="1081" from-port="1" to-layer="1084" to-port="0" />
		<edge from-layer="1082" from-port="0" to-layer="1083" to-port="0" />
		<edge from-layer="1083" from-port="1" to-layer="1084" to-port="1" />
		<edge from-layer="1084" from-port="2" to-layer="1086" to-port="0" />
		<edge from-layer="1085" from-port="0" to-layer="1086" to-port="1" />
		<edge from-layer="1086" from-port="2" to-layer="1087" to-port="0" />
		<edge from-layer="1087" from-port="1" to-layer="1088" to-port="3" />
		<edge from-layer="1088" from-port="4" to-layer="1091" to-port="0" />
		<edge from-layer="1089" from-port="0" to-layer="1090" to-port="0" />
		<edge from-layer="1090" from-port="1" to-layer="1091" to-port="1" />
		<edge from-layer="1091" from-port="2" to-layer="1093" to-port="0" />
		<edge from-layer="1092" from-port="0" to-layer="1093" to-port="1" />
		<edge from-layer="1093" from-port="2" to-layer="1094" to-port="0" />
		<edge from-layer="1094" from-port="1" to-layer="1097" to-port="0" />
		<edge from-layer="1094" from-port="1" to-layer="1136" to-port="0" />
		<edge from-layer="1094" from-port="1" to-layer="1116" to-port="0" />
		<edge from-layer="1095" from-port="0" to-layer="1096" to-port="0" />
		<edge from-layer="1096" from-port="1" to-layer="1097" to-port="1" />
		<edge from-layer="1097" from-port="2" to-layer="1099" to-port="0" />
		<edge from-layer="1098" from-port="0" to-layer="1099" to-port="1" />
		<edge from-layer="1099" from-port="2" to-layer="1100" to-port="0" />
		<edge from-layer="1100" from-port="1" to-layer="1103" to-port="0" />
		<edge from-layer="1101" from-port="0" to-layer="1102" to-port="0" />
		<edge from-layer="1102" from-port="1" to-layer="1103" to-port="1" />
		<edge from-layer="1103" from-port="2" to-layer="1106" to-port="0" />
		<edge from-layer="1104" from-port="0" to-layer="1105" to-port="0" />
		<edge from-layer="1105" from-port="1" to-layer="1106" to-port="1" />
		<edge from-layer="1106" from-port="2" to-layer="1107" to-port="0" />
		<edge from-layer="1107" from-port="1" to-layer="1110" to-port="0" />
		<edge from-layer="1108" from-port="0" to-layer="1109" to-port="0" />
		<edge from-layer="1109" from-port="1" to-layer="1110" to-port="1" />
		<edge from-layer="1110" from-port="2" to-layer="1113" to-port="0" />
		<edge from-layer="1111" from-port="0" to-layer="1112" to-port="0" />
		<edge from-layer="1112" from-port="1" to-layer="1113" to-port="1" />
		<edge from-layer="1113" from-port="2" to-layer="1134" to-port="0" />
		<edge from-layer="1114" from-port="0" to-layer="1115" to-port="0" />
		<edge from-layer="1115" from-port="1" to-layer="1116" to-port="1" />
		<edge from-layer="1116" from-port="2" to-layer="1119" to-port="0" />
		<edge from-layer="1117" from-port="0" to-layer="1118" to-port="0" />
		<edge from-layer="1118" from-port="1" to-layer="1119" to-port="1" />
		<edge from-layer="1119" from-port="2" to-layer="1120" to-port="0" />
		<edge from-layer="1120" from-port="1" to-layer="1123" to-port="0" />
		<edge from-layer="1121" from-port="0" to-layer="1122" to-port="0" />
		<edge from-layer="1122" from-port="1" to-layer="1123" to-port="1" />
		<edge from-layer="1123" from-port="2" to-layer="1126" to-port="0" />
		<edge from-layer="1124" from-port="0" to-layer="1125" to-port="0" />
		<edge from-layer="1125" from-port="1" to-layer="1126" to-port="1" />
		<edge from-layer="1126" from-port="2" to-layer="1127" to-port="0" />
		<edge from-layer="1127" from-port="1" to-layer="1130" to-port="0" />
		<edge from-layer="1128" from-port="0" to-layer="1129" to-port="0" />
		<edge from-layer="1129" from-port="1" to-layer="1130" to-port="1" />
		<edge from-layer="1130" from-port="2" to-layer="1133" to-port="0" />
		<edge from-layer="1131" from-port="0" to-layer="1132" to-port="0" />
		<edge from-layer="1132" from-port="1" to-layer="1133" to-port="1" />
		<edge from-layer="1133" from-port="2" to-layer="1134" to-port="1" />
		<edge from-layer="1134" from-port="2" to-layer="1135" to-port="0" />
		<edge from-layer="1135" from-port="2" to-layer="1345" to-port="1" />
		<edge from-layer="1136" from-port="1" to-layer="1139" to-port="0" />
		<edge from-layer="1137" from-port="0" to-layer="1138" to-port="0" />
		<edge from-layer="1138" from-port="1" to-layer="1139" to-port="1" />
		<edge from-layer="1139" from-port="2" to-layer="1141" to-port="0" />
		<edge from-layer="1140" from-port="0" to-layer="1141" to-port="1" />
		<edge from-layer="1141" from-port="2" to-layer="1142" to-port="0" />
		<edge from-layer="1142" from-port="1" to-layer="1143" to-port="0" />
		<edge from-layer="1143" from-port="2" to-layer="1146" to-port="0" />
		<edge from-layer="1144" from-port="0" to-layer="1145" to-port="0" />
		<edge from-layer="1145" from-port="1" to-layer="1146" to-port="1" />
		<edge from-layer="1146" from-port="2" to-layer="1149" to-port="0" />
		<edge from-layer="1147" from-port="0" to-layer="1148" to-port="0" />
		<edge from-layer="1148" from-port="1" to-layer="1149" to-port="1" />
		<edge from-layer="1149" from-port="2" to-layer="1150" to-port="0" />
		<edge from-layer="1150" from-port="1" to-layer="1151" to-port="0" />
		<edge from-layer="1150" from-port="1" to-layer="1152" to-port="0" />
		<edge from-layer="1151" from-port="5" to-layer="1297" to-port="0" />
		<edge from-layer="1152" from-port="5" to-layer="1297" to-port="1" />
		<edge from-layer="1152" from-port="5" to-layer="1206" to-port="0" />
		<edge from-layer="1152" from-port="5" to-layer="1155" to-port="0" />
		<edge from-layer="1153" from-port="0" to-layer="1154" to-port="0" />
		<edge from-layer="1154" from-port="1" to-layer="1155" to-port="1" />
		<edge from-layer="1155" from-port="2" to-layer="1158" to-port="0" />
		<edge from-layer="1156" from-port="0" to-layer="1157" to-port="0" />
		<edge from-layer="1157" from-port="1" to-layer="1158" to-port="1" />
		<edge from-layer="1158" from-port="2" to-layer="1159" to-port="0" />
		<edge from-layer="1159" from-port="1" to-layer="1162" to-port="0" />
		<edge from-layer="1159" from-port="1" to-layer="1174" to-port="0" />
		<edge from-layer="1160" from-port="0" to-layer="1161" to-port="0" />
		<edge from-layer="1161" from-port="1" to-layer="1162" to-port="1" />
		<edge from-layer="1162" from-port="2" to-layer="1165" to-port="0" />
		<edge from-layer="1163" from-port="0" to-layer="1164" to-port="0" />
		<edge from-layer="1164" from-port="1" to-layer="1165" to-port="1" />
		<edge from-layer="1165" from-port="2" to-layer="1166" to-port="0" />
		<edge from-layer="1166" from-port="1" to-layer="1169" to-port="0" />
		<edge from-layer="1167" from-port="0" to-layer="1168" to-port="0" />
		<edge from-layer="1168" from-port="1" to-layer="1169" to-port="1" />
		<edge from-layer="1169" from-port="2" to-layer="1172" to-port="0" />
		<edge from-layer="1170" from-port="0" to-layer="1171" to-port="0" />
		<edge from-layer="1171" from-port="1" to-layer="1172" to-port="1" />
		<edge from-layer="1172" from-port="2" to-layer="1173" to-port="0" />
		<edge from-layer="1173" from-port="1" to-layer="1174" to-port="1" />
		<edge from-layer="1174" from-port="2" to-layer="1177" to-port="0" />
		<edge from-layer="1174" from-port="2" to-layer="1188" to-port="0" />
		<edge from-layer="1175" from-port="0" to-layer="1176" to-port="0" />
		<edge from-layer="1176" from-port="1" to-layer="1177" to-port="1" />
		<edge from-layer="1177" from-port="2" to-layer="1180" to-port="0" />
		<edge from-layer="1178" from-port="0" to-layer="1179" to-port="0" />
		<edge from-layer="1179" from-port="1" to-layer="1180" to-port="1" />
		<edge from-layer="1180" from-port="2" to-layer="1181" to-port="0" />
		<edge from-layer="1181" from-port="1" to-layer="1184" to-port="0" />
		<edge from-layer="1182" from-port="0" to-layer="1183" to-port="0" />
		<edge from-layer="1183" from-port="1" to-layer="1184" to-port="1" />
		<edge from-layer="1184" from-port="2" to-layer="1186" to-port="0" />
		<edge from-layer="1185" from-port="0" to-layer="1186" to-port="1" />
		<edge from-layer="1186" from-port="2" to-layer="1187" to-port="0" />
		<edge from-layer="1187" from-port="1" to-layer="1188" to-port="1" />
		<edge from-layer="1188" from-port="2" to-layer="1203" to-port="0" />
		<edge from-layer="1188" from-port="2" to-layer="1191" to-port="0" />
		<edge from-layer="1189" from-port="0" to-layer="1190" to-port="0" />
		<edge from-layer="1190" from-port="1" to-layer="1191" to-port="1" />
		<edge from-layer="1191" from-port="2" to-layer="1194" to-port="0" />
		<edge from-layer="1192" from-port="0" to-layer="1193" to-port="0" />
		<edge from-layer="1193" from-port="1" to-layer="1194" to-port="1" />
		<edge from-layer="1194" from-port="2" to-layer="1195" to-port="0" />
		<edge from-layer="1195" from-port="1" to-layer="1198" to-port="0" />
		<edge from-layer="1196" from-port="0" to-layer="1197" to-port="0" />
		<edge from-layer="1197" from-port="1" to-layer="1198" to-port="1" />
		<edge from-layer="1198" from-port="2" to-layer="1201" to-port="0" />
		<edge from-layer="1199" from-port="0" to-layer="1200" to-port="0" />
		<edge from-layer="1200" from-port="1" to-layer="1201" to-port="1" />
		<edge from-layer="1201" from-port="2" to-layer="1202" to-port="0" />
		<edge from-layer="1202" from-port="1" to-layer="1203" to-port="1" />
		<edge from-layer="1203" from-port="2" to-layer="1211" to-port="0" />
		<edge from-layer="1204" from-port="0" to-layer="1205" to-port="0" />
		<edge from-layer="1205" from-port="1" to-layer="1206" to-port="1" />
		<edge from-layer="1206" from-port="2" to-layer="1209" to-port="0" />
		<edge from-layer="1207" from-port="0" to-layer="1208" to-port="0" />
		<edge from-layer="1208" from-port="1" to-layer="1209" to-port="1" />
		<edge from-layer="1209" from-port="2" to-layer="1210" to-port="0" />
		<edge from-layer="1210" from-port="1" to-layer="1211" to-port="1" />
		<edge from-layer="1211" from-port="2" to-layer="1214" to-port="0" />
		<edge from-layer="1212" from-port="0" to-layer="1213" to-port="0" />
		<edge from-layer="1213" from-port="1" to-layer="1214" to-port="1" />
		<edge from-layer="1214" from-port="2" to-layer="1217" to-port="0" />
		<edge from-layer="1215" from-port="0" to-layer="1216" to-port="0" />
		<edge from-layer="1216" from-port="1" to-layer="1217" to-port="1" />
		<edge from-layer="1217" from-port="2" to-layer="1218" to-port="0" />
		<edge from-layer="1218" from-port="1" to-layer="1221" to-port="0" />
		<edge from-layer="1219" from-port="0" to-layer="1220" to-port="0" />
		<edge from-layer="1220" from-port="1" to-layer="1221" to-port="1" />
		<edge from-layer="1221" from-port="2" to-layer="1223" to-port="0" />
		<edge from-layer="1222" from-port="0" to-layer="1223" to-port="1" />
		<edge from-layer="1223" from-port="2" to-layer="1224" to-port="0" />
		<edge from-layer="1224" from-port="1" to-layer="1277" to-port="0" />
		<edge from-layer="1224" from-port="1" to-layer="1227" to-port="0" />
		<edge from-layer="1224" from-port="1" to-layer="1297" to-port="2" />
		<edge from-layer="1225" from-port="0" to-layer="1226" to-port="0" />
		<edge from-layer="1226" from-port="1" to-layer="1227" to-port="1" />
		<edge from-layer="1227" from-port="2" to-layer="1230" to-port="0" />
		<edge from-layer="1228" from-port="0" to-layer="1229" to-port="0" />
		<edge from-layer="1229" from-port="1" to-layer="1230" to-port="1" />
		<edge from-layer="1230" from-port="2" to-layer="1231" to-port="0" />
		<edge from-layer="1231" from-port="1" to-layer="1245" to-port="0" />
		<edge from-layer="1231" from-port="1" to-layer="1234" to-port="0" />
		<edge from-layer="1232" from-port="0" to-layer="1233" to-port="0" />
		<edge from-layer="1233" from-port="1" to-layer="1234" to-port="1" />
		<edge from-layer="1234" from-port="2" to-layer="1236" to-port="0" />
		<edge from-layer="1235" from-port="0" to-layer="1236" to-port="1" />
		<edge from-layer="1236" from-port="2" to-layer="1237" to-port="0" />
		<edge from-layer="1237" from-port="1" to-layer="1240" to-port="0" />
		<edge from-layer="1238" from-port="0" to-layer="1239" to-port="0" />
		<edge from-layer="1239" from-port="1" to-layer="1240" to-port="1" />
		<edge from-layer="1240" from-port="2" to-layer="1243" to-port="0" />
		<edge from-layer="1241" from-port="0" to-layer="1242" to-port="0" />
		<edge from-layer="1242" from-port="1" to-layer="1243" to-port="1" />
		<edge from-layer="1243" from-port="2" to-layer="1244" to-port="0" />
		<edge from-layer="1244" from-port="1" to-layer="1245" to-port="1" />
		<edge from-layer="1245" from-port="2" to-layer="1248" to-port="0" />
		<edge from-layer="1245" from-port="2" to-layer="1259" to-port="0" />
		<edge from-layer="1246" from-port="0" to-layer="1247" to-port="0" />
		<edge from-layer="1247" from-port="1" to-layer="1248" to-port="1" />
		<edge from-layer="1248" from-port="2" to-layer="1251" to-port="0" />
		<edge from-layer="1249" from-port="0" to-layer="1250" to-port="0" />
		<edge from-layer="1250" from-port="1" to-layer="1251" to-port="1" />
		<edge from-layer="1251" from-port="2" to-layer="1252" to-port="0" />
		<edge from-layer="1252" from-port="1" to-layer="1255" to-port="0" />
		<edge from-layer="1253" from-port="0" to-layer="1254" to-port="0" />
		<edge from-layer="1254" from-port="1" to-layer="1255" to-port="1" />
		<edge from-layer="1255" from-port="2" to-layer="1257" to-port="0" />
		<edge from-layer="1256" from-port="0" to-layer="1257" to-port="1" />
		<edge from-layer="1257" from-port="2" to-layer="1258" to-port="0" />
		<edge from-layer="1258" from-port="1" to-layer="1259" to-port="1" />
		<edge from-layer="1259" from-port="2" to-layer="1262" to-port="0" />
		<edge from-layer="1259" from-port="2" to-layer="1274" to-port="0" />
		<edge from-layer="1260" from-port="0" to-layer="1261" to-port="0" />
		<edge from-layer="1261" from-port="1" to-layer="1262" to-port="1" />
		<edge from-layer="1262" from-port="2" to-layer="1265" to-port="0" />
		<edge from-layer="1263" from-port="0" to-layer="1264" to-port="0" />
		<edge from-layer="1264" from-port="1" to-layer="1265" to-port="1" />
		<edge from-layer="1265" from-port="2" to-layer="1266" to-port="0" />
		<edge from-layer="1266" from-port="1" to-layer="1269" to-port="0" />
		<edge from-layer="1267" from-port="0" to-layer="1268" to-port="0" />
		<edge from-layer="1268" from-port="1" to-layer="1269" to-port="1" />
		<edge from-layer="1269" from-port="2" to-layer="1272" to-port="0" />
		<edge from-layer="1270" from-port="0" to-layer="1271" to-port="0" />
		<edge from-layer="1271" from-port="1" to-layer="1272" to-port="1" />
		<edge from-layer="1272" from-port="2" to-layer="1273" to-port="0" />
		<edge from-layer="1273" from-port="1" to-layer="1274" to-port="1" />
		<edge from-layer="1274" from-port="2" to-layer="1282" to-port="0" />
		<edge from-layer="1275" from-port="0" to-layer="1276" to-port="0" />
		<edge from-layer="1276" from-port="1" to-layer="1277" to-port="1" />
		<edge from-layer="1277" from-port="2" to-layer="1280" to-port="0" />
		<edge from-layer="1278" from-port="0" to-layer="1279" to-port="0" />
		<edge from-layer="1279" from-port="1" to-layer="1280" to-port="1" />
		<edge from-layer="1280" from-port="2" to-layer="1281" to-port="0" />
		<edge from-layer="1281" from-port="1" to-layer="1282" to-port="1" />
		<edge from-layer="1282" from-port="2" to-layer="1285" to-port="0" />
		<edge from-layer="1283" from-port="0" to-layer="1284" to-port="0" />
		<edge from-layer="1284" from-port="1" to-layer="1285" to-port="1" />
		<edge from-layer="1285" from-port="2" to-layer="1288" to-port="0" />
		<edge from-layer="1286" from-port="0" to-layer="1287" to-port="0" />
		<edge from-layer="1287" from-port="1" to-layer="1288" to-port="1" />
		<edge from-layer="1288" from-port="2" to-layer="1289" to-port="0" />
		<edge from-layer="1289" from-port="1" to-layer="1292" to-port="0" />
		<edge from-layer="1290" from-port="0" to-layer="1291" to-port="0" />
		<edge from-layer="1291" from-port="1" to-layer="1292" to-port="1" />
		<edge from-layer="1292" from-port="2" to-layer="1295" to-port="0" />
		<edge from-layer="1293" from-port="0" to-layer="1294" to-port="0" />
		<edge from-layer="1294" from-port="1" to-layer="1295" to-port="1" />
		<edge from-layer="1295" from-port="2" to-layer="1296" to-port="0" />
		<edge from-layer="1296" from-port="1" to-layer="1297" to-port="3" />
		<edge from-layer="1297" from-port="4" to-layer="1300" to-port="0" />
		<edge from-layer="1298" from-port="0" to-layer="1299" to-port="0" />
		<edge from-layer="1299" from-port="1" to-layer="1300" to-port="1" />
		<edge from-layer="1300" from-port="2" to-layer="1302" to-port="0" />
		<edge from-layer="1301" from-port="0" to-layer="1302" to-port="1" />
		<edge from-layer="1302" from-port="2" to-layer="1303" to-port="0" />
		<edge from-layer="1303" from-port="1" to-layer="1306" to-port="0" />
		<edge from-layer="1303" from-port="1" to-layer="1325" to-port="0" />
		<edge from-layer="1304" from-port="0" to-layer="1305" to-port="0" />
		<edge from-layer="1305" from-port="1" to-layer="1306" to-port="1" />
		<edge from-layer="1306" from-port="2" to-layer="1308" to-port="0" />
		<edge from-layer="1307" from-port="0" to-layer="1308" to-port="1" />
		<edge from-layer="1308" from-port="2" to-layer="1309" to-port="0" />
		<edge from-layer="1309" from-port="1" to-layer="1312" to-port="0" />
		<edge from-layer="1310" from-port="0" to-layer="1311" to-port="0" />
		<edge from-layer="1311" from-port="1" to-layer="1312" to-port="1" />
		<edge from-layer="1312" from-port="2" to-layer="1315" to-port="0" />
		<edge from-layer="1313" from-port="0" to-layer="1314" to-port="0" />
		<edge from-layer="1314" from-port="1" to-layer="1315" to-port="1" />
		<edge from-layer="1315" from-port="2" to-layer="1316" to-port="0" />
		<edge from-layer="1316" from-port="1" to-layer="1319" to-port="0" />
		<edge from-layer="1317" from-port="0" to-layer="1318" to-port="0" />
		<edge from-layer="1318" from-port="1" to-layer="1319" to-port="1" />
		<edge from-layer="1319" from-port="2" to-layer="1322" to-port="0" />
		<edge from-layer="1320" from-port="0" to-layer="1321" to-port="0" />
		<edge from-layer="1321" from-port="1" to-layer="1322" to-port="1" />
		<edge from-layer="1322" from-port="2" to-layer="1343" to-port="0" />
		<edge from-layer="1323" from-port="0" to-layer="1324" to-port="0" />
		<edge from-layer="1324" from-port="1" to-layer="1325" to-port="1" />
		<edge from-layer="1325" from-port="2" to-layer="1328" to-port="0" />
		<edge from-layer="1326" from-port="0" to-layer="1327" to-port="0" />
		<edge from-layer="1327" from-port="1" to-layer="1328" to-port="1" />
		<edge from-layer="1328" from-port="2" to-layer="1329" to-port="0" />
		<edge from-layer="1329" from-port="1" to-layer="1332" to-port="0" />
		<edge from-layer="1330" from-port="0" to-layer="1331" to-port="0" />
		<edge from-layer="1331" from-port="1" to-layer="1332" to-port="1" />
		<edge from-layer="1332" from-port="2" to-layer="1335" to-port="0" />
		<edge from-layer="1333" from-port="0" to-layer="1334" to-port="0" />
		<edge from-layer="1334" from-port="1" to-layer="1335" to-port="1" />
		<edge from-layer="1335" from-port="2" to-layer="1336" to-port="0" />
		<edge from-layer="1336" from-port="1" to-layer="1339" to-port="0" />
		<edge from-layer="1337" from-port="0" to-layer="1338" to-port="0" />
		<edge from-layer="1338" from-port="1" to-layer="1339" to-port="1" />
		<edge from-layer="1339" from-port="2" to-layer="1342" to-port="0" />
		<edge from-layer="1340" from-port="0" to-layer="1341" to-port="0" />
		<edge from-layer="1341" from-port="1" to-layer="1342" to-port="1" />
		<edge from-layer="1342" from-port="2" to-layer="1343" to-port="1" />
		<edge from-layer="1343" from-port="2" to-layer="1344" to-port="0" />
		<edge from-layer="1344" from-port="2" to-layer="1345" to-port="2" />
		<edge from-layer="1345" from-port="3" to-layer="1348" to-port="0" />
		<edge from-layer="1346" from-port="0" to-layer="1348" to-port="1" />
		<edge from-layer="1347" from-port="0" to-layer="1348" to-port="2" />
		<edge from-layer="1348" from-port="3" to-layer="1350" to-port="0" />
		<edge from-layer="1348" from-port="4" to-layer="1373" to-port="0" />
		<edge from-layer="1349" from-port="0" to-layer="1350" to-port="1" />
		<edge from-layer="1350" from-port="2" to-layer="1352" to-port="0" />
		<edge from-layer="1351" from-port="0" to-layer="1352" to-port="1" />
		<edge from-layer="1352" from-port="2" to-layer="1353" to-port="0" />
		<edge from-layer="1353" from-port="1" to-layer="1356" to-port="0" />
		<edge from-layer="1354" from-port="0" to-layer="1355" to-port="0" />
		<edge from-layer="1355" from-port="1" to-layer="1356" to-port="1" />
		<edge from-layer="1356" from-port="2" to-layer="1358" to-port="0" />
		<edge from-layer="1357" from-port="0" to-layer="1358" to-port="1" />
		<edge from-layer="1358" from-port="2" to-layer="1361" to-port="0" />
		<edge from-layer="1359" from-port="0" to-layer="1361" to-port="1" />
		<edge from-layer="1360" from-port="0" to-layer="1361" to-port="2" />
		<edge from-layer="1361" from-port="3" to-layer="1362" to-port="1" />
		<edge from-layer="1361" from-port="4" to-layer="1363" to-port="1" />
		<edge from-layer="1362" from-port="2" to-layer="1364" to-port="0" />
		<edge from-layer="1362" from-port="2" to-layer="1368" to-port="1" />
		<edge from-layer="1363" from-port="2" to-layer="1364" to-port="1" />
		<edge from-layer="1363" from-port="2" to-layer="1368" to-port="0" />
		<edge from-layer="1364" from-port="2" to-layer="1367" to-port="0" />
		<edge from-layer="1365" from-port="0" to-layer="1366" to-port="0" />
		<edge from-layer="1366" from-port="1" to-layer="1367" to-port="1" />
		<edge from-layer="1367" from-port="2" to-layer="1369" to-port="0" />
		<edge from-layer="1368" from-port="2" to-layer="1369" to-port="1" />
		<edge from-layer="1369" from-port="2" to-layer="1372" to-port="0" />
		<edge from-layer="1370" from-port="0" to-layer="1371" to-port="0" />
		<edge from-layer="1371" from-port="1" to-layer="1372" to-port="1" />
		<edge from-layer="1372" from-port="2" to-layer="1374" to-port="0" />
		<edge from-layer="1373" from-port="1" to-layer="1374" to-port="1" />
		<edge from-layer="1374" from-port="2" to-layer="1376" to-port="0" />
		<edge from-layer="1375" from-port="0" to-layer="1376" to-port="1" />
		<edge from-layer="1376" from-port="2" to-layer="1378" to-port="0" />
		<edge from-layer="1376" from-port="2" to-layer="1379" to-port="0" />
		<edge from-layer="1376" from-port="2" to-layer="1391" to-port="0" />
		<edge from-layer="1376" from-port="2" to-layer="1381" to-port="0" />
		<edge from-layer="1376" from-port="2" to-layer="1383" to-port="0" />
		<edge from-layer="1377" from-port="0" to-layer="1381" to-port="4" />
		<edge from-layer="1377" from-port="0" to-layer="1391" to-port="4" />
		<edge from-layer="1377" from-port="0" to-layer="1381" to-port="1" />
		<edge from-layer="1377" from-port="0" to-layer="1383" to-port="4" />
		<edge from-layer="1377" from-port="0" to-layer="1385" to-port="1" />
		<edge from-layer="1377" from-port="0" to-layer="1389" to-port="1" />
		<edge from-layer="1377" from-port="0" to-layer="1379" to-port="4" />
		<edge from-layer="1377" from-port="0" to-layer="1379" to-port="2" />
		<edge from-layer="1377" from-port="0" to-layer="1378" to-port="4" />
		<edge from-layer="1378" from-port="5" to-layer="1384" to-port="0" />
		<edge from-layer="1379" from-port="5" to-layer="1384" to-port="1" />
		<edge from-layer="1380" from-port="0" to-layer="1381" to-port="2" />
		<edge from-layer="1380" from-port="0" to-layer="1383" to-port="1" />
		<edge from-layer="1381" from-port="5" to-layer="1384" to-port="2" />
		<edge from-layer="1382" from-port="0" to-layer="1391" to-port="1" />
		<edge from-layer="1382" from-port="0" to-layer="1383" to-port="2" />
		<edge from-layer="1383" from-port="5" to-layer="1384" to-port="3" />
		<edge from-layer="1384" from-port="4" to-layer="1385" to-port="0" />
		<edge from-layer="1385" from-port="2" to-layer="1388" to-port="0" />
		<edge from-layer="1386" from-port="0" to-layer="1387" to-port="0" />
		<edge from-layer="1387" from-port="1" to-layer="1388" to-port="1" />
		<edge from-layer="1388" from-port="2" to-layer="1389" to-port="0" />
		<edge from-layer="1389" from-port="2" to-layer="1398" to-port="0" />
		<edge from-layer="1389" from-port="2" to-layer="1413" to-port="0" />
		<edge from-layer="1390" from-port="0" to-layer="1391" to-port="2" />
		<edge from-layer="1391" from-port="5" to-layer="1393" to-port="0" />
		<edge from-layer="1391" from-port="5" to-layer="1400" to-port="0" />
		<edge from-layer="1392" from-port="0" to-layer="1393" to-port="1" />
		<edge from-layer="1393" from-port="3" to-layer="1394" to-port="0" />
		<edge from-layer="1393" from-port="3" to-layer="1423" to-port="0" />
		<edge from-layer="1394" from-port="1" to-layer="1397" to-port="0" />
		<edge from-layer="1395" from-port="0" to-layer="1396" to-port="0" />
		<edge from-layer="1396" from-port="1" to-layer="1397" to-port="1" />
		<edge from-layer="1397" from-port="2" to-layer="1398" to-port="1" />
		<edge from-layer="1398" from-port="2" to-layer="1406" to-port="0" />
		<edge from-layer="1399" from-port="0" to-layer="1400" to-port="1" />
		<edge from-layer="1400" from-port="2" to-layer="1402" to-port="0" />
		<edge from-layer="1400" from-port="2" to-layer="1428" to-port="0" />
		<edge from-layer="1401" from-port="0" to-layer="1402" to-port="1" />
		<edge from-layer="1402" from-port="2" to-layer="1406" to-port="1" />
		<edge from-layer="1403" from-port="0" to-layer="1406" to-port="2" />
		<edge from-layer="1404" from-port="0" to-layer="1406" to-port="3" />
		<edge from-layer="1405" from-port="0" to-layer="1406" to-port="4" />
		<edge from-layer="1406" from-port="5" to-layer="1409" to-port="0" />
		<edge from-layer="1406" from-port="5" to-layer="1416" to-port="0" />
		<edge from-layer="1407" from-port="0" to-layer="1409" to-port="1" />
		<edge from-layer="1408" from-port="0" to-layer="1409" to-port="2" />
		<edge from-layer="1409" from-port="3" to-layer="1410" to-port="0" />
		<edge from-layer="1409" from-port="3" to-layer="1418" to-port="0" />
		<edge from-layer="1410" from-port="2" to-layer="1411" to-port="0" />
		<edge from-layer="1411" from-port="1" to-layer="1431" to-port="0" />
		<edge from-layer="1412" from-port="0" to-layer="1413" to-port="1" />
		<edge from-layer="1413" from-port="2" to-layer="1421" to-port="0" />
		<edge from-layer="1414" from-port="0" to-layer="1416" to-port="1" />
		<edge from-layer="1415" from-port="0" to-layer="1416" to-port="2" />
		<edge from-layer="1416" from-port="3" to-layer="1419" to-port="0" />
		<edge from-layer="1417" from-port="0" to-layer="1418" to-port="1" />
		<edge from-layer="1418" from-port="2" to-layer="1419" to-port="1" />
		<edge from-layer="1419" from-port="2" to-layer="1421" to-port="1" />
		<edge from-layer="1419" from-port="2" to-layer="1425" to-port="1" />
		<edge from-layer="1419" from-port="2" to-layer="1430" to-port="1" />
		<edge from-layer="1420" from-port="0" to-layer="1421" to-port="2" />
		<edge from-layer="1421" from-port="3" to-layer="1431" to-port="1" />
		<edge from-layer="1422" from-port="0" to-layer="1423" to-port="1" />
		<edge from-layer="1423" from-port="2" to-layer="1425" to-port="0" />
		<edge from-layer="1424" from-port="0" to-layer="1425" to-port="2" />
		<edge from-layer="1425" from-port="3" to-layer="1426" to-port="0" />
		<edge from-layer="1426" from-port="1" to-layer="1431" to-port="2" />
		<edge from-layer="1427" from-port="0" to-layer="1428" to-port="1" />
		<edge from-layer="1428" from-port="2" to-layer="1430" to-port="0" />
		<edge from-layer="1429" from-port="0" to-layer="1430" to-port="2" />
		<edge from-layer="1430" from-port="3" to-layer="1431" to-port="3" />
		<edge from-layer="1431" from-port="4" to-layer="1432" to-port="0" />
	</edges>
	<rt_info>
		<info name="OpenVINO Runtime" value="2026.2.1-21919-ede283a88e3-releases/2026/2" />
		<Runtime_version value="2026.2.1-21919-ede283a88e3-releases/2026/2" />
		<conversion_parameters>
			<input_model value="DIR/yolo-v9-t-256-license-plates.onnx" />
			<is_python_object value="False" />
		</conversion_parameters>
	</rt_info>
</net>
