<?xml version="1.0"?>
<net name="onnx_Frontend_IR" version="11">
	<layers>
		<layer id="0" name="input" type="Parameter" version="opset1">
			<data shape="?,64,128,3" element_type="u8" />
			<rt_info>
				<attribute name="old_api_map_element_type" version="0" value="f32" />
			</rt_info>
			<output>
				<port id="0" precision="U8" names="input">
					<dim>-1</dim>
					<dim>64</dim>
					<dim>128</dim>
					<dim>3</dim>
				</port>
			</output>
		</layer>
		<layer id="1" name="Constant_97864" type="Const" version="opset1">
			<data element_type="f32" shape="1, 1, 1" offset="0" size="4" />
			<output>
				<port id="0" precision="FP32">
					<dim>1</dim>
					<dim>1</dim>
					<dim>1</dim>
				</port>
			</output>
		</layer>
		<layer id="2" name="CCT_OCR_1/Cast" type="Convert" version="opset1">
			<data destination_type="f32" />
			<input>
				<port id="0" precision="U8">
					<dim>-1</dim>
					<dim>64</dim>
					<dim>128</dim>
					<dim>3</dim>
				</port>
			</input>
			<output>
				<port id="1" precision="FP32" names="CCT_OCR_1/Cast:0">
					<dim>-1</dim>
					<dim>64</dim>
					<dim>128</dim>
					<dim>3</dim>
				</port>
			</output>
		</layer>
		<layer id="3" name="Constant_97817_compressed" type="Const" version="opset1">
			<data element_type="f16" shape="1, 1, 1, 1" offset="4" size="2" />
			<output>
				<port id="0" precision="FP16">
					<dim>1</dim>
					<dim>1</dim>
					<dim>1</dim>
					<dim>1</dim>
				</port>
			</output>
		</layer>
		<layer id="4" name="Constant_97817" type="Convert" version="opset1">
			<data destination_type="f32" />
			<rt_info>
				<attribute name="decompression" version="0" />
			</rt_info>
			<input>
				<port id="0" precision="FP16">
					<dim>1</dim>
					<dim>1</dim>
					<dim>1</dim>
					<dim>1</dim>
				</port>
			</input>
			<output>
				<port id="1" precision="FP32">
					<dim>1</dim>
					<dim>1</dim>
					<dim>1</dim>
					<dim>1</dim>
				</port>
			</output>
		</layer>
		<layer id="5" name="CCT_OCR_1/rescaling_1/mul" type="Multiply" version="opset1">
			<data auto_broadcast="numpy" />
			<input>
				<port id="0" precision="FP32">
					<dim>-1</dim>
					<dim>64</dim>
					<dim>128</dim>
					<dim>3</dim>
				</port>
				<port id="1" precision="FP32">
					<dim>1</dim>
					<dim>1</dim>
					<dim>1</dim>
					<dim>1</dim>
				</port>
			</input>
			<output>
				<port id="2" precision="FP32" names="CCT_OCR_1/rescaling_1/add:0">
					<dim>-1</dim>
					<dim>64</dim>
					<dim>128</dim>
					<dim>3</dim>
				</port>
			</output>
		</layer>
		<layer id="6" name="Constant_92022" type="Const" version="opset1">
			<data element_type="i64" shape="4" offset="6" size="32" />
			<output>
				<port id="0" precision="I64">
					<dim>4</dim>
				</port>
			</output>
		</layer>
		<layer id="7" name="CCT_OCR_1/conv_stem_1/conv2d_1/BiasAdd__366" type="Transpose" version="opset1">
			<input>
				<port id="0" precision="FP32">
					<dim>-1</dim>
					<dim>64</dim>
					<dim>128</dim>
					<dim>3</dim>
				</port>
				<port id="1" precision="I64">
					<dim>4</dim>
				</port>
			</input>
			<output>
				<port id="2" precision="FP32" names="CCT_OCR_1/conv_stem_1/conv2d_1/BiasAdd__366:0">
					<dim>-1</dim>
					<dim>3</dim>
					<dim>64</dim>
					<dim>128</dim>
				</port>
			</output>
		</layer>
		<layer id="8" name="CCT_OCR_1/conv_stem_1/conv2d_1/convolution/ReadVariableOp:0_compressed" type="Const" version="opset1">
			<data element_type="f16" shape="32, 3, 3, 3" offset="38" size="1728" />
			<output>
				<port id="0" precision="FP16" names="CCT_OCR_1/conv_stem_1/conv2d_1/convolution/ReadVariableOp:0">
					<dim>32</dim>
					<dim>3</dim>
					<dim>3</dim>
					<dim>3</dim>
				</port>
			</output>
		</layer>
		<layer id="9" name="CCT_OCR_1/conv_stem_1/conv2d_1/convolution/ReadVariableOp:0" type="Convert" version="opset1">
			<data destination_type="f32" />
			<rt_info>
				<attribute name="decompression" version="0" />
			</rt_info>
			<input>
				<port id="0" precision="FP16">
					<dim>32</dim>
					<dim>3</dim>
					<dim>3</dim>
					<dim>3</dim>
				</port>
			</input>
			<output>
				<port id="1" precision="FP32">
					<dim>32</dim>
					<dim>3</dim>
					<dim>3</dim>
					<dim>3</dim>
				</port>
			</output>
		</layer>
		<layer id="10" name="CCT_OCR_1/conv_stem_1/conv2d_1/BiasAdd/WithoutBiases" type="Convolution" version="opset1">
			<data strides="1, 1" dilations="1, 1" pads_begin="0, 0" pads_end="0, 0" auto_pad="explicit" />
			<input>
				<port id="0" precision="FP32">
					<dim>-1</dim>
					<dim>3</dim>
					<dim>64</dim>
					<dim>128</dim>
				</port>
				<port id="1" precision="FP32">
					<dim>32</dim>
					<dim>3</dim>
					<dim>3</dim>
					<dim>3</dim>
				</port>
			</input>
			<output>
				<port id="2" precision="FP32">
					<dim>-1</dim>
					<dim>32</dim>
					<dim>62</dim>
					<dim>126</dim>
				</port>
			</output>
		</layer>
		<layer id="11" name="Reshape_92037_compressed" type="Const" version="opset1">
			<data element_type="f16" shape="1, 32, 1, 1" offset="1766" size="64" />
			<output>
				<port id="0" precision="FP16">
					<dim>1</dim>
					<dim>32</dim>
					<dim>1</dim>
					<dim>1</dim>
				</port>
			</output>
		</layer>
		<layer id="12" name="Reshape_92037" type="Convert" version="opset1">
			<data destination_type="f32" />
			<rt_info>
				<attribute name="decompression" version="0" />
			</rt_info>
			<input>
				<port id="0" precision="FP16">
					<dim>1</dim>
					<dim>32</dim>
					<dim>1</dim>
					<dim>1</dim>
				</port>
			</input>
			<output>
				<port id="1" precision="FP32">
					<dim>1</dim>
					<dim>32</dim>
					<dim>1</dim>
					<dim>1</dim>
				</port>
			</output>
		</layer>
		<layer id="13" name="CCT_OCR_1/conv_stem_1/conv2d_1/BiasAdd" type="Add" version="opset1">
			<data auto_broadcast="numpy" />
			<input>
				<port id="0" precision="FP32">
					<dim>-1</dim>
					<dim>32</dim>
					<dim>62</dim>
					<dim>126</dim>
				</port>
				<port id="1" precision="FP32">
					<dim>1</dim>
					<dim>32</dim>
					<dim>1</dim>
					<dim>1</dim>
				</port>
			</input>
			<output>
				<port id="2" precision="FP32" names="CCT_OCR_1/conv_stem_1/conv2d_1/BiasAdd:0">
					<dim>-1</dim>
					<dim>32</dim>
					<dim>62</dim>
					<dim>126</dim>
				</port>
			</output>
		</layer>
		<layer id="14" name="CCT_OCR_1/conv_stem_1/conv2d_1/mul_1" type="Swish" version="opset4">
			<input>
				<port id="0" precision="FP32">
					<dim>-1</dim>
					<dim>32</dim>
					<dim>62</dim>
					<dim>126</dim>
				</port>
			</input>
			<output>
				<port id="1" precision="FP32" names="CCT_OCR_1/conv_stem_1/conv2d_1/mul_1:0">
					<dim>-1</dim>
					<dim>32</dim>
					<dim>62</dim>
					<dim>126</dim>
				</port>
			</output>
		</layer>
		<layer id="15" name="CCT_OCR_1/conv_stem_1/max_blur_pooling2d_1/MaxPool2d" type="MaxPool" version="opset8">
			<data strides="1, 1" dilations="1, 1" pads_begin="0, 0" pads_end="1, 1" kernel="2, 2" rounding_type="floor" auto_pad="explicit" index_element_type="i64" axis="0" />
			<input>
				<port id="0" precision="FP32">
					<dim>-1</dim>
					<dim>32</dim>
					<dim>62</dim>
					<dim>126</dim>
				</port>
			</input>
			<output>
				<port id="1" precision="FP32" names="CCT_OCR_1/conv_stem_1/max_blur_pooling2d_1/MaxPool2d:0">
					<dim>-1</dim>
					<dim>32</dim>
					<dim>62</dim>
					<dim>126</dim>
				</port>
				<port id="2" precision="I64">
					<dim>-1</dim>
					<dim>32</dim>
					<dim>62</dim>
					<dim>126</dim>
				</port>
			</output>
		</layer>
		<layer id="16" name="Reshape_92051_compressed" type="Const" version="opset1">
			<data element_type="f16" shape="32, 1, 1, 3, 3" offset="1830" size="576" />
			<output>
				<port id="0" precision="FP16">
					<dim>32</dim>
					<dim>1</dim>
					<dim>1</dim>
					<dim>3</dim>
					<dim>3</dim>
				</port>
			</output>
		</layer>
		<layer id="17" name="Reshape_92051" type="Convert" version="opset1">
			<data destination_type="f32" />
			<rt_info>
				<attribute name="decompression" version="0" />
			</rt_info>
			<input>
				<port id="0" precision="FP16">
					<dim>32</dim>
					<dim>1</dim>
					<dim>1</dim>
					<dim>3</dim>
					<dim>3</dim>
				</port>
			</input>
			<output>
				<port id="1" precision="FP32">
					<dim>32</dim>
					<dim>1</dim>
					<dim>1</dim>
					<dim>3</dim>
					<dim>3</dim>
				</port>
			</output>
		</layer>
		<layer id="18" name="CCT_OCR_1/conv_stem_1/max_blur_pooling2d_1/depthwise" type="GroupConvolution" version="opset1">
			<data strides="2, 2" pads_begin="0, 0" pads_end="1, 1" dilations="1, 1" auto_pad="explicit" />
			<input>
				<port id="0" precision="FP32">
					<dim>-1</dim>
					<dim>32</dim>
					<dim>62</dim>
					<dim>126</dim>
				</port>
				<port id="1" precision="FP32">
					<dim>32</dim>
					<dim>1</dim>
					<dim>1</dim>
					<dim>3</dim>
					<dim>3</dim>
				</port>
			</input>
			<output>
				<port id="2" precision="FP32" names="CCT_OCR_1/conv_stem_1/max_blur_pooling2d_1/depthwise:0">
					<dim>-1</dim>
					<dim>32</dim>
					<dim>31</dim>
					<dim>63</dim>
				</port>
			</output>
		</layer>
		<layer id="19" name="CCT_OCR_1/conv_stem_1/conv2d_1_2/convolution/ReadVariableOp:0_compressed" type="Const" version="opset1">
			<data element_type="f16" shape="48, 32, 3, 3" offset="2406" size="27648" />
			<output>
				<port id="0" precision="FP16" names="CCT_OCR_1/conv_stem_1/conv2d_1_2/convolution/ReadVariableOp:0">
					<dim>48</dim>
					<dim>32</dim>
					<dim>3</dim>
					<dim>3</dim>
				</port>
			</output>
		</layer>
		<layer id="20" name="CCT_OCR_1/conv_stem_1/conv2d_1_2/convolution/ReadVariableOp:0" type="Convert" version="opset1">
			<data destination_type="f32" />
			<rt_info>
				<attribute name="decompression" version="0" />
			</rt_info>
			<input>
				<port id="0" precision="FP16">
					<dim>48</dim>
					<dim>32</dim>
					<dim>3</dim>
					<dim>3</dim>
				</port>
			</input>
			<output>
				<port id="1" precision="FP32">
					<dim>48</dim>
					<dim>32</dim>
					<dim>3</dim>
					<dim>3</dim>
				</port>
			</output>
		</layer>
		<layer id="21" name="CCT_OCR_1/conv_stem_1/conv2d_1_2/BiasAdd/WithoutBiases" type="Convolution" version="opset1">
			<data strides="1, 1" dilations="1, 1" pads_begin="0, 0" pads_end="0, 0" auto_pad="explicit" />
			<input>
				<port id="0" precision="FP32">
					<dim>-1</dim>
					<dim>32</dim>
					<dim>31</dim>
					<dim>63</dim>
				</port>
				<port id="1" precision="FP32">
					<dim>48</dim>
					<dim>32</dim>
					<dim>3</dim>
					<dim>3</dim>
				</port>
			</input>
			<output>
				<port id="2" precision="FP32">
					<dim>-1</dim>
					<dim>48</dim>
					<dim>29</dim>
					<dim>61</dim>
				</port>
			</output>
		</layer>
		<layer id="22" name="Reshape_92104" type="Const" version="opset1">
			<data element_type="f32" shape="1, 48, 1, 1" offset="30054" size="192" />
			<output>
				<port id="0" precision="FP32">
					<dim>1</dim>
					<dim>48</dim>
					<dim>1</dim>
					<dim>1</dim>
				</port>
			</output>
		</layer>
		<layer id="23" name="CCT_OCR_1/conv_stem_1/conv2d_1_2/BiasAdd" type="Add" version="opset1">
			<data auto_broadcast="numpy" />
			<input>
				<port id="0" precision="FP32">
					<dim>-1</dim>
					<dim>48</dim>
					<dim>29</dim>
					<dim>61</dim>
				</port>
				<port id="1" precision="FP32">
					<dim>1</dim>
					<dim>48</dim>
					<dim>1</dim>
					<dim>1</dim>
				</port>
			</input>
			<output>
				<port id="2" precision="FP32" names="CCT_OCR_1/conv_stem_1/conv2d_1_2/BiasAdd:0">
					<dim>-1</dim>
					<dim>48</dim>
					<dim>29</dim>
					<dim>61</dim>
				</port>
			</output>
		</layer>
		<layer id="24" name="CCT_OCR_1/conv_stem_1/conv2d_1_2/mul_1" type="Swish" version="opset4">
			<input>
				<port id="0" precision="FP32">
					<dim>-1</dim>
					<dim>48</dim>
					<dim>29</dim>
					<dim>61</dim>
				</port>
			</input>
			<output>
				<port id="1" precision="FP32" names="CCT_OCR_1/conv_stem_1/conv2d_1_2/mul_1:0">
					<dim>-1</dim>
					<dim>48</dim>
					<dim>29</dim>
					<dim>61</dim>
				</port>
			</output>
		</layer>
		<layer id="25" name="CCT_OCR_1/conv_stem_1/conv2d_2_1/convolution/ReadVariableOp:0_compressed" type="Const" version="opset1">
			<data element_type="f16" shape="64, 48, 3, 3" offset="30246" size="55296" />
			<output>
				<port id="0" precision="FP16" names="CCT_OCR_1/conv_stem_1/conv2d_2_1/convolution/ReadVariableOp:0">
					<dim>64</dim>
					<dim>48</dim>
					<dim>3</dim>
					<dim>3</dim>
				</port>
			</output>
		</layer>
		<layer id="26" name="CCT_OCR_1/conv_stem_1/conv2d_2_1/convolution/ReadVariableOp:0" type="Convert" version="opset1">
			<data destination_type="f32" />
			<rt_info>
				<attribute name="decompression" version="0" />
			</rt_info>
			<input>
				<port id="0" precision="FP16">
					<dim>64</dim>
					<dim>48</dim>
					<dim>3</dim>
					<dim>3</dim>
				</port>
			</input>
			<output>
				<port id="1" precision="FP32">
					<dim>64</dim>
					<dim>48</dim>
					<dim>3</dim>
					<dim>3</dim>
				</port>
			</output>
		</layer>
		<layer id="27" name="CCT_OCR_1/conv_stem_1/conv2d_2_1/BiasAdd/WithoutBiases" type="Convolution" version="opset1">
			<data strides="1, 1" dilations="1, 1" pads_begin="0, 0" pads_end="0, 0" auto_pad="explicit" />
			<input>
				<port id="0" precision="FP32">
					<dim>-1</dim>
					<dim>48</dim>
					<dim>29</dim>
					<dim>61</dim>
				</port>
				<port id="1" precision="FP32">
					<dim>64</dim>
					<dim>48</dim>
					<dim>3</dim>
					<dim>3</dim>
				</port>
			</input>
			<output>
				<port id="2" precision="FP32">
					<dim>-1</dim>
					<dim>64</dim>
					<dim>27</dim>
					<dim>59</dim>
				</port>
			</output>
		</layer>
		<layer id="28" name="Reshape_92121_compressed" type="Const" version="opset1">
			<data element_type="f16" shape="1, 64, 1, 1" offset="85542" size="128" />
			<output>
				<port id="0" precision="FP16">
					<dim>1</dim>
					<dim>64</dim>
					<dim>1</dim>
					<dim>1</dim>
				</port>
			</output>
		</layer>
		<layer id="29" name="Reshape_92121" type="Convert" version="opset1">
			<data destination_type="f32" />
			<rt_info>
				<attribute name="decompression" version="0" />
			</rt_info>
			<input>
				<port id="0" precision="FP16">
					<dim>1</dim>
					<dim>64</dim>
					<dim>1</dim>
					<dim>1</dim>
				</port>
			</input>
			<output>
				<port id="1" precision="FP32">
					<dim>1</dim>
					<dim>64</dim>
					<dim>1</dim>
					<dim>1</dim>
				</port>
			</output>
		</layer>
		<layer id="30" name="CCT_OCR_1/conv_stem_1/conv2d_2_1/BiasAdd" type="Add" version="opset1">
			<data auto_broadcast="numpy" />
			<input>
				<port id="0" precision="FP32">
					<dim>-1</dim>
					<dim>64</dim>
					<dim>27</dim>
					<dim>59</dim>
				</port>
				<port id="1" precision="FP32">
					<dim>1</dim>
					<dim>64</dim>
					<dim>1</dim>
					<dim>1</dim>
				</port>
			</input>
			<output>
				<port id="2" precision="FP32" names="CCT_OCR_1/conv_stem_1/conv2d_2_1/BiasAdd:0">
					<dim>-1</dim>
					<dim>64</dim>
					<dim>27</dim>
					<dim>59</dim>
				</port>
			</output>
		</layer>
		<layer id="31" name="CCT_OCR_1/conv_stem_1/conv2d_2_1/mul_1" type="Swish" version="opset4">
			<input>
				<port id="0" precision="FP32">
					<dim>-1</dim>
					<dim>64</dim>
					<dim>27</dim>
					<dim>59</dim>
				</port>
			</input>
			<output>
				<port id="1" precision="FP32" names="CCT_OCR_1/conv_stem_1/conv2d_2_1/mul_1:0">
					<dim>-1</dim>
					<dim>64</dim>
					<dim>27</dim>
					<dim>59</dim>
				</port>
			</output>
		</layer>
		<layer id="32" name="CCT_OCR_1/conv_stem_1/max_blur_pooling2d_1_2/MaxPool2d" type="MaxPool" version="opset8">
			<data strides="1, 1" dilations="1, 1" pads_begin="0, 0" pads_end="1, 1" kernel="2, 2" rounding_type="floor" auto_pad="explicit" index_element_type="i64" axis="0" />
			<input>
				<port id="0" precision="FP32">
					<dim>-1</dim>
					<dim>64</dim>
					<dim>27</dim>
					<dim>59</dim>
				</port>
			</input>
			<output>
				<port id="1" precision="FP32" names="CCT_OCR_1/conv_stem_1/max_blur_pooling2d_1_2/MaxPool2d:0">
					<dim>-1</dim>
					<dim>64</dim>
					<dim>27</dim>
					<dim>59</dim>
				</port>
				<port id="2" precision="I64">
					<dim>-1</dim>
					<dim>64</dim>
					<dim>27</dim>
					<dim>59</dim>
				</port>
			</output>
		</layer>
		<layer id="33" name="Reshape_92135_compressed" type="Const" version="opset1">
			<data element_type="f16" shape="64, 1, 1, 3, 3" offset="85670" size="1152" />
			<output>
				<port id="0" precision="FP16">
					<dim>64</dim>
					<dim>1</dim>
					<dim>1</dim>
					<dim>3</dim>
					<dim>3</dim>
				</port>
			</output>
		</layer>
		<layer id="34" name="Reshape_92135" type="Convert" version="opset1">
			<data destination_type="f32" />
			<rt_info>
				<attribute name="decompression" version="0" />
			</rt_info>
			<input>
				<port id="0" precision="FP16">
					<dim>64</dim>
					<dim>1</dim>
					<dim>1</dim>
					<dim>3</dim>
					<dim>3</dim>
				</port>
			</input>
			<output>
				<port id="1" precision="FP32">
					<dim>64</dim>
					<dim>1</dim>
					<dim>1</dim>
					<dim>3</dim>
					<dim>3</dim>
				</port>
			</output>
		</layer>
		<layer id="35" name="CCT_OCR_1/conv_stem_1/max_blur_pooling2d_1_2/depthwise" type="GroupConvolution" version="opset1">
			<data strides="2, 2" pads_begin="1, 1" pads_end="1, 1" dilations="1, 1" auto_pad="explicit" />
			<input>
				<port id="0" precision="FP32">
					<dim>-1</dim>
					<dim>64</dim>
					<dim>27</dim>
					<dim>59</dim>
				</port>
				<port id="1" precision="FP32">
					<dim>64</dim>
					<dim>1</dim>
					<dim>1</dim>
					<dim>3</dim>
					<dim>3</dim>
				</port>
			</input>
			<output>
				<port id="2" precision="FP32" names="CCT_OCR_1/conv_stem_1/max_blur_pooling2d_1_2/depthwise:0">
					<dim>-1</dim>
					<dim>64</dim>
					<dim>14</dim>
					<dim>30</dim>
				</port>
			</output>
		</layer>
		<layer id="36" name="CCT_OCR_1/conv_stem_1/conv2d_3_1/convolution/ReadVariableOp:0_compressed" type="Const" version="opset1">
			<data element_type="f16" shape="80, 64, 3, 3" offset="86822" size="92160" />
			<output>
				<port id="0" precision="FP16" names="CCT_OCR_1/conv_stem_1/conv2d_3_1/convolution/ReadVariableOp:0">
					<dim>80</dim>
					<dim>64</dim>
					<dim>3</dim>
					<dim>3</dim>
				</port>
			</output>
		</layer>
		<layer id="37" name="CCT_OCR_1/conv_stem_1/conv2d_3_1/convolution/ReadVariableOp:0" type="Convert" version="opset1">
			<data destination_type="f32" />
			<rt_info>
				<attribute name="decompression" version="0" />
			</rt_info>
			<input>
				<port id="0" precision="FP16">
					<dim>80</dim>
					<dim>64</dim>
					<dim>3</dim>
					<dim>3</dim>
				</port>
			</input>
			<output>
				<port id="1" precision="FP32">
					<dim>80</dim>
					<dim>64</dim>
					<dim>3</dim>
					<dim>3</dim>
				</port>
			</output>
		</layer>
		<layer id="38" name="CCT_OCR_1/conv_stem_1/conv2d_3_1/BiasAdd/WithoutBiases" type="Convolution" version="opset1">
			<data strides="1, 1" dilations="1, 1" pads_begin="0, 0" pads_end="0, 0" auto_pad="explicit" />
			<input>
				<port id="0" precision="FP32">
					<dim>-1</dim>
					<dim>64</dim>
					<dim>14</dim>
					<dim>30</dim>
				</port>
				<port id="1" precision="FP32">
					<dim>80</dim>
					<dim>64</dim>
					<dim>3</dim>
					<dim>3</dim>
				</port>
			</input>
			<output>
				<port id="2" precision="FP32">
					<dim>-1</dim>
					<dim>80</dim>
					<dim>12</dim>
					<dim>28</dim>
				</port>
			</output>
		</layer>
		<layer id="39" name="Reshape_92188_compressed" type="Const" version="opset1">
			<data element_type="f16" shape="1, 80, 1, 1" offset="178982" size="160" />
			<output>
				<port id="0" precision="FP16">
					<dim>1</dim>
					<dim>80</dim>
					<dim>1</dim>
					<dim>1</dim>
				</port>
			</output>
		</layer>
		<layer id="40" name="Reshape_92188" type="Convert" version="opset1">
			<data destination_type="f32" />
			<rt_info>
				<attribute name="decompression" version="0" />
			</rt_info>
			<input>
				<port id="0" precision="FP16">
					<dim>1</dim>
					<dim>80</dim>
					<dim>1</dim>
					<dim>1</dim>
				</port>
			</input>
			<output>
				<port id="1" precision="FP32">
					<dim>1</dim>
					<dim>80</dim>
					<dim>1</dim>
					<dim>1</dim>
				</port>
			</output>
		</layer>
		<layer id="41" name="CCT_OCR_1/conv_stem_1/conv2d_3_1/BiasAdd" type="Add" version="opset1">
			<data auto_broadcast="numpy" />
			<input>
				<port id="0" precision="FP32">
					<dim>-1</dim>
					<dim>80</dim>
					<dim>12</dim>
					<dim>28</dim>
				</port>
				<port id="1" precision="FP32">
					<dim>1</dim>
					<dim>80</dim>
					<dim>1</dim>
					<dim>1</dim>
				</port>
			</input>
			<output>
				<port id="2" precision="FP32" names="CCT_OCR_1/conv_stem_1/conv2d_3_1/BiasAdd:0">
					<dim>-1</dim>
					<dim>80</dim>
					<dim>12</dim>
					<dim>28</dim>
				</port>
			</output>
		</layer>
		<layer id="42" name="CCT_OCR_1/conv_stem_1/conv2d_3_1/mul_1" type="Swish" version="opset4">
			<input>
				<port id="0" precision="FP32">
					<dim>-1</dim>
					<dim>80</dim>
					<dim>12</dim>
					<dim>28</dim>
				</port>
			</input>
			<output>
				<port id="1" precision="FP32" names="CCT_OCR_1/conv_stem_1/conv2d_3_1/mul_1:0">
					<dim>-1</dim>
					<dim>80</dim>
					<dim>12</dim>
					<dim>28</dim>
				</port>
			</output>
		</layer>
		<layer id="43" name="CCT_OCR_1/conv_stem_1/conv2d_4_1/convolution/ReadVariableOp:0_compressed" type="Const" version="opset1">
			<data element_type="f16" shape="96, 80, 3, 3" offset="179142" size="138240" />
			<output>
				<port id="0" precision="FP16" names="CCT_OCR_1/conv_stem_1/conv2d_4_1/convolution/ReadVariableOp:0">
					<dim>96</dim>
					<dim>80</dim>
					<dim>3</dim>
					<dim>3</dim>
				</port>
			</output>
		</layer>
		<layer id="44" name="CCT_OCR_1/conv_stem_1/conv2d_4_1/convolution/ReadVariableOp:0" type="Convert" version="opset1">
			<data destination_type="f32" />
			<rt_info>
				<attribute name="decompression" version="0" />
			</rt_info>
			<input>
				<port id="0" precision="FP16">
					<dim>96</dim>
					<dim>80</dim>
					<dim>3</dim>
					<dim>3</dim>
				</port>
			</input>
			<output>
				<port id="1" precision="FP32">
					<dim>96</dim>
					<dim>80</dim>
					<dim>3</dim>
					<dim>3</dim>
				</port>
			</output>
		</layer>
		<layer id="45" name="CCT_OCR_1/conv_stem_1/conv2d_4_1/BiasAdd/WithoutBiases" type="Convolution" version="opset1">
			<data strides="1, 1" dilations="1, 1" pads_begin="0, 0" pads_end="0, 0" auto_pad="explicit" />
			<input>
				<port id="0" precision="FP32">
					<dim>-1</dim>
					<dim>80</dim>
					<dim>12</dim>
					<dim>28</dim>
				</port>
				<port id="1" precision="FP32">
					<dim>96</dim>
					<dim>80</dim>
					<dim>3</dim>
					<dim>3</dim>
				</port>
			</input>
			<output>
				<port id="2" precision="FP32">
					<dim>-1</dim>
					<dim>96</dim>
					<dim>10</dim>
					<dim>26</dim>
				</port>
			</output>
		</layer>
		<layer id="46" name="Reshape_92205_compressed" type="Const" version="opset1">
			<data element_type="f16" shape="1, 96, 1, 1" offset="317382" size="192" />
			<output>
				<port id="0" precision="FP16">
					<dim>1</dim>
					<dim>96</dim>
					<dim>1</dim>
					<dim>1</dim>
				</port>
			</output>
		</layer>
		<layer id="47" name="Reshape_92205" type="Convert" version="opset1">
			<data destination_type="f32" />
			<rt_info>
				<attribute name="decompression" version="0" />
			</rt_info>
			<input>
				<port id="0" precision="FP16">
					<dim>1</dim>
					<dim>96</dim>
					<dim>1</dim>
					<dim>1</dim>
				</port>
			</input>
			<output>
				<port id="1" precision="FP32">
					<dim>1</dim>
					<dim>96</dim>
					<dim>1</dim>
					<dim>1</dim>
				</port>
			</output>
		</layer>
		<layer id="48" name="CCT_OCR_1/conv_stem_1/conv2d_4_1/BiasAdd" type="Add" version="opset1">
			<data auto_broadcast="numpy" />
			<input>
				<port id="0" precision="FP32">
					<dim>-1</dim>
					<dim>96</dim>
					<dim>10</dim>
					<dim>26</dim>
				</port>
				<port id="1" precision="FP32">
					<dim>1</dim>
					<dim>96</dim>
					<dim>1</dim>
					<dim>1</dim>
				</port>
			</input>
			<output>
				<port id="2" precision="FP32" names="CCT_OCR_1/conv_stem_1/conv2d_4_1/BiasAdd:0">
					<dim>-1</dim>
					<dim>96</dim>
					<dim>10</dim>
					<dim>26</dim>
				</port>
			</output>
		</layer>
		<layer id="49" name="CCT_OCR_1/conv_stem_1/conv2d_4_1/mul_1" type="Swish" version="opset4">
			<input>
				<port id="0" precision="FP32">
					<dim>-1</dim>
					<dim>96</dim>
					<dim>10</dim>
					<dim>26</dim>
				</port>
			</input>
			<output>
				<port id="1" precision="FP32" names="CCT_OCR_1/conv_stem_1/conv2d_4_1/mul_1:0">
					<dim>-1</dim>
					<dim>96</dim>
					<dim>10</dim>
					<dim>26</dim>
				</port>
			</output>
		</layer>
		<layer id="50" name="CCT_OCR_1/patch_extractor_1/convolution__410:0_compressed" type="Const" version="opset1">
			<data element_type="f16" shape="384, 96, 2, 2" offset="317574" size="294912" />
			<output>
				<port id="0" precision="FP16" names="CCT_OCR_1/patch_extractor_1/convolution__410:0">
					<dim>384</dim>
					<dim>96</dim>
					<dim>2</dim>
					<dim>2</dim>
				</port>
			</output>
		</layer>
		<layer id="51" name="CCT_OCR_1/patch_extractor_1/convolution__410:0" type="Convert" version="opset1">
			<data destination_type="f32" />
			<rt_info>
				<attribute name="decompression" version="0" />
			</rt_info>
			<input>
				<port id="0" precision="FP16">
					<dim>384</dim>
					<dim>96</dim>
					<dim>2</dim>
					<dim>2</dim>
				</port>
			</input>
			<output>
				<port id="1" precision="FP32">
					<dim>384</dim>
					<dim>96</dim>
					<dim>2</dim>
					<dim>2</dim>
				</port>
			</output>
		</layer>
		<layer id="52" name="CCT_OCR_1/patch_extractor_1/convolution" type="Convolution" version="opset1">
			<data strides="2, 2" dilations="1, 1" pads_begin="0, 0" pads_end="0, 0" auto_pad="explicit" />
			<input>
				<port id="0" precision="FP32">
					<dim>-1</dim>
					<dim>96</dim>
					<dim>10</dim>
					<dim>26</dim>
				</port>
				<port id="1" precision="FP32">
					<dim>384</dim>
					<dim>96</dim>
					<dim>2</dim>
					<dim>2</dim>
				</port>
			</input>
			<output>
				<port id="2" precision="FP32" names="CCT_OCR_1/patch_extractor_1/convolution:0">
					<dim>-1</dim>
					<dim>384</dim>
					<dim>5</dim>
					<dim>13</dim>
				</port>
			</output>
		</layer>
		<layer id="53" name="Constant_92216" type="Const" version="opset1">
			<data element_type="i64" shape="4" offset="612486" size="32" />
			<output>
				<port id="0" precision="I64">
					<dim>4</dim>
				</port>
			</output>
		</layer>
		<layer id="54" name="CCT_OCR_1/patch_extractor_1/convolution__411" type="Transpose" version="opset1">
			<input>
				<port id="0" precision="FP32">
					<dim>-1</dim>
					<dim>384</dim>
					<dim>5</dim>
					<dim>13</dim>
				</port>
				<port id="1" precision="I64">
					<dim>4</dim>
				</port>
			</input>
			<output>
				<port id="2" precision="FP32" names="CCT_OCR_1/patch_extractor_1/convolution__411:0">
					<dim>-1</dim>
					<dim>5</dim>
					<dim>13</dim>
					<dim>384</dim>
				</port>
			</output>
		</layer>
		<layer id="55" name="Constant_98116" type="Const" version="opset1">
			<data element_type="i64" shape="3" offset="612518" size="24" />
			<rt_info>
				<attribute name="precise" version="0" />
			</rt_info>
			<output>
				<port id="0" precision="I64">
					<dim>3</dim>
				</port>
			</output>
		</layer>
		<layer id="56" name="CCT_OCR_1/patch_extractor_1/Reshape_1" type="Reshape" version="opset1">
			<data special_zero="true" />
			<input>
				<port id="0" precision="FP32">
					<dim>-1</dim>
					<dim>5</dim>
					<dim>13</dim>
					<dim>384</dim>
				</port>
				<port id="1" precision="I64">
					<dim>3</dim>
				</port>
			</input>
			<output>
				<port id="2" precision="FP32" names="CCT_OCR_1/patch_extractor_1/Reshape_1:0">
					<dim>-1</dim>
					<dim>65</dim>
					<dim>384</dim>
				</port>
			</output>
		</layer>
		<layer id="57" name="Transpose_96160_compressed" type="Const" version="opset1">
			<data element_type="f16" shape="96, 384" offset="612542" size="73728" />
			<output>
				<port id="0" precision="FP16">
					<dim>96</dim>
					<dim>384</dim>
				</port>
			</output>
		</layer>
		<layer id="58" name="Transpose_96160" type="Convert" version="opset1">
			<data destination_type="f32" />
			<rt_info>
				<attribute name="decompression" version="0" />
			</rt_info>
			<input>
				<port id="0" precision="FP16">
					<dim>96</dim>
					<dim>384</dim>
				</port>
			</input>
			<output>
				<port id="1" precision="FP32">
					<dim>96</dim>
					<dim>384</dim>
				</port>
			</output>
		</layer>
		<layer id="59" name="CCT_OCR_1/mlp_1/dense_1/MatMul" type="MatMul" version="opset1">
			<data transpose_a="false" transpose_b="true" />
			<input>
				<port id="0" precision="FP32">
					<dim>-1</dim>
					<dim>65</dim>
					<dim>384</dim>
				</port>
				<port id="1" precision="FP32">
					<dim>96</dim>
					<dim>384</dim>
				</port>
			</input>
			<output>
				<port id="2" precision="FP32" names="CCT_OCR_1/mlp_1/dense_1/MatMul:0">
					<dim>-1</dim>
					<dim>65</dim>
					<dim>96</dim>
				</port>
			</output>
		</layer>
		<layer id="60" name="Constant_97818_compressed" type="Const" version="opset1">
			<data element_type="f16" shape="1, 1, 96" offset="686270" size="192" />
			<output>
				<port id="0" precision="FP16">
					<dim>1</dim>
					<dim>1</dim>
					<dim>96</dim>
				</port>
			</output>
		</layer>
		<layer id="61" name="Constant_97818" type="Convert" version="opset1">
			<data destination_type="f32" />
			<rt_info>
				<attribute name="decompression" version="0" />
			</rt_info>
			<input>
				<port id="0" precision="FP16">
					<dim>1</dim>
					<dim>1</dim>
					<dim>96</dim>
				</port>
			</input>
			<output>
				<port id="1" precision="FP32">
					<dim>1</dim>
					<dim>1</dim>
					<dim>96</dim>
				</port>
			</output>
		</layer>
		<layer id="62" name="CCT_OCR_1/mlp_1/dense_1/BiasAdd" type="Add" version="opset1">
			<data auto_broadcast="numpy" />
			<input>
				<port id="0" precision="FP32">
					<dim>-1</dim>
					<dim>65</dim>
					<dim>96</dim>
				</port>
				<port id="1" precision="FP32">
					<dim>1</dim>
					<dim>1</dim>
					<dim>96</dim>
				</port>
			</input>
			<output>
				<port id="2" precision="FP32" names="CCT_OCR_1/mlp_1/dense_1/BiasAdd:0">
					<dim>-1</dim>
					<dim>65</dim>
					<dim>96</dim>
				</port>
			</output>
		</layer>
		<layer id="63" name="CCT_OCR_1/mlp_1/dense_1/mul_1" type="Swish" version="opset4">
			<input>
				<port id="0" precision="FP32">
					<dim>-1</dim>
					<dim>65</dim>
					<dim>96</dim>
				</port>
			</input>
			<output>
				<port id="1" precision="FP32" names="CCT_OCR_1/mlp_1/dense_1/mul_1:0">
					<dim>-1</dim>
					<dim>65</dim>
					<dim>96</dim>
				</port>
			</output>
		</layer>
		<layer id="64" name="Constant_97819_compressed" type="Const" version="opset1">
			<data element_type="f16" shape="1, 65, 96" offset="686462" size="12480" />
			<output>
				<port id="0" precision="FP16">
					<dim>1</dim>
					<dim>65</dim>
					<dim>96</dim>
				</port>
			</output>
		</layer>
		<layer id="65" name="Constant_97819" type="Convert" version="opset1">
			<data destination_type="f32" />
			<rt_info>
				<attribute name="decompression" version="0" />
			</rt_info>
			<input>
				<port id="0" precision="FP16">
					<dim>1</dim>
					<dim>65</dim>
					<dim>96</dim>
				</port>
			</input>
			<output>
				<port id="1" precision="FP32">
					<dim>1</dim>
					<dim>65</dim>
					<dim>96</dim>
				</port>
			</output>
		</layer>
		<layer id="66" name="Add_96008" type="Add" version="opset1">
			<data auto_broadcast="numpy" />
			<input>
				<port id="0" precision="FP32">
					<dim>-1</dim>
					<dim>65</dim>
					<dim>96</dim>
				</port>
				<port id="1" precision="FP32">
					<dim>1</dim>
					<dim>65</dim>
					<dim>96</dim>
				</port>
			</input>
			<output>
				<port id="2" precision="FP32">
					<dim>-1</dim>
					<dim>65</dim>
					<dim>96</dim>
				</port>
			</output>
		</layer>
		<layer id="67" name="ShapeOf_96009" type="ShapeOf" version="opset3">
			<data output_type="i64" />
			<input>
				<port id="0" precision="FP32">
					<dim>-1</dim>
					<dim>65</dim>
					<dim>96</dim>
				</port>
			</input>
			<output>
				<port id="1" precision="I64" names="CCT_OCR_1/pos_emb_1/BroadcastTo__440:0,CCT_OCR_1/pos_emb_1/Shape:0">
					<dim>3</dim>
				</port>
			</output>
		</layer>
		<layer id="68" name="Maximum_96010" type="Maximum" version="opset1">
			<data auto_broadcast="numpy" />
			<input>
				<port id="0" precision="I64">
					<dim>3</dim>
				</port>
				<port id="1" precision="I64">
					<dim>3</dim>
				</port>
			</input>
			<output>
				<port id="2" precision="I64">
					<dim>3</dim>
				</port>
			</output>
		</layer>
		<layer id="69" name="CCT_OCR_1/Add" type="Broadcast" version="opset3">
			<data mode="numpy" />
			<input>
				<port id="0" precision="FP32">
					<dim>-1</dim>
					<dim>65</dim>
					<dim>96</dim>
				</port>
				<port id="1" precision="I64">
					<dim>3</dim>
				</port>
			</input>
			<output>
				<port id="2" precision="FP32" names="CCT_OCR_1/Add:0">
					<dim>-1</dim>
					<dim>65</dim>
					<dim>96</dim>
				</port>
			</output>
		</layer>
		<layer id="70" name="Constant_97820" type="Const" version="opset1">
			<data element_type="f32" shape="1, 1, 1" offset="698942" size="4" />
			<output>
				<port id="0" precision="FP32">
					<dim>1</dim>
					<dim>1</dim>
					<dim>1</dim>
				</port>
			</output>
		</layer>
		<layer id="71" name="CCT_OCR_1/transformer_block_1_1/dy_t_1/Mul" type="Multiply" version="opset1">
			<data auto_broadcast="numpy" />
			<input>
				<port id="0" precision="FP32">
					<dim>1</dim>
					<dim>1</dim>
					<dim>1</dim>
				</port>
				<port id="1" precision="FP32">
					<dim>-1</dim>
					<dim>65</dim>
					<dim>96</dim>
				</port>
			</input>
			<output>
				<port id="2" precision="FP32" names="CCT_OCR_1/transformer_block_1_1/dy_t_1/Mul:0">
					<dim>-1</dim>
					<dim>65</dim>
					<dim>96</dim>
				</port>
			</output>
		</layer>
		<layer id="72" name="CCT_OCR_1/transformer_block_1_1/dy_t_1/Tanh" type="Tanh" version="opset1">
			<input>
				<port id="0" precision="FP32">
					<dim>-1</dim>
					<dim>65</dim>
					<dim>96</dim>
				</port>
			</input>
			<output>
				<port id="1" precision="FP32" names="CCT_OCR_1/transformer_block_1_1/dy_t_1/Tanh:0">
					<dim>-1</dim>
					<dim>65</dim>
					<dim>96</dim>
				</port>
			</output>
		</layer>
		<layer id="73" name="Constant_97821_compressed" type="Const" version="opset1">
			<data element_type="f16" shape="1, 1, 96" offset="698946" size="192" />
			<output>
				<port id="0" precision="FP16">
					<dim>1</dim>
					<dim>1</dim>
					<dim>96</dim>
				</port>
			</output>
		</layer>
		<layer id="74" name="Constant_97821" type="Convert" version="opset1">
			<data destination_type="f32" />
			<rt_info>
				<attribute name="decompression" version="0" />
			</rt_info>
			<input>
				<port id="0" precision="FP16">
					<dim>1</dim>
					<dim>1</dim>
					<dim>96</dim>
				</port>
			</input>
			<output>
				<port id="1" precision="FP32">
					<dim>1</dim>
					<dim>1</dim>
					<dim>96</dim>
				</port>
			</output>
		</layer>
		<layer id="75" name="CCT_OCR_1/transformer_block_1_1/dy_t_1/mul_1" type="Multiply" version="opset1">
			<data auto_broadcast="numpy" />
			<input>
				<port id="0" precision="FP32">
					<dim>-1</dim>
					<dim>65</dim>
					<dim>96</dim>
				</port>
				<port id="1" precision="FP32">
					<dim>1</dim>
					<dim>1</dim>
					<dim>96</dim>
				</port>
			</input>
			<output>
				<port id="2" precision="FP32" names="CCT_OCR_1/transformer_block_1_1/dy_t_1/mul_1:0">
					<dim>-1</dim>
					<dim>65</dim>
					<dim>96</dim>
				</port>
			</output>
		</layer>
		<layer id="76" name="Constant_97822_compressed" type="Const" version="opset1">
			<data element_type="f16" shape="1, 1, 96" offset="699138" size="192" />
			<output>
				<port id="0" precision="FP16">
					<dim>1</dim>
					<dim>1</dim>
					<dim>96</dim>
				</port>
			</output>
		</layer>
		<layer id="77" name="Constant_97822" type="Convert" version="opset1">
			<data destination_type="f32" />
			<rt_info>
				<attribute name="decompression" version="0" />
			</rt_info>
			<input>
				<port id="0" precision="FP16">
					<dim>1</dim>
					<dim>1</dim>
					<dim>96</dim>
				</port>
			</input>
			<output>
				<port id="1" precision="FP32">
					<dim>1</dim>
					<dim>1</dim>
					<dim>96</dim>
				</port>
			</output>
		</layer>
		<layer id="78" name="CCT_OCR_1/transformer_block_1_1/dy_t_1/add" type="Add" version="opset1">
			<data auto_broadcast="numpy" />
			<input>
				<port id="0" precision="FP32">
					<dim>-1</dim>
					<dim>65</dim>
					<dim>96</dim>
				</port>
				<port id="1" precision="FP32">
					<dim>1</dim>
					<dim>1</dim>
					<dim>96</dim>
				</port>
			</input>
			<output>
				<port id="2" precision="FP32" names="CCT_OCR_1/transformer_block_1_1/dy_t_1/add:0">
					<dim>-1</dim>
					<dim>65</dim>
					<dim>96</dim>
				</port>
			</output>
		</layer>
		<layer id="79" name="Transpose_96176_compressed" type="Const" version="opset1">
			<data element_type="f16" shape="96, 96" offset="699330" size="18432" />
			<output>
				<port id="0" precision="FP16">
					<dim>96</dim>
					<dim>96</dim>
				</port>
			</output>
		</layer>
		<layer id="80" name="Transpose_96176" type="Convert" version="opset1">
			<data destination_type="f32" />
			<rt_info>
				<attribute name="decompression" version="0" />
			</rt_info>
			<input>
				<port id="0" precision="FP16">
					<dim>96</dim>
					<dim>96</dim>
				</port>
			</input>
			<output>
				<port id="1" precision="FP32">
					<dim>96</dim>
					<dim>96</dim>
				</port>
			</output>
		</layer>
		<layer id="81" name="CCT_OCR_1/transformer_block_1_1/multi_head_attention_1/key_1/MatMul" type="MatMul" version="opset1">
			<data transpose_a="false" transpose_b="true" />
			<input>
				<port id="0" precision="FP32">
					<dim>-1</dim>
					<dim>65</dim>
					<dim>96</dim>
				</port>
				<port id="1" precision="FP32">
					<dim>96</dim>
					<dim>96</dim>
				</port>
			</input>
			<output>
				<port id="2" precision="FP32" names="CCT_OCR_1/transformer_block_1_1/multi_head_attention_1/key_1/MatMul:0">
					<dim>-1</dim>
					<dim>65</dim>
					<dim>96</dim>
				</port>
			</output>
		</layer>
		<layer id="82" name="const_fold_opt__593" type="Const" version="opset1">
			<data element_type="i64" shape="4" offset="717762" size="32" />
			<rt_info>
				<attribute name="precise" version="0" />
			</rt_info>
			<output>
				<port id="0" precision="I64" names="const_fold_opt__593">
					<dim>4</dim>
				</port>
			</output>
		</layer>
		<layer id="83" name="CCT_OCR_1/transformer_block_1_1/multi_head_attention_1/key_1/Reshape_1" type="Reshape" version="opset1">
			<data special_zero="true" />
			<input>
				<port id="0" precision="FP32">
					<dim>-1</dim>
					<dim>65</dim>
					<dim>96</dim>
				</port>
				<port id="1" precision="I64">
					<dim>4</dim>
				</port>
			</input>
			<output>
				<port id="2" precision="FP32" names="CCT_OCR_1/transformer_block_1_1/multi_head_attention_1/key_1/Reshape_1:0">
					<dim>-1</dim>
					<dim>65</dim>
					<dim>2</dim>
					<dim>48</dim>
				</port>
			</output>
		</layer>
		<layer id="84" name="Constant_97823_compressed" type="Const" version="opset1">
			<data element_type="f16" shape="1, 1, 2, 48" offset="717794" size="192" />
			<output>
				<port id="0" precision="FP16">
					<dim>1</dim>
					<dim>1</dim>
					<dim>2</dim>
					<dim>48</dim>
				</port>
			</output>
		</layer>
		<layer id="85" name="Constant_97823" type="Convert" version="opset1">
			<data destination_type="f32" />
			<rt_info>
				<attribute name="decompression" version="0" />
			</rt_info>
			<input>
				<port id="0" precision="FP16">
					<dim>1</dim>
					<dim>1</dim>
					<dim>2</dim>
					<dim>48</dim>
				</port>
			</input>
			<output>
				<port id="1" precision="FP32">
					<dim>1</dim>
					<dim>1</dim>
					<dim>2</dim>
					<dim>48</dim>
				</port>
			</output>
		</layer>
		<layer id="86" name="CCT_OCR_1/transformer_block_1_1/multi_head_attention_1/key_1/Add" type="Add" version="opset1">
			<data auto_broadcast="numpy" />
			<input>
				<port id="0" precision="FP32">
					<dim>-1</dim>
					<dim>65</dim>
					<dim>2</dim>
					<dim>48</dim>
				</port>
				<port id="1" precision="FP32">
					<dim>1</dim>
					<dim>1</dim>
					<dim>2</dim>
					<dim>48</dim>
				</port>
			</input>
			<output>
				<port id="2" precision="FP32" names="CCT_OCR_1/transformer_block_1_1/multi_head_attention_1/key_1/Add:0">
					<dim>-1</dim>
					<dim>65</dim>
					<dim>2</dim>
					<dim>48</dim>
				</port>
			</output>
		</layer>
		<layer id="87" name="Constant_92299" type="Const" version="opset1">
			<data element_type="i64" shape="4" offset="717986" size="32" />
			<output>
				<port id="0" precision="I64">
					<dim>4</dim>
				</port>
			</output>
		</layer>
		<layer id="88" name="CCT_OCR_1/transformer_block_1_1/multi_head_attention_1/transpose" type="Transpose" version="opset1">
			<input>
				<port id="0" precision="FP32">
					<dim>-1</dim>
					<dim>65</dim>
					<dim>2</dim>
					<dim>48</dim>
				</port>
				<port id="1" precision="I64">
					<dim>4</dim>
				</port>
			</input>
			<output>
				<port id="2" precision="FP32" names="CCT_OCR_1/transformer_block_1_1/multi_head_attention_1/transpose:0">
					<dim>-1</dim>
					<dim>2</dim>
					<dim>65</dim>
					<dim>48</dim>
				</port>
			</output>
		</layer>
		<layer id="89" name="Transpose_96181_compressed" type="Const" version="opset1">
			<data element_type="f16" shape="96, 96" offset="718018" size="18432" />
			<output>
				<port id="0" precision="FP16">
					<dim>96</dim>
					<dim>96</dim>
				</port>
			</output>
		</layer>
		<layer id="90" name="Transpose_96181" type="Convert" version="opset1">
			<data destination_type="f32" />
			<rt_info>
				<attribute name="decompression" version="0" />
			</rt_info>
			<input>
				<port id="0" precision="FP16">
					<dim>96</dim>
					<dim>96</dim>
				</port>
			</input>
			<output>
				<port id="1" precision="FP32">
					<dim>96</dim>
					<dim>96</dim>
				</port>
			</output>
		</layer>
		<layer id="91" name="CCT_OCR_1/transformer_block_1_1/multi_head_attention_1/query_1/MatMul" type="MatMul" version="opset1">
			<data transpose_a="false" transpose_b="true" />
			<input>
				<port id="0" precision="FP32">
					<dim>-1</dim>
					<dim>65</dim>
					<dim>96</dim>
				</port>
				<port id="1" precision="FP32">
					<dim>96</dim>
					<dim>96</dim>
				</port>
			</input>
			<output>
				<port id="2" precision="FP32" names="CCT_OCR_1/transformer_block_1_1/multi_head_attention_1/query_1/MatMul:0">
					<dim>-1</dim>
					<dim>65</dim>
					<dim>96</dim>
				</port>
			</output>
		</layer>
		<layer id="92" name="CCT_OCR_1/transformer_block_1_1/multi_head_attention_1/query_1/Reshape_1" type="Reshape" version="opset1">
			<data special_zero="true" />
			<input>
				<port id="0" precision="FP32">
					<dim>-1</dim>
					<dim>65</dim>
					<dim>96</dim>
				</port>
				<port id="1" precision="I64">
					<dim>4</dim>
				</port>
			</input>
			<output>
				<port id="2" precision="FP32" names="CCT_OCR_1/transformer_block_1_1/multi_head_attention_1/query_1/Reshape_1:0">
					<dim>-1</dim>
					<dim>65</dim>
					<dim>2</dim>
					<dim>48</dim>
				</port>
			</output>
		</layer>
		<layer id="93" name="Constant_97824" type="Const" version="opset1">
			<data element_type="f32" shape="1, 1, 1, 1" offset="736450" size="4" />
			<output>
				<port id="0" precision="FP32">
					<dim>1</dim>
					<dim>1</dim>
					<dim>1</dim>
					<dim>1</dim>
				</port>
			</output>
		</layer>
		<layer id="94" name="Multiply_97617" type="Multiply" version="opset1">
			<data auto_broadcast="numpy" />
			<input>
				<port id="0" precision="FP32">
					<dim>-1</dim>
					<dim>65</dim>
					<dim>2</dim>
					<dim>48</dim>
				</port>
				<port id="1" precision="FP32">
					<dim>1</dim>
					<dim>1</dim>
					<dim>1</dim>
					<dim>1</dim>
				</port>
			</input>
			<output>
				<port id="2" precision="FP32">
					<dim>-1</dim>
					<dim>65</dim>
					<dim>2</dim>
					<dim>48</dim>
				</port>
			</output>
		</layer>
		<layer id="95" name="Constant_97825_compressed" type="Const" version="opset1">
			<data element_type="f16" shape="1, 1, 2, 48" offset="736454" size="192" />
			<output>
				<port id="0" precision="FP16">
					<dim>1</dim>
					<dim>1</dim>
					<dim>2</dim>
					<dim>48</dim>
				</port>
			</output>
		</layer>
		<layer id="96" name="Constant_97825" type="Convert" version="opset1">
			<data destination_type="f32" />
			<rt_info>
				<attribute name="decompression" version="0" />
			</rt_info>
			<input>
				<port id="0" precision="FP16">
					<dim>1</dim>
					<dim>1</dim>
					<dim>2</dim>
					<dim>48</dim>
				</port>
			</input>
			<output>
				<port id="1" precision="FP32">
					<dim>1</dim>
					<dim>1</dim>
					<dim>2</dim>
					<dim>48</dim>
				</port>
			</output>
		</layer>
		<layer id="97" name="CCT_OCR_1/transformer_block_1_1/multi_head_attention_1/Mul" type="Add" version="opset1">
			<data auto_broadcast="numpy" />
			<input>
				<port id="0" precision="FP32">
					<dim>-1</dim>
					<dim>65</dim>
					<dim>2</dim>
					<dim>48</dim>
				</port>
				<port id="1" precision="FP32">
					<dim>1</dim>
					<dim>1</dim>
					<dim>2</dim>
					<dim>48</dim>
				</port>
			</input>
			<output>
				<port id="2" precision="FP32" names="CCT_OCR_1/transformer_block_1_1/multi_head_attention_1/Mul:0">
					<dim>-1</dim>
					<dim>65</dim>
					<dim>2</dim>
					<dim>48</dim>
				</port>
			</output>
		</layer>
		<layer id="98" name="Constant_92301" type="Const" version="opset1">
			<data element_type="i64" shape="4" offset="612486" size="32" />
			<output>
				<port id="0" precision="I64">
					<dim>4</dim>
				</port>
			</output>
		</layer>
		<layer id="99" name="CCT_OCR_1/transformer_block_1_1/multi_head_attention_1/transpose_1" type="Transpose" version="opset1">
			<input>
				<port id="0" precision="FP32">
					<dim>-1</dim>
					<dim>65</dim>
					<dim>2</dim>
					<dim>48</dim>
				</port>
				<port id="1" precision="I64">
					<dim>4</dim>
				</port>
			</input>
			<output>
				<port id="2" precision="FP32" names="CCT_OCR_1/transformer_block_1_1/multi_head_attention_1/transpose_1:0">
					<dim>-1</dim>
					<dim>2</dim>
					<dim>48</dim>
					<dim>65</dim>
				</port>
			</output>
		</layer>
		<layer id="100" name="CCT_OCR_1/transformer_block_1_1/multi_head_attention_1/MatMul" type="MatMul" version="opset1">
			<data transpose_a="false" transpose_b="false" />
			<input>
				<port id="0" precision="FP32">
					<dim>-1</dim>
					<dim>2</dim>
					<dim>65</dim>
					<dim>48</dim>
				</port>
				<port id="1" precision="FP32">
					<dim>-1</dim>
					<dim>2</dim>
					<dim>48</dim>
					<dim>65</dim>
				</port>
			</input>
			<output>
				<port id="2" precision="FP32" names="CCT_OCR_1/transformer_block_1_1/multi_head_attention_1/MatMul:0">
					<dim>-1</dim>
					<dim>2</dim>
					<dim>65</dim>
					<dim>65</dim>
				</port>
			</output>
		</layer>
		<layer id="101" name="CCT_OCR_1/transformer_block_1_1/multi_head_attention_1/softmax_1_1/Softmax" type="SoftMax" version="opset8">
			<data axis="2" />
			<input>
				<port id="0" precision="FP32">
					<dim>-1</dim>
					<dim>2</dim>
					<dim>65</dim>
					<dim>65</dim>
				</port>
			</input>
			<output>
				<port id="1" precision="FP32" names="CCT_OCR_1/transformer_block_1_1/multi_head_attention_1/softmax_1_1/Softmax:0">
					<dim>-1</dim>
					<dim>2</dim>
					<dim>65</dim>
					<dim>65</dim>
				</port>
			</output>
		</layer>
		<layer id="102" name="Transpose_96188_compressed" type="Const" version="opset1">
			<data element_type="f16" shape="96, 96" offset="736646" size="18432" />
			<output>
				<port id="0" precision="FP16">
					<dim>96</dim>
					<dim>96</dim>
				</port>
			</output>
		</layer>
		<layer id="103" name="Transpose_96188" type="Convert" version="opset1">
			<data destination_type="f32" />
			<rt_info>
				<attribute name="decompression" version="0" />
			</rt_info>
			<input>
				<port id="0" precision="FP16">
					<dim>96</dim>
					<dim>96</dim>
				</port>
			</input>
			<output>
				<port id="1" precision="FP32">
					<dim>96</dim>
					<dim>96</dim>
				</port>
			</output>
		</layer>
		<layer id="104" name="CCT_OCR_1/transformer_block_1_1/multi_head_attention_1/value_1/MatMul" type="MatMul" version="opset1">
			<data transpose_a="false" transpose_b="true" />
			<input>
				<port id="0" precision="FP32">
					<dim>-1</dim>
					<dim>65</dim>
					<dim>96</dim>
				</port>
				<port id="1" precision="FP32">
					<dim>96</dim>
					<dim>96</dim>
				</port>
			</input>
			<output>
				<port id="2" precision="FP32" names="CCT_OCR_1/transformer_block_1_1/multi_head_attention_1/value_1/MatMul:0">
					<dim>-1</dim>
					<dim>65</dim>
					<dim>96</dim>
				</port>
			</output>
		</layer>
		<layer id="105" name="CCT_OCR_1/transformer_block_1_1/multi_head_attention_1/value_1/Reshape_1" type="Reshape" version="opset1">
			<data special_zero="true" />
			<input>
				<port id="0" precision="FP32">
					<dim>-1</dim>
					<dim>65</dim>
					<dim>96</dim>
				</port>
				<port id="1" precision="I64">
					<dim>4</dim>
				</port>
			</input>
			<output>
				<port id="2" precision="FP32" names="CCT_OCR_1/transformer_block_1_1/multi_head_attention_1/value_1/Reshape_1:0">
					<dim>-1</dim>
					<dim>65</dim>
					<dim>2</dim>
					<dim>48</dim>
				</port>
			</output>
		</layer>
		<layer id="106" name="Constant_97826_compressed" type="Const" version="opset1">
			<data element_type="f16" shape="1, 1, 2, 48" offset="755078" size="192" />
			<output>
				<port id="0" precision="FP16">
					<dim>1</dim>
					<dim>1</dim>
					<dim>2</dim>
					<dim>48</dim>
				</port>
			</output>
		</layer>
		<layer id="107" name="Constant_97826" type="Convert" version="opset1">
			<data destination_type="f32" />
			<rt_info>
				<attribute name="decompression" version="0" />
			</rt_info>
			<input>
				<port id="0" precision="FP16">
					<dim>1</dim>
					<dim>1</dim>
					<dim>2</dim>
					<dim>48</dim>
				</port>
			</input>
			<output>
				<port id="1" precision="FP32">
					<dim>1</dim>
					<dim>1</dim>
					<dim>2</dim>
					<dim>48</dim>
				</port>
			</output>
		</layer>
		<layer id="108" name="CCT_OCR_1/transformer_block_1_1/multi_head_attention_1/value_1/Add" type="Add" version="opset1">
			<data auto_broadcast="numpy" />
			<input>
				<port id="0" precision="FP32">
					<dim>-1</dim>
					<dim>65</dim>
					<dim>2</dim>
					<dim>48</dim>
				</port>
				<port id="1" precision="FP32">
					<dim>1</dim>
					<dim>1</dim>
					<dim>2</dim>
					<dim>48</dim>
				</port>
			</input>
			<output>
				<port id="2" precision="FP32" names="CCT_OCR_1/transformer_block_1_1/multi_head_attention_1/value_1/Add:0">
					<dim>-1</dim>
					<dim>65</dim>
					<dim>2</dim>
					<dim>48</dim>
				</port>
			</output>
		</layer>
		<layer id="109" name="Constant_92295" type="Const" version="opset1">
			<data element_type="i64" shape="4" offset="717986" size="32" />
			<output>
				<port id="0" precision="I64">
					<dim>4</dim>
				</port>
			</output>
		</layer>
		<layer id="110" name="CCT_OCR_1/transformer_block_1_1/multi_head_attention_1/transpose_3" type="Transpose" version="opset1">
			<input>
				<port id="0" precision="FP32">
					<dim>-1</dim>
					<dim>65</dim>
					<dim>2</dim>
					<dim>48</dim>
				</port>
				<port id="1" precision="I64">
					<dim>4</dim>
				</port>
			</input>
			<output>
				<port id="2" precision="FP32" names="CCT_OCR_1/transformer_block_1_1/multi_head_attention_1/transpose_3:0">
					<dim>-1</dim>
					<dim>2</dim>
					<dim>65</dim>
					<dim>48</dim>
				</port>
			</output>
		</layer>
		<layer id="111" name="CCT_OCR_1/transformer_block_1_1/multi_head_attention_1/MatMul_1" type="MatMul" version="opset1">
			<data transpose_a="true" transpose_b="false" />
			<input>
				<port id="0" precision="FP32">
					<dim>-1</dim>
					<dim>2</dim>
					<dim>65</dim>
					<dim>65</dim>
				</port>
				<port id="1" precision="FP32">
					<dim>-1</dim>
					<dim>2</dim>
					<dim>65</dim>
					<dim>48</dim>
				</port>
			</input>
			<output>
				<port id="2" precision="FP32" names="CCT_OCR_1/transformer_block_1_1/multi_head_attention_1/MatMul_1:0">
					<dim>-1</dim>
					<dim>2</dim>
					<dim>65</dim>
					<dim>48</dim>
				</port>
			</output>
		</layer>
		<layer id="112" name="Constant_92308" type="Const" version="opset1">
			<data element_type="i64" shape="4" offset="717986" size="32" />
			<output>
				<port id="0" precision="I64">
					<dim>4</dim>
				</port>
			</output>
		</layer>
		<layer id="113" name="CCT_OCR_1/transformer_block_1_1/multi_head_attention_1/transpose_4" type="Transpose" version="opset1">
			<input>
				<port id="0" precision="FP32">
					<dim>-1</dim>
					<dim>2</dim>
					<dim>65</dim>
					<dim>48</dim>
				</port>
				<port id="1" precision="I64">
					<dim>4</dim>
				</port>
			</input>
			<output>
				<port id="2" precision="FP32" names="CCT_OCR_1/transformer_block_1_1/multi_head_attention_1/transpose_4:0">
					<dim>-1</dim>
					<dim>65</dim>
					<dim>2</dim>
					<dim>48</dim>
				</port>
			</output>
		</layer>
		<layer id="114" name="const_fold_opt__586" type="Const" version="opset1">
			<data element_type="i64" shape="3" offset="755270" size="24" />
			<rt_info>
				<attribute name="precise" version="0" />
			</rt_info>
			<output>
				<port id="0" precision="I64" names="const_fold_opt__586">
					<dim>3</dim>
				</port>
			</output>
		</layer>
		<layer id="115" name="CCT_OCR_1/transformer_block_1_1/multi_head_attention_1/attention_output_1/Reshape" type="Reshape" version="opset1">
			<data special_zero="true" />
			<input>
				<port id="0" precision="FP32">
					<dim>-1</dim>
					<dim>65</dim>
					<dim>2</dim>
					<dim>48</dim>
				</port>
				<port id="1" precision="I64">
					<dim>3</dim>
				</port>
			</input>
			<output>
				<port id="2" precision="FP32" names="CCT_OCR_1/transformer_block_1_1/multi_head_attention_1/attention_output_1/Reshape:0">
					<dim>-1</dim>
					<dim>65</dim>
					<dim>96</dim>
				</port>
			</output>
		</layer>
		<layer id="116" name="Transpose_96193_compressed" type="Const" version="opset1">
			<data element_type="f16" shape="96, 96" offset="755294" size="18432" />
			<output>
				<port id="0" precision="FP16">
					<dim>96</dim>
					<dim>96</dim>
				</port>
			</output>
		</layer>
		<layer id="117" name="Transpose_96193" type="Convert" version="opset1">
			<data destination_type="f32" />
			<rt_info>
				<attribute name="decompression" version="0" />
			</rt_info>
			<input>
				<port id="0" precision="FP16">
					<dim>96</dim>
					<dim>96</dim>
				</port>
			</input>
			<output>
				<port id="1" precision="FP32">
					<dim>96</dim>
					<dim>96</dim>
				</port>
			</output>
		</layer>
		<layer id="118" name="CCT_OCR_1/transformer_block_1_1/multi_head_attention_1/attention_output_1/MatMul" type="MatMul" version="opset1">
			<data transpose_a="false" transpose_b="true" />
			<input>
				<port id="0" precision="FP32">
					<dim>-1</dim>
					<dim>65</dim>
					<dim>96</dim>
				</port>
				<port id="1" precision="FP32">
					<dim>96</dim>
					<dim>96</dim>
				</port>
			</input>
			<output>
				<port id="2" precision="FP32" names="CCT_OCR_1/transformer_block_1_1/multi_head_attention_1/attention_output_1/MatMul:0">
					<dim>-1</dim>
					<dim>65</dim>
					<dim>96</dim>
				</port>
			</output>
		</layer>
		<layer id="119" name="Constant_97827" type="Const" version="opset1">
			<data element_type="f32" shape="1, 1, 96" offset="773726" size="384" />
			<output>
				<port id="0" precision="FP32">
					<dim>1</dim>
					<dim>1</dim>
					<dim>96</dim>
				</port>
			</output>
		</layer>
		<layer id="120" name="CCT_OCR_1/transformer_block_1_1/multi_head_attention_1/attention_output_1/BiasAdd" type="Add" version="opset1">
			<data auto_broadcast="numpy" />
			<input>
				<port id="0" precision="FP32">
					<dim>-1</dim>
					<dim>65</dim>
					<dim>96</dim>
				</port>
				<port id="1" precision="FP32">
					<dim>1</dim>
					<dim>1</dim>
					<dim>96</dim>
				</port>
			</input>
			<output>
				<port id="2" precision="FP32" names="CCT_OCR_1/transformer_block_1_1/multi_head_attention_1/attention_output_1/BiasAdd:0">
					<dim>-1</dim>
					<dim>65</dim>
					<dim>96</dim>
				</port>
			</output>
		</layer>
		<layer id="121" name="CCT_OCR_1/transformer_block_1_1/add_14_1/Add" type="Add" version="opset1">
			<data auto_broadcast="numpy" />
			<input>
				<port id="0" precision="FP32">
					<dim>-1</dim>
					<dim>65</dim>
					<dim>96</dim>
				</port>
				<port id="1" precision="FP32">
					<dim>-1</dim>
					<dim>65</dim>
					<dim>96</dim>
				</port>
			</input>
			<output>
				<port id="2" precision="FP32" names="CCT_OCR_1/transformer_block_1_1/add_14_1/Add:0">
					<dim>-1</dim>
					<dim>65</dim>
					<dim>96</dim>
				</port>
			</output>
		</layer>
		<layer id="122" name="Constant_97828" type="Const" version="opset1">
			<data element_type="f32" shape="1, 1, 1" offset="774110" size="4" />
			<output>
				<port id="0" precision="FP32">
					<dim>1</dim>
					<dim>1</dim>
					<dim>1</dim>
				</port>
			</output>
		</layer>
		<layer id="123" name="CCT_OCR_1/transformer_block_1_1/dy_t_1_2/Mul" type="Multiply" version="opset1">
			<data auto_broadcast="numpy" />
			<input>
				<port id="0" precision="FP32">
					<dim>1</dim>
					<dim>1</dim>
					<dim>1</dim>
				</port>
				<port id="1" precision="FP32">
					<dim>-1</dim>
					<dim>65</dim>
					<dim>96</dim>
				</port>
			</input>
			<output>
				<port id="2" precision="FP32" names="CCT_OCR_1/transformer_block_1_1/dy_t_1_2/Mul:0">
					<dim>-1</dim>
					<dim>65</dim>
					<dim>96</dim>
				</port>
			</output>
		</layer>
		<layer id="124" name="CCT_OCR_1/transformer_block_1_1/dy_t_1_2/Tanh" type="Tanh" version="opset1">
			<input>
				<port id="0" precision="FP32">
					<dim>-1</dim>
					<dim>65</dim>
					<dim>96</dim>
				</port>
			</input>
			<output>
				<port id="1" precision="FP32" names="CCT_OCR_1/transformer_block_1_1/dy_t_1_2/Tanh:0">
					<dim>-1</dim>
					<dim>65</dim>
					<dim>96</dim>
				</port>
			</output>
		</layer>
		<layer id="125" name="Constant_97829_compressed" type="Const" version="opset1">
			<data element_type="f16" shape="1, 1, 96" offset="774114" size="192" />
			<output>
				<port id="0" precision="FP16">
					<dim>1</dim>
					<dim>1</dim>
					<dim>96</dim>
				</port>
			</output>
		</layer>
		<layer id="126" name="Constant_97829" type="Convert" version="opset1">
			<data destination_type="f32" />
			<rt_info>
				<attribute name="decompression" version="0" />
			</rt_info>
			<input>
				<port id="0" precision="FP16">
					<dim>1</dim>
					<dim>1</dim>
					<dim>96</dim>
				</port>
			</input>
			<output>
				<port id="1" precision="FP32">
					<dim>1</dim>
					<dim>1</dim>
					<dim>96</dim>
				</port>
			</output>
		</layer>
		<layer id="127" name="CCT_OCR_1/transformer_block_1_1/dy_t_1_2/mul_1" type="Multiply" version="opset1">
			<data auto_broadcast="numpy" />
			<input>
				<port id="0" precision="FP32">
					<dim>-1</dim>
					<dim>65</dim>
					<dim>96</dim>
				</port>
				<port id="1" precision="FP32">
					<dim>1</dim>
					<dim>1</dim>
					<dim>96</dim>
				</port>
			</input>
			<output>
				<port id="2" precision="FP32" names="CCT_OCR_1/transformer_block_1_1/dy_t_1_2/mul_1:0">
					<dim>-1</dim>
					<dim>65</dim>
					<dim>96</dim>
				</port>
			</output>
		</layer>
		<layer id="128" name="Constant_97830_compressed" type="Const" version="opset1">
			<data element_type="f16" shape="1, 1, 96" offset="774306" size="192" />
			<output>
				<port id="0" precision="FP16">
					<dim>1</dim>
					<dim>1</dim>
					<dim>96</dim>
				</port>
			</output>
		</layer>
		<layer id="129" name="Constant_97830" type="Convert" version="opset1">
			<data destination_type="f32" />
			<rt_info>
				<attribute name="decompression" version="0" />
			</rt_info>
			<input>
				<port id="0" precision="FP16">
					<dim>1</dim>
					<dim>1</dim>
					<dim>96</dim>
				</port>
			</input>
			<output>
				<port id="1" precision="FP32">
					<dim>1</dim>
					<dim>1</dim>
					<dim>96</dim>
				</port>
			</output>
		</layer>
		<layer id="130" name="CCT_OCR_1/transformer_block_1_1/dy_t_1_2/add" type="Add" version="opset1">
			<data auto_broadcast="numpy" />
			<input>
				<port id="0" precision="FP32">
					<dim>-1</dim>
					<dim>65</dim>
					<dim>96</dim>
				</port>
				<port id="1" precision="FP32">
					<dim>1</dim>
					<dim>1</dim>
					<dim>96</dim>
				</port>
			</input>
			<output>
				<port id="2" precision="FP32" names="CCT_OCR_1/transformer_block_1_1/dy_t_1_2/add:0">
					<dim>-1</dim>
					<dim>65</dim>
					<dim>96</dim>
				</port>
			</output>
		</layer>
		<layer id="131" name="Transpose_96208_compressed" type="Const" version="opset1">
			<data element_type="f16" shape="96, 96" offset="774498" size="18432" />
			<output>
				<port id="0" precision="FP16">
					<dim>96</dim>
					<dim>96</dim>
				</port>
			</output>
		</layer>
		<layer id="132" name="Transpose_96208" type="Convert" version="opset1">
			<data destination_type="f32" />
			<rt_info>
				<attribute name="decompression" version="0" />
			</rt_info>
			<input>
				<port id="0" precision="FP16">
					<dim>96</dim>
					<dim>96</dim>
				</port>
			</input>
			<output>
				<port id="1" precision="FP32">
					<dim>96</dim>
					<dim>96</dim>
				</port>
			</output>
		</layer>
		<layer id="133" name="CCT_OCR_1/transformer_block_1_1/mlp_1/dense_1_1/MatMul" type="MatMul" version="opset1">
			<data transpose_a="false" transpose_b="true" />
			<input>
				<port id="0" precision="FP32">
					<dim>-1</dim>
					<dim>65</dim>
					<dim>96</dim>
				</port>
				<port id="1" precision="FP32">
					<dim>96</dim>
					<dim>96</dim>
				</port>
			</input>
			<output>
				<port id="2" precision="FP32" names="CCT_OCR_1/transformer_block_1_1/mlp_1/dense_1_1/MatMul:0">
					<dim>-1</dim>
					<dim>65</dim>
					<dim>96</dim>
				</port>
			</output>
		</layer>
		<layer id="134" name="Constant_97831_compressed" type="Const" version="opset1">
			<data element_type="f16" shape="1, 1, 96" offset="792930" size="192" />
			<output>
				<port id="0" precision="FP16">
					<dim>1</dim>
					<dim>1</dim>
					<dim>96</dim>
				</port>
			</output>
		</layer>
		<layer id="135" name="Constant_97831" type="Convert" version="opset1">
			<data destination_type="f32" />
			<rt_info>
				<attribute name="decompression" version="0" />
			</rt_info>
			<input>
				<port id="0" precision="FP16">
					<dim>1</dim>
					<dim>1</dim>
					<dim>96</dim>
				</port>
			</input>
			<output>
				<port id="1" precision="FP32">
					<dim>1</dim>
					<dim>1</dim>
					<dim>96</dim>
				</port>
			</output>
		</layer>
		<layer id="136" name="CCT_OCR_1/transformer_block_1_1/mlp_1/dense_1_1/BiasAdd" type="Add" version="opset1">
			<data auto_broadcast="numpy" />
			<input>
				<port id="0" precision="FP32">
					<dim>-1</dim>
					<dim>65</dim>
					<dim>96</dim>
				</port>
				<port id="1" precision="FP32">
					<dim>1</dim>
					<dim>1</dim>
					<dim>96</dim>
				</port>
			</input>
			<output>
				<port id="2" precision="FP32" names="CCT_OCR_1/transformer_block_1_1/mlp_1/dense_1_1/BiasAdd:0">
					<dim>-1</dim>
					<dim>65</dim>
					<dim>96</dim>
				</port>
			</output>
		</layer>
		<layer id="137" name="CCT_OCR_1/transformer_block_1_1/mlp_1/dense_1_1/mul_1" type="Swish" version="opset4">
			<input>
				<port id="0" precision="FP32">
					<dim>-1</dim>
					<dim>65</dim>
					<dim>96</dim>
				</port>
			</input>
			<output>
				<port id="1" precision="FP32" names="CCT_OCR_1/transformer_block_1_1/mlp_1/dense_1_1/mul_1:0">
					<dim>-1</dim>
					<dim>65</dim>
					<dim>96</dim>
				</port>
			</output>
		</layer>
		<layer id="138" name="Transpose_96214_compressed" type="Const" version="opset1">
			<data element_type="f16" shape="96, 96" offset="793122" size="18432" />
			<output>
				<port id="0" precision="FP16">
					<dim>96</dim>
					<dim>96</dim>
				</port>
			</output>
		</layer>
		<layer id="139" name="Transpose_96214" type="Convert" version="opset1">
			<data destination_type="f32" />
			<rt_info>
				<attribute name="decompression" version="0" />
			</rt_info>
			<input>
				<port id="0" precision="FP16">
					<dim>96</dim>
					<dim>96</dim>
				</port>
			</input>
			<output>
				<port id="1" precision="FP32">
					<dim>96</dim>
					<dim>96</dim>
				</port>
			</output>
		</layer>
		<layer id="140" name="CCT_OCR_1/transformer_block_1_1/mlp_1/dense_2_1/MatMul" type="MatMul" version="opset1">
			<data transpose_a="false" transpose_b="true" />
			<input>
				<port id="0" precision="FP32">
					<dim>-1</dim>
					<dim>65</dim>
					<dim>96</dim>
				</port>
				<port id="1" precision="FP32">
					<dim>96</dim>
					<dim>96</dim>
				</port>
			</input>
			<output>
				<port id="2" precision="FP32" names="CCT_OCR_1/transformer_block_1_1/mlp_1/dense_2_1/MatMul:0">
					<dim>-1</dim>
					<dim>65</dim>
					<dim>96</dim>
				</port>
			</output>
		</layer>
		<layer id="141" name="Constant_97832_compressed" type="Const" version="opset1">
			<data element_type="f16" shape="1, 1, 96" offset="811554" size="192" />
			<output>
				<port id="0" precision="FP16">
					<dim>1</dim>
					<dim>1</dim>
					<dim>96</dim>
				</port>
			</output>
		</layer>
		<layer id="142" name="Constant_97832" type="Convert" version="opset1">
			<data destination_type="f32" />
			<rt_info>
				<attribute name="decompression" version="0" />
			</rt_info>
			<input>
				<port id="0" precision="FP16">
					<dim>1</dim>
					<dim>1</dim>
					<dim>96</dim>
				</port>
			</input>
			<output>
				<port id="1" precision="FP32">
					<dim>1</dim>
					<dim>1</dim>
					<dim>96</dim>
				</port>
			</output>
		</layer>
		<layer id="143" name="CCT_OCR_1/transformer_block_1_1/mlp_1/dense_2_1/BiasAdd" type="Add" version="opset1">
			<data auto_broadcast="numpy" />
			<input>
				<port id="0" precision="FP32">
					<dim>-1</dim>
					<dim>65</dim>
					<dim>96</dim>
				</port>
				<port id="1" precision="FP32">
					<dim>1</dim>
					<dim>1</dim>
					<dim>96</dim>
				</port>
			</input>
			<output>
				<port id="2" precision="FP32" names="CCT_OCR_1/transformer_block_1_1/mlp_1/dense_2_1/BiasAdd:0">
					<dim>-1</dim>
					<dim>65</dim>
					<dim>96</dim>
				</port>
			</output>
		</layer>
		<layer id="144" name="CCT_OCR_1/transformer_block_1_1/mlp_1/dense_2_1/mul_1" type="Swish" version="opset4">
			<input>
				<port id="0" precision="FP32">
					<dim>-1</dim>
					<dim>65</dim>
					<dim>96</dim>
				</port>
			</input>
			<output>
				<port id="1" precision="FP32" names="CCT_OCR_1/transformer_block_1_1/mlp_1/dense_2_1/mul_1:0">
					<dim>-1</dim>
					<dim>65</dim>
					<dim>96</dim>
				</port>
			</output>
		</layer>
		<layer id="145" name="CCT_OCR_1/transformer_block_1_1/add_15_1/Add" type="Add" version="opset1">
			<data auto_broadcast="numpy" />
			<input>
				<port id="0" precision="FP32">
					<dim>-1</dim>
					<dim>65</dim>
					<dim>96</dim>
				</port>
				<port id="1" precision="FP32">
					<dim>-1</dim>
					<dim>65</dim>
					<dim>96</dim>
				</port>
			</input>
			<output>
				<port id="2" precision="FP32" names="CCT_OCR_1/transformer_block_1_1/add_15_1/Add:0">
					<dim>-1</dim>
					<dim>65</dim>
					<dim>96</dim>
				</port>
			</output>
		</layer>
		<layer id="146" name="Constant_97833" type="Const" version="opset1">
			<data element_type="f32" shape="1, 1, 1" offset="811746" size="4" />
			<output>
				<port id="0" precision="FP32">
					<dim>1</dim>
					<dim>1</dim>
					<dim>1</dim>
				</port>
			</output>
		</layer>
		<layer id="147" name="CCT_OCR_1/transformer_block_2_1/dy_t_2_1/Mul" type="Multiply" version="opset1">
			<data auto_broadcast="numpy" />
			<input>
				<port id="0" precision="FP32">
					<dim>1</dim>
					<dim>1</dim>
					<dim>1</dim>
				</port>
				<port id="1" precision="FP32">
					<dim>-1</dim>
					<dim>65</dim>
					<dim>96</dim>
				</port>
			</input>
			<output>
				<port id="2" precision="FP32" names="CCT_OCR_1/transformer_block_2_1/dy_t_2_1/Mul:0">
					<dim>-1</dim>
					<dim>65</dim>
					<dim>96</dim>
				</port>
			</output>
		</layer>
		<layer id="148" name="CCT_OCR_1/transformer_block_2_1/dy_t_2_1/Tanh" type="Tanh" version="opset1">
			<input>
				<port id="0" precision="FP32">
					<dim>-1</dim>
					<dim>65</dim>
					<dim>96</dim>
				</port>
			</input>
			<output>
				<port id="1" precision="FP32" names="CCT_OCR_1/transformer_block_2_1/dy_t_2_1/Tanh:0">
					<dim>-1</dim>
					<dim>65</dim>
					<dim>96</dim>
				</port>
			</output>
		</layer>
		<layer id="149" name="Constant_97834_compressed" type="Const" version="opset1">
			<data element_type="f16" shape="1, 1, 96" offset="811750" size="192" />
			<output>
				<port id="0" precision="FP16">
					<dim>1</dim>
					<dim>1</dim>
					<dim>96</dim>
				</port>
			</output>
		</layer>
		<layer id="150" name="Constant_97834" type="Convert" version="opset1">
			<data destination_type="f32" />
			<rt_info>
				<attribute name="decompression" version="0" />
			</rt_info>
			<input>
				<port id="0" precision="FP16">
					<dim>1</dim>
					<dim>1</dim>
					<dim>96</dim>
				</port>
			</input>
			<output>
				<port id="1" precision="FP32">
					<dim>1</dim>
					<dim>1</dim>
					<dim>96</dim>
				</port>
			</output>
		</layer>
		<layer id="151" name="CCT_OCR_1/transformer_block_2_1/dy_t_2_1/mul_1" type="Multiply" version="opset1">
			<data auto_broadcast="numpy" />
			<input>
				<port id="0" precision="FP32">
					<dim>-1</dim>
					<dim>65</dim>
					<dim>96</dim>
				</port>
				<port id="1" precision="FP32">
					<dim>1</dim>
					<dim>1</dim>
					<dim>96</dim>
				</port>
			</input>
			<output>
				<port id="2" precision="FP32" names="CCT_OCR_1/transformer_block_2_1/dy_t_2_1/mul_1:0">
					<dim>-1</dim>
					<dim>65</dim>
					<dim>96</dim>
				</port>
			</output>
		</layer>
		<layer id="152" name="Constant_97835" type="Const" version="opset1">
			<data element_type="f32" shape="1, 1, 96" offset="811942" size="384" />
			<output>
				<port id="0" precision="FP32">
					<dim>1</dim>
					<dim>1</dim>
					<dim>96</dim>
				</port>
			</output>
		</layer>
		<layer id="153" name="CCT_OCR_1/transformer_block_2_1/dy_t_2_1/add" type="Add" version="opset1">
			<data auto_broadcast="numpy" />
			<input>
				<port id="0" precision="FP32">
					<dim>-1</dim>
					<dim>65</dim>
					<dim>96</dim>
				</port>
				<port id="1" precision="FP32">
					<dim>1</dim>
					<dim>1</dim>
					<dim>96</dim>
				</port>
			</input>
			<output>
				<port id="2" precision="FP32" names="CCT_OCR_1/transformer_block_2_1/dy_t_2_1/add:0">
					<dim>-1</dim>
					<dim>65</dim>
					<dim>96</dim>
				</port>
			</output>
		</layer>
		<layer id="154" name="Transpose_96230_compressed" type="Const" version="opset1">
			<data element_type="f16" shape="96, 96" offset="812326" size="18432" />
			<output>
				<port id="0" precision="FP16">
					<dim>96</dim>
					<dim>96</dim>
				</port>
			</output>
		</layer>
		<layer id="155" name="Transpose_96230" type="Convert" version="opset1">
			<data destination_type="f32" />
			<rt_info>
				<attribute name="decompression" version="0" />
			</rt_info>
			<input>
				<port id="0" precision="FP16">
					<dim>96</dim>
					<dim>96</dim>
				</port>
			</input>
			<output>
				<port id="1" precision="FP32">
					<dim>96</dim>
					<dim>96</dim>
				</port>
			</output>
		</layer>
		<layer id="156" name="CCT_OCR_1/transformer_block_2_1/multi_head_attention_1_1/key_1/MatMul" type="MatMul" version="opset1">
			<data transpose_a="false" transpose_b="true" />
			<input>
				<port id="0" precision="FP32">
					<dim>-1</dim>
					<dim>65</dim>
					<dim>96</dim>
				</port>
				<port id="1" precision="FP32">
					<dim>96</dim>
					<dim>96</dim>
				</port>
			</input>
			<output>
				<port id="2" precision="FP32" names="CCT_OCR_1/transformer_block_2_1/multi_head_attention_1_1/key_1/MatMul:0">
					<dim>-1</dim>
					<dim>65</dim>
					<dim>96</dim>
				</port>
			</output>
		</layer>
		<layer id="157" name="CCT_OCR_1/transformer_block_2_1/multi_head_attention_1_1/key_1/Reshape_1" type="Reshape" version="opset1">
			<data special_zero="true" />
			<input>
				<port id="0" precision="FP32">
					<dim>-1</dim>
					<dim>65</dim>
					<dim>96</dim>
				</port>
				<port id="1" precision="I64">
					<dim>4</dim>
				</port>
			</input>
			<output>
				<port id="2" precision="FP32" names="CCT_OCR_1/transformer_block_2_1/multi_head_attention_1_1/key_1/Reshape_1:0">
					<dim>-1</dim>
					<dim>65</dim>
					<dim>2</dim>
					<dim>48</dim>
				</port>
			</output>
		</layer>
		<layer id="158" name="Constant_97836_compressed" type="Const" version="opset1">
			<data element_type="f16" shape="1, 1, 2, 48" offset="830758" size="192" />
			<output>
				<port id="0" precision="FP16">
					<dim>1</dim>
					<dim>1</dim>
					<dim>2</dim>
					<dim>48</dim>
				</port>
			</output>
		</layer>
		<layer id="159" name="Constant_97836" type="Convert" version="opset1">
			<data destination_type="f32" />
			<rt_info>
				<attribute name="decompression" version="0" />
			</rt_info>
			<input>
				<port id="0" precision="FP16">
					<dim>1</dim>
					<dim>1</dim>
					<dim>2</dim>
					<dim>48</dim>
				</port>
			</input>
			<output>
				<port id="1" precision="FP32">
					<dim>1</dim>
					<dim>1</dim>
					<dim>2</dim>
					<dim>48</dim>
				</port>
			</output>
		</layer>
		<layer id="160" name="CCT_OCR_1/transformer_block_2_1/multi_head_attention_1_1/key_1/Add" type="Add" version="opset1">
			<data auto_broadcast="numpy" />
			<input>
				<port id="0" precision="FP32">
					<dim>-1</dim>
					<dim>65</dim>
					<dim>2</dim>
					<dim>48</dim>
				</port>
				<port id="1" precision="FP32">
					<dim>1</dim>
					<dim>1</dim>
					<dim>2</dim>
					<dim>48</dim>
				</port>
			</input>
			<output>
				<port id="2" precision="FP32" names="CCT_OCR_1/transformer_block_2_1/multi_head_attention_1_1/key_1/Add:0">
					<dim>-1</dim>
					<dim>65</dim>
					<dim>2</dim>
					<dim>48</dim>
				</port>
			</output>
		</layer>
		<layer id="161" name="Constant_92362" type="Const" version="opset1">
			<data element_type="i64" shape="4" offset="717986" size="32" />
			<output>
				<port id="0" precision="I64">
					<dim>4</dim>
				</port>
			</output>
		</layer>
		<layer id="162" name="CCT_OCR_1/transformer_block_2_1/multi_head_attention_1_1/transpose" type="Transpose" version="opset1">
			<input>
				<port id="0" precision="FP32">
					<dim>-1</dim>
					<dim>65</dim>
					<dim>2</dim>
					<dim>48</dim>
				</port>
				<port id="1" precision="I64">
					<dim>4</dim>
				</port>
			</input>
			<output>
				<port id="2" precision="FP32" names="CCT_OCR_1/transformer_block_2_1/multi_head_attention_1_1/transpose:0">
					<dim>-1</dim>
					<dim>2</dim>
					<dim>65</dim>
					<dim>48</dim>
				</port>
			</output>
		</layer>
		<layer id="163" name="Transpose_96235_compressed" type="Const" version="opset1">
			<data element_type="f16" shape="96, 96" offset="830950" size="18432" />
			<output>
				<port id="0" precision="FP16">
					<dim>96</dim>
					<dim>96</dim>
				</port>
			</output>
		</layer>
		<layer id="164" name="Transpose_96235" type="Convert" version="opset1">
			<data destination_type="f32" />
			<rt_info>
				<attribute name="decompression" version="0" />
			</rt_info>
			<input>
				<port id="0" precision="FP16">
					<dim>96</dim>
					<dim>96</dim>
				</port>
			</input>
			<output>
				<port id="1" precision="FP32">
					<dim>96</dim>
					<dim>96</dim>
				</port>
			</output>
		</layer>
		<layer id="165" name="CCT_OCR_1/transformer_block_2_1/multi_head_attention_1_1/query_1/MatMul" type="MatMul" version="opset1">
			<data transpose_a="false" transpose_b="true" />
			<input>
				<port id="0" precision="FP32">
					<dim>-1</dim>
					<dim>65</dim>
					<dim>96</dim>
				</port>
				<port id="1" precision="FP32">
					<dim>96</dim>
					<dim>96</dim>
				</port>
			</input>
			<output>
				<port id="2" precision="FP32" names="CCT_OCR_1/transformer_block_2_1/multi_head_attention_1_1/query_1/MatMul:0">
					<dim>-1</dim>
					<dim>65</dim>
					<dim>96</dim>
				</port>
			</output>
		</layer>
		<layer id="166" name="CCT_OCR_1/transformer_block_2_1/multi_head_attention_1_1/query_1/Reshape_1" type="Reshape" version="opset1">
			<data special_zero="true" />
			<input>
				<port id="0" precision="FP32">
					<dim>-1</dim>
					<dim>65</dim>
					<dim>96</dim>
				</port>
				<port id="1" precision="I64">
					<dim>4</dim>
				</port>
			</input>
			<output>
				<port id="2" precision="FP32" names="CCT_OCR_1/transformer_block_2_1/multi_head_attention_1_1/query_1/Reshape_1:0">
					<dim>-1</dim>
					<dim>65</dim>
					<dim>2</dim>
					<dim>48</dim>
				</port>
			</output>
		</layer>
		<layer id="167" name="Constant_97837" type="Const" version="opset1">
			<data element_type="f32" shape="1, 1, 1, 1" offset="736450" size="4" />
			<output>
				<port id="0" precision="FP32">
					<dim>1</dim>
					<dim>1</dim>
					<dim>1</dim>
					<dim>1</dim>
				</port>
			</output>
		</layer>
		<layer id="168" name="Multiply_97621" type="Multiply" version="opset1">
			<data auto_broadcast="numpy" />
			<input>
				<port id="0" precision="FP32">
					<dim>-1</dim>
					<dim>65</dim>
					<dim>2</dim>
					<dim>48</dim>
				</port>
				<port id="1" precision="FP32">
					<dim>1</dim>
					<dim>1</dim>
					<dim>1</dim>
					<dim>1</dim>
				</port>
			</input>
			<output>
				<port id="2" precision="FP32">
					<dim>-1</dim>
					<dim>65</dim>
					<dim>2</dim>
					<dim>48</dim>
				</port>
			</output>
		</layer>
		<layer id="169" name="Constant_97838_compressed" type="Const" version="opset1">
			<data element_type="f16" shape="1, 1, 2, 48" offset="849382" size="192" />
			<output>
				<port id="0" precision="FP16">
					<dim>1</dim>
					<dim>1</dim>
					<dim>2</dim>
					<dim>48</dim>
				</port>
			</output>
		</layer>
		<layer id="170" name="Constant_97838" type="Convert" version="opset1">
			<data destination_type="f32" />
			<rt_info>
				<attribute name="decompression" version="0" />
			</rt_info>
			<input>
				<port id="0" precision="FP16">
					<dim>1</dim>
					<dim>1</dim>
					<dim>2</dim>
					<dim>48</dim>
				</port>
			</input>
			<output>
				<port id="1" precision="FP32">
					<dim>1</dim>
					<dim>1</dim>
					<dim>2</dim>
					<dim>48</dim>
				</port>
			</output>
		</layer>
		<layer id="171" name="CCT_OCR_1/transformer_block_2_1/multi_head_attention_1_1/Mul" type="Add" version="opset1">
			<data auto_broadcast="numpy" />
			<input>
				<port id="0" precision="FP32">
					<dim>-1</dim>
					<dim>65</dim>
					<dim>2</dim>
					<dim>48</dim>
				</port>
				<port id="1" precision="FP32">
					<dim>1</dim>
					<dim>1</dim>
					<dim>2</dim>
					<dim>48</dim>
				</port>
			</input>
			<output>
				<port id="2" precision="FP32" names="CCT_OCR_1/transformer_block_2_1/multi_head_attention_1_1/Mul:0">
					<dim>-1</dim>
					<dim>65</dim>
					<dim>2</dim>
					<dim>48</dim>
				</port>
			</output>
		</layer>
		<layer id="172" name="Constant_92364" type="Const" version="opset1">
			<data element_type="i64" shape="4" offset="612486" size="32" />
			<output>
				<port id="0" precision="I64">
					<dim>4</dim>
				</port>
			</output>
		</layer>
		<layer id="173" name="CCT_OCR_1/transformer_block_2_1/multi_head_attention_1_1/transpose_1" type="Transpose" version="opset1">
			<input>
				<port id="0" precision="FP32">
					<dim>-1</dim>
					<dim>65</dim>
					<dim>2</dim>
					<dim>48</dim>
				</port>
				<port id="1" precision="I64">
					<dim>4</dim>
				</port>
			</input>
			<output>
				<port id="2" precision="FP32" names="CCT_OCR_1/transformer_block_2_1/multi_head_attention_1_1/transpose_1:0">
					<dim>-1</dim>
					<dim>2</dim>
					<dim>48</dim>
					<dim>65</dim>
				</port>
			</output>
		</layer>
		<layer id="174" name="CCT_OCR_1/transformer_block_2_1/multi_head_attention_1_1/MatMul" type="MatMul" version="opset1">
			<data transpose_a="false" transpose_b="false" />
			<input>
				<port id="0" precision="FP32">
					<dim>-1</dim>
					<dim>2</dim>
					<dim>65</dim>
					<dim>48</dim>
				</port>
				<port id="1" precision="FP32">
					<dim>-1</dim>
					<dim>2</dim>
					<dim>48</dim>
					<dim>65</dim>
				</port>
			</input>
			<output>
				<port id="2" precision="FP32" names="CCT_OCR_1/transformer_block_2_1/multi_head_attention_1_1/MatMul:0">
					<dim>-1</dim>
					<dim>2</dim>
					<dim>65</dim>
					<dim>65</dim>
				</port>
			</output>
		</layer>
		<layer id="175" name="CCT_OCR_1/transformer_block_2_1/multi_head_attention_1_1/softmax_2_1/Softmax" type="SoftMax" version="opset8">
			<data axis="2" />
			<input>
				<port id="0" precision="FP32">
					<dim>-1</dim>
					<dim>2</dim>
					<dim>65</dim>
					<dim>65</dim>
				</port>
			</input>
			<output>
				<port id="1" precision="FP32" names="CCT_OCR_1/transformer_block_2_1/multi_head_attention_1_1/softmax_2_1/Softmax:0">
					<dim>-1</dim>
					<dim>2</dim>
					<dim>65</dim>
					<dim>65</dim>
				</port>
			</output>
		</layer>
		<layer id="176" name="Transpose_96242_compressed" type="Const" version="opset1">
			<data element_type="f16" shape="96, 96" offset="849574" size="18432" />
			<output>
				<port id="0" precision="FP16">
					<dim>96</dim>
					<dim>96</dim>
				</port>
			</output>
		</layer>
		<layer id="177" name="Transpose_96242" type="Convert" version="opset1">
			<data destination_type="f32" />
			<rt_info>
				<attribute name="decompression" version="0" />
			</rt_info>
			<input>
				<port id="0" precision="FP16">
					<dim>96</dim>
					<dim>96</dim>
				</port>
			</input>
			<output>
				<port id="1" precision="FP32">
					<dim>96</dim>
					<dim>96</dim>
				</port>
			</output>
		</layer>
		<layer id="178" name="CCT_OCR_1/transformer_block_2_1/multi_head_attention_1_1/value_1/MatMul" type="MatMul" version="opset1">
			<data transpose_a="false" transpose_b="true" />
			<input>
				<port id="0" precision="FP32">
					<dim>-1</dim>
					<dim>65</dim>
					<dim>96</dim>
				</port>
				<port id="1" precision="FP32">
					<dim>96</dim>
					<dim>96</dim>
				</port>
			</input>
			<output>
				<port id="2" precision="FP32" names="CCT_OCR_1/transformer_block_2_1/multi_head_attention_1_1/value_1/MatMul:0">
					<dim>-1</dim>
					<dim>65</dim>
					<dim>96</dim>
				</port>
			</output>
		</layer>
		<layer id="179" name="CCT_OCR_1/transformer_block_2_1/multi_head_attention_1_1/value_1/Reshape_1" type="Reshape" version="opset1">
			<data special_zero="true" />
			<input>
				<port id="0" precision="FP32">
					<dim>-1</dim>
					<dim>65</dim>
					<dim>96</dim>
				</port>
				<port id="1" precision="I64">
					<dim>4</dim>
				</port>
			</input>
			<output>
				<port id="2" precision="FP32" names="CCT_OCR_1/transformer_block_2_1/multi_head_attention_1_1/value_1/Reshape_1:0">
					<dim>-1</dim>
					<dim>65</dim>
					<dim>2</dim>
					<dim>48</dim>
				</port>
			</output>
		</layer>
		<layer id="180" name="Constant_97839_compressed" type="Const" version="opset1">
			<data element_type="f16" shape="1, 1, 2, 48" offset="868006" size="192" />
			<output>
				<port id="0" precision="FP16">
					<dim>1</dim>
					<dim>1</dim>
					<dim>2</dim>
					<dim>48</dim>
				</port>
			</output>
		</layer>
		<layer id="181" name="Constant_97839" type="Convert" version="opset1">
			<data destination_type="f32" />
			<rt_info>
				<attribute name="decompression" version="0" />
			</rt_info>
			<input>
				<port id="0" precision="FP16">
					<dim>1</dim>
					<dim>1</dim>
					<dim>2</dim>
					<dim>48</dim>
				</port>
			</input>
			<output>
				<port id="1" precision="FP32">
					<dim>1</dim>
					<dim>1</dim>
					<dim>2</dim>
					<dim>48</dim>
				</port>
			</output>
		</layer>
		<layer id="182" name="CCT_OCR_1/transformer_block_2_1/multi_head_attention_1_1/value_1/Add" type="Add" version="opset1">
			<data auto_broadcast="numpy" />
			<input>
				<port id="0" precision="FP32">
					<dim>-1</dim>
					<dim>65</dim>
					<dim>2</dim>
					<dim>48</dim>
				</port>
				<port id="1" precision="FP32">
					<dim>1</dim>
					<dim>1</dim>
					<dim>2</dim>
					<dim>48</dim>
				</port>
			</input>
			<output>
				<port id="2" precision="FP32" names="CCT_OCR_1/transformer_block_2_1/multi_head_attention_1_1/value_1/Add:0">
					<dim>-1</dim>
					<dim>65</dim>
					<dim>2</dim>
					<dim>48</dim>
				</port>
			</output>
		</layer>
		<layer id="183" name="Constant_92359" type="Const" version="opset1">
			<data element_type="i64" shape="4" offset="717986" size="32" />
			<output>
				<port id="0" precision="I64">
					<dim>4</dim>
				</port>
			</output>
		</layer>
		<layer id="184" name="CCT_OCR_1/transformer_block_2_1/multi_head_attention_1_1/transpose_3" type="Transpose" version="opset1">
			<input>
				<port id="0" precision="FP32">
					<dim>-1</dim>
					<dim>65</dim>
					<dim>2</dim>
					<dim>48</dim>
				</port>
				<port id="1" precision="I64">
					<dim>4</dim>
				</port>
			</input>
			<output>
				<port id="2" precision="FP32" names="CCT_OCR_1/transformer_block_2_1/multi_head_attention_1_1/transpose_3:0">
					<dim>-1</dim>
					<dim>2</dim>
					<dim>65</dim>
					<dim>48</dim>
				</port>
			</output>
		</layer>
		<layer id="185" name="CCT_OCR_1/transformer_block_2_1/multi_head_attention_1_1/MatMul_1" type="MatMul" version="opset1">
			<data transpose_a="true" transpose_b="false" />
			<input>
				<port id="0" precision="FP32">
					<dim>-1</dim>
					<dim>2</dim>
					<dim>65</dim>
					<dim>65</dim>
				</port>
				<port id="1" precision="FP32">
					<dim>-1</dim>
					<dim>2</dim>
					<dim>65</dim>
					<dim>48</dim>
				</port>
			</input>
			<output>
				<port id="2" precision="FP32" names="CCT_OCR_1/transformer_block_2_1/multi_head_attention_1_1/MatMul_1:0">
					<dim>-1</dim>
					<dim>2</dim>
					<dim>65</dim>
					<dim>48</dim>
				</port>
			</output>
		</layer>
		<layer id="186" name="Constant_92371" type="Const" version="opset1">
			<data element_type="i64" shape="4" offset="717986" size="32" />
			<output>
				<port id="0" precision="I64">
					<dim>4</dim>
				</port>
			</output>
		</layer>
		<layer id="187" name="CCT_OCR_1/transformer_block_2_1/multi_head_attention_1_1/transpose_4" type="Transpose" version="opset1">
			<input>
				<port id="0" precision="FP32">
					<dim>-1</dim>
					<dim>2</dim>
					<dim>65</dim>
					<dim>48</dim>
				</port>
				<port id="1" precision="I64">
					<dim>4</dim>
				</port>
			</input>
			<output>
				<port id="2" precision="FP32" names="CCT_OCR_1/transformer_block_2_1/multi_head_attention_1_1/transpose_4:0">
					<dim>-1</dim>
					<dim>65</dim>
					<dim>2</dim>
					<dim>48</dim>
				</port>
			</output>
		</layer>
		<layer id="188" name="CCT_OCR_1/transformer_block_2_1/multi_head_attention_1_1/attention_output_1/Reshape" type="Reshape" version="opset1">
			<data special_zero="true" />
			<input>
				<port id="0" precision="FP32">
					<dim>-1</dim>
					<dim>65</dim>
					<dim>2</dim>
					<dim>48</dim>
				</port>
				<port id="1" precision="I64">
					<dim>3</dim>
				</port>
			</input>
			<output>
				<port id="2" precision="FP32" names="CCT_OCR_1/transformer_block_2_1/multi_head_attention_1_1/attention_output_1/Reshape:0">
					<dim>-1</dim>
					<dim>65</dim>
					<dim>96</dim>
				</port>
			</output>
		</layer>
		<layer id="189" name="Transpose_96247_compressed" type="Const" version="opset1">
			<data element_type="f16" shape="96, 96" offset="868198" size="18432" />
			<output>
				<port id="0" precision="FP16">
					<dim>96</dim>
					<dim>96</dim>
				</port>
			</output>
		</layer>
		<layer id="190" name="Transpose_96247" type="Convert" version="opset1">
			<data destination_type="f32" />
			<rt_info>
				<attribute name="decompression" version="0" />
			</rt_info>
			<input>
				<port id="0" precision="FP16">
					<dim>96</dim>
					<dim>96</dim>
				</port>
			</input>
			<output>
				<port id="1" precision="FP32">
					<dim>96</dim>
					<dim>96</dim>
				</port>
			</output>
		</layer>
		<layer id="191" name="CCT_OCR_1/transformer_block_2_1/multi_head_attention_1_1/attention_output_1/MatMul" type="MatMul" version="opset1">
			<data transpose_a="false" transpose_b="true" />
			<input>
				<port id="0" precision="FP32">
					<dim>-1</dim>
					<dim>65</dim>
					<dim>96</dim>
				</port>
				<port id="1" precision="FP32">
					<dim>96</dim>
					<dim>96</dim>
				</port>
			</input>
			<output>
				<port id="2" precision="FP32" names="CCT_OCR_1/transformer_block_2_1/multi_head_attention_1_1/attention_output_1/MatMul:0">
					<dim>-1</dim>
					<dim>65</dim>
					<dim>96</dim>
				</port>
			</output>
		</layer>
		<layer id="192" name="Constant_97840_compressed" type="Const" version="opset1">
			<data element_type="f16" shape="1, 1, 96" offset="886630" size="192" />
			<output>
				<port id="0" precision="FP16">
					<dim>1</dim>
					<dim>1</dim>
					<dim>96</dim>
				</port>
			</output>
		</layer>
		<layer id="193" name="Constant_97840" type="Convert" version="opset1">
			<data destination_type="f32" />
			<rt_info>
				<attribute name="decompression" version="0" />
			</rt_info>
			<input>
				<port id="0" precision="FP16">
					<dim>1</dim>
					<dim>1</dim>
					<dim>96</dim>
				</port>
			</input>
			<output>
				<port id="1" precision="FP32">
					<dim>1</dim>
					<dim>1</dim>
					<dim>96</dim>
				</port>
			</output>
		</layer>
		<layer id="194" name="CCT_OCR_1/transformer_block_2_1/multi_head_attention_1_1/attention_output_1/BiasAdd" type="Add" version="opset1">
			<data auto_broadcast="numpy" />
			<input>
				<port id="0" precision="FP32">
					<dim>-1</dim>
					<dim>65</dim>
					<dim>96</dim>
				</port>
				<port id="1" precision="FP32">
					<dim>1</dim>
					<dim>1</dim>
					<dim>96</dim>
				</port>
			</input>
			<output>
				<port id="2" precision="FP32" names="CCT_OCR_1/transformer_block_2_1/multi_head_attention_1_1/attention_output_1/BiasAdd:0">
					<dim>-1</dim>
					<dim>65</dim>
					<dim>96</dim>
				</port>
			</output>
		</layer>
		<layer id="195" name="CCT_OCR_1/transformer_block_2_1/add_16_1/Add" type="Add" version="opset1">
			<data auto_broadcast="numpy" />
			<input>
				<port id="0" precision="FP32">
					<dim>-1</dim>
					<dim>65</dim>
					<dim>96</dim>
				</port>
				<port id="1" precision="FP32">
					<dim>-1</dim>
					<dim>65</dim>
					<dim>96</dim>
				</port>
			</input>
			<output>
				<port id="2" precision="FP32" names="CCT_OCR_1/transformer_block_2_1/add_16_1/Add:0">
					<dim>-1</dim>
					<dim>65</dim>
					<dim>96</dim>
				</port>
			</output>
		</layer>
		<layer id="196" name="Constant_97841_compressed" type="Const" version="opset1">
			<data element_type="f16" shape="1, 1, 1" offset="886822" size="2" />
			<output>
				<port id="0" precision="FP16">
					<dim>1</dim>
					<dim>1</dim>
					<dim>1</dim>
				</port>
			</output>
		</layer>
		<layer id="197" name="Constant_97841" type="Convert" version="opset1">
			<data destination_type="f32" />
			<rt_info>
				<attribute name="decompression" version="0" />
			</rt_info>
			<input>
				<port id="0" precision="FP16">
					<dim>1</dim>
					<dim>1</dim>
					<dim>1</dim>
				</port>
			</input>
			<output>
				<port id="1" precision="FP32">
					<dim>1</dim>
					<dim>1</dim>
					<dim>1</dim>
				</port>
			</output>
		</layer>
		<layer id="198" name="CCT_OCR_1/transformer_block_2_1/dy_t_3_1/Mul" type="Multiply" version="opset1">
			<data auto_broadcast="numpy" />
			<input>
				<port id="0" precision="FP32">
					<dim>1</dim>
					<dim>1</dim>
					<dim>1</dim>
				</port>
				<port id="1" precision="FP32">
					<dim>-1</dim>
					<dim>65</dim>
					<dim>96</dim>
				</port>
			</input>
			<output>
				<port id="2" precision="FP32" names="CCT_OCR_1/transformer_block_2_1/dy_t_3_1/Mul:0">
					<dim>-1</dim>
					<dim>65</dim>
					<dim>96</dim>
				</port>
			</output>
		</layer>
		<layer id="199" name="CCT_OCR_1/transformer_block_2_1/dy_t_3_1/Tanh" type="Tanh" version="opset1">
			<input>
				<port id="0" precision="FP32">
					<dim>-1</dim>
					<dim>65</dim>
					<dim>96</dim>
				</port>
			</input>
			<output>
				<port id="1" precision="FP32" names="CCT_OCR_1/transformer_block_2_1/dy_t_3_1/Tanh:0">
					<dim>-1</dim>
					<dim>65</dim>
					<dim>96</dim>
				</port>
			</output>
		</layer>
		<layer id="200" name="Constant_97842_compressed" type="Const" version="opset1">
			<data element_type="f16" shape="1, 1, 96" offset="886824" size="192" />
			<output>
				<port id="0" precision="FP16">
					<dim>1</dim>
					<dim>1</dim>
					<dim>96</dim>
				</port>
			</output>
		</layer>
		<layer id="201" name="Constant_97842" type="Convert" version="opset1">
			<data destination_type="f32" />
			<rt_info>
				<attribute name="decompression" version="0" />
			</rt_info>
			<input>
				<port id="0" precision="FP16">
					<dim>1</dim>
					<dim>1</dim>
					<dim>96</dim>
				</port>
			</input>
			<output>
				<port id="1" precision="FP32">
					<dim>1</dim>
					<dim>1</dim>
					<dim>96</dim>
				</port>
			</output>
		</layer>
		<layer id="202" name="CCT_OCR_1/transformer_block_2_1/dy_t_3_1/mul_1" type="Multiply" version="opset1">
			<data auto_broadcast="numpy" />
			<input>
				<port id="0" precision="FP32">
					<dim>-1</dim>
					<dim>65</dim>
					<dim>96</dim>
				</port>
				<port id="1" precision="FP32">
					<dim>1</dim>
					<dim>1</dim>
					<dim>96</dim>
				</port>
			</input>
			<output>
				<port id="2" precision="FP32" names="CCT_OCR_1/transformer_block_2_1/dy_t_3_1/mul_1:0">
					<dim>-1</dim>
					<dim>65</dim>
					<dim>96</dim>
				</port>
			</output>
		</layer>
		<layer id="203" name="Constant_97843_compressed" type="Const" version="opset1">
			<data element_type="f16" shape="1, 1, 96" offset="887016" size="192" />
			<output>
				<port id="0" precision="FP16">
					<dim>1</dim>
					<dim>1</dim>
					<dim>96</dim>
				</port>
			</output>
		</layer>
		<layer id="204" name="Constant_97843" type="Convert" version="opset1">
			<data destination_type="f32" />
			<rt_info>
				<attribute name="decompression" version="0" />
			</rt_info>
			<input>
				<port id="0" precision="FP16">
					<dim>1</dim>
					<dim>1</dim>
					<dim>96</dim>
				</port>
			</input>
			<output>
				<port id="1" precision="FP32">
					<dim>1</dim>
					<dim>1</dim>
					<dim>96</dim>
				</port>
			</output>
		</layer>
		<layer id="205" name="CCT_OCR_1/transformer_block_2_1/dy_t_3_1/add" type="Add" version="opset1">
			<data auto_broadcast="numpy" />
			<input>
				<port id="0" precision="FP32">
					<dim>-1</dim>
					<dim>65</dim>
					<dim>96</dim>
				</port>
				<port id="1" precision="FP32">
					<dim>1</dim>
					<dim>1</dim>
					<dim>96</dim>
				</port>
			</input>
			<output>
				<port id="2" precision="FP32" names="CCT_OCR_1/transformer_block_2_1/dy_t_3_1/add:0">
					<dim>-1</dim>
					<dim>65</dim>
					<dim>96</dim>
				</port>
			</output>
		</layer>
		<layer id="206" name="Transpose_96262_compressed" type="Const" version="opset1">
			<data element_type="f16" shape="96, 96" offset="887208" size="18432" />
			<output>
				<port id="0" precision="FP16">
					<dim>96</dim>
					<dim>96</dim>
				</port>
			</output>
		</layer>
		<layer id="207" name="Transpose_96262" type="Convert" version="opset1">
			<data destination_type="f32" />
			<rt_info>
				<attribute name="decompression" version="0" />
			</rt_info>
			<input>
				<port id="0" precision="FP16">
					<dim>96</dim>
					<dim>96</dim>
				</port>
			</input>
			<output>
				<port id="1" precision="FP32">
					<dim>96</dim>
					<dim>96</dim>
				</port>
			</output>
		</layer>
		<layer id="208" name="CCT_OCR_1/transformer_block_2_1/mlp_1_1/dense_3_1/MatMul" type="MatMul" version="opset1">
			<data transpose_a="false" transpose_b="true" />
			<input>
				<port id="0" precision="FP32">
					<dim>-1</dim>
					<dim>65</dim>
					<dim>96</dim>
				</port>
				<port id="1" precision="FP32">
					<dim>96</dim>
					<dim>96</dim>
				</port>
			</input>
			<output>
				<port id="2" precision="FP32" names="CCT_OCR_1/transformer_block_2_1/mlp_1_1/dense_3_1/MatMul:0">
					<dim>-1</dim>
					<dim>65</dim>
					<dim>96</dim>
				</port>
			</output>
		</layer>
		<layer id="209" name="Constant_97844_compressed" type="Const" version="opset1">
			<data element_type="f16" shape="1, 1, 96" offset="905640" size="192" />
			<output>
				<port id="0" precision="FP16">
					<dim>1</dim>
					<dim>1</dim>
					<dim>96</dim>
				</port>
			</output>
		</layer>
		<layer id="210" name="Constant_97844" type="Convert" version="opset1">
			<data destination_type="f32" />
			<rt_info>
				<attribute name="decompression" version="0" />
			</rt_info>
			<input>
				<port id="0" precision="FP16">
					<dim>1</dim>
					<dim>1</dim>
					<dim>96</dim>
				</port>
			</input>
			<output>
				<port id="1" precision="FP32">
					<dim>1</dim>
					<dim>1</dim>
					<dim>96</dim>
				</port>
			</output>
		</layer>
		<layer id="211" name="CCT_OCR_1/transformer_block_2_1/mlp_1_1/dense_3_1/BiasAdd" type="Add" version="opset1">
			<data auto_broadcast="numpy" />
			<input>
				<port id="0" precision="FP32">
					<dim>-1</dim>
					<dim>65</dim>
					<dim>96</dim>
				</port>
				<port id="1" precision="FP32">
					<dim>1</dim>
					<dim>1</dim>
					<dim>96</dim>
				</port>
			</input>
			<output>
				<port id="2" precision="FP32" names="CCT_OCR_1/transformer_block_2_1/mlp_1_1/dense_3_1/BiasAdd:0">
					<dim>-1</dim>
					<dim>65</dim>
					<dim>96</dim>
				</port>
			</output>
		</layer>
		<layer id="212" name="CCT_OCR_1/transformer_block_2_1/mlp_1_1/dense_3_1/mul_1" type="Swish" version="opset4">
			<input>
				<port id="0" precision="FP32">
					<dim>-1</dim>
					<dim>65</dim>
					<dim>96</dim>
				</port>
			</input>
			<output>
				<port id="1" precision="FP32" names="CCT_OCR_1/transformer_block_2_1/mlp_1_1/dense_3_1/mul_1:0">
					<dim>-1</dim>
					<dim>65</dim>
					<dim>96</dim>
				</port>
			</output>
		</layer>
		<layer id="213" name="Transpose_96268_compressed" type="Const" version="opset1">
			<data element_type="f16" shape="96, 96" offset="905832" size="18432" />
			<output>
				<port id="0" precision="FP16">
					<dim>96</dim>
					<dim>96</dim>
				</port>
			</output>
		</layer>
		<layer id="214" name="Transpose_96268" type="Convert" version="opset1">
			<data destination_type="f32" />
			<rt_info>
				<attribute name="decompression" version="0" />
			</rt_info>
			<input>
				<port id="0" precision="FP16">
					<dim>96</dim>
					<dim>96</dim>
				</port>
			</input>
			<output>
				<port id="1" precision="FP32">
					<dim>96</dim>
					<dim>96</dim>
				</port>
			</output>
		</layer>
		<layer id="215" name="CCT_OCR_1/transformer_block_2_1/mlp_1_1/dense_4_1/MatMul" type="MatMul" version="opset1">
			<data transpose_a="false" transpose_b="true" />
			<input>
				<port id="0" precision="FP32">
					<dim>-1</dim>
					<dim>65</dim>
					<dim>96</dim>
				</port>
				<port id="1" precision="FP32">
					<dim>96</dim>
					<dim>96</dim>
				</port>
			</input>
			<output>
				<port id="2" precision="FP32" names="CCT_OCR_1/transformer_block_2_1/mlp_1_1/dense_4_1/MatMul:0">
					<dim>-1</dim>
					<dim>65</dim>
					<dim>96</dim>
				</port>
			</output>
		</layer>
		<layer id="216" name="Constant_97845" type="Const" version="opset1">
			<data element_type="f32" shape="1, 1, 96" offset="924264" size="384" />
			<output>
				<port id="0" precision="FP32">
					<dim>1</dim>
					<dim>1</dim>
					<dim>96</dim>
				</port>
			</output>
		</layer>
		<layer id="217" name="CCT_OCR_1/transformer_block_2_1/mlp_1_1/dense_4_1/BiasAdd" type="Add" version="opset1">
			<data auto_broadcast="numpy" />
			<input>
				<port id="0" precision="FP32">
					<dim>-1</dim>
					<dim>65</dim>
					<dim>96</dim>
				</port>
				<port id="1" precision="FP32">
					<dim>1</dim>
					<dim>1</dim>
					<dim>96</dim>
				</port>
			</input>
			<output>
				<port id="2" precision="FP32" names="CCT_OCR_1/transformer_block_2_1/mlp_1_1/dense_4_1/BiasAdd:0">
					<dim>-1</dim>
					<dim>65</dim>
					<dim>96</dim>
				</port>
			</output>
		</layer>
		<layer id="218" name="CCT_OCR_1/transformer_block_2_1/mlp_1_1/dense_4_1/mul_1" type="Swish" version="opset4">
			<input>
				<port id="0" precision="FP32">
					<dim>-1</dim>
					<dim>65</dim>
					<dim>96</dim>
				</port>
			</input>
			<output>
				<port id="1" precision="FP32" names="CCT_OCR_1/transformer_block_2_1/mlp_1_1/dense_4_1/mul_1:0">
					<dim>-1</dim>
					<dim>65</dim>
					<dim>96</dim>
				</port>
			</output>
		</layer>
		<layer id="219" name="CCT_OCR_1/transformer_block_2_1/add_17_1/Add" type="Add" version="opset1">
			<data auto_broadcast="numpy" />
			<input>
				<port id="0" precision="FP32">
					<dim>-1</dim>
					<dim>65</dim>
					<dim>96</dim>
				</port>
				<port id="1" precision="FP32">
					<dim>-1</dim>
					<dim>65</dim>
					<dim>96</dim>
				</port>
			</input>
			<output>
				<port id="2" precision="FP32" names="CCT_OCR_1/transformer_block_2_1/add_17_1/Add:0">
					<dim>-1</dim>
					<dim>65</dim>
					<dim>96</dim>
				</port>
			</output>
		</layer>
		<layer id="220" name="Constant_97846" type="Const" version="opset1">
			<data element_type="f32" shape="1, 1, 1" offset="924648" size="4" />
			<output>
				<port id="0" precision="FP32">
					<dim>1</dim>
					<dim>1</dim>
					<dim>1</dim>
				</port>
			</output>
		</layer>
		<layer id="221" name="CCT_OCR_1/transformer_block_3_1/dy_t_4_1/Mul" type="Multiply" version="opset1">
			<data auto_broadcast="numpy" />
			<input>
				<port id="0" precision="FP32">
					<dim>1</dim>
					<dim>1</dim>
					<dim>1</dim>
				</port>
				<port id="1" precision="FP32">
					<dim>-1</dim>
					<dim>65</dim>
					<dim>96</dim>
				</port>
			</input>
			<output>
				<port id="2" precision="FP32" names="CCT_OCR_1/transformer_block_3_1/dy_t_4_1/Mul:0">
					<dim>-1</dim>
					<dim>65</dim>
					<dim>96</dim>
				</port>
			</output>
		</layer>
		<layer id="222" name="CCT_OCR_1/transformer_block_3_1/dy_t_4_1/Tanh" type="Tanh" version="opset1">
			<input>
				<port id="0" precision="FP32">
					<dim>-1</dim>
					<dim>65</dim>
					<dim>96</dim>
				</port>
			</input>
			<output>
				<port id="1" precision="FP32" names="CCT_OCR_1/transformer_block_3_1/dy_t_4_1/Tanh:0">
					<dim>-1</dim>
					<dim>65</dim>
					<dim>96</dim>
				</port>
			</output>
		</layer>
		<layer id="223" name="Constant_97847_compressed" type="Const" version="opset1">
			<data element_type="f16" shape="1, 1, 96" offset="924652" size="192" />
			<output>
				<port id="0" precision="FP16">
					<dim>1</dim>
					<dim>1</dim>
					<dim>96</dim>
				</port>
			</output>
		</layer>
		<layer id="224" name="Constant_97847" type="Convert" version="opset1">
			<data destination_type="f32" />
			<rt_info>
				<attribute name="decompression" version="0" />
			</rt_info>
			<input>
				<port id="0" precision="FP16">
					<dim>1</dim>
					<dim>1</dim>
					<dim>96</dim>
				</port>
			</input>
			<output>
				<port id="1" precision="FP32">
					<dim>1</dim>
					<dim>1</dim>
					<dim>96</dim>
				</port>
			</output>
		</layer>
		<layer id="225" name="CCT_OCR_1/transformer_block_3_1/dy_t_4_1/mul_1" type="Multiply" version="opset1">
			<data auto_broadcast="numpy" />
			<input>
				<port id="0" precision="FP32">
					<dim>-1</dim>
					<dim>65</dim>
					<dim>96</dim>
				</port>
				<port id="1" precision="FP32">
					<dim>1</dim>
					<dim>1</dim>
					<dim>96</dim>
				</port>
			</input>
			<output>
				<port id="2" precision="FP32" names="CCT_OCR_1/transformer_block_3_1/dy_t_4_1/mul_1:0">
					<dim>-1</dim>
					<dim>65</dim>
					<dim>96</dim>
				</port>
			</output>
		</layer>
		<layer id="226" name="Constant_97848_compressed" type="Const" version="opset1">
			<data element_type="f16" shape="1, 1, 96" offset="924844" size="192" />
			<output>
				<port id="0" precision="FP16">
					<dim>1</dim>
					<dim>1</dim>
					<dim>96</dim>
				</port>
			</output>
		</layer>
		<layer id="227" name="Constant_97848" type="Convert" version="opset1">
			<data destination_type="f32" />
			<rt_info>
				<attribute name="decompression" version="0" />
			</rt_info>
			<input>
				<port id="0" precision="FP16">
					<dim>1</dim>
					<dim>1</dim>
					<dim>96</dim>
				</port>
			</input>
			<output>
				<port id="1" precision="FP32">
					<dim>1</dim>
					<dim>1</dim>
					<dim>96</dim>
				</port>
			</output>
		</layer>
		<layer id="228" name="CCT_OCR_1/transformer_block_3_1/dy_t_4_1/add" type="Add" version="opset1">
			<data auto_broadcast="numpy" />
			<input>
				<port id="0" precision="FP32">
					<dim>-1</dim>
					<dim>65</dim>
					<dim>96</dim>
				</port>
				<port id="1" precision="FP32">
					<dim>1</dim>
					<dim>1</dim>
					<dim>96</dim>
				</port>
			</input>
			<output>
				<port id="2" precision="FP32" names="CCT_OCR_1/transformer_block_3_1/dy_t_4_1/add:0">
					<dim>-1</dim>
					<dim>65</dim>
					<dim>96</dim>
				</port>
			</output>
		</layer>
		<layer id="229" name="Transpose_96284_compressed" type="Const" version="opset1">
			<data element_type="f16" shape="96, 96" offset="925036" size="18432" />
			<output>
				<port id="0" precision="FP16">
					<dim>96</dim>
					<dim>96</dim>
				</port>
			</output>
		</layer>
		<layer id="230" name="Transpose_96284" type="Convert" version="opset1">
			<data destination_type="f32" />
			<rt_info>
				<attribute name="decompression" version="0" />
			</rt_info>
			<input>
				<port id="0" precision="FP16">
					<dim>96</dim>
					<dim>96</dim>
				</port>
			</input>
			<output>
				<port id="1" precision="FP32">
					<dim>96</dim>
					<dim>96</dim>
				</port>
			</output>
		</layer>
		<layer id="231" name="CCT_OCR_1/transformer_block_3_1/multi_head_attention_2_1/key_1/MatMul" type="MatMul" version="opset1">
			<data transpose_a="false" transpose_b="true" />
			<input>
				<port id="0" precision="FP32">
					<dim>-1</dim>
					<dim>65</dim>
					<dim>96</dim>
				</port>
				<port id="1" precision="FP32">
					<dim>96</dim>
					<dim>96</dim>
				</port>
			</input>
			<output>
				<port id="2" precision="FP32" names="CCT_OCR_1/transformer_block_3_1/multi_head_attention_2_1/key_1/MatMul:0">
					<dim>-1</dim>
					<dim>65</dim>
					<dim>96</dim>
				</port>
			</output>
		</layer>
		<layer id="232" name="CCT_OCR_1/transformer_block_3_1/multi_head_attention_2_1/key_1/Reshape_1" type="Reshape" version="opset1">
			<data special_zero="true" />
			<input>
				<port id="0" precision="FP32">
					<dim>-1</dim>
					<dim>65</dim>
					<dim>96</dim>
				</port>
				<port id="1" precision="I64">
					<dim>4</dim>
				</port>
			</input>
			<output>
				<port id="2" precision="FP32" names="CCT_OCR_1/transformer_block_3_1/multi_head_attention_2_1/key_1/Reshape_1:0">
					<dim>-1</dim>
					<dim>65</dim>
					<dim>2</dim>
					<dim>48</dim>
				</port>
			</output>
		</layer>
		<layer id="233" name="Constant_97849_compressed" type="Const" version="opset1">
			<data element_type="f16" shape="1, 1, 2, 48" offset="943468" size="192" />
			<output>
				<port id="0" precision="FP16">
					<dim>1</dim>
					<dim>1</dim>
					<dim>2</dim>
					<dim>48</dim>
				</port>
			</output>
		</layer>
		<layer id="234" name="Constant_97849" type="Convert" version="opset1">
			<data destination_type="f32" />
			<rt_info>
				<attribute name="decompression" version="0" />
			</rt_info>
			<input>
				<port id="0" precision="FP16">
					<dim>1</dim>
					<dim>1</dim>
					<dim>2</dim>
					<dim>48</dim>
				</port>
			</input>
			<output>
				<port id="1" precision="FP32">
					<dim>1</dim>
					<dim>1</dim>
					<dim>2</dim>
					<dim>48</dim>
				</port>
			</output>
		</layer>
		<layer id="235" name="CCT_OCR_1/transformer_block_3_1/multi_head_attention_2_1/key_1/Add" type="Add" version="opset1">
			<data auto_broadcast="numpy" />
			<input>
				<port id="0" precision="FP32">
					<dim>-1</dim>
					<dim>65</dim>
					<dim>2</dim>
					<dim>48</dim>
				</port>
				<port id="1" precision="FP32">
					<dim>1</dim>
					<dim>1</dim>
					<dim>2</dim>
					<dim>48</dim>
				</port>
			</input>
			<output>
				<port id="2" precision="FP32" names="CCT_OCR_1/transformer_block_3_1/multi_head_attention_2_1/key_1/Add:0">
					<dim>-1</dim>
					<dim>65</dim>
					<dim>2</dim>
					<dim>48</dim>
				</port>
			</output>
		</layer>
		<layer id="236" name="Constant_92424" type="Const" version="opset1">
			<data element_type="i64" shape="4" offset="717986" size="32" />
			<output>
				<port id="0" precision="I64">
					<dim>4</dim>
				</port>
			</output>
		</layer>
		<layer id="237" name="CCT_OCR_1/transformer_block_3_1/multi_head_attention_2_1/transpose" type="Transpose" version="opset1">
			<input>
				<port id="0" precision="FP32">
					<dim>-1</dim>
					<dim>65</dim>
					<dim>2</dim>
					<dim>48</dim>
				</port>
				<port id="1" precision="I64">
					<dim>4</dim>
				</port>
			</input>
			<output>
				<port id="2" precision="FP32" names="CCT_OCR_1/transformer_block_3_1/multi_head_attention_2_1/transpose:0">
					<dim>-1</dim>
					<dim>2</dim>
					<dim>65</dim>
					<dim>48</dim>
				</port>
			</output>
		</layer>
		<layer id="238" name="Transpose_96289_compressed" type="Const" version="opset1">
			<data element_type="f16" shape="96, 96" offset="943660" size="18432" />
			<output>
				<port id="0" precision="FP16">
					<dim>96</dim>
					<dim>96</dim>
				</port>
			</output>
		</layer>
		<layer id="239" name="Transpose_96289" type="Convert" version="opset1">
			<data destination_type="f32" />
			<rt_info>
				<attribute name="decompression" version="0" />
			</rt_info>
			<input>
				<port id="0" precision="FP16">
					<dim>96</dim>
					<dim>96</dim>
				</port>
			</input>
			<output>
				<port id="1" precision="FP32">
					<dim>96</dim>
					<dim>96</dim>
				</port>
			</output>
		</layer>
		<layer id="240" name="CCT_OCR_1/transformer_block_3_1/multi_head_attention_2_1/query_1/MatMul" type="MatMul" version="opset1">
			<data transpose_a="false" transpose_b="true" />
			<input>
				<port id="0" precision="FP32">
					<dim>-1</dim>
					<dim>65</dim>
					<dim>96</dim>
				</port>
				<port id="1" precision="FP32">
					<dim>96</dim>
					<dim>96</dim>
				</port>
			</input>
			<output>
				<port id="2" precision="FP32" names="CCT_OCR_1/transformer_block_3_1/multi_head_attention_2_1/query_1/MatMul:0">
					<dim>-1</dim>
					<dim>65</dim>
					<dim>96</dim>
				</port>
			</output>
		</layer>
		<layer id="241" name="CCT_OCR_1/transformer_block_3_1/multi_head_attention_2_1/query_1/Reshape_1" type="Reshape" version="opset1">
			<data special_zero="true" />
			<input>
				<port id="0" precision="FP32">
					<dim>-1</dim>
					<dim>65</dim>
					<dim>96</dim>
				</port>
				<port id="1" precision="I64">
					<dim>4</dim>
				</port>
			</input>
			<output>
				<port id="2" precision="FP32" names="CCT_OCR_1/transformer_block_3_1/multi_head_attention_2_1/query_1/Reshape_1:0">
					<dim>-1</dim>
					<dim>65</dim>
					<dim>2</dim>
					<dim>48</dim>
				</port>
			</output>
		</layer>
		<layer id="242" name="Constant_97850" type="Const" version="opset1">
			<data element_type="f32" shape="1, 1, 1, 1" offset="736450" size="4" />
			<output>
				<port id="0" precision="FP32">
					<dim>1</dim>
					<dim>1</dim>
					<dim>1</dim>
					<dim>1</dim>
				</port>
			</output>
		</layer>
		<layer id="243" name="Multiply_97625" type="Multiply" version="opset1">
			<data auto_broadcast="numpy" />
			<input>
				<port id="0" precision="FP32">
					<dim>-1</dim>
					<dim>65</dim>
					<dim>2</dim>
					<dim>48</dim>
				</port>
				<port id="1" precision="FP32">
					<dim>1</dim>
					<dim>1</dim>
					<dim>1</dim>
					<dim>1</dim>
				</port>
			</input>
			<output>
				<port id="2" precision="FP32">
					<dim>-1</dim>
					<dim>65</dim>
					<dim>2</dim>
					<dim>48</dim>
				</port>
			</output>
		</layer>
		<layer id="244" name="Constant_97851" type="Const" version="opset1">
			<data element_type="f32" shape="1, 1, 2, 48" offset="962092" size="384" />
			<output>
				<port id="0" precision="FP32">
					<dim>1</dim>
					<dim>1</dim>
					<dim>2</dim>
					<dim>48</dim>
				</port>
			</output>
		</layer>
		<layer id="245" name="CCT_OCR_1/transformer_block_3_1/multi_head_attention_2_1/Mul" type="Add" version="opset1">
			<data auto_broadcast="numpy" />
			<input>
				<port id="0" precision="FP32">
					<dim>-1</dim>
					<dim>65</dim>
					<dim>2</dim>
					<dim>48</dim>
				</port>
				<port id="1" precision="FP32">
					<dim>1</dim>
					<dim>1</dim>
					<dim>2</dim>
					<dim>48</dim>
				</port>
			</input>
			<output>
				<port id="2" precision="FP32" names="CCT_OCR_1/transformer_block_3_1/multi_head_attention_2_1/Mul:0">
					<dim>-1</dim>
					<dim>65</dim>
					<dim>2</dim>
					<dim>48</dim>
				</port>
			</output>
		</layer>
		<layer id="246" name="Constant_92426" type="Const" version="opset1">
			<data element_type="i64" shape="4" offset="612486" size="32" />
			<output>
				<port id="0" precision="I64">
					<dim>4</dim>
				</port>
			</output>
		</layer>
		<layer id="247" name="CCT_OCR_1/transformer_block_3_1/multi_head_attention_2_1/transpose_1" type="Transpose" version="opset1">
			<input>
				<port id="0" precision="FP32">
					<dim>-1</dim>
					<dim>65</dim>
					<dim>2</dim>
					<dim>48</dim>
				</port>
				<port id="1" precision="I64">
					<dim>4</dim>
				</port>
			</input>
			<output>
				<port id="2" precision="FP32" names="CCT_OCR_1/transformer_block_3_1/multi_head_attention_2_1/transpose_1:0">
					<dim>-1</dim>
					<dim>2</dim>
					<dim>48</dim>
					<dim>65</dim>
				</port>
			</output>
		</layer>
		<layer id="248" name="CCT_OCR_1/transformer_block_3_1/multi_head_attention_2_1/MatMul" type="MatMul" version="opset1">
			<data transpose_a="false" transpose_b="false" />
			<input>
				<port id="0" precision="FP32">
					<dim>-1</dim>
					<dim>2</dim>
					<dim>65</dim>
					<dim>48</dim>
				</port>
				<port id="1" precision="FP32">
					<dim>-1</dim>
					<dim>2</dim>
					<dim>48</dim>
					<dim>65</dim>
				</port>
			</input>
			<output>
				<port id="2" precision="FP32" names="CCT_OCR_1/transformer_block_3_1/multi_head_attention_2_1/MatMul:0">
					<dim>-1</dim>
					<dim>2</dim>
					<dim>65</dim>
					<dim>65</dim>
				</port>
			</output>
		</layer>
		<layer id="249" name="CCT_OCR_1/transformer_block_3_1/multi_head_attention_2_1/softmax_3_1/Softmax" type="SoftMax" version="opset8">
			<data axis="2" />
			<input>
				<port id="0" precision="FP32">
					<dim>-1</dim>
					<dim>2</dim>
					<dim>65</dim>
					<dim>65</dim>
				</port>
			</input>
			<output>
				<port id="1" precision="FP32" names="CCT_OCR_1/transformer_block_3_1/multi_head_attention_2_1/softmax_3_1/Softmax:0">
					<dim>-1</dim>
					<dim>2</dim>
					<dim>65</dim>
					<dim>65</dim>
				</port>
			</output>
		</layer>
		<layer id="250" name="Transpose_96296_compressed" type="Const" version="opset1">
			<data element_type="f16" shape="96, 96" offset="962476" size="18432" />
			<output>
				<port id="0" precision="FP16">
					<dim>96</dim>
					<dim>96</dim>
				</port>
			</output>
		</layer>
		<layer id="251" name="Transpose_96296" type="Convert" version="opset1">
			<data destination_type="f32" />
			<rt_info>
				<attribute name="decompression" version="0" />
			</rt_info>
			<input>
				<port id="0" precision="FP16">
					<dim>96</dim>
					<dim>96</dim>
				</port>
			</input>
			<output>
				<port id="1" precision="FP32">
					<dim>96</dim>
					<dim>96</dim>
				</port>
			</output>
		</layer>
		<layer id="252" name="CCT_OCR_1/transformer_block_3_1/multi_head_attention_2_1/value_1/MatMul" type="MatMul" version="opset1">
			<data transpose_a="false" transpose_b="true" />
			<input>
				<port id="0" precision="FP32">
					<dim>-1</dim>
					<dim>65</dim>
					<dim>96</dim>
				</port>
				<port id="1" precision="FP32">
					<dim>96</dim>
					<dim>96</dim>
				</port>
			</input>
			<output>
				<port id="2" precision="FP32" names="CCT_OCR_1/transformer_block_3_1/multi_head_attention_2_1/value_1/MatMul:0">
					<dim>-1</dim>
					<dim>65</dim>
					<dim>96</dim>
				</port>
			</output>
		</layer>
		<layer id="253" name="CCT_OCR_1/transformer_block_3_1/multi_head_attention_2_1/value_1/Reshape_1" type="Reshape" version="opset1">
			<data special_zero="true" />
			<input>
				<port id="0" precision="FP32">
					<dim>-1</dim>
					<dim>65</dim>
					<dim>96</dim>
				</port>
				<port id="1" precision="I64">
					<dim>4</dim>
				</port>
			</input>
			<output>
				<port id="2" precision="FP32" names="CCT_OCR_1/transformer_block_3_1/multi_head_attention_2_1/value_1/Reshape_1:0">
					<dim>-1</dim>
					<dim>65</dim>
					<dim>2</dim>
					<dim>48</dim>
				</port>
			</output>
		</layer>
		<layer id="254" name="Constant_97852_compressed" type="Const" version="opset1">
			<data element_type="f16" shape="1, 1, 2, 48" offset="980908" size="192" />
			<output>
				<port id="0" precision="FP16">
					<dim>1</dim>
					<dim>1</dim>
					<dim>2</dim>
					<dim>48</dim>
				</port>
			</output>
		</layer>
		<layer id="255" name="Constant_97852" type="Convert" version="opset1">
			<data destination_type="f32" />
			<rt_info>
				<attribute name="decompression" version="0" />
			</rt_info>
			<input>
				<port id="0" precision="FP16">
					<dim>1</dim>
					<dim>1</dim>
					<dim>2</dim>
					<dim>48</dim>
				</port>
			</input>
			<output>
				<port id="1" precision="FP32">
					<dim>1</dim>
					<dim>1</dim>
					<dim>2</dim>
					<dim>48</dim>
				</port>
			</output>
		</layer>
		<layer id="256" name="CCT_OCR_1/transformer_block_3_1/multi_head_attention_2_1/value_1/Add" type="Add" version="opset1">
			<data auto_broadcast="numpy" />
			<input>
				<port id="0" precision="FP32">
					<dim>-1</dim>
					<dim>65</dim>
					<dim>2</dim>
					<dim>48</dim>
				</port>
				<port id="1" precision="FP32">
					<dim>1</dim>
					<dim>1</dim>
					<dim>2</dim>
					<dim>48</dim>
				</port>
			</input>
			<output>
				<port id="2" precision="FP32" names="CCT_OCR_1/transformer_block_3_1/multi_head_attention_2_1/value_1/Add:0">
					<dim>-1</dim>
					<dim>65</dim>
					<dim>2</dim>
					<dim>48</dim>
				</port>
			</output>
		</layer>
		<layer id="257" name="Constant_92421" type="Const" version="opset1">
			<data element_type="i64" shape="4" offset="717986" size="32" />
			<output>
				<port id="0" precision="I64">
					<dim>4</dim>
				</port>
			</output>
		</layer>
		<layer id="258" name="CCT_OCR_1/transformer_block_3_1/multi_head_attention_2_1/transpose_3" type="Transpose" version="opset1">
			<input>
				<port id="0" precision="FP32">
					<dim>-1</dim>
					<dim>65</dim>
					<dim>2</dim>
					<dim>48</dim>
				</port>
				<port id="1" precision="I64">
					<dim>4</dim>
				</port>
			</input>
			<output>
				<port id="2" precision="FP32" names="CCT_OCR_1/transformer_block_3_1/multi_head_attention_2_1/transpose_3:0">
					<dim>-1</dim>
					<dim>2</dim>
					<dim>65</dim>
					<dim>48</dim>
				</port>
			</output>
		</layer>
		<layer id="259" name="CCT_OCR_1/transformer_block_3_1/multi_head_attention_2_1/MatMul_1" type="MatMul" version="opset1">
			<data transpose_a="true" transpose_b="false" />
			<input>
				<port id="0" precision="FP32">
					<dim>-1</dim>
					<dim>2</dim>
					<dim>65</dim>
					<dim>65</dim>
				</port>
				<port id="1" precision="FP32">
					<dim>-1</dim>
					<dim>2</dim>
					<dim>65</dim>
					<dim>48</dim>
				</port>
			</input>
			<output>
				<port id="2" precision="FP32" names="CCT_OCR_1/transformer_block_3_1/multi_head_attention_2_1/MatMul_1:0">
					<dim>-1</dim>
					<dim>2</dim>
					<dim>65</dim>
					<dim>48</dim>
				</port>
			</output>
		</layer>
		<layer id="260" name="Constant_92433" type="Const" version="opset1">
			<data element_type="i64" shape="4" offset="717986" size="32" />
			<output>
				<port id="0" precision="I64">
					<dim>4</dim>
				</port>
			</output>
		</layer>
		<layer id="261" name="CCT_OCR_1/transformer_block_3_1/multi_head_attention_2_1/transpose_4" type="Transpose" version="opset1">
			<input>
				<port id="0" precision="FP32">
					<dim>-1</dim>
					<dim>2</dim>
					<dim>65</dim>
					<dim>48</dim>
				</port>
				<port id="1" precision="I64">
					<dim>4</dim>
				</port>
			</input>
			<output>
				<port id="2" precision="FP32" names="CCT_OCR_1/transformer_block_3_1/multi_head_attention_2_1/transpose_4:0">
					<dim>-1</dim>
					<dim>65</dim>
					<dim>2</dim>
					<dim>48</dim>
				</port>
			</output>
		</layer>
		<layer id="262" name="CCT_OCR_1/transformer_block_3_1/multi_head_attention_2_1/attention_output_1/Reshape" type="Reshape" version="opset1">
			<data special_zero="true" />
			<input>
				<port id="0" precision="FP32">
					<dim>-1</dim>
					<dim>65</dim>
					<dim>2</dim>
					<dim>48</dim>
				</port>
				<port id="1" precision="I64">
					<dim>3</dim>
				</port>
			</input>
			<output>
				<port id="2" precision="FP32" names="CCT_OCR_1/transformer_block_3_1/multi_head_attention_2_1/attention_output_1/Reshape:0">
					<dim>-1</dim>
					<dim>65</dim>
					<dim>96</dim>
				</port>
			</output>
		</layer>
		<layer id="263" name="Transpose_96301_compressed" type="Const" version="opset1">
			<data element_type="f16" shape="96, 96" offset="981100" size="18432" />
			<output>
				<port id="0" precision="FP16">
					<dim>96</dim>
					<dim>96</dim>
				</port>
			</output>
		</layer>
		<layer id="264" name="Transpose_96301" type="Convert" version="opset1">
			<data destination_type="f32" />
			<rt_info>
				<attribute name="decompression" version="0" />
			</rt_info>
			<input>
				<port id="0" precision="FP16">
					<dim>96</dim>
					<dim>96</dim>
				</port>
			</input>
			<output>
				<port id="1" precision="FP32">
					<dim>96</dim>
					<dim>96</dim>
				</port>
			</output>
		</layer>
		<layer id="265" name="CCT_OCR_1/transformer_block_3_1/multi_head_attention_2_1/attention_output_1/MatMul" type="MatMul" version="opset1">
			<data transpose_a="false" transpose_b="true" />
			<input>
				<port id="0" precision="FP32">
					<dim>-1</dim>
					<dim>65</dim>
					<dim>96</dim>
				</port>
				<port id="1" precision="FP32">
					<dim>96</dim>
					<dim>96</dim>
				</port>
			</input>
			<output>
				<port id="2" precision="FP32" names="CCT_OCR_1/transformer_block_3_1/multi_head_attention_2_1/attention_output_1/MatMul:0">
					<dim>-1</dim>
					<dim>65</dim>
					<dim>96</dim>
				</port>
			</output>
		</layer>
		<layer id="266" name="Constant_97853_compressed" type="Const" version="opset1">
			<data element_type="f16" shape="1, 1, 96" offset="999532" size="192" />
			<output>
				<port id="0" precision="FP16">
					<dim>1</dim>
					<dim>1</dim>
					<dim>96</dim>
				</port>
			</output>
		</layer>
		<layer id="267" name="Constant_97853" type="Convert" version="opset1">
			<data destination_type="f32" />
			<rt_info>
				<attribute name="decompression" version="0" />
			</rt_info>
			<input>
				<port id="0" precision="FP16">
					<dim>1</dim>
					<dim>1</dim>
					<dim>96</dim>
				</port>
			</input>
			<output>
				<port id="1" precision="FP32">
					<dim>1</dim>
					<dim>1</dim>
					<dim>96</dim>
				</port>
			</output>
		</layer>
		<layer id="268" name="CCT_OCR_1/transformer_block_3_1/multi_head_attention_2_1/attention_output_1/BiasAdd" type="Add" version="opset1">
			<data auto_broadcast="numpy" />
			<input>
				<port id="0" precision="FP32">
					<dim>-1</dim>
					<dim>65</dim>
					<dim>96</dim>
				</port>
				<port id="1" precision="FP32">
					<dim>1</dim>
					<dim>1</dim>
					<dim>96</dim>
				</port>
			</input>
			<output>
				<port id="2" precision="FP32" names="CCT_OCR_1/transformer_block_3_1/multi_head_attention_2_1/attention_output_1/BiasAdd:0">
					<dim>-1</dim>
					<dim>65</dim>
					<dim>96</dim>
				</port>
			</output>
		</layer>
		<layer id="269" name="CCT_OCR_1/transformer_block_3_1/add_18_1/Add" type="Add" version="opset1">
			<data auto_broadcast="numpy" />
			<input>
				<port id="0" precision="FP32">
					<dim>-1</dim>
					<dim>65</dim>
					<dim>96</dim>
				</port>
				<port id="1" precision="FP32">
					<dim>-1</dim>
					<dim>65</dim>
					<dim>96</dim>
				</port>
			</input>
			<output>
				<port id="2" precision="FP32" names="CCT_OCR_1/transformer_block_3_1/add_18_1/Add:0">
					<dim>-1</dim>
					<dim>65</dim>
					<dim>96</dim>
				</port>
			</output>
		</layer>
		<layer id="270" name="Constant_97854" type="Const" version="opset1">
			<data element_type="f32" shape="1, 1, 1" offset="999724" size="4" />
			<output>
				<port id="0" precision="FP32">
					<dim>1</dim>
					<dim>1</dim>
					<dim>1</dim>
				</port>
			</output>
		</layer>
		<layer id="271" name="CCT_OCR_1/transformer_block_3_1/dy_t_5_1/Mul" type="Multiply" version="opset1">
			<data auto_broadcast="numpy" />
			<input>
				<port id="0" precision="FP32">
					<dim>1</dim>
					<dim>1</dim>
					<dim>1</dim>
				</port>
				<port id="1" precision="FP32">
					<dim>-1</dim>
					<dim>65</dim>
					<dim>96</dim>
				</port>
			</input>
			<output>
				<port id="2" precision="FP32" names="CCT_OCR_1/transformer_block_3_1/dy_t_5_1/Mul:0">
					<dim>-1</dim>
					<dim>65</dim>
					<dim>96</dim>
				</port>
			</output>
		</layer>
		<layer id="272" name="CCT_OCR_1/transformer_block_3_1/dy_t_5_1/Tanh" type="Tanh" version="opset1">
			<input>
				<port id="0" precision="FP32">
					<dim>-1</dim>
					<dim>65</dim>
					<dim>96</dim>
				</port>
			</input>
			<output>
				<port id="1" precision="FP32" names="CCT_OCR_1/transformer_block_3_1/dy_t_5_1/Tanh:0">
					<dim>-1</dim>
					<dim>65</dim>
					<dim>96</dim>
				</port>
			</output>
		</layer>
		<layer id="273" name="Constant_97855" type="Const" version="opset1">
			<data element_type="f32" shape="1, 1, 96" offset="999728" size="384" />
			<output>
				<port id="0" precision="FP32">
					<dim>1</dim>
					<dim>1</dim>
					<dim>96</dim>
				</port>
			</output>
		</layer>
		<layer id="274" name="CCT_OCR_1/transformer_block_3_1/dy_t_5_1/mul_1" type="Multiply" version="opset1">
			<data auto_broadcast="numpy" />
			<input>
				<port id="0" precision="FP32">
					<dim>-1</dim>
					<dim>65</dim>
					<dim>96</dim>
				</port>
				<port id="1" precision="FP32">
					<dim>1</dim>
					<dim>1</dim>
					<dim>96</dim>
				</port>
			</input>
			<output>
				<port id="2" precision="FP32" names="CCT_OCR_1/transformer_block_3_1/dy_t_5_1/mul_1:0">
					<dim>-1</dim>
					<dim>65</dim>
					<dim>96</dim>
				</port>
			</output>
		</layer>
		<layer id="275" name="Constant_97856_compressed" type="Const" version="opset1">
			<data element_type="f16" shape="1, 1, 96" offset="1000112" size="192" />
			<output>
				<port id="0" precision="FP16">
					<dim>1</dim>
					<dim>1</dim>
					<dim>96</dim>
				</port>
			</output>
		</layer>
		<layer id="276" name="Constant_97856" type="Convert" version="opset1">
			<data destination_type="f32" />
			<rt_info>
				<attribute name="decompression" version="0" />
			</rt_info>
			<input>
				<port id="0" precision="FP16">
					<dim>1</dim>
					<dim>1</dim>
					<dim>96</dim>
				</port>
			</input>
			<output>
				<port id="1" precision="FP32">
					<dim>1</dim>
					<dim>1</dim>
					<dim>96</dim>
				</port>
			</output>
		</layer>
		<layer id="277" name="CCT_OCR_1/transformer_block_3_1/dy_t_5_1/add" type="Add" version="opset1">
			<data auto_broadcast="numpy" />
			<input>
				<port id="0" precision="FP32">
					<dim>-1</dim>
					<dim>65</dim>
					<dim>96</dim>
				</port>
				<port id="1" precision="FP32">
					<dim>1</dim>
					<dim>1</dim>
					<dim>96</dim>
				</port>
			</input>
			<output>
				<port id="2" precision="FP32" names="CCT_OCR_1/transformer_block_3_1/dy_t_5_1/add:0">
					<dim>-1</dim>
					<dim>65</dim>
					<dim>96</dim>
				</port>
			</output>
		</layer>
		<layer id="278" name="Transpose_96316_compressed" type="Const" version="opset1">
			<data element_type="f16" shape="96, 96" offset="1000304" size="18432" />
			<output>
				<port id="0" precision="FP16">
					<dim>96</dim>
					<dim>96</dim>
				</port>
			</output>
		</layer>
		<layer id="279" name="Transpose_96316" type="Convert" version="opset1">
			<data destination_type="f32" />
			<rt_info>
				<attribute name="decompression" version="0" />
			</rt_info>
			<input>
				<port id="0" precision="FP16">
					<dim>96</dim>
					<dim>96</dim>
				</port>
			</input>
			<output>
				<port id="1" precision="FP32">
					<dim>96</dim>
					<dim>96</dim>
				</port>
			</output>
		</layer>
		<layer id="280" name="CCT_OCR_1/transformer_block_3_1/mlp_2_1/dense_5_1/MatMul" type="MatMul" version="opset1">
			<data transpose_a="false" transpose_b="true" />
			<input>
				<port id="0" precision="FP32">
					<dim>-1</dim>
					<dim>65</dim>
					<dim>96</dim>
				</port>
				<port id="1" precision="FP32">
					<dim>96</dim>
					<dim>96</dim>
				</port>
			</input>
			<output>
				<port id="2" precision="FP32" names="CCT_OCR_1/transformer_block_3_1/mlp_2_1/dense_5_1/MatMul:0">
					<dim>-1</dim>
					<dim>65</dim>
					<dim>96</dim>
				</port>
			</output>
		</layer>
		<layer id="281" name="Constant_97857_compressed" type="Const" version="opset1">
			<data element_type="f16" shape="1, 1, 96" offset="1018736" size="192" />
			<output>
				<port id="0" precision="FP16">
					<dim>1</dim>
					<dim>1</dim>
					<dim>96</dim>
				</port>
			</output>
		</layer>
		<layer id="282" name="Constant_97857" type="Convert" version="opset1">
			<data destination_type="f32" />
			<rt_info>
				<attribute name="decompression" version="0" />
			</rt_info>
			<input>
				<port id="0" precision="FP16">
					<dim>1</dim>
					<dim>1</dim>
					<dim>96</dim>
				</port>
			</input>
			<output>
				<port id="1" precision="FP32">
					<dim>1</dim>
					<dim>1</dim>
					<dim>96</dim>
				</port>
			</output>
		</layer>
		<layer id="283" name="CCT_OCR_1/transformer_block_3_1/mlp_2_1/dense_5_1/BiasAdd" type="Add" version="opset1">
			<data auto_broadcast="numpy" />
			<input>
				<port id="0" precision="FP32">
					<dim>-1</dim>
					<dim>65</dim>
					<dim>96</dim>
				</port>
				<port id="1" precision="FP32">
					<dim>1</dim>
					<dim>1</dim>
					<dim>96</dim>
				</port>
			</input>
			<output>
				<port id="2" precision="FP32" names="CCT_OCR_1/transformer_block_3_1/mlp_2_1/dense_5_1/BiasAdd:0">
					<dim>-1</dim>
					<dim>65</dim>
					<dim>96</dim>
				</port>
			</output>
		</layer>
		<layer id="284" name="CCT_OCR_1/transformer_block_3_1/mlp_2_1/dense_5_1/mul_1" type="Swish" version="opset4">
			<input>
				<port id="0" precision="FP32">
					<dim>-1</dim>
					<dim>65</dim>
					<dim>96</dim>
				</port>
			</input>
			<output>
				<port id="1" precision="FP32" names="CCT_OCR_1/transformer_block_3_1/mlp_2_1/dense_5_1/mul_1:0">
					<dim>-1</dim>
					<dim>65</dim>
					<dim>96</dim>
				</port>
			</output>
		</layer>
		<layer id="285" name="Transpose_96322_compressed" type="Const" version="opset1">
			<data element_type="f16" shape="96, 96" offset="1018928" size="18432" />
			<output>
				<port id="0" precision="FP16">
					<dim>96</dim>
					<dim>96</dim>
				</port>
			</output>
		</layer>
		<layer id="286" name="Transpose_96322" type="Convert" version="opset1">
			<data destination_type="f32" />
			<rt_info>
				<attribute name="decompression" version="0" />
			</rt_info>
			<input>
				<port id="0" precision="FP16">
					<dim>96</dim>
					<dim>96</dim>
				</port>
			</input>
			<output>
				<port id="1" precision="FP32">
					<dim>96</dim>
					<dim>96</dim>
				</port>
			</output>
		</layer>
		<layer id="287" name="CCT_OCR_1/transformer_block_3_1/mlp_2_1/dense_6_1/MatMul" type="MatMul" version="opset1">
			<data transpose_a="false" transpose_b="true" />
			<input>
				<port id="0" precision="FP32">
					<dim>-1</dim>
					<dim>65</dim>
					<dim>96</dim>
				</port>
				<port id="1" precision="FP32">
					<dim>96</dim>
					<dim>96</dim>
				</port>
			</input>
			<output>
				<port id="2" precision="FP32" names="CCT_OCR_1/transformer_block_3_1/mlp_2_1/dense_6_1/MatMul:0">
					<dim>-1</dim>
					<dim>65</dim>
					<dim>96</dim>
				</port>
			</output>
		</layer>
		<layer id="288" name="Constant_97858_compressed" type="Const" version="opset1">
			<data element_type="f16" shape="1, 1, 96" offset="1037360" size="192" />
			<output>
				<port id="0" precision="FP16">
					<dim>1</dim>
					<dim>1</dim>
					<dim>96</dim>
				</port>
			</output>
		</layer>
		<layer id="289" name="Constant_97858" type="Convert" version="opset1">
			<data destination_type="f32" />
			<rt_info>
				<attribute name="decompression" version="0" />
			</rt_info>
			<input>
				<port id="0" precision="FP16">
					<dim>1</dim>
					<dim>1</dim>
					<dim>96</dim>
				</port>
			</input>
			<output>
				<port id="1" precision="FP32">
					<dim>1</dim>
					<dim>1</dim>
					<dim>96</dim>
				</port>
			</output>
		</layer>
		<layer id="290" name="CCT_OCR_1/transformer_block_3_1/mlp_2_1/dense_6_1/BiasAdd" type="Add" version="opset1">
			<data auto_broadcast="numpy" />
			<input>
				<port id="0" precision="FP32">
					<dim>-1</dim>
					<dim>65</dim>
					<dim>96</dim>
				</port>
				<port id="1" precision="FP32">
					<dim>1</dim>
					<dim>1</dim>
					<dim>96</dim>
				</port>
			</input>
			<output>
				<port id="2" precision="FP32" names="CCT_OCR_1/transformer_block_3_1/mlp_2_1/dense_6_1/BiasAdd:0">
					<dim>-1</dim>
					<dim>65</dim>
					<dim>96</dim>
				</port>
			</output>
		</layer>
		<layer id="291" name="CCT_OCR_1/transformer_block_3_1/mlp_2_1/dense_6_1/mul_1" type="Swish" version="opset4">
			<input>
				<port id="0" precision="FP32">
					<dim>-1</dim>
					<dim>65</dim>
					<dim>96</dim>
				</port>
			</input>
			<output>
				<port id="1" precision="FP32" names="CCT_OCR_1/transformer_block_3_1/mlp_2_1/dense_6_1/mul_1:0">
					<dim>-1</dim>
					<dim>65</dim>
					<dim>96</dim>
				</port>
			</output>
		</layer>
		<layer id="292" name="CCT_OCR_1/transformer_block_3_1/add_19_1/Add" type="Add" version="opset1">
			<data auto_broadcast="numpy" />
			<input>
				<port id="0" precision="FP32">
					<dim>-1</dim>
					<dim>65</dim>
					<dim>96</dim>
				</port>
				<port id="1" precision="FP32">
					<dim>-1</dim>
					<dim>65</dim>
					<dim>96</dim>
				</port>
			</input>
			<output>
				<port id="2" precision="FP32" names="CCT_OCR_1/transformer_block_3_1/add_19_1/Add:0">
					<dim>-1</dim>
					<dim>65</dim>
					<dim>96</dim>
				</port>
			</output>
		</layer>
		<layer id="293" name="Transpose_96330_compressed" type="Const" version="opset1">
			<data element_type="f16" shape="96, 96" offset="1037552" size="18432" />
			<output>
				<port id="0" precision="FP16">
					<dim>96</dim>
					<dim>96</dim>
				</port>
			</output>
		</layer>
		<layer id="294" name="Transpose_96330" type="Convert" version="opset1">
			<data destination_type="f32" />
			<rt_info>
				<attribute name="decompression" version="0" />
			</rt_info>
			<input>
				<port id="0" precision="FP16">
					<dim>96</dim>
					<dim>96</dim>
				</port>
			</input>
			<output>
				<port id="1" precision="FP32">
					<dim>96</dim>
					<dim>96</dim>
				</port>
			</output>
		</layer>
		<layer id="295" name="CCT_OCR_1/token_reducer_1/multi_head_attention_3_1/key_1/MatMul" type="MatMul" version="opset1">
			<data transpose_a="false" transpose_b="true" />
			<input>
				<port id="0" precision="FP32">
					<dim>-1</dim>
					<dim>65</dim>
					<dim>96</dim>
				</port>
				<port id="1" precision="FP32">
					<dim>96</dim>
					<dim>96</dim>
				</port>
			</input>
			<output>
				<port id="2" precision="FP32" names="CCT_OCR_1/token_reducer_1/multi_head_attention_3_1/key_1/MatMul:0">
					<dim>-1</dim>
					<dim>65</dim>
					<dim>96</dim>
				</port>
			</output>
		</layer>
		<layer id="296" name="CCT_OCR_1/token_reducer_1/multi_head_attention_3_1/key_1/Reshape_1" type="Reshape" version="opset1">
			<data special_zero="true" />
			<input>
				<port id="0" precision="FP32">
					<dim>-1</dim>
					<dim>65</dim>
					<dim>96</dim>
				</port>
				<port id="1" precision="I64">
					<dim>4</dim>
				</port>
			</input>
			<output>
				<port id="2" precision="FP32" names="CCT_OCR_1/token_reducer_1/multi_head_attention_3_1/key_1/Reshape_1:0">
					<dim>-1</dim>
					<dim>65</dim>
					<dim>2</dim>
					<dim>48</dim>
				</port>
			</output>
		</layer>
		<layer id="297" name="Constant_97859" type="Const" version="opset1">
			<data element_type="f32" shape="1, 1, 2, 48" offset="1055984" size="384" />
			<output>
				<port id="0" precision="FP32">
					<dim>1</dim>
					<dim>1</dim>
					<dim>2</dim>
					<dim>48</dim>
				</port>
			</output>
		</layer>
		<layer id="298" name="CCT_OCR_1/token_reducer_1/multi_head_attention_3_1/key_1/Add" type="Add" version="opset1">
			<data auto_broadcast="numpy" />
			<input>
				<port id="0" precision="FP32">
					<dim>-1</dim>
					<dim>65</dim>
					<dim>2</dim>
					<dim>48</dim>
				</port>
				<port id="1" precision="FP32">
					<dim>1</dim>
					<dim>1</dim>
					<dim>2</dim>
					<dim>48</dim>
				</port>
			</input>
			<output>
				<port id="2" precision="FP32" names="CCT_OCR_1/token_reducer_1/multi_head_attention_3_1/key_1/Add:0">
					<dim>-1</dim>
					<dim>65</dim>
					<dim>2</dim>
					<dim>48</dim>
				</port>
			</output>
		</layer>
		<layer id="299" name="Constant_92482" type="Const" version="opset1">
			<data element_type="i64" shape="4" offset="717986" size="32" />
			<output>
				<port id="0" precision="I64">
					<dim>4</dim>
				</port>
			</output>
		</layer>
		<layer id="300" name="CCT_OCR_1/token_reducer_1/multi_head_attention_3_1/transpose" type="Transpose" version="opset1">
			<input>
				<port id="0" precision="FP32">
					<dim>-1</dim>
					<dim>65</dim>
					<dim>2</dim>
					<dim>48</dim>
				</port>
				<port id="1" precision="I64">
					<dim>4</dim>
				</port>
			</input>
			<output>
				<port id="2" precision="FP32" names="CCT_OCR_1/token_reducer_1/multi_head_attention_3_1/transpose:0">
					<dim>-1</dim>
					<dim>2</dim>
					<dim>65</dim>
					<dim>48</dim>
				</port>
			</output>
		</layer>
		<layer id="301" name="CCT_OCR_1/token_reducer_1/Tile/ReadVariableOp:0_compressed" type="Const" version="opset1">
			<data element_type="f16" shape="1, 10, 96" offset="1056368" size="1920" />
			<output>
				<port id="0" precision="FP16" names="CCT_OCR_1/token_reducer_1/Tile/ReadVariableOp:0">
					<dim>1</dim>
					<dim>10</dim>
					<dim>96</dim>
				</port>
			</output>
		</layer>
		<layer id="302" name="CCT_OCR_1/token_reducer_1/Tile/ReadVariableOp:0" type="Convert" version="opset1">
			<data destination_type="f32" />
			<rt_info>
				<attribute name="decompression" version="0" />
			</rt_info>
			<input>
				<port id="0" precision="FP16">
					<dim>1</dim>
					<dim>10</dim>
					<dim>96</dim>
				</port>
			</input>
			<output>
				<port id="1" precision="FP32">
					<dim>1</dim>
					<dim>10</dim>
					<dim>96</dim>
				</port>
			</output>
		</layer>
		<layer id="303" name="ShapeOf_98105" type="ShapeOf" version="opset3">
			<data output_type="i32" />
			<input>
				<port id="0" precision="FP32">
					<dim>-1</dim>
					<dim>65</dim>
					<dim>96</dim>
				</port>
			</input>
			<output>
				<port id="1" precision="I32">
					<dim>3</dim>
				</port>
			</output>
		</layer>
		<layer id="304" name="Constant_98106" type="Const" version="opset1">
			<data element_type="i64" shape="1" offset="1058288" size="8" />
			<rt_info>
				<attribute name="precise" version="0" />
			</rt_info>
			<output>
				<port id="0" precision="I64">
					<dim>1</dim>
				</port>
			</output>
		</layer>
		<layer id="305" name="Constant_98107" type="Const" version="opset1">
			<data element_type="i64" shape="" offset="1058288" size="8" />
			<rt_info>
				<attribute name="precise" version="0" />
			</rt_info>
			<output>
				<port id="0" precision="I64" />
			</output>
		</layer>
		<layer id="306" name="Gather_98108" type="Gather" version="opset8">
			<data batch_dims="0" />
			<input>
				<port id="0" precision="I32">
					<dim>3</dim>
				</port>
				<port id="1" precision="I64">
					<dim>1</dim>
				</port>
				<port id="2" precision="I64" />
			</input>
			<output>
				<port id="3" precision="I32" names="CCT_OCR_1/token_reducer_1/strided_slice:0">
					<dim>1</dim>
				</port>
			</output>
		</layer>
		<layer id="307" name="const_fold_opt__576" type="Const" version="opset1">
			<data element_type="i32" shape="1" offset="1058296" size="4" />
			<rt_info>
				<attribute name="precise" version="0" />
			</rt_info>
			<output>
				<port id="0" precision="I32" names="const_fold_opt__576">
					<dim>1</dim>
				</port>
			</output>
		</layer>
		<layer id="308" name="CCT_OCR_1/token_reducer_1/Tile/multiples_Concat__467" type="Concat" version="opset1">
			<data axis="0" />
			<input>
				<port id="0" precision="I32">
					<dim>1</dim>
				</port>
				<port id="1" precision="I32">
					<dim>1</dim>
				</port>
				<port id="2" precision="I32">
					<dim>1</dim>
				</port>
			</input>
			<output>
				<port id="3" precision="I32" names="CCT_OCR_1/token_reducer_1/Tile/multiples_Concat__467:0">
					<dim>3</dim>
				</port>
			</output>
		</layer>
		<layer id="309" name="Convert_98115" type="Convert" version="opset1">
			<data destination_type="i64" />
			<input>
				<port id="0" precision="I32">
					<dim>3</dim>
				</port>
			</input>
			<output>
				<port id="1" precision="I64" names="CCT_OCR_1/token_reducer_1/Tile__468:0">
					<dim>3</dim>
				</port>
			</output>
		</layer>
		<layer id="310" name="CCT_OCR_1/token_reducer_1/Tile" type="Tile" version="opset1">
			<input>
				<port id="0" precision="FP32">
					<dim>1</dim>
					<dim>10</dim>
					<dim>96</dim>
				</port>
				<port id="1" precision="I64">
					<dim>3</dim>
				</port>
			</input>
			<output>
				<port id="2" precision="FP32" names="CCT_OCR_1/token_reducer_1/Tile:0">
					<dim>-1</dim>
					<dim>10</dim>
					<dim>96</dim>
				</port>
			</output>
		</layer>
		<layer id="311" name="Transpose_96335_compressed" type="Const" version="opset1">
			<data element_type="f16" shape="96, 96" offset="1058300" size="18432" />
			<output>
				<port id="0" precision="FP16">
					<dim>96</dim>
					<dim>96</dim>
				</port>
			</output>
		</layer>
		<layer id="312" name="Transpose_96335" type="Convert" version="opset1">
			<data destination_type="f32" />
			<rt_info>
				<attribute name="decompression" version="0" />
			</rt_info>
			<input>
				<port id="0" precision="FP16">
					<dim>96</dim>
					<dim>96</dim>
				</port>
			</input>
			<output>
				<port id="1" precision="FP32">
					<dim>96</dim>
					<dim>96</dim>
				</port>
			</output>
		</layer>
		<layer id="313" name="CCT_OCR_1/token_reducer_1/multi_head_attention_3_1/query_1/MatMul" type="MatMul" version="opset1">
			<data transpose_a="false" transpose_b="true" />
			<input>
				<port id="0" precision="FP32">
					<dim>-1</dim>
					<dim>10</dim>
					<dim>96</dim>
				</port>
				<port id="1" precision="FP32">
					<dim>96</dim>
					<dim>96</dim>
				</port>
			</input>
			<output>
				<port id="2" precision="FP32" names="CCT_OCR_1/token_reducer_1/multi_head_attention_3_1/query_1/MatMul:0">
					<dim>-1</dim>
					<dim>10</dim>
					<dim>96</dim>
				</port>
			</output>
		</layer>
		<layer id="314" name="const_fold_opt__555" type="Const" version="opset1">
			<data element_type="i64" shape="4" offset="1076732" size="32" />
			<rt_info>
				<attribute name="precise" version="0" />
			</rt_info>
			<output>
				<port id="0" precision="I64" names="const_fold_opt__555">
					<dim>4</dim>
				</port>
			</output>
		</layer>
		<layer id="315" name="CCT_OCR_1/token_reducer_1/multi_head_attention_3_1/query_1/Reshape_1" type="Reshape" version="opset1">
			<data special_zero="true" />
			<input>
				<port id="0" precision="FP32">
					<dim>-1</dim>
					<dim>10</dim>
					<dim>96</dim>
				</port>
				<port id="1" precision="I64">
					<dim>4</dim>
				</port>
			</input>
			<output>
				<port id="2" precision="FP32" names="CCT_OCR_1/token_reducer_1/multi_head_attention_3_1/query_1/Reshape_1:0">
					<dim>-1</dim>
					<dim>10</dim>
					<dim>2</dim>
					<dim>48</dim>
				</port>
			</output>
		</layer>
		<layer id="316" name="Constant_97860" type="Const" version="opset1">
			<data element_type="f32" shape="1, 1, 1, 1" offset="736450" size="4" />
			<output>
				<port id="0" precision="FP32">
					<dim>1</dim>
					<dim>1</dim>
					<dim>1</dim>
					<dim>1</dim>
				</port>
			</output>
		</layer>
		<layer id="317" name="Multiply_97629" type="Multiply" version="opset1">
			<data auto_broadcast="numpy" />
			<input>
				<port id="0" precision="FP32">
					<dim>-1</dim>
					<dim>10</dim>
					<dim>2</dim>
					<dim>48</dim>
				</port>
				<port id="1" precision="FP32">
					<dim>1</dim>
					<dim>1</dim>
					<dim>1</dim>
					<dim>1</dim>
				</port>
			</input>
			<output>
				<port id="2" precision="FP32">
					<dim>-1</dim>
					<dim>10</dim>
					<dim>2</dim>
					<dim>48</dim>
				</port>
			</output>
		</layer>
		<layer id="318" name="Constant_97861_compressed" type="Const" version="opset1">
			<data element_type="f16" shape="1, 1, 2, 48" offset="1076764" size="192" />
			<output>
				<port id="0" precision="FP16">
					<dim>1</dim>
					<dim>1</dim>
					<dim>2</dim>
					<dim>48</dim>
				</port>
			</output>
		</layer>
		<layer id="319" name="Constant_97861" type="Convert" version="opset1">
			<data destination_type="f32" />
			<rt_info>
				<attribute name="decompression" version="0" />
			</rt_info>
			<input>
				<port id="0" precision="FP16">
					<dim>1</dim>
					<dim>1</dim>
					<dim>2</dim>
					<dim>48</dim>
				</port>
			</input>
			<output>
				<port id="1" precision="FP32">
					<dim>1</dim>
					<dim>1</dim>
					<dim>2</dim>
					<dim>48</dim>
				</port>
			</output>
		</layer>
		<layer id="320" name="CCT_OCR_1/token_reducer_1/multi_head_attention_3_1/Mul" type="Add" version="opset1">
			<data auto_broadcast="numpy" />
			<input>
				<port id="0" precision="FP32">
					<dim>-1</dim>
					<dim>10</dim>
					<dim>2</dim>
					<dim>48</dim>
				</port>
				<port id="1" precision="FP32">
					<dim>1</dim>
					<dim>1</dim>
					<dim>2</dim>
					<dim>48</dim>
				</port>
			</input>
			<output>
				<port id="2" precision="FP32" names="CCT_OCR_1/token_reducer_1/multi_head_attention_3_1/Mul:0">
					<dim>-1</dim>
					<dim>10</dim>
					<dim>2</dim>
					<dim>48</dim>
				</port>
			</output>
		</layer>
		<layer id="321" name="Constant_92511" type="Const" version="opset1">
			<data element_type="i64" shape="4" offset="612486" size="32" />
			<output>
				<port id="0" precision="I64">
					<dim>4</dim>
				</port>
			</output>
		</layer>
		<layer id="322" name="CCT_OCR_1/token_reducer_1/multi_head_attention_3_1/transpose_1" type="Transpose" version="opset1">
			<input>
				<port id="0" precision="FP32">
					<dim>-1</dim>
					<dim>10</dim>
					<dim>2</dim>
					<dim>48</dim>
				</port>
				<port id="1" precision="I64">
					<dim>4</dim>
				</port>
			</input>
			<output>
				<port id="2" precision="FP32" names="CCT_OCR_1/token_reducer_1/multi_head_attention_3_1/transpose_1:0">
					<dim>-1</dim>
					<dim>2</dim>
					<dim>48</dim>
					<dim>10</dim>
				</port>
			</output>
		</layer>
		<layer id="323" name="CCT_OCR_1/token_reducer_1/multi_head_attention_3_1/MatMul" type="MatMul" version="opset1">
			<data transpose_a="false" transpose_b="false" />
			<input>
				<port id="0" precision="FP32">
					<dim>-1</dim>
					<dim>2</dim>
					<dim>65</dim>
					<dim>48</dim>
				</port>
				<port id="1" precision="FP32">
					<dim>-1</dim>
					<dim>2</dim>
					<dim>48</dim>
					<dim>10</dim>
				</port>
			</input>
			<output>
				<port id="2" precision="FP32" names="CCT_OCR_1/token_reducer_1/multi_head_attention_3_1/MatMul:0">
					<dim>-1</dim>
					<dim>2</dim>
					<dim>65</dim>
					<dim>10</dim>
				</port>
			</output>
		</layer>
		<layer id="324" name="CCT_OCR_1/token_reducer_1/multi_head_attention_3_1/softmax_1/Softmax" type="SoftMax" version="opset8">
			<data axis="2" />
			<input>
				<port id="0" precision="FP32">
					<dim>-1</dim>
					<dim>2</dim>
					<dim>65</dim>
					<dim>10</dim>
				</port>
			</input>
			<output>
				<port id="1" precision="FP32" names="CCT_OCR_1/token_reducer_1/multi_head_attention_3_1/softmax_1/Softmax:0">
					<dim>-1</dim>
					<dim>2</dim>
					<dim>65</dim>
					<dim>10</dim>
				</port>
			</output>
		</layer>
		<layer id="325" name="Transpose_96342_compressed" type="Const" version="opset1">
			<data element_type="f16" shape="96, 96" offset="1076956" size="18432" />
			<output>
				<port id="0" precision="FP16">
					<dim>96</dim>
					<dim>96</dim>
				</port>
			</output>
		</layer>
		<layer id="326" name="Transpose_96342" type="Convert" version="opset1">
			<data destination_type="f32" />
			<rt_info>
				<attribute name="decompression" version="0" />
			</rt_info>
			<input>
				<port id="0" precision="FP16">
					<dim>96</dim>
					<dim>96</dim>
				</port>
			</input>
			<output>
				<port id="1" precision="FP32">
					<dim>96</dim>
					<dim>96</dim>
				</port>
			</output>
		</layer>
		<layer id="327" name="CCT_OCR_1/token_reducer_1/multi_head_attention_3_1/value_1/MatMul" type="MatMul" version="opset1">
			<data transpose_a="false" transpose_b="true" />
			<input>
				<port id="0" precision="FP32">
					<dim>-1</dim>
					<dim>65</dim>
					<dim>96</dim>
…
		<edge from-layer="22" from-port="0" to-layer="23" to-port="1" />
		<edge from-layer="23" from-port="2" to-layer="24" to-port="0" />
		<edge from-layer="24" from-port="1" to-layer="27" to-port="0" />
		<edge from-layer="25" from-port="0" to-layer="26" to-port="0" />
		<edge from-layer="26" from-port="1" to-layer="27" to-port="1" />
		<edge from-layer="27" from-port="2" to-layer="30" to-port="0" />
		<edge from-layer="28" from-port="0" to-layer="29" to-port="0" />
		<edge from-layer="29" from-port="1" to-layer="30" to-port="1" />
		<edge from-layer="30" from-port="2" to-layer="31" to-port="0" />
		<edge from-layer="31" from-port="1" to-layer="32" to-port="0" />
		<edge from-layer="32" from-port="1" to-layer="35" to-port="0" />
		<edge from-layer="33" from-port="0" to-layer="34" to-port="0" />
		<edge from-layer="34" from-port="1" to-layer="35" to-port="1" />
		<edge from-layer="35" from-port="2" to-layer="38" to-port="0" />
		<edge from-layer="36" from-port="0" to-layer="37" to-port="0" />
		<edge from-layer="37" from-port="1" to-layer="38" to-port="1" />
		<edge from-layer="38" from-port="2" to-layer="41" to-port="0" />
		<edge from-layer="39" from-port="0" to-layer="40" to-port="0" />
		<edge from-layer="40" from-port="1" to-layer="41" to-port="1" />
		<edge from-layer="41" from-port="2" to-layer="42" to-port="0" />
		<edge from-layer="42" from-port="1" to-layer="45" to-port="0" />
		<edge from-layer="43" from-port="0" to-layer="44" to-port="0" />
		<edge from-layer="44" from-port="1" to-layer="45" to-port="1" />
		<edge from-layer="45" from-port="2" to-layer="48" to-port="0" />
		<edge from-layer="46" from-port="0" to-layer="47" to-port="0" />
		<edge from-layer="47" from-port="1" to-layer="48" to-port="1" />
		<edge from-layer="48" from-port="2" to-layer="49" to-port="0" />
		<edge from-layer="49" from-port="1" to-layer="52" to-port="0" />
		<edge from-layer="50" from-port="0" to-layer="51" to-port="0" />
		<edge from-layer="51" from-port="1" to-layer="52" to-port="1" />
		<edge from-layer="52" from-port="2" to-layer="54" to-port="0" />
		<edge from-layer="53" from-port="0" to-layer="54" to-port="1" />
		<edge from-layer="54" from-port="2" to-layer="56" to-port="0" />
		<edge from-layer="55" from-port="0" to-layer="56" to-port="1" />
		<edge from-layer="56" from-port="2" to-layer="59" to-port="0" />
		<edge from-layer="57" from-port="0" to-layer="58" to-port="0" />
		<edge from-layer="58" from-port="1" to-layer="59" to-port="1" />
		<edge from-layer="59" from-port="2" to-layer="62" to-port="0" />
		<edge from-layer="60" from-port="0" to-layer="61" to-port="0" />
		<edge from-layer="61" from-port="1" to-layer="62" to-port="1" />
		<edge from-layer="62" from-port="2" to-layer="63" to-port="0" />
		<edge from-layer="63" from-port="1" to-layer="66" to-port="0" />
		<edge from-layer="64" from-port="0" to-layer="65" to-port="0" />
		<edge from-layer="65" from-port="1" to-layer="66" to-port="1" />
		<edge from-layer="66" from-port="2" to-layer="67" to-port="0" />
		<edge from-layer="66" from-port="2" to-layer="69" to-port="0" />
		<edge from-layer="67" from-port="1" to-layer="68" to-port="0" />
		<edge from-layer="67" from-port="1" to-layer="68" to-port="1" />
		<edge from-layer="68" from-port="2" to-layer="69" to-port="1" />
		<edge from-layer="69" from-port="2" to-layer="71" to-port="1" />
		<edge from-layer="69" from-port="2" to-layer="121" to-port="0" />
		<edge from-layer="70" from-port="0" to-layer="71" to-port="0" />
		<edge from-layer="71" from-port="2" to-layer="72" to-port="0" />
		<edge from-layer="72" from-port="1" to-layer="75" to-port="0" />
		<edge from-layer="73" from-port="0" to-layer="74" to-port="0" />
		<edge from-layer="74" from-port="1" to-layer="75" to-port="1" />
		<edge from-layer="75" from-port="2" to-layer="78" to-port="0" />
		<edge from-layer="76" from-port="0" to-layer="77" to-port="0" />
		<edge from-layer="77" from-port="1" to-layer="78" to-port="1" />
		<edge from-layer="78" from-port="2" to-layer="81" to-port="0" />
		<edge from-layer="78" from-port="2" to-layer="91" to-port="0" />
		<edge from-layer="78" from-port="2" to-layer="104" to-port="0" />
		<edge from-layer="79" from-port="0" to-layer="80" to-port="0" />
		<edge from-layer="80" from-port="1" to-layer="81" to-port="1" />
		<edge from-layer="81" from-port="2" to-layer="83" to-port="0" />
		<edge from-layer="82" from-port="0" to-layer="83" to-port="1" />
		<edge from-layer="82" from-port="0" to-layer="157" to-port="1" />
		<edge from-layer="82" from-port="0" to-layer="105" to-port="1" />
		<edge from-layer="82" from-port="0" to-layer="166" to-port="1" />
		<edge from-layer="82" from-port="0" to-layer="328" to-port="1" />
		<edge from-layer="82" from-port="0" to-layer="92" to-port="1" />
		<edge from-layer="82" from-port="0" to-layer="296" to-port="1" />
		<edge from-layer="82" from-port="0" to-layer="179" to-port="1" />
		<edge from-layer="82" from-port="0" to-layer="253" to-port="1" />
		<edge from-layer="82" from-port="0" to-layer="241" to-port="1" />
		<edge from-layer="82" from-port="0" to-layer="232" to-port="1" />
		<edge from-layer="83" from-port="2" to-layer="86" to-port="0" />
		<edge from-layer="84" from-port="0" to-layer="85" to-port="0" />
		<edge from-layer="85" from-port="1" to-layer="86" to-port="1" />
		<edge from-layer="86" from-port="2" to-layer="88" to-port="0" />
		<edge from-layer="87" from-port="0" to-layer="88" to-port="1" />
		<edge from-layer="88" from-port="2" to-layer="100" to-port="0" />
		<edge from-layer="89" from-port="0" to-layer="90" to-port="0" />
		<edge from-layer="90" from-port="1" to-layer="91" to-port="1" />
		<edge from-layer="91" from-port="2" to-layer="92" to-port="0" />
		<edge from-layer="92" from-port="2" to-layer="94" to-port="0" />
		<edge from-layer="93" from-port="0" to-layer="94" to-port="1" />
		<edge from-layer="94" from-port="2" to-layer="97" to-port="0" />
		<edge from-layer="95" from-port="0" to-layer="96" to-port="0" />
		<edge from-layer="96" from-port="1" to-layer="97" to-port="1" />
		<edge from-layer="97" from-port="2" to-layer="99" to-port="0" />
		<edge from-layer="98" from-port="0" to-layer="99" to-port="1" />
		<edge from-layer="99" from-port="2" to-layer="100" to-port="1" />
		<edge from-layer="100" from-port="2" to-layer="101" to-port="0" />
		<edge from-layer="101" from-port="1" to-layer="111" to-port="0" />
		<edge from-layer="102" from-port="0" to-layer="103" to-port="0" />
		<edge from-layer="103" from-port="1" to-layer="104" to-port="1" />
		<edge from-layer="104" from-port="2" to-layer="105" to-port="0" />
		<edge from-layer="105" from-port="2" to-layer="108" to-port="0" />
		<edge from-layer="106" from-port="0" to-layer="107" to-port="0" />
		<edge from-layer="107" from-port="1" to-layer="108" to-port="1" />
		<edge from-layer="108" from-port="2" to-layer="110" to-port="0" />
		<edge from-layer="109" from-port="0" to-layer="110" to-port="1" />
		<edge from-layer="110" from-port="2" to-layer="111" to-port="1" />
		<edge from-layer="111" from-port="2" to-layer="113" to-port="0" />
		<edge from-layer="112" from-port="0" to-layer="113" to-port="1" />
		<edge from-layer="113" from-port="2" to-layer="115" to-port="0" />
		<edge from-layer="114" from-port="0" to-layer="188" to-port="1" />
		<edge from-layer="114" from-port="0" to-layer="262" to-port="1" />
		<edge from-layer="114" from-port="0" to-layer="115" to-port="1" />
		<edge from-layer="115" from-port="2" to-layer="118" to-port="0" />
		<edge from-layer="116" from-port="0" to-layer="117" to-port="0" />
		<edge from-layer="117" from-port="1" to-layer="118" to-port="1" />
		<edge from-layer="118" from-port="2" to-layer="120" to-port="0" />
		<edge from-layer="119" from-port="0" to-layer="120" to-port="1" />
		<edge from-layer="120" from-port="2" to-layer="121" to-port="1" />
		<edge from-layer="121" from-port="2" to-layer="123" to-port="1" />
		<edge from-layer="121" from-port="2" to-layer="145" to-port="0" />
		<edge from-layer="122" from-port="0" to-layer="123" to-port="0" />
		<edge from-layer="123" from-port="2" to-layer="124" to-port="0" />
		<edge from-layer="124" from-port="1" to-layer="127" to-port="0" />
		<edge from-layer="125" from-port="0" to-layer="126" to-port="0" />
		<edge from-layer="126" from-port="1" to-layer="127" to-port="1" />
		<edge from-layer="127" from-port="2" to-layer="130" to-port="0" />
		<edge from-layer="128" from-port="0" to-layer="129" to-port="0" />
		<edge from-layer="129" from-port="1" to-layer="130" to-port="1" />
		<edge from-layer="130" from-port="2" to-layer="133" to-port="0" />
		<edge from-layer="131" from-port="0" to-layer="132" to-port="0" />
		<edge from-layer="132" from-port="1" to-layer="133" to-port="1" />
		<edge from-layer="133" from-port="2" to-layer="136" to-port="0" />
		<edge from-layer="134" from-port="0" to-layer="135" to-port="0" />
		<edge from-layer="135" from-port="1" to-layer="136" to-port="1" />
		<edge from-layer="136" from-port="2" to-layer="137" to-port="0" />
		<edge from-layer="137" from-port="1" to-layer="140" to-port="0" />
		<edge from-layer="138" from-port="0" to-layer="139" to-port="0" />
		<edge from-layer="139" from-port="1" to-layer="140" to-port="1" />
		<edge from-layer="140" from-port="2" to-layer="143" to-port="0" />
		<edge from-layer="141" from-port="0" to-layer="142" to-port="0" />
		<edge from-layer="142" from-port="1" to-layer="143" to-port="1" />
		<edge from-layer="143" from-port="2" to-layer="144" to-port="0" />
		<edge from-layer="144" from-port="1" to-layer="145" to-port="1" />
		<edge from-layer="145" from-port="2" to-layer="147" to-port="1" />
		<edge from-layer="145" from-port="2" to-layer="195" to-port="0" />
		<edge from-layer="146" from-port="0" to-layer="147" to-port="0" />
		<edge from-layer="147" from-port="2" to-layer="148" to-port="0" />
		<edge from-layer="148" from-port="1" to-layer="151" to-port="0" />
		<edge from-layer="149" from-port="0" to-layer="150" to-port="0" />
		<edge from-layer="150" from-port="1" to-layer="151" to-port="1" />
		<edge from-layer="151" from-port="2" to-layer="153" to-port="0" />
		<edge from-layer="152" from-port="0" to-layer="153" to-port="1" />
		<edge from-layer="153" from-port="2" to-layer="165" to-port="0" />
		<edge from-layer="153" from-port="2" to-layer="178" to-port="0" />
		<edge from-layer="153" from-port="2" to-layer="156" to-port="0" />
		<edge from-layer="154" from-port="0" to-layer="155" to-port="0" />
		<edge from-layer="155" from-port="1" to-layer="156" to-port="1" />
		<edge from-layer="156" from-port="2" to-layer="157" to-port="0" />
		<edge from-layer="157" from-port="2" to-layer="160" to-port="0" />
		<edge from-layer="158" from-port="0" to-layer="159" to-port="0" />
		<edge from-layer="159" from-port="1" to-layer="160" to-port="1" />
		<edge from-layer="160" from-port="2" to-layer="162" to-port="0" />
		<edge from-layer="161" from-port="0" to-layer="162" to-port="1" />
		<edge from-layer="162" from-port="2" to-layer="174" to-port="0" />
		<edge from-layer="163" from-port="0" to-layer="164" to-port="0" />
		<edge from-layer="164" from-port="1" to-layer="165" to-port="1" />
		<edge from-layer="165" from-port="2" to-layer="166" to-port="0" />
		<edge from-layer="166" from-port="2" to-layer="168" to-port="0" />
		<edge from-layer="167" from-port="0" to-layer="168" to-port="1" />
		<edge from-layer="168" from-port="2" to-layer="171" to-port="0" />
		<edge from-layer="169" from-port="0" to-layer="170" to-port="0" />
		<edge from-layer="170" from-port="1" to-layer="171" to-port="1" />
		<edge from-layer="171" from-port="2" to-layer="173" to-port="0" />
		<edge from-layer="172" from-port="0" to-layer="173" to-port="1" />
		<edge from-layer="173" from-port="2" to-layer="174" to-port="1" />
		<edge from-layer="174" from-port="2" to-layer="175" to-port="0" />
		<edge from-layer="175" from-port="1" to-layer="185" to-port="0" />
		<edge from-layer="176" from-port="0" to-layer="177" to-port="0" />
		<edge from-layer="177" from-port="1" to-layer="178" to-port="1" />
		<edge from-layer="178" from-port="2" to-layer="179" to-port="0" />
		<edge from-layer="179" from-port="2" to-layer="182" to-port="0" />
		<edge from-layer="180" from-port="0" to-layer="181" to-port="0" />
		<edge from-layer="181" from-port="1" to-layer="182" to-port="1" />
		<edge from-layer="182" from-port="2" to-layer="184" to-port="0" />
		<edge from-layer="183" from-port="0" to-layer="184" to-port="1" />
		<edge from-layer="184" from-port="2" to-layer="185" to-port="1" />
		<edge from-layer="185" from-port="2" to-layer="187" to-port="0" />
		<edge from-layer="186" from-port="0" to-layer="187" to-port="1" />
		<edge from-layer="187" from-port="2" to-layer="188" to-port="0" />
		<edge from-layer="188" from-port="2" to-layer="191" to-port="0" />
		<edge from-layer="189" from-port="0" to-layer="190" to-port="0" />
		<edge from-layer="190" from-port="1" to-layer="191" to-port="1" />
		<edge from-layer="191" from-port="2" to-layer="194" to-port="0" />
		<edge from-layer="192" from-port="0" to-layer="193" to-port="0" />
		<edge from-layer="193" from-port="1" to-layer="194" to-port="1" />
		<edge from-layer="194" from-port="2" to-layer="195" to-port="1" />
		<edge from-layer="195" from-port="2" to-layer="219" to-port="0" />
		<edge from-layer="195" from-port="2" to-layer="198" to-port="1" />
		<edge from-layer="196" from-port="0" to-layer="197" to-port="0" />
		<edge from-layer="197" from-port="1" to-layer="198" to-port="0" />
		<edge from-layer="198" from-port="2" to-layer="199" to-port="0" />
		<edge from-layer="199" from-port="1" to-layer="202" to-port="0" />
		<edge from-layer="200" from-port="0" to-layer="201" to-port="0" />
		<edge from-layer="201" from-port="1" to-layer="202" to-port="1" />
		<edge from-layer="202" from-port="2" to-layer="205" to-port="0" />
		<edge from-layer="203" from-port="0" to-layer="204" to-port="0" />
		<edge from-layer="204" from-port="1" to-layer="205" to-port="1" />
		<edge from-layer="205" from-port="2" to-layer="208" to-port="0" />
		<edge from-layer="206" from-port="0" to-layer="207" to-port="0" />
		<edge from-layer="207" from-port="1" to-layer="208" to-port="1" />
		<edge from-layer="208" from-port="2" to-layer="211" to-port="0" />
		<edge from-layer="209" from-port="0" to-layer="210" to-port="0" />
		<edge from-layer="210" from-port="1" to-layer="211" to-port="1" />
		<edge from-layer="211" from-port="2" to-layer="212" to-port="0" />
		<edge from-layer="212" from-port="1" to-layer="215" to-port="0" />
		<edge from-layer="213" from-port="0" to-layer="214" to-port="0" />
		<edge from-layer="214" from-port="1" to-layer="215" to-port="1" />
		<edge from-layer="215" from-port="2" to-layer="217" to-port="0" />
		<edge from-layer="216" from-port="0" to-layer="217" to-port="1" />
		<edge from-layer="217" from-port="2" to-layer="218" to-port="0" />
		<edge from-layer="218" from-port="1" to-layer="219" to-port="1" />
		<edge from-layer="219" from-port="2" to-layer="221" to-port="1" />
		<edge from-layer="219" from-port="2" to-layer="269" to-port="0" />
		<edge from-layer="220" from-port="0" to-layer="221" to-port="0" />
		<edge from-layer="221" from-port="2" to-layer="222" to-port="0" />
		<edge from-layer="222" from-port="1" to-layer="225" to-port="0" />
		<edge from-layer="223" from-port="0" to-layer="224" to-port="0" />
		<edge from-layer="224" from-port="1" to-layer="225" to-port="1" />
		<edge from-layer="225" from-port="2" to-layer="228" to-port="0" />
		<edge from-layer="226" from-port="0" to-layer="227" to-port="0" />
		<edge from-layer="227" from-port="1" to-layer="228" to-port="1" />
		<edge from-layer="228" from-port="2" to-layer="231" to-port="0" />
		<edge from-layer="228" from-port="2" to-layer="240" to-port="0" />
		<edge from-layer="228" from-port="2" to-layer="252" to-port="0" />
		<edge from-layer="229" from-port="0" to-layer="230" to-port="0" />
		<edge from-layer="230" from-port="1" to-layer="231" to-port="1" />
		<edge from-layer="231" from-port="2" to-layer="232" to-port="0" />
		<edge from-layer="232" from-port="2" to-layer="235" to-port="0" />
		<edge from-layer="233" from-port="0" to-layer="234" to-port="0" />
		<edge from-layer="234" from-port="1" to-layer="235" to-port="1" />
		<edge from-layer="235" from-port="2" to-layer="237" to-port="0" />
		<edge from-layer="236" from-port="0" to-layer="237" to-port="1" />
		<edge from-layer="237" from-port="2" to-layer="248" to-port="0" />
		<edge from-layer="238" from-port="0" to-layer="239" to-port="0" />
		<edge from-layer="239" from-port="1" to-layer="240" to-port="1" />
		<edge from-layer="240" from-port="2" to-layer="241" to-port="0" />
		<edge from-layer="241" from-port="2" to-layer="243" to-port="0" />
		<edge from-layer="242" from-port="0" to-layer="243" to-port="1" />
		<edge from-layer="243" from-port="2" to-layer="245" to-port="0" />
		<edge from-layer="244" from-port="0" to-layer="245" to-port="1" />
		<edge from-layer="245" from-port="2" to-layer="247" to-port="0" />
		<edge from-layer="246" from-port="0" to-layer="247" to-port="1" />
		<edge from-layer="247" from-port="2" to-layer="248" to-port="1" />
		<edge from-layer="248" from-port="2" to-layer="249" to-port="0" />
		<edge from-layer="249" from-port="1" to-layer="259" to-port="0" />
		<edge from-layer="250" from-port="0" to-layer="251" to-port="0" />
		<edge from-layer="251" from-port="1" to-layer="252" to-port="1" />
		<edge from-layer="252" from-port="2" to-layer="253" to-port="0" />
		<edge from-layer="253" from-port="2" to-layer="256" to-port="0" />
		<edge from-layer="254" from-port="0" to-layer="255" to-port="0" />
		<edge from-layer="255" from-port="1" to-layer="256" to-port="1" />
		<edge from-layer="256" from-port="2" to-layer="258" to-port="0" />
		<edge from-layer="257" from-port="0" to-layer="258" to-port="1" />
		<edge from-layer="258" from-port="2" to-layer="259" to-port="1" />
		<edge from-layer="259" from-port="2" to-layer="261" to-port="0" />
		<edge from-layer="260" from-port="0" to-layer="261" to-port="1" />
		<edge from-layer="261" from-port="2" to-layer="262" to-port="0" />
		<edge from-layer="262" from-port="2" to-layer="265" to-port="0" />
		<edge from-layer="263" from-port="0" to-layer="264" to-port="0" />
		<edge from-layer="264" from-port="1" to-layer="265" to-port="1" />
		<edge from-layer="265" from-port="2" to-layer="268" to-port="0" />
		<edge from-layer="266" from-port="0" to-layer="267" to-port="0" />
		<edge from-layer="267" from-port="1" to-layer="268" to-port="1" />
		<edge from-layer="268" from-port="2" to-layer="269" to-port="1" />
		<edge from-layer="269" from-port="2" to-layer="271" to-port="1" />
		<edge from-layer="269" from-port="2" to-layer="292" to-port="0" />
		<edge from-layer="270" from-port="0" to-layer="271" to-port="0" />
		<edge from-layer="271" from-port="2" to-layer="272" to-port="0" />
		<edge from-layer="272" from-port="1" to-layer="274" to-port="0" />
		<edge from-layer="273" from-port="0" to-layer="274" to-port="1" />
		<edge from-layer="274" from-port="2" to-layer="277" to-port="0" />
		<edge from-layer="275" from-port="0" to-layer="276" to-port="0" />
		<edge from-layer="276" from-port="1" to-layer="277" to-port="1" />
		<edge from-layer="277" from-port="2" to-layer="280" to-port="0" />
		<edge from-layer="278" from-port="0" to-layer="279" to-port="0" />
		<edge from-layer="279" from-port="1" to-layer="280" to-port="1" />
		<edge from-layer="280" from-port="2" to-layer="283" to-port="0" />
		<edge from-layer="281" from-port="0" to-layer="282" to-port="0" />
		<edge from-layer="282" from-port="1" to-layer="283" to-port="1" />
		<edge from-layer="283" from-port="2" to-layer="284" to-port="0" />
		<edge from-layer="284" from-port="1" to-layer="287" to-port="0" />
		<edge from-layer="285" from-port="0" to-layer="286" to-port="0" />
		<edge from-layer="286" from-port="1" to-layer="287" to-port="1" />
		<edge from-layer="287" from-port="2" to-layer="290" to-port="0" />
		<edge from-layer="288" from-port="0" to-layer="289" to-port="0" />
		<edge from-layer="289" from-port="1" to-layer="290" to-port="1" />
		<edge from-layer="290" from-port="2" to-layer="291" to-port="0" />
		<edge from-layer="291" from-port="1" to-layer="292" to-port="1" />
		<edge from-layer="292" from-port="2" to-layer="295" to-port="0" />
		<edge from-layer="292" from-port="2" to-layer="327" to-port="0" />
		<edge from-layer="292" from-port="2" to-layer="303" to-port="0" />
		<edge from-layer="293" from-port="0" to-layer="294" to-port="0" />
		<edge from-layer="294" from-port="1" to-layer="295" to-port="1" />
		<edge from-layer="295" from-port="2" to-layer="296" to-port="0" />
		<edge from-layer="296" from-port="2" to-layer="298" to-port="0" />
		<edge from-layer="297" from-port="0" to-layer="298" to-port="1" />
		<edge from-layer="298" from-port="2" to-layer="300" to-port="0" />
		<edge from-layer="299" from-port="0" to-layer="300" to-port="1" />
		<edge from-layer="300" from-port="2" to-layer="323" to-port="0" />
		<edge from-layer="301" from-port="0" to-layer="302" to-port="0" />
		<edge from-layer="302" from-port="1" to-layer="310" to-port="0" />
		<edge from-layer="303" from-port="1" to-layer="306" to-port="0" />
		<edge from-layer="304" from-port="0" to-layer="306" to-port="1" />
		<edge from-layer="305" from-port="0" to-layer="306" to-port="2" />
		<edge from-layer="306" from-port="3" to-layer="308" to-port="0" />
		<edge from-layer="307" from-port="0" to-layer="308" to-port="1" />
		<edge from-layer="307" from-port="0" to-layer="308" to-port="2" />
		<edge from-layer="308" from-port="3" to-layer="309" to-port="0" />
		<edge from-layer="309" from-port="1" to-layer="310" to-port="1" />
		<edge from-layer="310" from-port="2" to-layer="313" to-port="0" />
		<edge from-layer="310" from-port="2" to-layer="345" to-port="1" />
		<edge from-layer="311" from-port="0" to-layer="312" to-port="0" />
		<edge from-layer="312" from-port="1" to-layer="313" to-port="1" />
		<edge from-layer="313" from-port="2" to-layer="315" to-port="0" />
		<edge from-layer="314" from-port="0" to-layer="367" to-port="1" />
		<edge from-layer="314" from-port="0" to-layer="376" to-port="1" />
		<edge from-layer="314" from-port="0" to-layer="389" to-port="1" />
		<edge from-layer="314" from-port="0" to-layer="442" to-port="1" />
		<edge from-layer="314" from-port="0" to-layer="451" to-port="1" />
		<edge from-layer="314" from-port="0" to-layer="464" to-port="1" />
		<edge from-layer="314" from-port="0" to-layer="517" to-port="1" />
		<edge from-layer="314" from-port="0" to-layer="525" to-port="1" />
		<edge from-layer="314" from-port="0" to-layer="538" to-port="1" />
		<edge from-layer="314" from-port="0" to-layer="592" to-port="1" />
		<edge from-layer="314" from-port="0" to-layer="601" to-port="1" />
		<edge from-layer="314" from-port="0" to-layer="614" to-port="1" />
		<edge from-layer="314" from-port="0" to-layer="315" to-port="1" />
		<edge from-layer="315" from-port="2" to-layer="317" to-port="0" />
		<edge from-layer="316" from-port="0" to-layer="317" to-port="1" />
		<edge from-layer="317" from-port="2" to-layer="320" to-port="0" />
		<edge from-layer="318" from-port="0" to-layer="319" to-port="0" />
		<edge from-layer="319" from-port="1" to-layer="320" to-port="1" />
		<edge from-layer="320" from-port="2" to-layer="322" to-port="0" />
		<edge from-layer="321" from-port="0" to-layer="322" to-port="1" />
		<edge from-layer="322" from-port="2" to-layer="323" to-port="1" />
		<edge from-layer="323" from-port="2" to-layer="324" to-port="0" />
		<edge from-layer="324" from-port="1" to-layer="334" to-port="0" />
		<edge from-layer="325" from-port="0" to-layer="326" to-port="0" />
		<edge from-layer="326" from-port="1" to-layer="327" to-port="1" />
		<edge from-layer="327" from-port="2" to-layer="328" to-port="0" />
		<edge from-layer="328" from-port="2" to-layer="331" to-port="0" />
		<edge from-layer="329" from-port="0" to-layer="330" to-port="0" />
		<edge from-layer="330" from-port="1" to-layer="331" to-port="1" />
		<edge from-layer="331" from-port="2" to-layer="333" to-port="0" />
		<edge from-layer="332" from-port="0" to-layer="333" to-port="1" />
		<edge from-layer="333" from-port="2" to-layer="334" to-port="1" />
		<edge from-layer="334" from-port="2" to-layer="336" to-port="0" />
		<edge from-layer="335" from-port="0" to-layer="336" to-port="1" />
		<edge from-layer="336" from-port="2" to-layer="338" to-port="0" />
		<edge from-layer="337" from-port="0" to-layer="338" to-port="1" />
		<edge from-layer="337" from-port="0" to-layer="623" to-port="1" />
		<edge from-layer="337" from-port="0" to-layer="547" to-port="1" />
		<edge from-layer="337" from-port="0" to-layer="473" to-port="1" />
		<edge from-layer="337" from-port="0" to-layer="397" to-port="1" />
		<edge from-layer="338" from-port="2" to-layer="341" to-port="0" />
		<edge from-layer="339" from-port="0" to-layer="340" to-port="0" />
		<edge from-layer="340" from-port="1" to-layer="341" to-port="1" />
		<edge from-layer="341" from-port="2" to-layer="344" to-port="0" />
		<edge from-layer="342" from-port="0" to-layer="343" to-port="0" />
		<edge from-layer="343" from-port="1" to-layer="344" to-port="1" />
		<edge from-layer="344" from-port="2" to-layer="345" to-port="0" />
		<edge from-layer="345" from-port="2" to-layer="346" to-port="1" />
		<edge from-layer="346" from-port="2" to-layer="347" to-port="0" />
		<edge from-layer="347" from-port="1" to-layer="350" to-port="0" />
		<edge from-layer="348" from-port="0" to-layer="349" to-port="0" />
		<edge from-layer="349" from-port="1" to-layer="350" to-port="1" />
		<edge from-layer="350" from-port="2" to-layer="353" to-port="0" />
		<edge from-layer="351" from-port="0" to-layer="352" to-port="0" />
		<edge from-layer="352" from-port="1" to-layer="353" to-port="1" />
		<edge from-layer="353" from-port="2" to-layer="404" to-port="0" />
		<edge from-layer="353" from-port="2" to-layer="356" to-port="1" />
		<edge from-layer="354" from-port="0" to-layer="355" to-port="0" />
		<edge from-layer="355" from-port="1" to-layer="356" to-port="0" />
		<edge from-layer="356" from-port="2" to-layer="357" to-port="0" />
		<edge from-layer="357" from-port="1" to-layer="360" to-port="0" />
		<edge from-layer="358" from-port="0" to-layer="359" to-port="0" />
		<edge from-layer="359" from-port="1" to-layer="360" to-port="1" />
		<edge from-layer="360" from-port="2" to-layer="363" to-port="0" />
		<edge from-layer="361" from-port="0" to-layer="362" to-port="0" />
		<edge from-layer="362" from-port="1" to-layer="363" to-port="1" />
		<edge from-layer="363" from-port="2" to-layer="366" to-port="0" />
		<edge from-layer="363" from-port="2" to-layer="388" to-port="0" />
		<edge from-layer="363" from-port="2" to-layer="375" to-port="0" />
		<edge from-layer="364" from-port="0" to-layer="365" to-port="0" />
		<edge from-layer="365" from-port="1" to-layer="366" to-port="1" />
		<edge from-layer="366" from-port="2" to-layer="367" to-port="0" />
		<edge from-layer="367" from-port="2" to-layer="370" to-port="0" />
		<edge from-layer="368" from-port="0" to-layer="369" to-port="0" />
		<edge from-layer="369" from-port="1" to-layer="370" to-port="1" />
		<edge from-layer="370" from-port="2" to-layer="372" to-port="0" />
		<edge from-layer="371" from-port="0" to-layer="372" to-port="1" />
		<edge from-layer="372" from-port="2" to-layer="384" to-port="0" />
		<edge from-layer="373" from-port="0" to-layer="374" to-port="0" />
		<edge from-layer="374" from-port="1" to-layer="375" to-port="1" />
		<edge from-layer="375" from-port="2" to-layer="376" to-port="0" />
		<edge from-layer="376" from-port="2" to-layer="378" to-port="0" />
		<edge from-layer="377" from-port="0" to-layer="378" to-port="1" />
		<edge from-layer="378" from-port="2" to-layer="381" to-port="0" />
		<edge from-layer="379" from-port="0" to-layer="380" to-port="0" />
		<edge from-layer="380" from-port="1" to-layer="381" to-port="1" />
		<edge from-layer="381" from-port="2" to-layer="383" to-port="0" />
		<edge from-layer="382" from-port="0" to-layer="383" to-port="1" />
		<edge from-layer="383" from-port="2" to-layer="384" to-port="1" />
		<edge from-layer="384" from-port="2" to-layer="385" to-port="0" />
		<edge from-layer="385" from-port="1" to-layer="394" to-port="0" />
		<edge from-layer="386" from-port="0" to-layer="387" to-port="0" />
		<edge from-layer="387" from-port="1" to-layer="388" to-port="1" />
		<edge from-layer="388" from-port="2" to-layer="389" to-port="0" />
		<edge from-layer="389" from-port="2" to-layer="391" to-port="0" />
		<edge from-layer="390" from-port="0" to-layer="391" to-port="1" />
		<edge from-layer="391" from-port="2" to-layer="393" to-port="0" />
		<edge from-layer="392" from-port="0" to-layer="393" to-port="1" />
		<edge from-layer="393" from-port="2" to-layer="394" to-port="1" />
		<edge from-layer="394" from-port="2" to-layer="396" to-port="0" />
		<edge from-layer="395" from-port="0" to-layer="396" to-port="1" />
		<edge from-layer="396" from-port="2" to-layer="397" to-port="0" />
		<edge from-layer="397" from-port="2" to-layer="400" to-port="0" />
		<edge from-layer="398" from-port="0" to-layer="399" to-port="0" />
		<edge from-layer="399" from-port="1" to-layer="400" to-port="1" />
		<edge from-layer="400" from-port="2" to-layer="403" to-port="0" />
		<edge from-layer="401" from-port="0" to-layer="402" to-port="0" />
		<edge from-layer="402" from-port="1" to-layer="403" to-port="1" />
		<edge from-layer="403" from-port="2" to-layer="404" to-port="1" />
		<edge from-layer="404" from-port="2" to-layer="407" to-port="1" />
		<edge from-layer="404" from-port="2" to-layer="429" to-port="0" />
		<edge from-layer="405" from-port="0" to-layer="406" to-port="0" />
		<edge from-layer="406" from-port="1" to-layer="407" to-port="0" />
		<edge from-layer="407" from-port="2" to-layer="408" to-port="0" />
		<edge from-layer="408" from-port="1" to-layer="411" to-port="0" />
		<edge from-layer="409" from-port="0" to-layer="410" to-port="0" />
		<edge from-layer="410" from-port="1" to-layer="411" to-port="1" />
		<edge from-layer="411" from-port="2" to-layer="414" to-port="0" />
		<edge from-layer="412" from-port="0" to-layer="413" to-port="0" />
		<edge from-layer="413" from-port="1" to-layer="414" to-port="1" />
		<edge from-layer="414" from-port="2" to-layer="417" to-port="0" />
		<edge from-layer="415" from-port="0" to-layer="416" to-port="0" />
		<edge from-layer="416" from-port="1" to-layer="417" to-port="1" />
		<edge from-layer="417" from-port="2" to-layer="420" to-port="0" />
		<edge from-layer="418" from-port="0" to-layer="419" to-port="0" />
		<edge from-layer="419" from-port="1" to-layer="420" to-port="1" />
		<edge from-layer="420" from-port="2" to-layer="421" to-port="0" />
		<edge from-layer="421" from-port="1" to-layer="424" to-port="0" />
		<edge from-layer="422" from-port="0" to-layer="423" to-port="0" />
		<edge from-layer="423" from-port="1" to-layer="424" to-port="1" />
		<edge from-layer="424" from-port="2" to-layer="427" to-port="0" />
		<edge from-layer="425" from-port="0" to-layer="426" to-port="0" />
		<edge from-layer="426" from-port="1" to-layer="427" to-port="1" />
		<edge from-layer="427" from-port="2" to-layer="428" to-port="0" />
		<edge from-layer="428" from-port="1" to-layer="429" to-port="1" />
		<edge from-layer="429" from-port="2" to-layer="431" to-port="1" />
		<edge from-layer="429" from-port="2" to-layer="480" to-port="0" />
		<edge from-layer="430" from-port="0" to-layer="431" to-port="0" />
		<edge from-layer="431" from-port="2" to-layer="432" to-port="0" />
		<edge from-layer="432" from-port="1" to-layer="435" to-port="0" />
		<edge from-layer="433" from-port="0" to-layer="434" to-port="0" />
		<edge from-layer="434" from-port="1" to-layer="435" to-port="1" />
		<edge from-layer="435" from-port="2" to-layer="438" to-port="0" />
		<edge from-layer="436" from-port="0" to-layer="437" to-port="0" />
		<edge from-layer="437" from-port="1" to-layer="438" to-port="1" />
		<edge from-layer="438" from-port="2" to-layer="450" to-port="0" />
		<edge from-layer="438" from-port="2" to-layer="463" to-port="0" />
		<edge from-layer="438" from-port="2" to-layer="441" to-port="0" />
		<edge from-layer="439" from-port="0" to-layer="440" to-port="0" />
		<edge from-layer="440" from-port="1" to-layer="441" to-port="1" />
		<edge from-layer="441" from-port="2" to-layer="442" to-port="0" />
		<edge from-layer="442" from-port="2" to-layer="445" to-port="0" />
		<edge from-layer="443" from-port="0" to-layer="444" to-port="0" />
		<edge from-layer="444" from-port="1" to-layer="445" to-port="1" />
		<edge from-layer="445" from-port="2" to-layer="447" to-port="0" />
		<edge from-layer="446" from-port="0" to-layer="447" to-port="1" />
		<edge from-layer="447" from-port="2" to-layer="459" to-port="0" />
		<edge from-layer="448" from-port="0" to-layer="449" to-port="0" />
		<edge from-layer="449" from-port="1" to-layer="450" to-port="1" />
		<edge from-layer="450" from-port="2" to-layer="451" to-port="0" />
		<edge from-layer="451" from-port="2" to-layer="453" to-port="0" />
		<edge from-layer="452" from-port="0" to-layer="453" to-port="1" />
		<edge from-layer="453" from-port="2" to-layer="456" to-port="0" />
		<edge from-layer="454" from-port="0" to-layer="455" to-port="0" />
		<edge from-layer="455" from-port="1" to-layer="456" to-port="1" />
		<edge from-layer="456" from-port="2" to-layer="458" to-port="0" />
		<edge from-layer="457" from-port="0" to-layer="458" to-port="1" />
		<edge from-layer="458" from-port="2" to-layer="459" to-port="1" />
		<edge from-layer="459" from-port="2" to-layer="460" to-port="0" />
		<edge from-layer="460" from-port="1" to-layer="470" to-port="0" />
		<edge from-layer="461" from-port="0" to-layer="462" to-port="0" />
		<edge from-layer="462" from-port="1" to-layer="463" to-port="1" />
		<edge from-layer="463" from-port="2" to-layer="464" to-port="0" />
		<edge from-layer="464" from-port="2" to-layer="467" to-port="0" />
		<edge from-layer="465" from-port="0" to-layer="466" to-port="0" />
		<edge from-layer="466" from-port="1" to-layer="467" to-port="1" />
		<edge from-layer="467" from-port="2" to-layer="469" to-port="0" />
		<edge from-layer="468" from-port="0" to-layer="469" to-port="1" />
		<edge from-layer="469" from-port="2" to-layer="470" to-port="1" />
		<edge from-layer="470" from-port="2" to-layer="472" to-port="0" />
		<edge from-layer="471" from-port="0" to-layer="472" to-port="1" />
		<edge from-layer="472" from-port="2" to-layer="473" to-port="0" />
		<edge from-layer="473" from-port="2" to-layer="476" to-port="0" />
		<edge from-layer="474" from-port="0" to-layer="475" to-port="0" />
		<edge from-layer="475" from-port="1" to-layer="476" to-port="1" />
		<edge from-layer="476" from-port="2" to-layer="479" to-port="0" />
		<edge from-layer="477" from-port="0" to-layer="478" to-port="0" />
		<edge from-layer="478" from-port="1" to-layer="479" to-port="1" />
		<edge from-layer="479" from-port="2" to-layer="480" to-port="1" />
		<edge from-layer="480" from-port="2" to-layer="483" to-port="1" />
		<edge from-layer="480" from-port="2" to-layer="503" to-port="0" />
		<edge from-layer="481" from-port="0" to-layer="482" to-port="0" />
		<edge from-layer="482" from-port="1" to-layer="483" to-port="0" />
		<edge from-layer="483" from-port="2" to-layer="484" to-port="0" />
		<edge from-layer="484" from-port="1" to-layer="486" to-port="0" />
		<edge from-layer="485" from-port="0" to-layer="486" to-port="1" />
		<edge from-layer="486" from-port="2" to-layer="489" to-port="0" />
		<edge from-layer="487" from-port="0" to-layer="488" to-port="0" />
		<edge from-layer="488" from-port="1" to-layer="489" to-port="1" />
		<edge from-layer="489" from-port="2" to-layer="492" to-port="0" />
		<edge from-layer="490" from-port="0" to-layer="491" to-port="0" />
		<edge from-layer="491" from-port="1" to-layer="492" to-port="1" />
		<edge from-layer="492" from-port="2" to-layer="495" to-port="0" />
		<edge from-layer="493" from-port="0" to-layer="494" to-port="0" />
		<edge from-layer="494" from-port="1" to-layer="495" to-port="1" />
		<edge from-layer="495" from-port="2" to-layer="496" to-port="0" />
		<edge from-layer="496" from-port="1" to-layer="499" to-port="0" />
		<edge from-layer="497" from-port="0" to-layer="498" to-port="0" />
		<edge from-layer="498" from-port="1" to-layer="499" to-port="1" />
		<edge from-layer="499" from-port="2" to-layer="501" to-port="0" />
		<edge from-layer="500" from-port="0" to-layer="501" to-port="1" />
		<edge from-layer="501" from-port="2" to-layer="502" to-port="0" />
		<edge from-layer="502" from-port="1" to-layer="503" to-port="1" />
		<edge from-layer="503" from-port="2" to-layer="506" to-port="1" />
		<edge from-layer="503" from-port="2" to-layer="554" to-port="0" />
		<edge from-layer="504" from-port="0" to-layer="505" to-port="0" />
		<edge from-layer="505" from-port="1" to-layer="506" to-port="0" />
		<edge from-layer="506" from-port="2" to-layer="507" to-port="0" />
		<edge from-layer="507" from-port="1" to-layer="510" to-port="0" />
		<edge from-layer="508" from-port="0" to-layer="509" to-port="0" />
		<edge from-layer="509" from-port="1" to-layer="510" to-port="1" />
		<edge from-layer="510" from-port="2" to-layer="513" to-port="0" />
		<edge from-layer="511" from-port="0" to-layer="512" to-port="0" />
		<edge from-layer="512" from-port="1" to-layer="513" to-port="1" />
		<edge from-layer="513" from-port="2" to-layer="516" to-port="0" />
		<edge from-layer="513" from-port="2" to-layer="524" to-port="0" />
		<edge from-layer="513" from-port="2" to-layer="537" to-port="0" />
		<edge from-layer="514" from-port="0" to-layer="515" to-port="0" />
		<edge from-layer="515" from-port="1" to-layer="516" to-port="1" />
		<edge from-layer="516" from-port="2" to-layer="517" to-port="0" />
		<edge from-layer="517" from-port="2" to-layer="519" to-port="0" />
		<edge from-layer="518" from-port="0" to-layer="519" to-port="1" />
		<edge from-layer="519" from-port="2" to-layer="521" to-port="0" />
		<edge from-layer="520" from-port="0" to-layer="521" to-port="1" />
		<edge from-layer="521" from-port="2" to-layer="533" to-port="0" />
		<edge from-layer="522" from-port="0" to-layer="523" to-port="0" />
		<edge from-layer="523" from-port="1" to-layer="524" to-port="1" />
		<edge from-layer="524" from-port="2" to-layer="525" to-port="0" />
		<edge from-layer="525" from-port="2" to-layer="527" to-port="0" />
		<edge from-layer="526" from-port="0" to-layer="527" to-port="1" />
		<edge from-layer="527" from-port="2" to-layer="530" to-port="0" />
		<edge from-layer="528" from-port="0" to-layer="529" to-port="0" />
		<edge from-layer="529" from-port="1" to-layer="530" to-port="1" />
		<edge from-layer="530" from-port="2" to-layer="532" to-port="0" />
		<edge from-layer="531" from-port="0" to-layer="532" to-port="1" />
		<edge from-layer="532" from-port="2" to-layer="533" to-port="1" />
		<edge from-layer="533" from-port="2" to-layer="534" to-port="0" />
		<edge from-layer="534" from-port="1" to-layer="544" to-port="0" />
		<edge from-layer="535" from-port="0" to-layer="536" to-port="0" />
		<edge from-layer="536" from-port="1" to-layer="537" to-port="1" />
		<edge from-layer="537" from-port="2" to-layer="538" to-port="0" />
		<edge from-layer="538" from-port="2" to-layer="541" to-port="0" />
		<edge from-layer="539" from-port="0" to-layer="540" to-port="0" />
		<edge from-layer="540" from-port="1" to-layer="541" to-port="1" />
		<edge from-layer="541" from-port="2" to-layer="543" to-port="0" />
		<edge from-layer="542" from-port="0" to-layer="543" to-port="1" />
		<edge from-layer="543" from-port="2" to-layer="544" to-port="1" />
		<edge from-layer="544" from-port="2" to-layer="546" to-port="0" />
		<edge from-layer="545" from-port="0" to-layer="546" to-port="1" />
		<edge from-layer="546" from-port="2" to-layer="547" to-port="0" />
		<edge from-layer="547" from-port="2" to-layer="550" to-port="0" />
		<edge from-layer="548" from-port="0" to-layer="549" to-port="0" />
		<edge from-layer="549" from-port="1" to-layer="550" to-port="1" />
		<edge from-layer="550" from-port="2" to-layer="553" to-port="0" />
		<edge from-layer="551" from-port="0" to-layer="552" to-port="0" />
		<edge from-layer="552" from-port="1" to-layer="553" to-port="1" />
		<edge from-layer="553" from-port="2" to-layer="554" to-port="1" />
		<edge from-layer="554" from-port="2" to-layer="557" to-port="1" />
		<edge from-layer="554" from-port="2" to-layer="578" to-port="0" />
		<edge from-layer="555" from-port="0" to-layer="556" to-port="0" />
		<edge from-layer="556" from-port="1" to-layer="557" to-port="0" />
		<edge from-layer="557" from-port="2" to-layer="558" to-port="0" />
		<edge from-layer="558" from-port="1" to-layer="561" to-port="0" />
		<edge from-layer="559" from-port="0" to-layer="560" to-port="0" />
		<edge from-layer="560" from-port="1" to-layer="561" to-port="1" />
		<edge from-layer="561" from-port="2" to-layer="564" to-port="0" />
		<edge from-layer="562" from-port="0" to-layer="563" to-port="0" />
		<edge from-layer="563" from-port="1" to-layer="564" to-port="1" />
		<edge from-layer="564" from-port="2" to-layer="567" to-port="0" />
		<edge from-layer="565" from-port="0" to-layer="566" to-port="0" />
		<edge from-layer="566" from-port="1" to-layer="567" to-port="1" />
		<edge from-layer="567" from-port="2" to-layer="570" to-port="0" />
		<edge from-layer="568" from-port="0" to-layer="569" to-port="0" />
		<edge from-layer="569" from-port="1" to-layer="570" to-port="1" />
		<edge from-layer="570" from-port="2" to-layer="571" to-port="0" />
		<edge from-layer="571" from-port="1" to-layer="574" to-port="0" />
		<edge from-layer="572" from-port="0" to-layer="573" to-port="0" />
		<edge from-layer="573" from-port="1" to-layer="574" to-port="1" />
		<edge from-layer="574" from-port="2" to-layer="576" to-port="0" />
		<edge from-layer="575" from-port="0" to-layer="576" to-port="1" />
		<edge from-layer="576" from-port="2" to-layer="577" to-port="0" />
		<edge from-layer="577" from-port="1" to-layer="578" to-port="1" />
		<edge from-layer="578" from-port="2" to-layer="581" to-port="1" />
		<edge from-layer="578" from-port="2" to-layer="630" to-port="0" />
		<edge from-layer="578" from-port="2" to-layer="676" to-port="0" />
		<edge from-layer="579" from-port="0" to-layer="580" to-port="0" />
		<edge from-layer="580" from-port="1" to-layer="581" to-port="0" />
		<edge from-layer="581" from-port="2" to-layer="582" to-port="0" />
		<edge from-layer="582" from-port="1" to-layer="585" to-port="0" />
		<edge from-layer="583" from-port="0" to-layer="584" to-port="0" />
		<edge from-layer="584" from-port="1" to-layer="585" to-port="1" />
		<edge from-layer="585" from-port="2" to-layer="588" to-port="0" />
		<edge from-layer="586" from-port="0" to-layer="587" to-port="0" />
		<edge from-layer="587" from-port="1" to-layer="588" to-port="1" />
		<edge from-layer="588" from-port="2" to-layer="613" to-port="0" />
		<edge from-layer="588" from-port="2" to-layer="600" to-port="0" />
		<edge from-layer="588" from-port="2" to-layer="591" to-port="0" />
		<edge from-layer="589" from-port="0" to-layer="590" to-port="0" />
		<edge from-layer="590" from-port="1" to-layer="591" to-port="1" />
		<edge from-layer="591" from-port="2" to-layer="592" to-port="0" />
		<edge from-layer="592" from-port="2" to-layer="595" to-port="0" />
		<edge from-layer="593" from-port="0" to-layer="594" to-port="0" />
		<edge from-layer="594" from-port="1" to-layer="595" to-port="1" />
		<edge from-layer="595" from-port="2" to-layer="597" to-port="0" />
		<edge from-layer="596" from-port="0" to-layer="597" to-port="1" />
		<edge from-layer="597" from-port="2" to-layer="609" to-port="0" />
		<edge from-layer="598" from-port="0" to-layer="599" to-port="0" />
		<edge from-layer="599" from-port="1" to-layer="600" to-port="1" />
		<edge from-layer="600" from-port="2" to-layer="601" to-port="0" />
		<edge from-layer="601" from-port="2" to-layer="603" to-port="0" />
		<edge from-layer="602" from-port="0" to-layer="603" to-port="1" />
		<edge from-layer="603" from-port="2" to-layer="606" to-port="0" />
		<edge from-layer="604" from-port="0" to-layer="605" to-port="0" />
		<edge from-layer="605" from-port="1" to-layer="606" to-port="1" />
		<edge from-layer="606" from-port="2" to-layer="608" to-port="0" />
		<edge from-layer="607" from-port="0" to-layer="608" to-port="1" />
		<edge from-layer="608" from-port="2" to-layer="609" to-port="1" />
		<edge from-layer="609" from-port="2" to-layer="610" to-port="0" />
		<edge from-layer="610" from-port="1" to-layer="620" to-port="0" />
		<edge from-layer="611" from-port="0" to-layer="612" to-port="0" />
		<edge from-layer="612" from-port="1" to-layer="613" to-port="1" />
		<edge from-layer="613" from-port="2" to-layer="614" to-port="0" />
		<edge from-layer="614" from-port="2" to-layer="617" to-port="0" />
		<edge from-layer="615" from-port="0" to-layer="616" to-port="0" />
		<edge from-layer="616" from-port="1" to-layer="617" to-port="1" />
		<edge from-layer="617" from-port="2" to-layer="619" to-port="0" />
		<edge from-layer="618" from-port="0" to-layer="619" to-port="1" />
		<edge from-layer="619" from-port="2" to-layer="620" to-port="1" />
		<edge from-layer="620" from-port="2" to-layer="622" to-port="0" />
		<edge from-layer="621" from-port="0" to-layer="622" to-port="1" />
		<edge from-layer="622" from-port="2" to-layer="623" to-port="0" />
		<edge from-layer="623" from-port="2" to-layer="626" to-port="0" />
		<edge from-layer="624" from-port="0" to-layer="625" to-port="0" />
		<edge from-layer="625" from-port="1" to-layer="626" to-port="1" />
		<edge from-layer="626" from-port="2" to-layer="629" to-port="0" />
		<edge from-layer="627" from-port="0" to-layer="628" to-port="0" />
		<edge from-layer="628" from-port="1" to-layer="629" to-port="1" />
		<edge from-layer="629" from-port="2" to-layer="630" to-port="1" />
		<edge from-layer="630" from-port="2" to-layer="655" to-port="0" />
		<edge from-layer="630" from-port="2" to-layer="633" to-port="1" />
		<edge from-layer="631" from-port="0" to-layer="632" to-port="0" />
		<edge from-layer="632" from-port="1" to-layer="633" to-port="0" />
		<edge from-layer="633" from-port="2" to-layer="634" to-port="0" />
		<edge from-layer="634" from-port="1" to-layer="637" to-port="0" />
		<edge from-layer="635" from-port="0" to-layer="636" to-port="0" />
		<edge from-layer="636" from-port="1" to-layer="637" to-port="1" />
		<edge from-layer="637" from-port="2" to-layer="640" to-port="0" />
		<edge from-layer="638" from-port="0" to-layer="639" to-port="0" />
		<edge from-layer="639" from-port="1" to-layer="640" to-port="1" />
		<edge from-layer="640" from-port="2" to-layer="643" to-port="0" />
		<edge from-layer="641" from-port="0" to-layer="642" to-port="0" />
		<edge from-layer="642" from-port="1" to-layer="643" to-port="1" />
		<edge from-layer="643" from-port="2" to-layer="646" to-port="0" />
		<edge from-layer="644" from-port="0" to-layer="645" to-port="0" />
		<edge from-layer="645" from-port="1" to-layer="646" to-port="1" />
		<edge from-layer="646" from-port="2" to-layer="647" to-port="0" />
		<edge from-layer="647" from-port="1" to-layer="650" to-port="0" />
		<edge from-layer="648" from-port="0" to-layer="649" to-port="0" />
		<edge from-layer="649" from-port="1" to-layer="650" to-port="1" />
		<edge from-layer="650" from-port="2" to-layer="653" to-port="0" />
		<edge from-layer="651" from-port="0" to-layer="652" to-port="0" />
		<edge from-layer="652" from-port="1" to-layer="653" to-port="1" />
		<edge from-layer="653" from-port="2" to-layer="654" to-port="0" />
		<edge from-layer="654" from-port="1" to-layer="655" to-port="1" />
		<edge from-layer="655" from-port="2" to-layer="658" to-port="0" />
		<edge from-layer="655" from-port="2" to-layer="664" to-port="1" />
		<edge from-layer="656" from-port="0" to-layer="657" to-port="0" />
		<edge from-layer="657" from-port="1" to-layer="658" to-port="1" />
		<edge from-layer="658" from-port="2" to-layer="660" to-port="0" />
		<edge from-layer="659" from-port="0" to-layer="660" to-port="1" />
		<edge from-layer="660" from-port="2" to-layer="661" to-port="0" />
		<edge from-layer="661" from-port="1" to-layer="663" to-port="0" />
		<edge from-layer="662" from-port="0" to-layer="663" to-port="1" />
		<edge from-layer="663" from-port="2" to-layer="664" to-port="0" />
		<edge from-layer="664" from-port="2" to-layer="666" to-port="0" />
		<edge from-layer="665" from-port="0" to-layer="666" to-port="1" />
		<edge from-layer="666" from-port="2" to-layer="669" to-port="0" />
		<edge from-layer="667" from-port="0" to-layer="668" to-port="0" />
		<edge from-layer="668" from-port="1" to-layer="669" to-port="1" />
		<edge from-layer="669" from-port="2" to-layer="672" to-port="0" />
		<edge from-layer="670" from-port="0" to-layer="671" to-port="0" />
		<edge from-layer="671" from-port="1" to-layer="672" to-port="1" />
		<edge from-layer="672" from-port="2" to-layer="673" to-port="0" />
		<edge from-layer="673" from-port="1" to-layer="682" to-port="0" />
		<edge from-layer="674" from-port="0" to-layer="675" to-port="0" />
		<edge from-layer="675" from-port="1" to-layer="676" to-port="1" />
		<edge from-layer="676" from-port="2" to-layer="679" to-port="0" />
		<edge from-layer="677" from-port="0" to-layer="678" to-port="0" />
		<edge from-layer="678" from-port="1" to-layer="679" to-port="1" />
		<edge from-layer="679" from-port="2" to-layer="680" to-port="0" />
		<edge from-layer="680" from-port="1" to-layer="681" to-port="0" />
	</edges>
	<rt_info>
		<info name="OpenVINO Runtime" value="2026.2.1-21919-ede283a88e3-releases/2026/2" />
		<Runtime_version value="2026.2.1-21919-ede283a88e3-releases/2026/2" />
		<conversion_parameters>
			<input_model value="DIR/cct-xs-v2-global.onnx" />
			<is_python_object value="False" />
		</conversion_parameters>
	</rt_info>
</net>
