<?xml version="1.0"?>
<net name="onnx_Frontend_IR" version="11">
	<layers>
		<layer id="0" name="input" type="Parameter" version="opset1">
			<data shape="?,64,128,3" element_type="u8" />
			<rt_info>
				<attribute name="old_api_map_element_type" version="0" value="f32" />
			</rt_info>
			<output>
				<port id="0" precision="U8" names="input">
					<dim>-1</dim>
					<dim>64</dim>
					<dim>128</dim>
					<dim>3</dim>
				</port>
			</output>
		</layer>
		<layer id="1" name="Constant_106276_compressed" type="Const" version="opset1">
			<data element_type="f16" shape="1, 1, 1" offset="0" size="2" />
			<output>
				<port id="0" precision="FP16">
					<dim>1</dim>
					<dim>1</dim>
					<dim>1</dim>
				</port>
			</output>
		</layer>
		<layer id="2" name="Constant_106276" type="Convert" version="opset1">
			<data destination_type="f32" />
			<rt_info>
				<attribute name="decompression" version="0" />
			</rt_info>
			<input>
				<port id="0" precision="FP16">
					<dim>1</dim>
					<dim>1</dim>
					<dim>1</dim>
				</port>
			</input>
			<output>
				<port id="1" precision="FP32">
					<dim>1</dim>
					<dim>1</dim>
					<dim>1</dim>
				</port>
			</output>
		</layer>
		<layer id="3" name="CCT_OCR_1/Cast" type="Convert" version="opset1">
			<data destination_type="f32" />
			<input>
				<port id="0" precision="U8">
					<dim>-1</dim>
					<dim>64</dim>
					<dim>128</dim>
					<dim>3</dim>
				</port>
			</input>
			<output>
				<port id="1" precision="FP32" names="CCT_OCR_1/Cast:0">
					<dim>-1</dim>
					<dim>64</dim>
					<dim>128</dim>
					<dim>3</dim>
				</port>
			</output>
		</layer>
		<layer id="4" name="Constant_106203_compressed" type="Const" version="opset1">
			<data element_type="f16" shape="1, 1, 1, 1" offset="2" size="2" />
			<output>
				<port id="0" precision="FP16">
					<dim>1</dim>
					<dim>1</dim>
					<dim>1</dim>
					<dim>1</dim>
				</port>
			</output>
		</layer>
		<layer id="5" name="Constant_106203" type="Convert" version="opset1">
			<data destination_type="f32" />
			<rt_info>
				<attribute name="decompression" version="0" />
			</rt_info>
			<input>
				<port id="0" precision="FP16">
					<dim>1</dim>
					<dim>1</dim>
					<dim>1</dim>
					<dim>1</dim>
				</port>
			</input>
			<output>
				<port id="1" precision="FP32">
					<dim>1</dim>
					<dim>1</dim>
					<dim>1</dim>
					<dim>1</dim>
				</port>
			</output>
		</layer>
		<layer id="6" name="CCT_OCR_1/rescaling_1/mul" type="Multiply" version="opset1">
			<data auto_broadcast="numpy" />
			<input>
				<port id="0" precision="FP32">
					<dim>-1</dim>
					<dim>64</dim>
					<dim>128</dim>
					<dim>3</dim>
				</port>
				<port id="1" precision="FP32">
					<dim>1</dim>
					<dim>1</dim>
					<dim>1</dim>
					<dim>1</dim>
				</port>
			</input>
			<output>
				<port id="2" precision="FP32" names="CCT_OCR_1/rescaling_1/add:0">
					<dim>-1</dim>
					<dim>64</dim>
					<dim>128</dim>
					<dim>3</dim>
				</port>
			</output>
		</layer>
		<layer id="7" name="Constant_99820" type="Const" version="opset1">
			<data element_type="i64" shape="4" offset="4" size="32" />
			<output>
				<port id="0" precision="I64">
					<dim>4</dim>
				</port>
			</output>
		</layer>
		<layer id="8" name="CCT_OCR_1/conv_stem_1/conv2d_1/BiasAdd__366" type="Transpose" version="opset1">
			<input>
				<port id="0" precision="FP32">
					<dim>-1</dim>
					<dim>64</dim>
					<dim>128</dim>
					<dim>3</dim>
				</port>
				<port id="1" precision="I64">
					<dim>4</dim>
				</port>
			</input>
			<output>
				<port id="2" precision="FP32" names="CCT_OCR_1/conv_stem_1/conv2d_1/BiasAdd__366:0">
					<dim>-1</dim>
					<dim>3</dim>
					<dim>64</dim>
					<dim>128</dim>
				</port>
			</output>
		</layer>
		<layer id="9" name="CCT_OCR_1/conv_stem_1/conv2d_1/convolution/ReadVariableOp:0_compressed" type="Const" version="opset1">
			<data element_type="f16" shape="48, 3, 3, 3" offset="36" size="2592" />
			<output>
				<port id="0" precision="FP16" names="CCT_OCR_1/conv_stem_1/conv2d_1/convolution/ReadVariableOp:0">
					<dim>48</dim>
					<dim>3</dim>
					<dim>3</dim>
					<dim>3</dim>
				</port>
			</output>
		</layer>
		<layer id="10" name="CCT_OCR_1/conv_stem_1/conv2d_1/convolution/ReadVariableOp:0" type="Convert" version="opset1">
			<data destination_type="f32" />
			<rt_info>
				<attribute name="decompression" version="0" />
			</rt_info>
			<input>
				<port id="0" precision="FP16">
					<dim>48</dim>
					<dim>3</dim>
					<dim>3</dim>
					<dim>3</dim>
				</port>
			</input>
			<output>
				<port id="1" precision="FP32">
					<dim>48</dim>
					<dim>3</dim>
					<dim>3</dim>
					<dim>3</dim>
				</port>
			</output>
		</layer>
		<layer id="11" name="CCT_OCR_1/conv_stem_1/conv2d_1/BiasAdd/WithoutBiases" type="Convolution" version="opset1">
			<data strides="1, 1" dilations="1, 1" pads_begin="1, 1" pads_end="1, 1" auto_pad="explicit" />
			<input>
				<port id="0" precision="FP32">
					<dim>-1</dim>
					<dim>3</dim>
					<dim>64</dim>
					<dim>128</dim>
				</port>
				<port id="1" precision="FP32">
					<dim>48</dim>
					<dim>3</dim>
					<dim>3</dim>
					<dim>3</dim>
				</port>
			</input>
			<output>
				<port id="2" precision="FP32">
					<dim>-1</dim>
					<dim>48</dim>
					<dim>64</dim>
					<dim>128</dim>
				</port>
			</output>
		</layer>
		<layer id="12" name="Reshape_99835_compressed" type="Const" version="opset1">
			<data element_type="f16" shape="1, 48, 1, 1" offset="2628" size="96" />
			<output>
				<port id="0" precision="FP16">
					<dim>1</dim>
					<dim>48</dim>
					<dim>1</dim>
					<dim>1</dim>
				</port>
			</output>
		</layer>
		<layer id="13" name="Reshape_99835" type="Convert" version="opset1">
			<data destination_type="f32" />
			<rt_info>
				<attribute name="decompression" version="0" />
			</rt_info>
			<input>
				<port id="0" precision="FP16">
					<dim>1</dim>
					<dim>48</dim>
					<dim>1</dim>
					<dim>1</dim>
				</port>
			</input>
			<output>
				<port id="1" precision="FP32">
					<dim>1</dim>
					<dim>48</dim>
					<dim>1</dim>
					<dim>1</dim>
				</port>
			</output>
		</layer>
		<layer id="14" name="CCT_OCR_1/conv_stem_1/conv2d_1/BiasAdd" type="Add" version="opset1">
			<data auto_broadcast="numpy" />
			<input>
				<port id="0" precision="FP32">
					<dim>-1</dim>
					<dim>48</dim>
					<dim>64</dim>
					<dim>128</dim>
				</port>
				<port id="1" precision="FP32">
					<dim>1</dim>
					<dim>48</dim>
					<dim>1</dim>
					<dim>1</dim>
				</port>
			</input>
			<output>
				<port id="2" precision="FP32" names="CCT_OCR_1/conv_stem_1/conv2d_1/BiasAdd:0">
					<dim>-1</dim>
					<dim>48</dim>
					<dim>64</dim>
					<dim>128</dim>
				</port>
			</output>
		</layer>
		<layer id="15" name="CCT_OCR_1/conv_stem_1/conv2d_1/mul_1" type="Swish" version="opset4">
			<input>
				<port id="0" precision="FP32">
					<dim>-1</dim>
					<dim>48</dim>
					<dim>64</dim>
					<dim>128</dim>
				</port>
			</input>
			<output>
				<port id="1" precision="FP32" names="CCT_OCR_1/conv_stem_1/conv2d_1/mul_1:0">
					<dim>-1</dim>
					<dim>48</dim>
					<dim>64</dim>
					<dim>128</dim>
				</port>
			</output>
		</layer>
		<layer id="16" name="CCT_OCR_1/conv_stem_1/max_blur_pooling2d_1/MaxPool2d" type="MaxPool" version="opset8">
			<data strides="1, 1" dilations="1, 1" pads_begin="0, 0" pads_end="1, 1" kernel="2, 2" rounding_type="floor" auto_pad="explicit" index_element_type="i64" axis="0" />
			<input>
				<port id="0" precision="FP32">
					<dim>-1</dim>
					<dim>48</dim>
					<dim>64</dim>
					<dim>128</dim>
				</port>
			</input>
			<output>
				<port id="1" precision="FP32" names="CCT_OCR_1/conv_stem_1/max_blur_pooling2d_1/MaxPool2d:0">
					<dim>-1</dim>
					<dim>48</dim>
					<dim>64</dim>
					<dim>128</dim>
				</port>
				<port id="2" precision="I64">
					<dim>-1</dim>
					<dim>48</dim>
					<dim>64</dim>
					<dim>128</dim>
				</port>
			</output>
		</layer>
		<layer id="17" name="Reshape_99849_compressed" type="Const" version="opset1">
			<data element_type="f16" shape="48, 1, 1, 3, 3" offset="2724" size="864" />
			<output>
				<port id="0" precision="FP16">
					<dim>48</dim>
					<dim>1</dim>
					<dim>1</dim>
					<dim>3</dim>
					<dim>3</dim>
				</port>
			</output>
		</layer>
		<layer id="18" name="Reshape_99849" type="Convert" version="opset1">
			<data destination_type="f32" />
			<rt_info>
				<attribute name="decompression" version="0" />
			</rt_info>
			<input>
				<port id="0" precision="FP16">
					<dim>48</dim>
					<dim>1</dim>
					<dim>1</dim>
					<dim>3</dim>
					<dim>3</dim>
				</port>
			</input>
			<output>
				<port id="1" precision="FP32">
					<dim>48</dim>
					<dim>1</dim>
					<dim>1</dim>
					<dim>3</dim>
					<dim>3</dim>
				</port>
			</output>
		</layer>
		<layer id="19" name="CCT_OCR_1/conv_stem_1/max_blur_pooling2d_1/depthwise" type="GroupConvolution" version="opset1">
			<data strides="2, 2" pads_begin="0, 0" pads_end="1, 1" dilations="1, 1" auto_pad="explicit" />
			<input>
				<port id="0" precision="FP32">
					<dim>-1</dim>
					<dim>48</dim>
					<dim>64</dim>
					<dim>128</dim>
				</port>
				<port id="1" precision="FP32">
					<dim>48</dim>
					<dim>1</dim>
					<dim>1</dim>
					<dim>3</dim>
					<dim>3</dim>
				</port>
			</input>
			<output>
				<port id="2" precision="FP32" names="CCT_OCR_1/conv_stem_1/max_blur_pooling2d_1/depthwise:0">
					<dim>-1</dim>
					<dim>48</dim>
					<dim>32</dim>
					<dim>64</dim>
				</port>
			</output>
		</layer>
		<layer id="20" name="CCT_OCR_1/conv_stem_1/conv2d_1_2/convolution/ReadVariableOp:0_compressed" type="Const" version="opset1">
			<data element_type="f16" shape="80, 48, 3, 3" offset="3588" size="69120" />
			<output>
				<port id="0" precision="FP16" names="CCT_OCR_1/conv_stem_1/conv2d_1_2/convolution/ReadVariableOp:0">
					<dim>80</dim>
					<dim>48</dim>
					<dim>3</dim>
					<dim>3</dim>
				</port>
			</output>
		</layer>
		<layer id="21" name="CCT_OCR_1/conv_stem_1/conv2d_1_2/convolution/ReadVariableOp:0" type="Convert" version="opset1">
			<data destination_type="f32" />
			<rt_info>
				<attribute name="decompression" version="0" />
			</rt_info>
			<input>
				<port id="0" precision="FP16">
					<dim>80</dim>
					<dim>48</dim>
					<dim>3</dim>
					<dim>3</dim>
				</port>
			</input>
			<output>
				<port id="1" precision="FP32">
					<dim>80</dim>
					<dim>48</dim>
					<dim>3</dim>
					<dim>3</dim>
				</port>
			</output>
		</layer>
		<layer id="22" name="CCT_OCR_1/conv_stem_1/conv2d_1_2/BiasAdd/WithoutBiases" type="Convolution" version="opset1">
			<data strides="1, 1" dilations="1, 1" pads_begin="1, 1" pads_end="1, 1" auto_pad="explicit" />
			<input>
				<port id="0" precision="FP32">
					<dim>-1</dim>
					<dim>48</dim>
					<dim>32</dim>
					<dim>64</dim>
				</port>
				<port id="1" precision="FP32">
					<dim>80</dim>
					<dim>48</dim>
					<dim>3</dim>
					<dim>3</dim>
				</port>
			</input>
			<output>
				<port id="2" precision="FP32">
					<dim>-1</dim>
					<dim>80</dim>
					<dim>32</dim>
					<dim>64</dim>
				</port>
			</output>
		</layer>
		<layer id="23" name="Reshape_99902_compressed" type="Const" version="opset1">
			<data element_type="f16" shape="1, 80, 1, 1" offset="72708" size="160" />
			<output>
				<port id="0" precision="FP16">
					<dim>1</dim>
					<dim>80</dim>
					<dim>1</dim>
					<dim>1</dim>
				</port>
			</output>
		</layer>
		<layer id="24" name="Reshape_99902" type="Convert" version="opset1">
			<data destination_type="f32" />
			<rt_info>
				<attribute name="decompression" version="0" />
			</rt_info>
			<input>
				<port id="0" precision="FP16">
					<dim>1</dim>
					<dim>80</dim>
					<dim>1</dim>
					<dim>1</dim>
				</port>
			</input>
			<output>
				<port id="1" precision="FP32">
					<dim>1</dim>
					<dim>80</dim>
					<dim>1</dim>
					<dim>1</dim>
				</port>
			</output>
		</layer>
		<layer id="25" name="CCT_OCR_1/conv_stem_1/conv2d_1_2/BiasAdd" type="Add" version="opset1">
			<data auto_broadcast="numpy" />
			<input>
				<port id="0" precision="FP32">
					<dim>-1</dim>
					<dim>80</dim>
					<dim>32</dim>
					<dim>64</dim>
				</port>
				<port id="1" precision="FP32">
					<dim>1</dim>
					<dim>80</dim>
					<dim>1</dim>
					<dim>1</dim>
				</port>
			</input>
			<output>
				<port id="2" precision="FP32" names="CCT_OCR_1/conv_stem_1/conv2d_1_2/BiasAdd:0">
					<dim>-1</dim>
					<dim>80</dim>
					<dim>32</dim>
					<dim>64</dim>
				</port>
			</output>
		</layer>
		<layer id="26" name="CCT_OCR_1/conv_stem_1/conv2d_1_2/mul_1" type="Swish" version="opset4">
			<input>
				<port id="0" precision="FP32">
					<dim>-1</dim>
					<dim>80</dim>
					<dim>32</dim>
					<dim>64</dim>
				</port>
			</input>
			<output>
				<port id="1" precision="FP32" names="CCT_OCR_1/conv_stem_1/conv2d_1_2/mul_1:0">
					<dim>-1</dim>
					<dim>80</dim>
					<dim>32</dim>
					<dim>64</dim>
				</port>
			</output>
		</layer>
		<layer id="27" name="CCT_OCR_1/conv_stem_1/conv2d_2_1/convolution/ReadVariableOp:0_compressed" type="Const" version="opset1">
			<data element_type="f16" shape="96, 80, 3, 3" offset="72868" size="138240" />
			<output>
				<port id="0" precision="FP16" names="CCT_OCR_1/conv_stem_1/conv2d_2_1/convolution/ReadVariableOp:0">
					<dim>96</dim>
					<dim>80</dim>
					<dim>3</dim>
					<dim>3</dim>
				</port>
			</output>
		</layer>
		<layer id="28" name="CCT_OCR_1/conv_stem_1/conv2d_2_1/convolution/ReadVariableOp:0" type="Convert" version="opset1">
			<data destination_type="f32" />
			<rt_info>
				<attribute name="decompression" version="0" />
			</rt_info>
			<input>
				<port id="0" precision="FP16">
					<dim>96</dim>
					<dim>80</dim>
					<dim>3</dim>
					<dim>3</dim>
				</port>
			</input>
			<output>
				<port id="1" precision="FP32">
					<dim>96</dim>
					<dim>80</dim>
					<dim>3</dim>
					<dim>3</dim>
				</port>
			</output>
		</layer>
		<layer id="29" name="CCT_OCR_1/conv_stem_1/conv2d_2_1/BiasAdd/WithoutBiases" type="Convolution" version="opset1">
			<data strides="1, 1" dilations="1, 1" pads_begin="1, 1" pads_end="1, 1" auto_pad="explicit" />
			<input>
				<port id="0" precision="FP32">
					<dim>-1</dim>
					<dim>80</dim>
					<dim>32</dim>
					<dim>64</dim>
				</port>
				<port id="1" precision="FP32">
					<dim>96</dim>
					<dim>80</dim>
					<dim>3</dim>
					<dim>3</dim>
				</port>
			</input>
			<output>
				<port id="2" precision="FP32">
					<dim>-1</dim>
					<dim>96</dim>
					<dim>32</dim>
					<dim>64</dim>
				</port>
			</output>
		</layer>
		<layer id="30" name="Reshape_99919_compressed" type="Const" version="opset1">
			<data element_type="f16" shape="1, 96, 1, 1" offset="211108" size="192" />
			<output>
				<port id="0" precision="FP16">
					<dim>1</dim>
					<dim>96</dim>
					<dim>1</dim>
					<dim>1</dim>
				</port>
			</output>
		</layer>
		<layer id="31" name="Reshape_99919" type="Convert" version="opset1">
			<data destination_type="f32" />
			<rt_info>
				<attribute name="decompression" version="0" />
			</rt_info>
			<input>
				<port id="0" precision="FP16">
					<dim>1</dim>
					<dim>96</dim>
					<dim>1</dim>
					<dim>1</dim>
				</port>
			</input>
			<output>
				<port id="1" precision="FP32">
					<dim>1</dim>
					<dim>96</dim>
					<dim>1</dim>
					<dim>1</dim>
				</port>
			</output>
		</layer>
		<layer id="32" name="CCT_OCR_1/conv_stem_1/conv2d_2_1/BiasAdd" type="Add" version="opset1">
			<data auto_broadcast="numpy" />
			<input>
				<port id="0" precision="FP32">
					<dim>-1</dim>
					<dim>96</dim>
					<dim>32</dim>
					<dim>64</dim>
				</port>
				<port id="1" precision="FP32">
					<dim>1</dim>
					<dim>96</dim>
					<dim>1</dim>
					<dim>1</dim>
				</port>
			</input>
			<output>
				<port id="2" precision="FP32" names="CCT_OCR_1/conv_stem_1/conv2d_2_1/BiasAdd:0">
					<dim>-1</dim>
					<dim>96</dim>
					<dim>32</dim>
					<dim>64</dim>
				</port>
			</output>
		</layer>
		<layer id="33" name="CCT_OCR_1/conv_stem_1/conv2d_2_1/mul_1" type="Swish" version="opset4">
			<input>
				<port id="0" precision="FP32">
					<dim>-1</dim>
					<dim>96</dim>
					<dim>32</dim>
					<dim>64</dim>
				</port>
			</input>
			<output>
				<port id="1" precision="FP32" names="CCT_OCR_1/conv_stem_1/conv2d_2_1/mul_1:0">
					<dim>-1</dim>
					<dim>96</dim>
					<dim>32</dim>
					<dim>64</dim>
				</port>
			</output>
		</layer>
		<layer id="34" name="CCT_OCR_1/conv_stem_1/conv2d_3_1/convolution/ReadVariableOp:0_compressed" type="Const" version="opset1">
			<data element_type="f16" shape="112, 96, 3, 3" offset="211300" size="193536" />
			<output>
				<port id="0" precision="FP16" names="CCT_OCR_1/conv_stem_1/conv2d_3_1/convolution/ReadVariableOp:0">
					<dim>112</dim>
					<dim>96</dim>
					<dim>3</dim>
					<dim>3</dim>
				</port>
			</output>
		</layer>
		<layer id="35" name="CCT_OCR_1/conv_stem_1/conv2d_3_1/convolution/ReadVariableOp:0" type="Convert" version="opset1">
			<data destination_type="f32" />
			<rt_info>
				<attribute name="decompression" version="0" />
			</rt_info>
			<input>
				<port id="0" precision="FP16">
					<dim>112</dim>
					<dim>96</dim>
					<dim>3</dim>
					<dim>3</dim>
				</port>
			</input>
			<output>
				<port id="1" precision="FP32">
					<dim>112</dim>
					<dim>96</dim>
					<dim>3</dim>
					<dim>3</dim>
				</port>
			</output>
		</layer>
		<layer id="36" name="CCT_OCR_1/conv_stem_1/conv2d_3_1/BiasAdd/WithoutBiases" type="Convolution" version="opset1">
			<data strides="1, 1" dilations="1, 1" pads_begin="1, 1" pads_end="1, 1" auto_pad="explicit" />
			<input>
				<port id="0" precision="FP32">
					<dim>-1</dim>
					<dim>96</dim>
					<dim>32</dim>
					<dim>64</dim>
				</port>
				<port id="1" precision="FP32">
					<dim>112</dim>
					<dim>96</dim>
					<dim>3</dim>
					<dim>3</dim>
				</port>
			</input>
			<output>
				<port id="2" precision="FP32">
					<dim>-1</dim>
					<dim>112</dim>
					<dim>32</dim>
					<dim>64</dim>
				</port>
			</output>
		</layer>
		<layer id="37" name="Reshape_99936" type="Const" version="opset1">
			<data element_type="f32" shape="1, 112, 1, 1" offset="404836" size="448" />
			<output>
				<port id="0" precision="FP32">
					<dim>1</dim>
					<dim>112</dim>
					<dim>1</dim>
					<dim>1</dim>
				</port>
			</output>
		</layer>
		<layer id="38" name="CCT_OCR_1/conv_stem_1/conv2d_3_1/BiasAdd" type="Add" version="opset1">
			<data auto_broadcast="numpy" />
			<input>
				<port id="0" precision="FP32">
					<dim>-1</dim>
					<dim>112</dim>
					<dim>32</dim>
					<dim>64</dim>
				</port>
				<port id="1" precision="FP32">
					<dim>1</dim>
					<dim>112</dim>
					<dim>1</dim>
					<dim>1</dim>
				</port>
			</input>
			<output>
				<port id="2" precision="FP32" names="CCT_OCR_1/conv_stem_1/conv2d_3_1/BiasAdd:0">
					<dim>-1</dim>
					<dim>112</dim>
					<dim>32</dim>
					<dim>64</dim>
				</port>
			</output>
		</layer>
		<layer id="39" name="CCT_OCR_1/conv_stem_1/conv2d_3_1/mul_1" type="Swish" version="opset4">
			<input>
				<port id="0" precision="FP32">
					<dim>-1</dim>
					<dim>112</dim>
					<dim>32</dim>
					<dim>64</dim>
				</port>
			</input>
			<output>
				<port id="1" precision="FP32" names="CCT_OCR_1/conv_stem_1/conv2d_3_1/mul_1:0">
					<dim>-1</dim>
					<dim>112</dim>
					<dim>32</dim>
					<dim>64</dim>
				</port>
			</output>
		</layer>
		<layer id="40" name="CCT_OCR_1/patch_extractor_1/convolution__395:0_compressed" type="Const" version="opset1">
			<data element_type="f16" shape="448, 112, 2, 2" offset="405284" size="401408" />
			<output>
				<port id="0" precision="FP16" names="CCT_OCR_1/patch_extractor_1/convolution__395:0">
					<dim>448</dim>
					<dim>112</dim>
					<dim>2</dim>
					<dim>2</dim>
				</port>
			</output>
		</layer>
		<layer id="41" name="CCT_OCR_1/patch_extractor_1/convolution__395:0" type="Convert" version="opset1">
			<data destination_type="f32" />
			<rt_info>
				<attribute name="decompression" version="0" />
			</rt_info>
			<input>
				<port id="0" precision="FP16">
					<dim>448</dim>
					<dim>112</dim>
					<dim>2</dim>
					<dim>2</dim>
				</port>
			</input>
			<output>
				<port id="1" precision="FP32">
					<dim>448</dim>
					<dim>112</dim>
					<dim>2</dim>
					<dim>2</dim>
				</port>
			</output>
		</layer>
		<layer id="42" name="CCT_OCR_1/patch_extractor_1/convolution" type="Convolution" version="opset1">
			<data strides="2, 2" dilations="1, 1" pads_begin="0, 0" pads_end="0, 0" auto_pad="explicit" />
			<input>
				<port id="0" precision="FP32">
					<dim>-1</dim>
					<dim>112</dim>
					<dim>32</dim>
					<dim>64</dim>
				</port>
				<port id="1" precision="FP32">
					<dim>448</dim>
					<dim>112</dim>
					<dim>2</dim>
					<dim>2</dim>
				</port>
			</input>
			<output>
				<port id="2" precision="FP32" names="CCT_OCR_1/patch_extractor_1/convolution:0">
					<dim>-1</dim>
					<dim>448</dim>
					<dim>16</dim>
					<dim>32</dim>
				</port>
			</output>
		</layer>
		<layer id="43" name="Constant_99947" type="Const" version="opset1">
			<data element_type="i64" shape="4" offset="806692" size="32" />
			<output>
				<port id="0" precision="I64">
					<dim>4</dim>
				</port>
			</output>
		</layer>
		<layer id="44" name="CCT_OCR_1/patch_extractor_1/convolution__396" type="Transpose" version="opset1">
			<input>
				<port id="0" precision="FP32">
					<dim>-1</dim>
					<dim>448</dim>
					<dim>16</dim>
					<dim>32</dim>
				</port>
				<port id="1" precision="I64">
					<dim>4</dim>
				</port>
			</input>
			<output>
				<port id="2" precision="FP32" names="CCT_OCR_1/patch_extractor_1/convolution__396:0">
					<dim>-1</dim>
					<dim>16</dim>
					<dim>32</dim>
					<dim>448</dim>
				</port>
			</output>
		</layer>
		<layer id="45" name="Constant_106536" type="Const" version="opset1">
			<data element_type="i64" shape="3" offset="806724" size="24" />
			<rt_info>
				<attribute name="precise" version="0" />
			</rt_info>
			<output>
				<port id="0" precision="I64">
					<dim>3</dim>
				</port>
			</output>
		</layer>
		<layer id="46" name="CCT_OCR_1/patch_extractor_1/Reshape_1" type="Reshape" version="opset1">
			<data special_zero="true" />
			<input>
				<port id="0" precision="FP32">
					<dim>-1</dim>
					<dim>16</dim>
					<dim>32</dim>
					<dim>448</dim>
				</port>
				<port id="1" precision="I64">
					<dim>3</dim>
				</port>
			</input>
			<output>
				<port id="2" precision="FP32" names="CCT_OCR_1/patch_extractor_1/Reshape_1:0">
					<dim>-1</dim>
					<dim>512</dim>
					<dim>448</dim>
				</port>
			</output>
		</layer>
		<layer id="47" name="Transpose_104290_compressed" type="Const" version="opset1">
			<data element_type="f16" shape="112, 448" offset="806748" size="100352" />
			<output>
				<port id="0" precision="FP16">
					<dim>112</dim>
					<dim>448</dim>
				</port>
			</output>
		</layer>
		<layer id="48" name="Transpose_104290" type="Convert" version="opset1">
			<data destination_type="f32" />
			<rt_info>
				<attribute name="decompression" version="0" />
			</rt_info>
			<input>
				<port id="0" precision="FP16">
					<dim>112</dim>
					<dim>448</dim>
				</port>
			</input>
			<output>
				<port id="1" precision="FP32">
					<dim>112</dim>
					<dim>448</dim>
				</port>
			</output>
		</layer>
		<layer id="49" name="CCT_OCR_1/mlp_1/dense_1/MatMul" type="MatMul" version="opset1">
			<data transpose_a="false" transpose_b="true" />
			<input>
				<port id="0" precision="FP32">
					<dim>-1</dim>
					<dim>512</dim>
					<dim>448</dim>
				</port>
				<port id="1" precision="FP32">
					<dim>112</dim>
					<dim>448</dim>
				</port>
			</input>
			<output>
				<port id="2" precision="FP32" names="CCT_OCR_1/mlp_1/dense_1/MatMul:0">
					<dim>-1</dim>
					<dim>512</dim>
					<dim>112</dim>
				</port>
			</output>
		</layer>
		<layer id="50" name="Constant_106204_compressed" type="Const" version="opset1">
			<data element_type="f16" shape="1, 1, 112" offset="907100" size="224" />
			<output>
				<port id="0" precision="FP16">
					<dim>1</dim>
					<dim>1</dim>
					<dim>112</dim>
				</port>
			</output>
		</layer>
		<layer id="51" name="Constant_106204" type="Convert" version="opset1">
			<data destination_type="f32" />
			<rt_info>
				<attribute name="decompression" version="0" />
			</rt_info>
			<input>
				<port id="0" precision="FP16">
					<dim>1</dim>
					<dim>1</dim>
					<dim>112</dim>
				</port>
			</input>
			<output>
				<port id="1" precision="FP32">
					<dim>1</dim>
					<dim>1</dim>
					<dim>112</dim>
				</port>
			</output>
		</layer>
		<layer id="52" name="CCT_OCR_1/mlp_1/dense_1/BiasAdd" type="Add" version="opset1">
			<data auto_broadcast="numpy" />
			<input>
				<port id="0" precision="FP32">
					<dim>-1</dim>
					<dim>512</dim>
					<dim>112</dim>
				</port>
				<port id="1" precision="FP32">
					<dim>1</dim>
					<dim>1</dim>
					<dim>112</dim>
				</port>
			</input>
			<output>
				<port id="2" precision="FP32" names="CCT_OCR_1/mlp_1/dense_1/BiasAdd:0">
					<dim>-1</dim>
					<dim>512</dim>
					<dim>112</dim>
				</port>
			</output>
		</layer>
		<layer id="53" name="CCT_OCR_1/mlp_1/dense_1/mul_1" type="Swish" version="opset4">
			<input>
				<port id="0" precision="FP32">
					<dim>-1</dim>
					<dim>512</dim>
					<dim>112</dim>
				</port>
			</input>
			<output>
				<port id="1" precision="FP32" names="CCT_OCR_1/mlp_1/dense_1/mul_1:0">
					<dim>-1</dim>
					<dim>512</dim>
					<dim>112</dim>
				</port>
			</output>
		</layer>
		<layer id="54" name="Constant_106205_compressed" type="Const" version="opset1">
			<data element_type="f16" shape="1, 512, 112" offset="907324" size="114688" />
			<output>
				<port id="0" precision="FP16">
					<dim>1</dim>
					<dim>512</dim>
					<dim>112</dim>
				</port>
			</output>
		</layer>
		<layer id="55" name="Constant_106205" type="Convert" version="opset1">
			<data destination_type="f32" />
			<rt_info>
				<attribute name="decompression" version="0" />
			</rt_info>
			<input>
				<port id="0" precision="FP16">
					<dim>1</dim>
					<dim>512</dim>
					<dim>112</dim>
				</port>
			</input>
			<output>
				<port id="1" precision="FP32">
					<dim>1</dim>
					<dim>512</dim>
					<dim>112</dim>
				</port>
			</output>
		</layer>
		<layer id="56" name="Add_104133" type="Add" version="opset1">
			<data auto_broadcast="numpy" />
			<input>
				<port id="0" precision="FP32">
					<dim>-1</dim>
					<dim>512</dim>
					<dim>112</dim>
				</port>
				<port id="1" precision="FP32">
					<dim>1</dim>
					<dim>512</dim>
					<dim>112</dim>
				</port>
			</input>
			<output>
				<port id="2" precision="FP32">
					<dim>-1</dim>
					<dim>512</dim>
					<dim>112</dim>
				</port>
			</output>
		</layer>
		<layer id="57" name="ShapeOf_104134" type="ShapeOf" version="opset3">
			<data output_type="i64" />
			<input>
				<port id="0" precision="FP32">
					<dim>-1</dim>
					<dim>512</dim>
					<dim>112</dim>
				</port>
			</input>
			<output>
				<port id="1" precision="I64" names="CCT_OCR_1/pos_emb_1/BroadcastTo__425:0,CCT_OCR_1/pos_emb_1/Shape:0">
					<dim>3</dim>
				</port>
			</output>
		</layer>
		<layer id="58" name="Maximum_104135" type="Maximum" version="opset1">
			<data auto_broadcast="numpy" />
			<input>
				<port id="0" precision="I64">
					<dim>3</dim>
				</port>
				<port id="1" precision="I64">
					<dim>3</dim>
				</port>
			</input>
			<output>
				<port id="2" precision="I64">
					<dim>3</dim>
				</port>
			</output>
		</layer>
		<layer id="59" name="CCT_OCR_1/Add" type="Broadcast" version="opset3">
			<data mode="numpy" />
			<input>
				<port id="0" precision="FP32">
					<dim>-1</dim>
					<dim>512</dim>
					<dim>112</dim>
				</port>
				<port id="1" precision="I64">
					<dim>3</dim>
				</port>
			</input>
			<output>
				<port id="2" precision="FP32" names="CCT_OCR_1/Add:0">
					<dim>-1</dim>
					<dim>512</dim>
					<dim>112</dim>
				</port>
			</output>
		</layer>
		<layer id="60" name="Constant_106206" type="Const" version="opset1">
			<data element_type="f32" shape="1, 1, 1" offset="1022012" size="4" />
			<output>
				<port id="0" precision="FP32">
					<dim>1</dim>
					<dim>1</dim>
					<dim>1</dim>
				</port>
			</output>
		</layer>
		<layer id="61" name="CCT_OCR_1/transformer_block_1_1/dy_t_1/Mul" type="Multiply" version="opset1">
			<data auto_broadcast="numpy" />
			<input>
				<port id="0" precision="FP32">
					<dim>1</dim>
					<dim>1</dim>
					<dim>1</dim>
				</port>
				<port id="1" precision="FP32">
					<dim>-1</dim>
					<dim>512</dim>
					<dim>112</dim>
				</port>
			</input>
			<output>
				<port id="2" precision="FP32" names="CCT_OCR_1/transformer_block_1_1/dy_t_1/Mul:0">
					<dim>-1</dim>
					<dim>512</dim>
					<dim>112</dim>
				</port>
			</output>
		</layer>
		<layer id="62" name="CCT_OCR_1/transformer_block_1_1/dy_t_1/Tanh" type="Tanh" version="opset1">
			<input>
				<port id="0" precision="FP32">
					<dim>-1</dim>
					<dim>512</dim>
					<dim>112</dim>
				</port>
			</input>
			<output>
				<port id="1" precision="FP32" names="CCT_OCR_1/transformer_block_1_1/dy_t_1/Tanh:0">
					<dim>-1</dim>
					<dim>512</dim>
					<dim>112</dim>
				</port>
			</output>
		</layer>
		<layer id="63" name="Constant_106207_compressed" type="Const" version="opset1">
			<data element_type="f16" shape="1, 1, 112" offset="1022016" size="224" />
			<output>
				<port id="0" precision="FP16">
					<dim>1</dim>
					<dim>1</dim>
					<dim>112</dim>
				</port>
			</output>
		</layer>
		<layer id="64" name="Constant_106207" type="Convert" version="opset1">
			<data destination_type="f32" />
			<rt_info>
				<attribute name="decompression" version="0" />
			</rt_info>
			<input>
				<port id="0" precision="FP16">
					<dim>1</dim>
					<dim>1</dim>
					<dim>112</dim>
				</port>
			</input>
			<output>
				<port id="1" precision="FP32">
					<dim>1</dim>
					<dim>1</dim>
					<dim>112</dim>
				</port>
			</output>
		</layer>
		<layer id="65" name="CCT_OCR_1/transformer_block_1_1/dy_t_1/mul_1" type="Multiply" version="opset1">
			<data auto_broadcast="numpy" />
			<input>
				<port id="0" precision="FP32">
					<dim>-1</dim>
					<dim>512</dim>
					<dim>112</dim>
				</port>
				<port id="1" precision="FP32">
					<dim>1</dim>
					<dim>1</dim>
					<dim>112</dim>
				</port>
			</input>
			<output>
				<port id="2" precision="FP32" names="CCT_OCR_1/transformer_block_1_1/dy_t_1/mul_1:0">
					<dim>-1</dim>
					<dim>512</dim>
					<dim>112</dim>
				</port>
			</output>
		</layer>
		<layer id="66" name="Constant_106208_compressed" type="Const" version="opset1">
			<data element_type="f16" shape="1, 1, 112" offset="1022240" size="224" />
			<output>
				<port id="0" precision="FP16">
					<dim>1</dim>
					<dim>1</dim>
					<dim>112</dim>
				</port>
			</output>
		</layer>
		<layer id="67" name="Constant_106208" type="Convert" version="opset1">
			<data destination_type="f32" />
			<rt_info>
				<attribute name="decompression" version="0" />
			</rt_info>
			<input>
				<port id="0" precision="FP16">
					<dim>1</dim>
					<dim>1</dim>
					<dim>112</dim>
				</port>
			</input>
			<output>
				<port id="1" precision="FP32">
					<dim>1</dim>
					<dim>1</dim>
					<dim>112</dim>
				</port>
			</output>
		</layer>
		<layer id="68" name="CCT_OCR_1/transformer_block_1_1/dy_t_1/add" type="Add" version="opset1">
			<data auto_broadcast="numpy" />
			<input>
				<port id="0" precision="FP32">
					<dim>-1</dim>
					<dim>512</dim>
					<dim>112</dim>
				</port>
				<port id="1" precision="FP32">
					<dim>1</dim>
					<dim>1</dim>
					<dim>112</dim>
				</port>
			</input>
			<output>
				<port id="2" precision="FP32" names="CCT_OCR_1/transformer_block_1_1/dy_t_1/add:0">
					<dim>-1</dim>
					<dim>512</dim>
					<dim>112</dim>
				</port>
			</output>
		</layer>
		<layer id="69" name="Transpose_104306_compressed" type="Const" version="opset1">
			<data element_type="f16" shape="112, 112" offset="1022464" size="25088" />
			<output>
				<port id="0" precision="FP16">
					<dim>112</dim>
					<dim>112</dim>
				</port>
			</output>
		</layer>
		<layer id="70" name="Transpose_104306" type="Convert" version="opset1">
			<data destination_type="f32" />
			<rt_info>
				<attribute name="decompression" version="0" />
			</rt_info>
			<input>
				<port id="0" precision="FP16">
					<dim>112</dim>
					<dim>112</dim>
				</port>
			</input>
			<output>
				<port id="1" precision="FP32">
					<dim>112</dim>
					<dim>112</dim>
				</port>
			</output>
		</layer>
		<layer id="71" name="CCT_OCR_1/transformer_block_1_1/multi_head_attention_1/key_1/MatMul" type="MatMul" version="opset1">
			<data transpose_a="false" transpose_b="true" />
			<input>
				<port id="0" precision="FP32">
					<dim>-1</dim>
					<dim>512</dim>
					<dim>112</dim>
				</port>
				<port id="1" precision="FP32">
					<dim>112</dim>
					<dim>112</dim>
				</port>
			</input>
			<output>
				<port id="2" precision="FP32" names="CCT_OCR_1/transformer_block_1_1/multi_head_attention_1/key_1/MatMul:0">
					<dim>-1</dim>
					<dim>512</dim>
					<dim>112</dim>
				</port>
			</output>
		</layer>
		<layer id="72" name="const_fold_opt__536" type="Const" version="opset1">
			<data element_type="i64" shape="4" offset="1047552" size="32" />
			<rt_info>
				<attribute name="precise" version="0" />
			</rt_info>
			<output>
				<port id="0" precision="I64" names="const_fold_opt__536">
					<dim>4</dim>
				</port>
			</output>
		</layer>
		<layer id="73" name="CCT_OCR_1/transformer_block_1_1/multi_head_attention_1/key_1/Reshape_1" type="Reshape" version="opset1">
			<data special_zero="true" />
			<input>
				<port id="0" precision="FP32">
					<dim>-1</dim>
					<dim>512</dim>
					<dim>112</dim>
				</port>
				<port id="1" precision="I64">
					<dim>4</dim>
				</port>
			</input>
			<output>
				<port id="2" precision="FP32" names="CCT_OCR_1/transformer_block_1_1/multi_head_attention_1/key_1/Reshape_1:0">
					<dim>-1</dim>
					<dim>512</dim>
					<dim>2</dim>
					<dim>56</dim>
				</port>
			</output>
		</layer>
		<layer id="74" name="Constant_106209_compressed" type="Const" version="opset1">
			<data element_type="f16" shape="1, 1, 2, 56" offset="1047584" size="224" />
			<output>
				<port id="0" precision="FP16">
					<dim>1</dim>
					<dim>1</dim>
					<dim>2</dim>
					<dim>56</dim>
				</port>
			</output>
		</layer>
		<layer id="75" name="Constant_106209" type="Convert" version="opset1">
			<data destination_type="f32" />
			<rt_info>
				<attribute name="decompression" version="0" />
			</rt_info>
			<input>
				<port id="0" precision="FP16">
					<dim>1</dim>
					<dim>1</dim>
					<dim>2</dim>
					<dim>56</dim>
				</port>
			</input>
			<output>
				<port id="1" precision="FP32">
					<dim>1</dim>
					<dim>1</dim>
					<dim>2</dim>
					<dim>56</dim>
				</port>
			</output>
		</layer>
		<layer id="76" name="CCT_OCR_1/transformer_block_1_1/multi_head_attention_1/key_1/Add" type="Add" version="opset1">
			<data auto_broadcast="numpy" />
			<input>
				<port id="0" precision="FP32">
					<dim>-1</dim>
					<dim>512</dim>
					<dim>2</dim>
					<dim>56</dim>
				</port>
				<port id="1" precision="FP32">
					<dim>1</dim>
					<dim>1</dim>
					<dim>2</dim>
					<dim>56</dim>
				</port>
			</input>
			<output>
				<port id="2" precision="FP32" names="CCT_OCR_1/transformer_block_1_1/multi_head_attention_1/key_1/Add:0">
					<dim>-1</dim>
					<dim>512</dim>
					<dim>2</dim>
					<dim>56</dim>
				</port>
			</output>
		</layer>
		<layer id="77" name="Constant_100030" type="Const" version="opset1">
			<data element_type="i64" shape="4" offset="1047808" size="32" />
			<output>
				<port id="0" precision="I64">
					<dim>4</dim>
				</port>
			</output>
		</layer>
		<layer id="78" name="CCT_OCR_1/transformer_block_1_1/multi_head_attention_1/transpose" type="Transpose" version="opset1">
			<input>
				<port id="0" precision="FP32">
					<dim>-1</dim>
					<dim>512</dim>
					<dim>2</dim>
					<dim>56</dim>
				</port>
				<port id="1" precision="I64">
					<dim>4</dim>
				</port>
			</input>
			<output>
				<port id="2" precision="FP32" names="CCT_OCR_1/transformer_block_1_1/multi_head_attention_1/transpose:0">
					<dim>-1</dim>
					<dim>2</dim>
					<dim>512</dim>
					<dim>56</dim>
				</port>
			</output>
		</layer>
		<layer id="79" name="Transpose_104311_compressed" type="Const" version="opset1">
			<data element_type="f16" shape="112, 112" offset="1047840" size="25088" />
			<output>
				<port id="0" precision="FP16">
					<dim>112</dim>
					<dim>112</dim>
				</port>
			</output>
		</layer>
		<layer id="80" name="Transpose_104311" type="Convert" version="opset1">
			<data destination_type="f32" />
			<rt_info>
				<attribute name="decompression" version="0" />
			</rt_info>
			<input>
				<port id="0" precision="FP16">
					<dim>112</dim>
					<dim>112</dim>
				</port>
			</input>
			<output>
				<port id="1" precision="FP32">
					<dim>112</dim>
					<dim>112</dim>
				</port>
			</output>
		</layer>
		<layer id="81" name="CCT_OCR_1/transformer_block_1_1/multi_head_attention_1/query_1/MatMul" type="MatMul" version="opset1">
			<data transpose_a="false" transpose_b="true" />
			<input>
				<port id="0" precision="FP32">
					<dim>-1</dim>
					<dim>512</dim>
					<dim>112</dim>
				</port>
				<port id="1" precision="FP32">
					<dim>112</dim>
					<dim>112</dim>
				</port>
			</input>
			<output>
				<port id="2" precision="FP32" names="CCT_OCR_1/transformer_block_1_1/multi_head_attention_1/query_1/MatMul:0">
					<dim>-1</dim>
					<dim>512</dim>
					<dim>112</dim>
				</port>
			</output>
		</layer>
		<layer id="82" name="CCT_OCR_1/transformer_block_1_1/multi_head_attention_1/query_1/Reshape_1" type="Reshape" version="opset1">
			<data special_zero="true" />
			<input>
				<port id="0" precision="FP32">
					<dim>-1</dim>
					<dim>512</dim>
					<dim>112</dim>
				</port>
				<port id="1" precision="I64">
					<dim>4</dim>
				</port>
			</input>
			<output>
				<port id="2" precision="FP32" names="CCT_OCR_1/transformer_block_1_1/multi_head_attention_1/query_1/Reshape_1:0">
					<dim>-1</dim>
					<dim>512</dim>
					<dim>2</dim>
					<dim>56</dim>
				</port>
			</output>
		</layer>
		<layer id="83" name="Constant_106210" type="Const" version="opset1">
			<data element_type="f32" shape="1, 1, 1, 1" offset="1072928" size="4" />
			<output>
				<port id="0" precision="FP32">
					<dim>1</dim>
					<dim>1</dim>
					<dim>1</dim>
					<dim>1</dim>
				</port>
			</output>
		</layer>
		<layer id="84" name="Multiply_105975" type="Multiply" version="opset1">
			<data auto_broadcast="numpy" />
			<input>
				<port id="0" precision="FP32">
					<dim>-1</dim>
					<dim>512</dim>
					<dim>2</dim>
					<dim>56</dim>
				</port>
				<port id="1" precision="FP32">
					<dim>1</dim>
					<dim>1</dim>
					<dim>1</dim>
					<dim>1</dim>
				</port>
			</input>
			<output>
				<port id="2" precision="FP32">
					<dim>-1</dim>
					<dim>512</dim>
					<dim>2</dim>
					<dim>56</dim>
				</port>
			</output>
		</layer>
		<layer id="85" name="Constant_106211_compressed" type="Const" version="opset1">
			<data element_type="f16" shape="1, 1, 2, 56" offset="1072932" size="224" />
			<output>
				<port id="0" precision="FP16">
					<dim>1</dim>
					<dim>1</dim>
					<dim>2</dim>
					<dim>56</dim>
				</port>
			</output>
		</layer>
		<layer id="86" name="Constant_106211" type="Convert" version="opset1">
			<data destination_type="f32" />
			<rt_info>
				<attribute name="decompression" version="0" />
			</rt_info>
			<input>
				<port id="0" precision="FP16">
					<dim>1</dim>
					<dim>1</dim>
					<dim>2</dim>
					<dim>56</dim>
				</port>
			</input>
			<output>
				<port id="1" precision="FP32">
					<dim>1</dim>
					<dim>1</dim>
					<dim>2</dim>
					<dim>56</dim>
				</port>
			</output>
		</layer>
		<layer id="87" name="CCT_OCR_1/transformer_block_1_1/multi_head_attention_1/Mul" type="Add" version="opset1">
			<data auto_broadcast="numpy" />
			<input>
				<port id="0" precision="FP32">
					<dim>-1</dim>
					<dim>512</dim>
					<dim>2</dim>
					<dim>56</dim>
				</port>
				<port id="1" precision="FP32">
					<dim>1</dim>
					<dim>1</dim>
					<dim>2</dim>
					<dim>56</dim>
				</port>
			</input>
			<output>
				<port id="2" precision="FP32" names="CCT_OCR_1/transformer_block_1_1/multi_head_attention_1/Mul:0">
					<dim>-1</dim>
					<dim>512</dim>
					<dim>2</dim>
					<dim>56</dim>
				</port>
			</output>
		</layer>
		<layer id="88" name="Constant_100032" type="Const" version="opset1">
			<data element_type="i64" shape="4" offset="806692" size="32" />
			<output>
				<port id="0" precision="I64">
					<dim>4</dim>
				</port>
			</output>
		</layer>
		<layer id="89" name="CCT_OCR_1/transformer_block_1_1/multi_head_attention_1/transpose_1" type="Transpose" version="opset1">
			<input>
				<port id="0" precision="FP32">
					<dim>-1</dim>
					<dim>512</dim>
					<dim>2</dim>
					<dim>56</dim>
				</port>
				<port id="1" precision="I64">
					<dim>4</dim>
				</port>
			</input>
			<output>
				<port id="2" precision="FP32" names="CCT_OCR_1/transformer_block_1_1/multi_head_attention_1/transpose_1:0">
					<dim>-1</dim>
					<dim>2</dim>
					<dim>56</dim>
					<dim>512</dim>
				</port>
			</output>
		</layer>
		<layer id="90" name="CCT_OCR_1/transformer_block_1_1/multi_head_attention_1/MatMul" type="MatMul" version="opset1">
			<data transpose_a="false" transpose_b="false" />
			<input>
				<port id="0" precision="FP32">
					<dim>-1</dim>
					<dim>2</dim>
					<dim>512</dim>
					<dim>56</dim>
				</port>
				<port id="1" precision="FP32">
					<dim>-1</dim>
					<dim>2</dim>
					<dim>56</dim>
					<dim>512</dim>
				</port>
			</input>
			<output>
				<port id="2" precision="FP32" names="CCT_OCR_1/transformer_block_1_1/multi_head_attention_1/MatMul:0">
					<dim>-1</dim>
					<dim>2</dim>
					<dim>512</dim>
					<dim>512</dim>
				</port>
			</output>
		</layer>
		<layer id="91" name="CCT_OCR_1/transformer_block_1_1/multi_head_attention_1/softmax_1_1/Softmax" type="SoftMax" version="opset8">
			<data axis="2" />
			<input>
				<port id="0" precision="FP32">
					<dim>-1</dim>
					<dim>2</dim>
					<dim>512</dim>
					<dim>512</dim>
				</port>
			</input>
			<output>
				<port id="1" precision="FP32" names="CCT_OCR_1/transformer_block_1_1/multi_head_attention_1/softmax_1_1/Softmax:0">
					<dim>-1</dim>
					<dim>2</dim>
					<dim>512</dim>
					<dim>512</dim>
				</port>
			</output>
		</layer>
		<layer id="92" name="Transpose_104318_compressed" type="Const" version="opset1">
			<data element_type="f16" shape="112, 112" offset="1073156" size="25088" />
			<output>
				<port id="0" precision="FP16">
					<dim>112</dim>
					<dim>112</dim>
				</port>
			</output>
		</layer>
		<layer id="93" name="Transpose_104318" type="Convert" version="opset1">
			<data destination_type="f32" />
			<rt_info>
				<attribute name="decompression" version="0" />
			</rt_info>
			<input>
				<port id="0" precision="FP16">
					<dim>112</dim>
					<dim>112</dim>
				</port>
			</input>
			<output>
				<port id="1" precision="FP32">
					<dim>112</dim>
					<dim>112</dim>
				</port>
			</output>
		</layer>
		<layer id="94" name="CCT_OCR_1/transformer_block_1_1/multi_head_attention_1/value_1/MatMul" type="MatMul" version="opset1">
			<data transpose_a="false" transpose_b="true" />
			<input>
				<port id="0" precision="FP32">
					<dim>-1</dim>
					<dim>512</dim>
					<dim>112</dim>
				</port>
				<port id="1" precision="FP32">
					<dim>112</dim>
					<dim>112</dim>
				</port>
			</input>
			<output>
				<port id="2" precision="FP32" names="CCT_OCR_1/transformer_block_1_1/multi_head_attention_1/value_1/MatMul:0">
					<dim>-1</dim>
					<dim>512</dim>
					<dim>112</dim>
				</port>
			</output>
		</layer>
		<layer id="95" name="CCT_OCR_1/transformer_block_1_1/multi_head_attention_1/value_1/Reshape_1" type="Reshape" version="opset1">
			<data special_zero="true" />
			<input>
				<port id="0" precision="FP32">
					<dim>-1</dim>
					<dim>512</dim>
					<dim>112</dim>
				</port>
				<port id="1" precision="I64">
					<dim>4</dim>
				</port>
			</input>
			<output>
				<port id="2" precision="FP32" names="CCT_OCR_1/transformer_block_1_1/multi_head_attention_1/value_1/Reshape_1:0">
					<dim>-1</dim>
					<dim>512</dim>
					<dim>2</dim>
					<dim>56</dim>
				</port>
			</output>
		</layer>
		<layer id="96" name="Constant_106212_compressed" type="Const" version="opset1">
			<data element_type="f16" shape="1, 1, 2, 56" offset="1098244" size="224" />
			<output>
				<port id="0" precision="FP16">
					<dim>1</dim>
					<dim>1</dim>
					<dim>2</dim>
					<dim>56</dim>
				</port>
			</output>
		</layer>
		<layer id="97" name="Constant_106212" type="Convert" version="opset1">
			<data destination_type="f32" />
			<rt_info>
				<attribute name="decompression" version="0" />
			</rt_info>
			<input>
				<port id="0" precision="FP16">
					<dim>1</dim>
					<dim>1</dim>
					<dim>2</dim>
					<dim>56</dim>
				</port>
			</input>
			<output>
				<port id="1" precision="FP32">
					<dim>1</dim>
					<dim>1</dim>
					<dim>2</dim>
					<dim>56</dim>
				</port>
			</output>
		</layer>
		<layer id="98" name="CCT_OCR_1/transformer_block_1_1/multi_head_attention_1/value_1/Add" type="Add" version="opset1">
			<data auto_broadcast="numpy" />
			<input>
				<port id="0" precision="FP32">
					<dim>-1</dim>
					<dim>512</dim>
					<dim>2</dim>
					<dim>56</dim>
				</port>
				<port id="1" precision="FP32">
					<dim>1</dim>
					<dim>1</dim>
					<dim>2</dim>
					<dim>56</dim>
				</port>
			</input>
			<output>
				<port id="2" precision="FP32" names="CCT_OCR_1/transformer_block_1_1/multi_head_attention_1/value_1/Add:0">
					<dim>-1</dim>
					<dim>512</dim>
					<dim>2</dim>
					<dim>56</dim>
				</port>
			</output>
		</layer>
		<layer id="99" name="Constant_100026" type="Const" version="opset1">
			<data element_type="i64" shape="4" offset="1047808" size="32" />
			<output>
				<port id="0" precision="I64">
					<dim>4</dim>
				</port>
			</output>
		</layer>
		<layer id="100" name="CCT_OCR_1/transformer_block_1_1/multi_head_attention_1/transpose_3" type="Transpose" version="opset1">
			<input>
				<port id="0" precision="FP32">
					<dim>-1</dim>
					<dim>512</dim>
					<dim>2</dim>
					<dim>56</dim>
				</port>
				<port id="1" precision="I64">
					<dim>4</dim>
				</port>
			</input>
			<output>
				<port id="2" precision="FP32" names="CCT_OCR_1/transformer_block_1_1/multi_head_attention_1/transpose_3:0">
					<dim>-1</dim>
					<dim>2</dim>
					<dim>512</dim>
					<dim>56</dim>
				</port>
			</output>
		</layer>
		<layer id="101" name="CCT_OCR_1/transformer_block_1_1/multi_head_attention_1/MatMul_1" type="MatMul" version="opset1">
			<data transpose_a="true" transpose_b="false" />
			<input>
				<port id="0" precision="FP32">
					<dim>-1</dim>
					<dim>2</dim>
					<dim>512</dim>
					<dim>512</dim>
				</port>
				<port id="1" precision="FP32">
					<dim>-1</dim>
					<dim>2</dim>
					<dim>512</dim>
					<dim>56</dim>
				</port>
			</input>
			<output>
				<port id="2" precision="FP32" names="CCT_OCR_1/transformer_block_1_1/multi_head_attention_1/MatMul_1:0">
					<dim>-1</dim>
					<dim>2</dim>
					<dim>512</dim>
					<dim>56</dim>
				</port>
			</output>
		</layer>
		<layer id="102" name="Constant_100039" type="Const" version="opset1">
			<data element_type="i64" shape="4" offset="1047808" size="32" />
			<output>
				<port id="0" precision="I64">
					<dim>4</dim>
				</port>
			</output>
		</layer>
		<layer id="103" name="CCT_OCR_1/transformer_block_1_1/multi_head_attention_1/transpose_4" type="Transpose" version="opset1">
			<input>
				<port id="0" precision="FP32">
					<dim>-1</dim>
					<dim>2</dim>
					<dim>512</dim>
					<dim>56</dim>
				</port>
				<port id="1" precision="I64">
					<dim>4</dim>
				</port>
			</input>
			<output>
				<port id="2" precision="FP32" names="CCT_OCR_1/transformer_block_1_1/multi_head_attention_1/transpose_4:0">
					<dim>-1</dim>
					<dim>512</dim>
					<dim>2</dim>
					<dim>56</dim>
				</port>
			</output>
		</layer>
		<layer id="104" name="const_fold_opt__563" type="Const" version="opset1">
			<data element_type="i64" shape="3" offset="1098468" size="24" />
			<rt_info>
				<attribute name="precise" version="0" />
			</rt_info>
			<output>
				<port id="0" precision="I64" names="const_fold_opt__563">
					<dim>3</dim>
				</port>
			</output>
		</layer>
		<layer id="105" name="CCT_OCR_1/transformer_block_1_1/multi_head_attention_1/attention_output_1/Reshape" type="Reshape" version="opset1">
			<data special_zero="true" />
			<input>
				<port id="0" precision="FP32">
					<dim>-1</dim>
					<dim>512</dim>
					<dim>2</dim>
					<dim>56</dim>
				</port>
				<port id="1" precision="I64">
					<dim>3</dim>
				</port>
			</input>
			<output>
				<port id="2" precision="FP32" names="CCT_OCR_1/transformer_block_1_1/multi_head_attention_1/attention_output_1/Reshape:0">
					<dim>-1</dim>
					<dim>512</dim>
					<dim>112</dim>
				</port>
			</output>
		</layer>
		<layer id="106" name="Transpose_104323_compressed" type="Const" version="opset1">
			<data element_type="f16" shape="112, 112" offset="1098492" size="25088" />
			<output>
				<port id="0" precision="FP16">
					<dim>112</dim>
					<dim>112</dim>
				</port>
			</output>
		</layer>
		<layer id="107" name="Transpose_104323" type="Convert" version="opset1">
			<data destination_type="f32" />
			<rt_info>
				<attribute name="decompression" version="0" />
			</rt_info>
			<input>
				<port id="0" precision="FP16">
					<dim>112</dim>
					<dim>112</dim>
				</port>
			</input>
			<output>
				<port id="1" precision="FP32">
					<dim>112</dim>
					<dim>112</dim>
				</port>
			</output>
		</layer>
		<layer id="108" name="CCT_OCR_1/transformer_block_1_1/multi_head_attention_1/attention_output_1/MatMul" type="MatMul" version="opset1">
			<data transpose_a="false" transpose_b="true" />
			<input>
				<port id="0" precision="FP32">
					<dim>-1</dim>
					<dim>512</dim>
					<dim>112</dim>
				</port>
				<port id="1" precision="FP32">
					<dim>112</dim>
					<dim>112</dim>
				</port>
			</input>
			<output>
				<port id="2" precision="FP32" names="CCT_OCR_1/transformer_block_1_1/multi_head_attention_1/attention_output_1/MatMul:0">
					<dim>-1</dim>
					<dim>512</dim>
					<dim>112</dim>
				</port>
			</output>
		</layer>
		<layer id="109" name="Constant_106213_compressed" type="Const" version="opset1">
			<data element_type="f16" shape="1, 1, 112" offset="1123580" size="224" />
			<output>
				<port id="0" precision="FP16">
					<dim>1</dim>
					<dim>1</dim>
					<dim>112</dim>
				</port>
			</output>
		</layer>
		<layer id="110" name="Constant_106213" type="Convert" version="opset1">
			<data destination_type="f32" />
			<rt_info>
				<attribute name="decompression" version="0" />
			</rt_info>
			<input>
				<port id="0" precision="FP16">
					<dim>1</dim>
					<dim>1</dim>
					<dim>112</dim>
				</port>
			</input>
			<output>
				<port id="1" precision="FP32">
					<dim>1</dim>
					<dim>1</dim>
					<dim>112</dim>
				</port>
			</output>
		</layer>
		<layer id="111" name="CCT_OCR_1/transformer_block_1_1/multi_head_attention_1/attention_output_1/BiasAdd" type="Add" version="opset1">
			<data auto_broadcast="numpy" />
			<input>
				<port id="0" precision="FP32">
					<dim>-1</dim>
					<dim>512</dim>
					<dim>112</dim>
				</port>
				<port id="1" precision="FP32">
					<dim>1</dim>
					<dim>1</dim>
					<dim>112</dim>
				</port>
			</input>
			<output>
				<port id="2" precision="FP32" names="CCT_OCR_1/transformer_block_1_1/multi_head_attention_1/attention_output_1/BiasAdd:0">
					<dim>-1</dim>
					<dim>512</dim>
					<dim>112</dim>
				</port>
			</output>
		</layer>
		<layer id="112" name="CCT_OCR_1/transformer_block_1_1/add_18_1/Add" type="Add" version="opset1">
			<data auto_broadcast="numpy" />
			<input>
				<port id="0" precision="FP32">
					<dim>-1</dim>
					<dim>512</dim>
					<dim>112</dim>
				</port>
				<port id="1" precision="FP32">
					<dim>-1</dim>
					<dim>512</dim>
					<dim>112</dim>
				</port>
			</input>
			<output>
				<port id="2" precision="FP32" names="CCT_OCR_1/transformer_block_1_1/add_18_1/Add:0">
					<dim>-1</dim>
					<dim>512</dim>
					<dim>112</dim>
				</port>
			</output>
		</layer>
		<layer id="113" name="Constant_106214" type="Const" version="opset1">
			<data element_type="f32" shape="1, 1, 1" offset="1123804" size="4" />
			<output>
				<port id="0" precision="FP32">
					<dim>1</dim>
					<dim>1</dim>
					<dim>1</dim>
				</port>
			</output>
		</layer>
		<layer id="114" name="CCT_OCR_1/transformer_block_1_1/dy_t_1_2/Mul" type="Multiply" version="opset1">
			<data auto_broadcast="numpy" />
			<input>
				<port id="0" precision="FP32">
					<dim>1</dim>
					<dim>1</dim>
					<dim>1</dim>
				</port>
				<port id="1" precision="FP32">
					<dim>-1</dim>
					<dim>512</dim>
					<dim>112</dim>
				</port>
			</input>
			<output>
				<port id="2" precision="FP32" names="CCT_OCR_1/transformer_block_1_1/dy_t_1_2/Mul:0">
					<dim>-1</dim>
					<dim>512</dim>
					<dim>112</dim>
				</port>
			</output>
		</layer>
		<layer id="115" name="CCT_OCR_1/transformer_block_1_1/dy_t_1_2/Tanh" type="Tanh" version="opset1">
			<input>
				<port id="0" precision="FP32">
					<dim>-1</dim>
					<dim>512</dim>
					<dim>112</dim>
				</port>
			</input>
			<output>
				<port id="1" precision="FP32" names="CCT_OCR_1/transformer_block_1_1/dy_t_1_2/Tanh:0">
					<dim>-1</dim>
					<dim>512</dim>
					<dim>112</dim>
				</port>
			</output>
		</layer>
		<layer id="116" name="Constant_106215_compressed" type="Const" version="opset1">
			<data element_type="f16" shape="1, 1, 112" offset="1123808" size="224" />
			<output>
				<port id="0" precision="FP16">
					<dim>1</dim>
					<dim>1</dim>
					<dim>112</dim>
				</port>
			</output>
		</layer>
		<layer id="117" name="Constant_106215" type="Convert" version="opset1">
			<data destination_type="f32" />
			<rt_info>
				<attribute name="decompression" version="0" />
			</rt_info>
			<input>
				<port id="0" precision="FP16">
					<dim>1</dim>
					<dim>1</dim>
					<dim>112</dim>
				</port>
			</input>
			<output>
				<port id="1" precision="FP32">
					<dim>1</dim>
					<dim>1</dim>
					<dim>112</dim>
				</port>
			</output>
		</layer>
		<layer id="118" name="CCT_OCR_1/transformer_block_1_1/dy_t_1_2/mul_1" type="Multiply" version="opset1">
			<data auto_broadcast="numpy" />
			<input>
				<port id="0" precision="FP32">
					<dim>-1</dim>
					<dim>512</dim>
					<dim>112</dim>
				</port>
				<port id="1" precision="FP32">
					<dim>1</dim>
					<dim>1</dim>
					<dim>112</dim>
				</port>
			</input>
			<output>
				<port id="2" precision="FP32" names="CCT_OCR_1/transformer_block_1_1/dy_t_1_2/mul_1:0">
					<dim>-1</dim>
					<dim>512</dim>
					<dim>112</dim>
				</port>
			</output>
		</layer>
		<layer id="119" name="Constant_106216_compressed" type="Const" version="opset1">
			<data element_type="f16" shape="1, 1, 112" offset="1124032" size="224" />
			<output>
				<port id="0" precision="FP16">
					<dim>1</dim>
					<dim>1</dim>
					<dim>112</dim>
				</port>
			</output>
		</layer>
		<layer id="120" name="Constant_106216" type="Convert" version="opset1">
			<data destination_type="f32" />
			<rt_info>
				<attribute name="decompression" version="0" />
			</rt_info>
			<input>
				<port id="0" precision="FP16">
					<dim>1</dim>
					<dim>1</dim>
					<dim>112</dim>
				</port>
			</input>
			<output>
				<port id="1" precision="FP32">
					<dim>1</dim>
					<dim>1</dim>
					<dim>112</dim>
				</port>
			</output>
		</layer>
		<layer id="121" name="CCT_OCR_1/transformer_block_1_1/dy_t_1_2/add" type="Add" version="opset1">
			<data auto_broadcast="numpy" />
			<input>
				<port id="0" precision="FP32">
					<dim>-1</dim>
					<dim>512</dim>
					<dim>112</dim>
				</port>
				<port id="1" precision="FP32">
					<dim>1</dim>
					<dim>1</dim>
					<dim>112</dim>
				</port>
			</input>
			<output>
				<port id="2" precision="FP32" names="CCT_OCR_1/transformer_block_1_1/dy_t_1_2/add:0">
					<dim>-1</dim>
					<dim>512</dim>
					<dim>112</dim>
				</port>
			</output>
		</layer>
		<layer id="122" name="Transpose_104338_compressed" type="Const" version="opset1">
			<data element_type="f16" shape="112, 112" offset="1124256" size="25088" />
			<output>
				<port id="0" precision="FP16">
					<dim>112</dim>
					<dim>112</dim>
				</port>
			</output>
		</layer>
		<layer id="123" name="Transpose_104338" type="Convert" version="opset1">
			<data destination_type="f32" />
			<rt_info>
				<attribute name="decompression" version="0" />
			</rt_info>
			<input>
				<port id="0" precision="FP16">
					<dim>112</dim>
					<dim>112</dim>
				</port>
			</input>
			<output>
				<port id="1" precision="FP32">
					<dim>112</dim>
					<dim>112</dim>
				</port>
			</output>
		</layer>
		<layer id="124" name="CCT_OCR_1/transformer_block_1_1/mlp_1/dense_1_1/MatMul" type="MatMul" version="opset1">
			<data transpose_a="false" transpose_b="true" />
			<input>
				<port id="0" precision="FP32">
					<dim>-1</dim>
					<dim>512</dim>
					<dim>112</dim>
				</port>
				<port id="1" precision="FP32">
					<dim>112</dim>
					<dim>112</dim>
				</port>
			</input>
			<output>
				<port id="2" precision="FP32" names="CCT_OCR_1/transformer_block_1_1/mlp_1/dense_1_1/MatMul:0">
					<dim>-1</dim>
					<dim>512</dim>
					<dim>112</dim>
				</port>
			</output>
		</layer>
		<layer id="125" name="Constant_106217_compressed" type="Const" version="opset1">
			<data element_type="f16" shape="1, 1, 112" offset="1149344" size="224" />
			<output>
				<port id="0" precision="FP16">
					<dim>1</dim>
					<dim>1</dim>
					<dim>112</dim>
				</port>
			</output>
		</layer>
		<layer id="126" name="Constant_106217" type="Convert" version="opset1">
			<data destination_type="f32" />
			<rt_info>
				<attribute name="decompression" version="0" />
			</rt_info>
			<input>
				<port id="0" precision="FP16">
					<dim>1</dim>
					<dim>1</dim>
					<dim>112</dim>
				</port>
			</input>
			<output>
				<port id="1" precision="FP32">
					<dim>1</dim>
					<dim>1</dim>
					<dim>112</dim>
				</port>
			</output>
		</layer>
		<layer id="127" name="CCT_OCR_1/transformer_block_1_1/mlp_1/dense_1_1/BiasAdd" type="Add" version="opset1">
			<data auto_broadcast="numpy" />
			<input>
				<port id="0" precision="FP32">
					<dim>-1</dim>
					<dim>512</dim>
					<dim>112</dim>
				</port>
				<port id="1" precision="FP32">
					<dim>1</dim>
					<dim>1</dim>
					<dim>112</dim>
				</port>
			</input>
			<output>
				<port id="2" precision="FP32" names="CCT_OCR_1/transformer_block_1_1/mlp_1/dense_1_1/BiasAdd:0">
					<dim>-1</dim>
					<dim>512</dim>
					<dim>112</dim>
				</port>
			</output>
		</layer>
		<layer id="128" name="CCT_OCR_1/transformer_block_1_1/mlp_1/dense_1_1/mul_1" type="Swish" version="opset4">
			<input>
				<port id="0" precision="FP32">
					<dim>-1</dim>
					<dim>512</dim>
					<dim>112</dim>
				</port>
			</input>
			<output>
				<port id="1" precision="FP32" names="CCT_OCR_1/transformer_block_1_1/mlp_1/dense_1_1/mul_1:0">
					<dim>-1</dim>
					<dim>512</dim>
					<dim>112</dim>
				</port>
			</output>
		</layer>
		<layer id="129" name="Transpose_104344_compressed" type="Const" version="opset1">
			<data element_type="f16" shape="112, 112" offset="1149568" size="25088" />
			<output>
				<port id="0" precision="FP16">
					<dim>112</dim>
					<dim>112</dim>
				</port>
			</output>
		</layer>
		<layer id="130" name="Transpose_104344" type="Convert" version="opset1">
			<data destination_type="f32" />
			<rt_info>
				<attribute name="decompression" version="0" />
			</rt_info>
			<input>
				<port id="0" precision="FP16">
					<dim>112</dim>
					<dim>112</dim>
				</port>
			</input>
			<output>
				<port id="1" precision="FP32">
					<dim>112</dim>
					<dim>112</dim>
				</port>
			</output>
		</layer>
		<layer id="131" name="CCT_OCR_1/transformer_block_1_1/mlp_1/dense_2_1/MatMul" type="MatMul" version="opset1">
			<data transpose_a="false" transpose_b="true" />
			<input>
				<port id="0" precision="FP32">
					<dim>-1</dim>
					<dim>512</dim>
					<dim>112</dim>
				</port>
				<port id="1" precision="FP32">
					<dim>112</dim>
					<dim>112</dim>
				</port>
			</input>
			<output>
				<port id="2" precision="FP32" names="CCT_OCR_1/transformer_block_1_1/mlp_1/dense_2_1/MatMul:0">
					<dim>-1</dim>
					<dim>512</dim>
					<dim>112</dim>
				</port>
			</output>
		</layer>
		<layer id="132" name="Constant_106218_compressed" type="Const" version="opset1">
			<data element_type="f16" shape="1, 1, 112" offset="1174656" size="224" />
			<output>
				<port id="0" precision="FP16">
					<dim>1</dim>
					<dim>1</dim>
					<dim>112</dim>
				</port>
			</output>
		</layer>
		<layer id="133" name="Constant_106218" type="Convert" version="opset1">
			<data destination_type="f32" />
			<rt_info>
				<attribute name="decompression" version="0" />
			</rt_info>
			<input>
				<port id="0" precision="FP16">
					<dim>1</dim>
					<dim>1</dim>
					<dim>112</dim>
				</port>
			</input>
			<output>
				<port id="1" precision="FP32">
					<dim>1</dim>
					<dim>1</dim>
					<dim>112</dim>
				</port>
			</output>
		</layer>
		<layer id="134" name="CCT_OCR_1/transformer_block_1_1/mlp_1/dense_2_1/BiasAdd" type="Add" version="opset1">
			<data auto_broadcast="numpy" />
			<input>
				<port id="0" precision="FP32">
					<dim>-1</dim>
					<dim>512</dim>
					<dim>112</dim>
				</port>
				<port id="1" precision="FP32">
					<dim>1</dim>
					<dim>1</dim>
					<dim>112</dim>
				</port>
			</input>
			<output>
				<port id="2" precision="FP32" names="CCT_OCR_1/transformer_block_1_1/mlp_1/dense_2_1/BiasAdd:0">
					<dim>-1</dim>
					<dim>512</dim>
					<dim>112</dim>
				</port>
			</output>
		</layer>
		<layer id="135" name="CCT_OCR_1/transformer_block_1_1/mlp_1/dense_2_1/mul_1" type="Swish" version="opset4">
			<input>
				<port id="0" precision="FP32">
					<dim>-1</dim>
					<dim>512</dim>
					<dim>112</dim>
				</port>
			</input>
			<output>
				<port id="1" precision="FP32" names="CCT_OCR_1/transformer_block_1_1/mlp_1/dense_2_1/mul_1:0">
					<dim>-1</dim>
					<dim>512</dim>
					<dim>112</dim>
				</port>
			</output>
		</layer>
		<layer id="136" name="CCT_OCR_1/transformer_block_1_1/add_19_1/Add" type="Add" version="opset1">
			<data auto_broadcast="numpy" />
			<input>
				<port id="0" precision="FP32">
					<dim>-1</dim>
					<dim>512</dim>
					<dim>112</dim>
				</port>
				<port id="1" precision="FP32">
					<dim>-1</dim>
					<dim>512</dim>
					<dim>112</dim>
				</port>
			</input>
			<output>
				<port id="2" precision="FP32" names="CCT_OCR_1/transformer_block_1_1/add_19_1/Add:0">
					<dim>-1</dim>
					<dim>512</dim>
					<dim>112</dim>
				</port>
			</output>
		</layer>
		<layer id="137" name="Constant_106219" type="Const" version="opset1">
			<data element_type="f32" shape="1, 1, 1" offset="1174880" size="4" />
			<output>
				<port id="0" precision="FP32">
					<dim>1</dim>
					<dim>1</dim>
					<dim>1</dim>
				</port>
			</output>
		</layer>
		<layer id="138" name="CCT_OCR_1/transformer_block_2_1/dy_t_2_1/Mul" type="Multiply" version="opset1">
			<data auto_broadcast="numpy" />
			<input>
				<port id="0" precision="FP32">
					<dim>1</dim>
					<dim>1</dim>
					<dim>1</dim>
				</port>
				<port id="1" precision="FP32">
					<dim>-1</dim>
					<dim>512</dim>
					<dim>112</dim>
				</port>
			</input>
			<output>
				<port id="2" precision="FP32" names="CCT_OCR_1/transformer_block_2_1/dy_t_2_1/Mul:0">
					<dim>-1</dim>
					<dim>512</dim>
					<dim>112</dim>
				</port>
			</output>
		</layer>
		<layer id="139" name="CCT_OCR_1/transformer_block_2_1/dy_t_2_1/Tanh" type="Tanh" version="opset1">
			<input>
				<port id="0" precision="FP32">
					<dim>-1</dim>
					<dim>512</dim>
					<dim>112</dim>
				</port>
			</input>
			<output>
				<port id="1" precision="FP32" names="CCT_OCR_1/transformer_block_2_1/dy_t_2_1/Tanh:0">
					<dim>-1</dim>
					<dim>512</dim>
					<dim>112</dim>
				</port>
			</output>
		</layer>
		<layer id="140" name="Constant_106220_compressed" type="Const" version="opset1">
			<data element_type="f16" shape="1, 1, 112" offset="1174884" size="224" />
			<output>
				<port id="0" precision="FP16">
					<dim>1</dim>
					<dim>1</dim>
					<dim>112</dim>
				</port>
			</output>
		</layer>
		<layer id="141" name="Constant_106220" type="Convert" version="opset1">
			<data destination_type="f32" />
			<rt_info>
				<attribute name="decompression" version="0" />
			</rt_info>
			<input>
				<port id="0" precision="FP16">
					<dim>1</dim>
					<dim>1</dim>
					<dim>112</dim>
				</port>
			</input>
			<output>
				<port id="1" precision="FP32">
					<dim>1</dim>
					<dim>1</dim>
					<dim>112</dim>
				</port>
			</output>
		</layer>
		<layer id="142" name="CCT_OCR_1/transformer_block_2_1/dy_t_2_1/mul_1" type="Multiply" version="opset1">
			<data auto_broadcast="numpy" />
			<input>
				<port id="0" precision="FP32">
					<dim>-1</dim>
					<dim>512</dim>
					<dim>112</dim>
				</port>
				<port id="1" precision="FP32">
					<dim>1</dim>
					<dim>1</dim>
					<dim>112</dim>
				</port>
			</input>
			<output>
				<port id="2" precision="FP32" names="CCT_OCR_1/transformer_block_2_1/dy_t_2_1/mul_1:0">
					<dim>-1</dim>
					<dim>512</dim>
					<dim>112</dim>
				</port>
			</output>
		</layer>
		<layer id="143" name="Constant_106221_compressed" type="Const" version="opset1">
			<data element_type="f16" shape="1, 1, 112" offset="1175108" size="224" />
			<output>
				<port id="0" precision="FP16">
					<dim>1</dim>
					<dim>1</dim>
					<dim>112</dim>
				</port>
			</output>
		</layer>
		<layer id="144" name="Constant_106221" type="Convert" version="opset1">
			<data destination_type="f32" />
			<rt_info>
				<attribute name="decompression" version="0" />
			</rt_info>
			<input>
				<port id="0" precision="FP16">
					<dim>1</dim>
					<dim>1</dim>
					<dim>112</dim>
				</port>
			</input>
			<output>
				<port id="1" precision="FP32">
					<dim>1</dim>
					<dim>1</dim>
					<dim>112</dim>
				</port>
			</output>
		</layer>
		<layer id="145" name="CCT_OCR_1/transformer_block_2_1/dy_t_2_1/add" type="Add" version="opset1">
			<data auto_broadcast="numpy" />
			<input>
				<port id="0" precision="FP32">
					<dim>-1</dim>
					<dim>512</dim>
					<dim>112</dim>
				</port>
				<port id="1" precision="FP32">
					<dim>1</dim>
					<dim>1</dim>
					<dim>112</dim>
				</port>
			</input>
			<output>
				<port id="2" precision="FP32" names="CCT_OCR_1/transformer_block_2_1/dy_t_2_1/add:0">
					<dim>-1</dim>
					<dim>512</dim>
					<dim>112</dim>
				</port>
			</output>
		</layer>
		<layer id="146" name="Transpose_104360_compressed" type="Const" version="opset1">
			<data element_type="f16" shape="112, 112" offset="1175332" size="25088" />
			<output>
				<port id="0" precision="FP16">
					<dim>112</dim>
					<dim>112</dim>
				</port>
			</output>
		</layer>
		<layer id="147" name="Transpose_104360" type="Convert" version="opset1">
			<data destination_type="f32" />
			<rt_info>
				<attribute name="decompression" version="0" />
			</rt_info>
			<input>
				<port id="0" precision="FP16">
					<dim>112</dim>
					<dim>112</dim>
				</port>
			</input>
			<output>
				<port id="1" precision="FP32">
					<dim>112</dim>
					<dim>112</dim>
				</port>
			</output>
		</layer>
		<layer id="148" name="CCT_OCR_1/transformer_block_2_1/multi_head_attention_1_1/key_1/MatMul" type="MatMul" version="opset1">
			<data transpose_a="false" transpose_b="true" />
			<input>
				<port id="0" precision="FP32">
					<dim>-1</dim>
					<dim>512</dim>
					<dim>112</dim>
				</port>
				<port id="1" precision="FP32">
					<dim>112</dim>
					<dim>112</dim>
				</port>
			</input>
			<output>
				<port id="2" precision="FP32" names="CCT_OCR_1/transformer_block_2_1/multi_head_attention_1_1/key_1/MatMul:0">
					<dim>-1</dim>
					<dim>512</dim>
					<dim>112</dim>
				</port>
			</output>
		</layer>
		<layer id="149" name="CCT_OCR_1/transformer_block_2_1/multi_head_attention_1_1/key_1/Reshape_1" type="Reshape" version="opset1">
			<data special_zero="true" />
			<input>
				<port id="0" precision="FP32">
					<dim>-1</dim>
					<dim>512</dim>
					<dim>112</dim>
				</port>
				<port id="1" precision="I64">
					<dim>4</dim>
				</port>
			</input>
			<output>
				<port id="2" precision="FP32" names="CCT_OCR_1/transformer_block_2_1/multi_head_attention_1_1/key_1/Reshape_1:0">
					<dim>-1</dim>
					<dim>512</dim>
					<dim>2</dim>
					<dim>56</dim>
				</port>
			</output>
		</layer>
		<layer id="150" name="Constant_106222_compressed" type="Const" version="opset1">
			<data element_type="f16" shape="1, 1, 2, 56" offset="1200420" size="224" />
			<output>
				<port id="0" precision="FP16">
					<dim>1</dim>
					<dim>1</dim>
					<dim>2</dim>
					<dim>56</dim>
				</port>
			</output>
		</layer>
		<layer id="151" name="Constant_106222" type="Convert" version="opset1">
			<data destination_type="f32" />
			<rt_info>
				<attribute name="decompression" version="0" />
			</rt_info>
			<input>
				<port id="0" precision="FP16">
					<dim>1</dim>
					<dim>1</dim>
					<dim>2</dim>
					<dim>56</dim>
				</port>
			</input>
			<output>
				<port id="1" precision="FP32">
					<dim>1</dim>
					<dim>1</dim>
					<dim>2</dim>
					<dim>56</dim>
				</port>
			</output>
		</layer>
		<layer id="152" name="CCT_OCR_1/transformer_block_2_1/multi_head_attention_1_1/key_1/Add" type="Add" version="opset1">
			<data auto_broadcast="numpy" />
			<input>
				<port id="0" precision="FP32">
					<dim>-1</dim>
					<dim>512</dim>
					<dim>2</dim>
					<dim>56</dim>
				</port>
				<port id="1" precision="FP32">
					<dim>1</dim>
					<dim>1</dim>
					<dim>2</dim>
					<dim>56</dim>
				</port>
			</input>
			<output>
				<port id="2" precision="FP32" names="CCT_OCR_1/transformer_block_2_1/multi_head_attention_1_1/key_1/Add:0">
					<dim>-1</dim>
					<dim>512</dim>
					<dim>2</dim>
					<dim>56</dim>
				</port>
			</output>
		</layer>
		<layer id="153" name="Constant_100093" type="Const" version="opset1">
			<data element_type="i64" shape="4" offset="1047808" size="32" />
			<output>
				<port id="0" precision="I64">
					<dim>4</dim>
				</port>
			</output>
		</layer>
		<layer id="154" name="CCT_OCR_1/transformer_block_2_1/multi_head_attention_1_1/transpose" type="Transpose" version="opset1">
			<input>
				<port id="0" precision="FP32">
					<dim>-1</dim>
					<dim>512</dim>
					<dim>2</dim>
					<dim>56</dim>
				</port>
				<port id="1" precision="I64">
					<dim>4</dim>
				</port>
			</input>
			<output>
				<port id="2" precision="FP32" names="CCT_OCR_1/transformer_block_2_1/multi_head_attention_1_1/transpose:0">
					<dim>-1</dim>
					<dim>2</dim>
					<dim>512</dim>
					<dim>56</dim>
				</port>
			</output>
		</layer>
		<layer id="155" name="Transpose_104365_compressed" type="Const" version="opset1">
			<data element_type="f16" shape="112, 112" offset="1200644" size="25088" />
			<output>
				<port id="0" precision="FP16">
					<dim>112</dim>
					<dim>112</dim>
				</port>
			</output>
		</layer>
		<layer id="156" name="Transpose_104365" type="Convert" version="opset1">
			<data destination_type="f32" />
			<rt_info>
				<attribute name="decompression" version="0" />
			</rt_info>
			<input>
				<port id="0" precision="FP16">
					<dim>112</dim>
					<dim>112</dim>
				</port>
			</input>
			<output>
				<port id="1" precision="FP32">
					<dim>112</dim>
					<dim>112</dim>
				</port>
			</output>
		</layer>
		<layer id="157" name="CCT_OCR_1/transformer_block_2_1/multi_head_attention_1_1/query_1/MatMul" type="MatMul" version="opset1">
			<data transpose_a="false" transpose_b="true" />
			<input>
				<port id="0" precision="FP32">
					<dim>-1</dim>
					<dim>512</dim>
					<dim>112</dim>
				</port>
				<port id="1" precision="FP32">
					<dim>112</dim>
					<dim>112</dim>
				</port>
			</input>
			<output>
				<port id="2" precision="FP32" names="CCT_OCR_1/transformer_block_2_1/multi_head_attention_1_1/query_1/MatMul:0">
					<dim>-1</dim>
					<dim>512</dim>
					<dim>112</dim>
				</port>
			</output>
		</layer>
		<layer id="158" name="CCT_OCR_1/transformer_block_2_1/multi_head_attention_1_1/query_1/Reshape_1" type="Reshape" version="opset1">
			<data special_zero="true" />
			<input>
				<port id="0" precision="FP32">
					<dim>-1</dim>
					<dim>512</dim>
					<dim>112</dim>
				</port>
				<port id="1" precision="I64">
					<dim>4</dim>
				</port>
			</input>
			<output>
				<port id="2" precision="FP32" names="CCT_OCR_1/transformer_block_2_1/multi_head_attention_1_1/query_1/Reshape_1:0">
					<dim>-1</dim>
					<dim>512</dim>
					<dim>2</dim>
					<dim>56</dim>
				</port>
			</output>
		</layer>
		<layer id="159" name="Constant_106223" type="Const" version="opset1">
			<data element_type="f32" shape="1, 1, 1, 1" offset="1072928" size="4" />
			<output>
				<port id="0" precision="FP32">
					<dim>1</dim>
					<dim>1</dim>
					<dim>1</dim>
					<dim>1</dim>
				</port>
			</output>
		</layer>
		<layer id="160" name="Multiply_105979" type="Multiply" version="opset1">
			<data auto_broadcast="numpy" />
			<input>
				<port id="0" precision="FP32">
					<dim>-1</dim>
					<dim>512</dim>
					<dim>2</dim>
					<dim>56</dim>
				</port>
				<port id="1" precision="FP32">
					<dim>1</dim>
					<dim>1</dim>
					<dim>1</dim>
					<dim>1</dim>
				</port>
			</input>
			<output>
				<port id="2" precision="FP32">
					<dim>-1</dim>
					<dim>512</dim>
					<dim>2</dim>
					<dim>56</dim>
				</port>
			</output>
		</layer>
		<layer id="161" name="Constant_106224_compressed" type="Const" version="opset1">
			<data element_type="f16" shape="1, 1, 2, 56" offset="1225732" size="224" />
			<output>
				<port id="0" precision="FP16">
					<dim>1</dim>
					<dim>1</dim>
					<dim>2</dim>
					<dim>56</dim>
				</port>
			</output>
		</layer>
		<layer id="162" name="Constant_106224" type="Convert" version="opset1">
			<data destination_type="f32" />
			<rt_info>
				<attribute name="decompression" version="0" />
			</rt_info>
			<input>
				<port id="0" precision="FP16">
					<dim>1</dim>
					<dim>1</dim>
					<dim>2</dim>
					<dim>56</dim>
				</port>
			</input>
			<output>
				<port id="1" precision="FP32">
					<dim>1</dim>
					<dim>1</dim>
					<dim>2</dim>
					<dim>56</dim>
				</port>
			</output>
		</layer>
		<layer id="163" name="CCT_OCR_1/transformer_block_2_1/multi_head_attention_1_1/Mul" type="Add" version="opset1">
			<data auto_broadcast="numpy" />
			<input>
				<port id="0" precision="FP32">
					<dim>-1</dim>
					<dim>512</dim>
					<dim>2</dim>
					<dim>56</dim>
				</port>
				<port id="1" precision="FP32">
					<dim>1</dim>
					<dim>1</dim>
					<dim>2</dim>
					<dim>56</dim>
				</port>
			</input>
			<output>
				<port id="2" precision="FP32" names="CCT_OCR_1/transformer_block_2_1/multi_head_attention_1_1/Mul:0">
					<dim>-1</dim>
					<dim>512</dim>
					<dim>2</dim>
					<dim>56</dim>
				</port>
			</output>
		</layer>
		<layer id="164" name="Constant_100095" type="Const" version="opset1">
			<data element_type="i64" shape="4" offset="806692" size="32" />
			<output>
				<port id="0" precision="I64">
					<dim>4</dim>
				</port>
			</output>
		</layer>
		<layer id="165" name="CCT_OCR_1/transformer_block_2_1/multi_head_attention_1_1/transpose_1" type="Transpose" version="opset1">
			<input>
				<port id="0" precision="FP32">
					<dim>-1</dim>
					<dim>512</dim>
					<dim>2</dim>
					<dim>56</dim>
				</port>
				<port id="1" precision="I64">
					<dim>4</dim>
				</port>
			</input>
			<output>
				<port id="2" precision="FP32" names="CCT_OCR_1/transformer_block_2_1/multi_head_attention_1_1/transpose_1:0">
					<dim>-1</dim>
					<dim>2</dim>
					<dim>56</dim>
					<dim>512</dim>
				</port>
			</output>
		</layer>
		<layer id="166" name="CCT_OCR_1/transformer_block_2_1/multi_head_attention_1_1/MatMul" type="MatMul" version="opset1">
			<data transpose_a="false" transpose_b="false" />
			<input>
				<port id="0" precision="FP32">
					<dim>-1</dim>
					<dim>2</dim>
					<dim>512</dim>
					<dim>56</dim>
				</port>
				<port id="1" precision="FP32">
					<dim>-1</dim>
					<dim>2</dim>
					<dim>56</dim>
					<dim>512</dim>
				</port>
			</input>
			<output>
				<port id="2" precision="FP32" names="CCT_OCR_1/transformer_block_2_1/multi_head_attention_1_1/MatMul:0">
					<dim>-1</dim>
					<dim>2</dim>
					<dim>512</dim>
					<dim>512</dim>
				</port>
			</output>
		</layer>
		<layer id="167" name="CCT_OCR_1/transformer_block_2_1/multi_head_attention_1_1/softmax_2_1/Softmax" type="SoftMax" version="opset8">
			<data axis="2" />
			<input>
				<port id="0" precision="FP32">
					<dim>-1</dim>
					<dim>2</dim>
					<dim>512</dim>
					<dim>512</dim>
				</port>
			</input>
			<output>
				<port id="1" precision="FP32" names="CCT_OCR_1/transformer_block_2_1/multi_head_attention_1_1/softmax_2_1/Softmax:0">
					<dim>-1</dim>
					<dim>2</dim>
					<dim>512</dim>
					<dim>512</dim>
				</port>
			</output>
		</layer>
		<layer id="168" name="Transpose_104372_compressed" type="Const" version="opset1">
			<data element_type="f16" shape="112, 112" offset="1225956" size="25088" />
			<output>
				<port id="0" precision="FP16">
					<dim>112</dim>
					<dim>112</dim>
				</port>
			</output>
		</layer>
		<layer id="169" name="Transpose_104372" type="Convert" version="opset1">
			<data destination_type="f32" />
			<rt_info>
				<attribute name="decompression" version="0" />
			</rt_info>
			<input>
				<port id="0" precision="FP16">
					<dim>112</dim>
					<dim>112</dim>
				</port>
			</input>
			<output>
				<port id="1" precision="FP32">
					<dim>112</dim>
					<dim>112</dim>
				</port>
			</output>
		</layer>
		<layer id="170" name="CCT_OCR_1/transformer_block_2_1/multi_head_attention_1_1/value_1/MatMul" type="MatMul" version="opset1">
			<data transpose_a="false" transpose_b="true" />
			<input>
				<port id="0" precision="FP32">
					<dim>-1</dim>
					<dim>512</dim>
					<dim>112</dim>
				</port>
				<port id="1" precision="FP32">
					<dim>112</dim>
					<dim>112</dim>
				</port>
			</input>
			<output>
				<port id="2" precision="FP32" names="CCT_OCR_1/transformer_block_2_1/multi_head_attention_1_1/value_1/MatMul:0">
					<dim>-1</dim>
					<dim>512</dim>
					<dim>112</dim>
				</port>
			</output>
		</layer>
		<layer id="171" name="CCT_OCR_1/transformer_block_2_1/multi_head_attention_1_1/value_1/Reshape_1" type="Reshape" version="opset1">
			<data special_zero="true" />
			<input>
				<port id="0" precision="FP32">
					<dim>-1</dim>
					<dim>512</dim>
					<dim>112</dim>
				</port>
				<port id="1" precision="I64">
					<dim>4</dim>
				</port>
			</input>
			<output>
				<port id="2" precision="FP32" names="CCT_OCR_1/transformer_block_2_1/multi_head_attention_1_1/value_1/Reshape_1:0">
					<dim>-1</dim>
					<dim>512</dim>
					<dim>2</dim>
					<dim>56</dim>
				</port>
			</output>
		</layer>
		<layer id="172" name="Constant_106225" type="Const" version="opset1">
			<data element_type="f32" shape="1, 1, 2, 56" offset="1251044" size="448" />
			<output>
				<port id="0" precision="FP32">
					<dim>1</dim>
					<dim>1</dim>
					<dim>2</dim>
					<dim>56</dim>
				</port>
			</output>
		</layer>
		<layer id="173" name="CCT_OCR_1/transformer_block_2_1/multi_head_attention_1_1/value_1/Add" type="Add" version="opset1">
			<data auto_broadcast="numpy" />
			<input>
				<port id="0" precision="FP32">
					<dim>-1</dim>
					<dim>512</dim>
					<dim>2</dim>
					<dim>56</dim>
				</port>
				<port id="1" precision="FP32">
					<dim>1</dim>
					<dim>1</dim>
					<dim>2</dim>
					<dim>56</dim>
				</port>
			</input>
			<output>
				<port id="2" precision="FP32" names="CCT_OCR_1/transformer_block_2_1/multi_head_attention_1_1/value_1/Add:0">
					<dim>-1</dim>
					<dim>512</dim>
					<dim>2</dim>
					<dim>56</dim>
				</port>
			</output>
		</layer>
		<layer id="174" name="Constant_100090" type="Const" version="opset1">
			<data element_type="i64" shape="4" offset="1047808" size="32" />
			<output>
				<port id="0" precision="I64">
					<dim>4</dim>
				</port>
			</output>
		</layer>
		<layer id="175" name="CCT_OCR_1/transformer_block_2_1/multi_head_attention_1_1/transpose_3" type="Transpose" version="opset1">
			<input>
				<port id="0" precision="FP32">
					<dim>-1</dim>
					<dim>512</dim>
					<dim>2</dim>
					<dim>56</dim>
				</port>
				<port id="1" precision="I64">
					<dim>4</dim>
				</port>
			</input>
			<output>
				<port id="2" precision="FP32" names="CCT_OCR_1/transformer_block_2_1/multi_head_attention_1_1/transpose_3:0">
					<dim>-1</dim>
					<dim>2</dim>
					<dim>512</dim>
					<dim>56</dim>
				</port>
			</output>
		</layer>
		<layer id="176" name="CCT_OCR_1/transformer_block_2_1/multi_head_attention_1_1/MatMul_1" type="MatMul" version="opset1">
			<data transpose_a="true" transpose_b="false" />
			<input>
				<port id="0" precision="FP32">
					<dim>-1</dim>
					<dim>2</dim>
					<dim>512</dim>
					<dim>512</dim>
				</port>
				<port id="1" precision="FP32">
					<dim>-1</dim>
					<dim>2</dim>
					<dim>512</dim>
					<dim>56</dim>
				</port>
			</input>
			<output>
				<port id="2" precision="FP32" names="CCT_OCR_1/transformer_block_2_1/multi_head_attention_1_1/MatMul_1:0">
					<dim>-1</dim>
					<dim>2</dim>
					<dim>512</dim>
					<dim>56</dim>
				</port>
			</output>
		</layer>
		<layer id="177" name="Constant_100102" type="Const" version="opset1">
			<data element_type="i64" shape="4" offset="1047808" size="32" />
			<output>
				<port id="0" precision="I64">
					<dim>4</dim>
				</port>
			</output>
		</layer>
		<layer id="178" name="CCT_OCR_1/transformer_block_2_1/multi_head_attention_1_1/transpose_4" type="Transpose" version="opset1">
			<input>
				<port id="0" precision="FP32">
					<dim>-1</dim>
					<dim>2</dim>
					<dim>512</dim>
					<dim>56</dim>
				</port>
				<port id="1" precision="I64">
					<dim>4</dim>
				</port>
			</input>
			<output>
				<port id="2" precision="FP32" names="CCT_OCR_1/transformer_block_2_1/multi_head_attention_1_1/transpose_4:0">
					<dim>-1</dim>
					<dim>512</dim>
					<dim>2</dim>
					<dim>56</dim>
				</port>
			</output>
		</layer>
		<layer id="179" name="CCT_OCR_1/transformer_block_2_1/multi_head_attention_1_1/attention_output_1/Reshape" type="Reshape" version="opset1">
			<data special_zero="true" />
			<input>
				<port id="0" precision="FP32">
					<dim>-1</dim>
					<dim>512</dim>
					<dim>2</dim>
					<dim>56</dim>
				</port>
				<port id="1" precision="I64">
					<dim>3</dim>
				</port>
			</input>
			<output>
				<port id="2" precision="FP32" names="CCT_OCR_1/transformer_block_2_1/multi_head_attention_1_1/attention_output_1/Reshape:0">
					<dim>-1</dim>
					<dim>512</dim>
					<dim>112</dim>
				</port>
			</output>
		</layer>
		<layer id="180" name="Transpose_104377_compressed" type="Const" version="opset1">
			<data element_type="f16" shape="112, 112" offset="1251492" size="25088" />
			<output>
				<port id="0" precision="FP16">
					<dim>112</dim>
					<dim>112</dim>
				</port>
			</output>
		</layer>
		<layer id="181" name="Transpose_104377" type="Convert" version="opset1">
			<data destination_type="f32" />
			<rt_info>
				<attribute name="decompression" version="0" />
			</rt_info>
			<input>
				<port id="0" precision="FP16">
					<dim>112</dim>
					<dim>112</dim>
				</port>
			</input>
			<output>
				<port id="1" precision="FP32">
					<dim>112</dim>
					<dim>112</dim>
				</port>
			</output>
		</layer>
		<layer id="182" name="CCT_OCR_1/transformer_block_2_1/multi_head_attention_1_1/attention_output_1/MatMul" type="MatMul" version="opset1">
			<data transpose_a="false" transpose_b="true" />
			<input>
				<port id="0" precision="FP32">
					<dim>-1</dim>
					<dim>512</dim>
					<dim>112</dim>
				</port>
				<port id="1" precision="FP32">
					<dim>112</dim>
					<dim>112</dim>
				</port>
			</input>
			<output>
				<port id="2" precision="FP32" names="CCT_OCR_1/transformer_block_2_1/multi_head_attention_1_1/attention_output_1/MatMul:0">
					<dim>-1</dim>
					<dim>512</dim>
					<dim>112</dim>
				</port>
			</output>
		</layer>
		<layer id="183" name="Constant_106226_compressed" type="Const" version="opset1">
			<data element_type="f16" shape="1, 1, 112" offset="1276580" size="224" />
			<output>
				<port id="0" precision="FP16">
					<dim>1</dim>
					<dim>1</dim>
					<dim>112</dim>
				</port>
			</output>
		</layer>
		<layer id="184" name="Constant_106226" type="Convert" version="opset1">
			<data destination_type="f32" />
			<rt_info>
				<attribute name="decompression" version="0" />
			</rt_info>
			<input>
				<port id="0" precision="FP16">
					<dim>1</dim>
					<dim>1</dim>
					<dim>112</dim>
				</port>
			</input>
			<output>
				<port id="1" precision="FP32">
					<dim>1</dim>
					<dim>1</dim>
					<dim>112</dim>
				</port>
			</output>
		</layer>
		<layer id="185" name="CCT_OCR_1/transformer_block_2_1/multi_head_attention_1_1/attention_output_1/BiasAdd" type="Add" version="opset1">
			<data auto_broadcast="numpy" />
			<input>
				<port id="0" precision="FP32">
					<dim>-1</dim>
					<dim>512</dim>
					<dim>112</dim>
				</port>
				<port id="1" precision="FP32">
					<dim>1</dim>
					<dim>1</dim>
					<dim>112</dim>
				</port>
			</input>
			<output>
				<port id="2" precision="FP32" names="CCT_OCR_1/transformer_block_2_1/multi_head_attention_1_1/attention_output_1/BiasAdd:0">
					<dim>-1</dim>
					<dim>512</dim>
					<dim>112</dim>
				</port>
			</output>
		</layer>
		<layer id="186" name="CCT_OCR_1/transformer_block_2_1/add_20_1/Add" type="Add" version="opset1">
			<data auto_broadcast="numpy" />
			<input>
				<port id="0" precision="FP32">
					<dim>-1</dim>
					<dim>512</dim>
					<dim>112</dim>
				</port>
				<port id="1" precision="FP32">
					<dim>-1</dim>
					<dim>512</dim>
					<dim>112</dim>
				</port>
			</input>
			<output>
				<port id="2" precision="FP32" names="CCT_OCR_1/transformer_block_2_1/add_20_1/Add:0">
					<dim>-1</dim>
					<dim>512</dim>
					<dim>112</dim>
				</port>
			</output>
		</layer>
		<layer id="187" name="Constant_106227_compressed" type="Const" version="opset1">
			<data element_type="f16" shape="1, 1, 1" offset="1276804" size="2" />
			<output>
				<port id="0" precision="FP16">
					<dim>1</dim>
					<dim>1</dim>
					<dim>1</dim>
				</port>
			</output>
		</layer>
		<layer id="188" name="Constant_106227" type="Convert" version="opset1">
			<data destination_type="f32" />
			<rt_info>
				<attribute name="decompression" version="0" />
			</rt_info>
			<input>
				<port id="0" precision="FP16">
					<dim>1</dim>
					<dim>1</dim>
					<dim>1</dim>
				</port>
			</input>
			<output>
				<port id="1" precision="FP32">
					<dim>1</dim>
					<dim>1</dim>
					<dim>1</dim>
				</port>
			</output>
		</layer>
		<layer id="189" name="CCT_OCR_1/transformer_block_2_1/dy_t_3_1/Mul" type="Multiply" version="opset1">
			<data auto_broadcast="numpy" />
			<input>
				<port id="0" precision="FP32">
					<dim>1</dim>
					<dim>1</dim>
					<dim>1</dim>
				</port>
				<port id="1" precision="FP32">
					<dim>-1</dim>
					<dim>512</dim>
					<dim>112</dim>
				</port>
			</input>
			<output>
				<port id="2" precision="FP32" names="CCT_OCR_1/transformer_block_2_1/dy_t_3_1/Mul:0">
					<dim>-1</dim>
					<dim>512</dim>
					<dim>112</dim>
				</port>
			</output>
		</layer>
		<layer id="190" name="CCT_OCR_1/transformer_block_2_1/dy_t_3_1/Tanh" type="Tanh" version="opset1">
			<input>
				<port id="0" precision="FP32">
					<dim>-1</dim>
					<dim>512</dim>
					<dim>112</dim>
				</port>
			</input>
			<output>
				<port id="1" precision="FP32" names="CCT_OCR_1/transformer_block_2_1/dy_t_3_1/Tanh:0">
					<dim>-1</dim>
					<dim>512</dim>
					<dim>112</dim>
				</port>
			</output>
		</layer>
		<layer id="191" name="Constant_106228_compressed" type="Const" version="opset1">
			<data element_type="f16" shape="1, 1, 112" offset="1276806" size="224" />
			<output>
				<port id="0" precision="FP16">
					<dim>1</dim>
					<dim>1</dim>
					<dim>112</dim>
				</port>
			</output>
		</layer>
		<layer id="192" name="Constant_106228" type="Convert" version="opset1">
			<data destination_type="f32" />
			<rt_info>
				<attribute name="decompression" version="0" />
			</rt_info>
			<input>
				<port id="0" precision="FP16">
					<dim>1</dim>
					<dim>1</dim>
					<dim>112</dim>
				</port>
			</input>
			<output>
				<port id="1" precision="FP32">
					<dim>1</dim>
					<dim>1</dim>
					<dim>112</dim>
				</port>
			</output>
		</layer>
		<layer id="193" name="CCT_OCR_1/transformer_block_2_1/dy_t_3_1/mul_1" type="Multiply" version="opset1">
			<data auto_broadcast="numpy" />
			<input>
				<port id="0" precision="FP32">
					<dim>-1</dim>
					<dim>512</dim>
					<dim>112</dim>
				</port>
				<port id="1" precision="FP32">
					<dim>1</dim>
					<dim>1</dim>
					<dim>112</dim>
				</port>
			</input>
			<output>
				<port id="2" precision="FP32" names="CCT_OCR_1/transformer_block_2_1/dy_t_3_1/mul_1:0">
					<dim>-1</dim>
					<dim>512</dim>
					<dim>112</dim>
				</port>
			</output>
		</layer>
		<layer id="194" name="Constant_106229_compressed" type="Const" version="opset1">
			<data element_type="f16" shape="1, 1, 112" offset="1277030" size="224" />
			<output>
				<port id="0" precision="FP16">
					<dim>1</dim>
					<dim>1</dim>
					<dim>112</dim>
				</port>
			</output>
		</layer>
		<layer id="195" name="Constant_106229" type="Convert" version="opset1">
			<data destination_type="f32" />
			<rt_info>
				<attribute name="decompression" version="0" />
			</rt_info>
			<input>
				<port id="0" precision="FP16">
					<dim>1</dim>
					<dim>1</dim>
					<dim>112</dim>
				</port>
			</input>
			<output>
				<port id="1" precision="FP32">
					<dim>1</dim>
					<dim>1</dim>
					<dim>112</dim>
				</port>
			</output>
		</layer>
		<layer id="196" name="CCT_OCR_1/transformer_block_2_1/dy_t_3_1/add" type="Add" version="opset1">
			<data auto_broadcast="numpy" />
			<input>
				<port id="0" precision="FP32">
					<dim>-1</dim>
					<dim>512</dim>
					<dim>112</dim>
				</port>
				<port id="1" precision="FP32">
					<dim>1</dim>
					<dim>1</dim>
					<dim>112</dim>
				</port>
			</input>
			<output>
				<port id="2" precision="FP32" names="CCT_OCR_1/transformer_block_2_1/dy_t_3_1/add:0">
					<dim>-1</dim>
					<dim>512</dim>
					<dim>112</dim>
				</port>
			</output>
		</layer>
		<layer id="197" name="Transpose_104392_compressed" type="Const" version="opset1">
			<data element_type="f16" shape="112, 112" offset="1277254" size="25088" />
			<output>
				<port id="0" precision="FP16">
					<dim>112</dim>
					<dim>112</dim>
				</port>
			</output>
		</layer>
		<layer id="198" name="Transpose_104392" type="Convert" version="opset1">
			<data destination_type="f32" />
			<rt_info>
				<attribute name="decompression" version="0" />
			</rt_info>
			<input>
				<port id="0" precision="FP16">
					<dim>112</dim>
					<dim>112</dim>
				</port>
			</input>
			<output>
				<port id="1" precision="FP32">
					<dim>112</dim>
					<dim>112</dim>
				</port>
			</output>
		</layer>
		<layer id="199" name="CCT_OCR_1/transformer_block_2_1/mlp_1_1/dense_3_1/MatMul" type="MatMul" version="opset1">
			<data transpose_a="false" transpose_b="true" />
			<input>
				<port id="0" precision="FP32">
					<dim>-1</dim>
					<dim>512</dim>
					<dim>112</dim>
				</port>
				<port id="1" precision="FP32">
					<dim>112</dim>
					<dim>112</dim>
				</port>
			</input>
			<output>
				<port id="2" precision="FP32" names="CCT_OCR_1/transformer_block_2_1/mlp_1_1/dense_3_1/MatMul:0">
					<dim>-1</dim>
					<dim>512</dim>
					<dim>112</dim>
				</port>
			</output>
		</layer>
		<layer id="200" name="Constant_106230_compressed" type="Const" version="opset1">
			<data element_type="f16" shape="1, 1, 112" offset="1302342" size="224" />
			<output>
				<port id="0" precision="FP16">
					<dim>1</dim>
					<dim>1</dim>
					<dim>112</dim>
				</port>
			</output>
		</layer>
		<layer id="201" name="Constant_106230" type="Convert" version="opset1">
			<data destination_type="f32" />
			<rt_info>
				<attribute name="decompression" version="0" />
			</rt_info>
			<input>
				<port id="0" precision="FP16">
					<dim>1</dim>
					<dim>1</dim>
					<dim>112</dim>
				</port>
			</input>
			<output>
				<port id="1" precision="FP32">
					<dim>1</dim>
					<dim>1</dim>
					<dim>112</dim>
				</port>
			</output>
		</layer>
		<layer id="202" name="CCT_OCR_1/transformer_block_2_1/mlp_1_1/dense_3_1/BiasAdd" type="Add" version="opset1">
			<data auto_broadcast="numpy" />
			<input>
				<port id="0" precision="FP32">
					<dim>-1</dim>
					<dim>512</dim>
					<dim>112</dim>
				</port>
				<port id="1" precision="FP32">
					<dim>1</dim>
					<dim>1</dim>
					<dim>112</dim>
				</port>
			</input>
			<output>
				<port id="2" precision="FP32" names="CCT_OCR_1/transformer_block_2_1/mlp_1_1/dense_3_1/BiasAdd:0">
					<dim>-1</dim>
					<dim>512</dim>
					<dim>112</dim>
				</port>
			</output>
		</layer>
		<layer id="203" name="CCT_OCR_1/transformer_block_2_1/mlp_1_1/dense_3_1/mul_1" type="Swish" version="opset4">
			<input>
				<port id="0" precision="FP32">
					<dim>-1</dim>
					<dim>512</dim>
					<dim>112</dim>
				</port>
			</input>
			<output>
				<port id="1" precision="FP32" names="CCT_OCR_1/transformer_block_2_1/mlp_1_1/dense_3_1/mul_1:0">
					<dim>-1</dim>
					<dim>512</dim>
					<dim>112</dim>
				</port>
			</output>
		</layer>
		<layer id="204" name="Transpose_104398_compressed" type="Const" version="opset1">
			<data element_type="f16" shape="112, 112" offset="1302566" size="25088" />
			<output>
				<port id="0" precision="FP16">
					<dim>112</dim>
					<dim>112</dim>
				</port>
			</output>
		</layer>
		<layer id="205" name="Transpose_104398" type="Convert" version="opset1">
			<data destination_type="f32" />
			<rt_info>
				<attribute name="decompression" version="0" />
			</rt_info>
			<input>
				<port id="0" precision="FP16">
					<dim>112</dim>
					<dim>112</dim>
				</port>
			</input>
			<output>
				<port id="1" precision="FP32">
					<dim>112</dim>
					<dim>112</dim>
				</port>
			</output>
		</layer>
		<layer id="206" name="CCT_OCR_1/transformer_block_2_1/mlp_1_1/dense_4_1/MatMul" type="MatMul" version="opset1">
			<data transpose_a="false" transpose_b="true" />
			<input>
				<port id="0" precision="FP32">
					<dim>-1</dim>
					<dim>512</dim>
					<dim>112</dim>
				</port>
				<port id="1" precision="FP32">
					<dim>112</dim>
					<dim>112</dim>
				</port>
			</input>
			<output>
				<port id="2" precision="FP32" names="CCT_OCR_1/transformer_block_2_1/mlp_1_1/dense_4_1/MatMul:0">
					<dim>-1</dim>
					<dim>512</dim>
					<dim>112</dim>
				</port>
			</output>
		</layer>
		<layer id="207" name="Constant_106231_compressed" type="Const" version="opset1">
			<data element_type="f16" shape="1, 1, 112" offset="1327654" size="224" />
			<output>
				<port id="0" precision="FP16">
					<dim>1</dim>
					<dim>1</dim>
					<dim>112</dim>
				</port>
			</output>
		</layer>
		<layer id="208" name="Constant_106231" type="Convert" version="opset1">
			<data destination_type="f32" />
			<rt_info>
				<attribute name="decompression" version="0" />
			</rt_info>
			<input>
				<port id="0" precision="FP16">
					<dim>1</dim>
					<dim>1</dim>
					<dim>112</dim>
				</port>
			</input>
			<output>
				<port id="1" precision="FP32">
					<dim>1</dim>
					<dim>1</dim>
					<dim>112</dim>
				</port>
			</output>
		</layer>
		<layer id="209" name="CCT_OCR_1/transformer_block_2_1/mlp_1_1/dense_4_1/BiasAdd" type="Add" version="opset1">
			<data auto_broadcast="numpy" />
			<input>
				<port id="0" precision="FP32">
					<dim>-1</dim>
					<dim>512</dim>
					<dim>112</dim>
				</port>
				<port id="1" precision="FP32">
					<dim>1</dim>
					<dim>1</dim>
					<dim>112</dim>
				</port>
			</input>
			<output>
				<port id="2" precision="FP32" names="CCT_OCR_1/transformer_block_2_1/mlp_1_1/dense_4_1/BiasAdd:0">
					<dim>-1</dim>
					<dim>512</dim>
					<dim>112</dim>
				</port>
			</output>
		</layer>
		<layer id="210" name="CCT_OCR_1/transformer_block_2_1/mlp_1_1/dense_4_1/mul_1" type="Swish" version="opset4">
			<input>
				<port id="0" precision="FP32">
					<dim>-1</dim>
					<dim>512</dim>
					<dim>112</dim>
				</port>
			</input>
			<output>
				<port id="1" precision="FP32" names="CCT_OCR_1/transformer_block_2_1/mlp_1_1/dense_4_1/mul_1:0">
					<dim>-1</dim>
					<dim>512</dim>
					<dim>112</dim>
				</port>
			</output>
		</layer>
		<layer id="211" name="CCT_OCR_1/transformer_block_2_1/add_21_1/Add" type="Add" version="opset1">
			<data auto_broadcast="numpy" />
			<input>
				<port id="0" precision="FP32">
					<dim>-1</dim>
					<dim>512</dim>
					<dim>112</dim>
				</port>
				<port id="1" precision="FP32">
					<dim>-1</dim>
					<dim>512</dim>
					<dim>112</dim>
				</port>
			</input>
			<output>
				<port id="2" precision="FP32" names="CCT_OCR_1/transformer_block_2_1/add_21_1/Add:0">
					<dim>-1</dim>
					<dim>512</dim>
					<dim>112</dim>
				</port>
			</output>
		</layer>
		<layer id="212" name="Constant_106232" type="Const" version="opset1">
			<data element_type="f32" shape="1, 1, 1" offset="1327878" size="4" />
			<output>
				<port id="0" precision="FP32">
					<dim>1</dim>
					<dim>1</dim>
					<dim>1</dim>
				</port>
			</output>
		</layer>
		<layer id="213" name="CCT_OCR_1/transformer_block_3_1/dy_t_4_1/Mul" type="Multiply" version="opset1">
			<data auto_broadcast="numpy" />
			<input>
				<port id="0" precision="FP32">
					<dim>1</dim>
					<dim>1</dim>
					<dim>1</dim>
				</port>
				<port id="1" precision="FP32">
					<dim>-1</dim>
					<dim>512</dim>
					<dim>112</dim>
				</port>
			</input>
			<output>
				<port id="2" precision="FP32" names="CCT_OCR_1/transformer_block_3_1/dy_t_4_1/Mul:0">
					<dim>-1</dim>
					<dim>512</dim>
					<dim>112</dim>
				</port>
			</output>
		</layer>
		<layer id="214" name="CCT_OCR_1/transformer_block_3_1/dy_t_4_1/Tanh" type="Tanh" version="opset1">
			<input>
				<port id="0" precision="FP32">
					<dim>-1</dim>
					<dim>512</dim>
					<dim>112</dim>
				</port>
			</input>
			<output>
				<port id="1" precision="FP32" names="CCT_OCR_1/transformer_block_3_1/dy_t_4_1/Tanh:0">
					<dim>-1</dim>
					<dim>512</dim>
					<dim>112</dim>
				</port>
			</output>
		</layer>
		<layer id="215" name="Constant_106233" type="Const" version="opset1">
			<data element_type="f32" shape="1, 1, 112" offset="1327882" size="448" />
			<output>
				<port id="0" precision="FP32">
					<dim>1</dim>
					<dim>1</dim>
					<dim>112</dim>
				</port>
			</output>
		</layer>
		<layer id="216" name="CCT_OCR_1/transformer_block_3_1/dy_t_4_1/mul_1" type="Multiply" version="opset1">
			<data auto_broadcast="numpy" />
			<input>
				<port id="0" precision="FP32">
					<dim>-1</dim>
					<dim>512</dim>
					<dim>112</dim>
				</port>
				<port id="1" precision="FP32">
					<dim>1</dim>
					<dim>1</dim>
					<dim>112</dim>
				</port>
			</input>
			<output>
				<port id="2" precision="FP32" names="CCT_OCR_1/transformer_block_3_1/dy_t_4_1/mul_1:0">
					<dim>-1</dim>
					<dim>512</dim>
					<dim>112</dim>
				</port>
			</output>
		</layer>
		<layer id="217" name="Constant_106234" type="Const" version="opset1">
			<data element_type="f32" shape="1, 1, 112" offset="1328330" size="448" />
			<output>
				<port id="0" precision="FP32">
					<dim>1</dim>
					<dim>1</dim>
					<dim>112</dim>
				</port>
			</output>
		</layer>
		<layer id="218" name="CCT_OCR_1/transformer_block_3_1/dy_t_4_1/add" type="Add" version="opset1">
			<data auto_broadcast="numpy" />
			<input>
				<port id="0" precision="FP32">
					<dim>-1</dim>
					<dim>512</dim>
					<dim>112</dim>
				</port>
				<port id="1" precision="FP32">
					<dim>1</dim>
					<dim>1</dim>
					<dim>112</dim>
				</port>
			</input>
			<output>
				<port id="2" precision="FP32" names="CCT_OCR_1/transformer_block_3_1/dy_t_4_1/add:0">
					<dim>-1</dim>
					<dim>512</dim>
					<dim>112</dim>
				</port>
			</output>
		</layer>
		<layer id="219" name="Transpose_104414_compressed" type="Const" version="opset1">
			<data element_type="f16" shape="112, 112" offset="1328778" size="25088" />
			<output>
				<port id="0" precision="FP16">
					<dim>112</dim>
					<dim>112</dim>
				</port>
			</output>
		</layer>
		<layer id="220" name="Transpose_104414" type="Convert" version="opset1">
			<data destination_type="f32" />
			<rt_info>
				<attribute name="decompression" version="0" />
			</rt_info>
			<input>
				<port id="0" precision="FP16">
					<dim>112</dim>
					<dim>112</dim>
				</port>
			</input>
			<output>
				<port id="1" precision="FP32">
					<dim>112</dim>
					<dim>112</dim>
				</port>
			</output>
		</layer>
		<layer id="221" name="CCT_OCR_1/transformer_block_3_1/multi_head_attention_2_1/key_1/MatMul" type="MatMul" version="opset1">
			<data transpose_a="false" transpose_b="true" />
			<input>
				<port id="0" precision="FP32">
					<dim>-1</dim>
					<dim>512</dim>
					<dim>112</dim>
				</port>
				<port id="1" precision="FP32">
					<dim>112</dim>
					<dim>112</dim>
				</port>
			</input>
			<output>
				<port id="2" precision="FP32" names="CCT_OCR_1/transformer_block_3_1/multi_head_attention_2_1/key_1/MatMul:0">
					<dim>-1</dim>
					<dim>512</dim>
					<dim>112</dim>
				</port>
			</output>
		</layer>
		<layer id="222" name="CCT_OCR_1/transformer_block_3_1/multi_head_attention_2_1/key_1/Reshape_1" type="Reshape" version="opset1">
			<data special_zero="true" />
			<input>
				<port id="0" precision="FP32">
					<dim>-1</dim>
					<dim>512</dim>
					<dim>112</dim>
				</port>
				<port id="1" precision="I64">
					<dim>4</dim>
				</port>
			</input>
			<output>
				<port id="2" precision="FP32" names="CCT_OCR_1/transformer_block_3_1/multi_head_attention_2_1/key_1/Reshape_1:0">
					<dim>-1</dim>
					<dim>512</dim>
					<dim>2</dim>
					<dim>56</dim>
				</port>
			</output>
		</layer>
		<layer id="223" name="Constant_106235_compressed" type="Const" version="opset1">
			<data element_type="f16" shape="1, 1, 2, 56" offset="1353866" size="224" />
			<output>
				<port id="0" precision="FP16">
					<dim>1</dim>
					<dim>1</dim>
					<dim>2</dim>
					<dim>56</dim>
				</port>
			</output>
		</layer>
		<layer id="224" name="Constant_106235" type="Convert" version="opset1">
			<data destination_type="f32" />
			<rt_info>
				<attribute name="decompression" version="0" />
			</rt_info>
			<input>
				<port id="0" precision="FP16">
					<dim>1</dim>
					<dim>1</dim>
					<dim>2</dim>
					<dim>56</dim>
				</port>
			</input>
			<output>
				<port id="1" precision="FP32">
					<dim>1</dim>
					<dim>1</dim>
					<dim>2</dim>
					<dim>56</dim>
				</port>
			</output>
		</layer>
		<layer id="225" name="CCT_OCR_1/transformer_block_3_1/multi_head_attention_2_1/key_1/Add" type="Add" version="opset1">
			<data auto_broadcast="numpy" />
			<input>
				<port id="0" precision="FP32">
					<dim>-1</dim>
					<dim>512</dim>
					<dim>2</dim>
					<dim>56</dim>
				</port>
				<port id="1" precision="FP32">
					<dim>1</dim>
					<dim>1</dim>
					<dim>2</dim>
					<dim>56</dim>
				</port>
			</input>
			<output>
				<port id="2" precision="FP32" names="CCT_OCR_1/transformer_block_3_1/multi_head_attention_2_1/key_1/Add:0">
					<dim>-1</dim>
					<dim>512</dim>
					<dim>2</dim>
					<dim>56</dim>
				</port>
			</output>
		</layer>
		<layer id="226" name="Constant_100155" type="Const" version="opset1">
			<data element_type="i64" shape="4" offset="1047808" size="32" />
			<output>
				<port id="0" precision="I64">
					<dim>4</dim>
				</port>
			</output>
		</layer>
		<layer id="227" name="CCT_OCR_1/transformer_block_3_1/multi_head_attention_2_1/transpose" type="Transpose" version="opset1">
			<input>
				<port id="0" precision="FP32">
					<dim>-1</dim>
					<dim>512</dim>
					<dim>2</dim>
					<dim>56</dim>
				</port>
				<port id="1" precision="I64">
					<dim>4</dim>
				</port>
			</input>
			<output>
				<port id="2" precision="FP32" names="CCT_OCR_1/transformer_block_3_1/multi_head_attention_2_1/transpose:0">
					<dim>-1</dim>
					<dim>2</dim>
					<dim>512</dim>
					<dim>56</dim>
				</port>
			</output>
		</layer>
		<layer id="228" name="Transpose_104419_compressed" type="Const" version="opset1">
			<data element_type="f16" shape="112, 112" offset="1354090" size="25088" />
			<output>
				<port id="0" precision="FP16">
					<dim>112</dim>
					<dim>112</dim>
				</port>
			</output>
		</layer>
		<layer id="229" name="Transpose_104419" type="Convert" version="opset1">
			<data destination_type="f32" />
			<rt_info>
				<attribute name="decompression" version="0" />
			</rt_info>
			<input>
				<port id="0" precision="FP16">
					<dim>112</dim>
					<dim>112</dim>
				</port>
			</input>
			<output>
				<port id="1" precision="FP32">
					<dim>112</dim>
					<dim>112</dim>
				</port>
			</output>
		</layer>
		<layer id="230" name="CCT_OCR_1/transformer_block_3_1/multi_head_attention_2_1/query_1/MatMul" type="MatMul" version="opset1">
			<data transpose_a="false" transpose_b="true" />
			<input>
				<port id="0" precision="FP32">
					<dim>-1</dim>
					<dim>512</dim>
					<dim>112</dim>
				</port>
				<port id="1" precision="FP32">
					<dim>112</dim>
					<dim>112</dim>
				</port>
			</input>
			<output>
				<port id="2" precision="FP32" names="CCT_OCR_1/transformer_block_3_1/multi_head_attention_2_1/query_1/MatMul:0">
					<dim>-1</dim>
					<dim>512</dim>
					<dim>112</dim>
				</port>
			</output>
		</layer>
		<layer id="231" name="CCT_OCR_1/transformer_block_3_1/multi_head_attention_2_1/query_1/Reshape_1" type="Reshape" version="opset1">
			<data special_zero="true" />
			<input>
				<port id="0" precision="FP32">
					<dim>-1</dim>
					<dim>512</dim>
					<dim>112</dim>
				</port>
				<port id="1" precision="I64">
					<dim>4</dim>
				</port>
			</input>
			<output>
				<port id="2" precision="FP32" names="CCT_OCR_1/transformer_block_3_1/multi_head_attention_2_1/query_1/Reshape_1:0">
					<dim>-1</dim>
					<dim>512</dim>
					<dim>2</dim>
					<dim>56</dim>
				</port>
			</output>
		</layer>
		<layer id="232" name="Constant_106236" type="Const" version="opset1">
			<data element_type="f32" shape="1, 1, 1, 1" offset="1072928" size="4" />
			<output>
				<port id="0" precision="FP32">
					<dim>1</dim>
					<dim>1</dim>
					<dim>1</dim>
					<dim>1</dim>
				</port>
			</output>
		</layer>
		<layer id="233" name="Multiply_105983" type="Multiply" version="opset1">
			<data auto_broadcast="numpy" />
			<input>
				<port id="0" precision="FP32">
					<dim>-1</dim>
					<dim>512</dim>
					<dim>2</dim>
					<dim>56</dim>
				</port>
				<port id="1" precision="FP32">
					<dim>1</dim>
					<dim>1</dim>
					<dim>1</dim>
					<dim>1</dim>
				</port>
			</input>
			<output>
				<port id="2" precision="FP32">
					<dim>-1</dim>
					<dim>512</dim>
					<dim>2</dim>
					<dim>56</dim>
				</port>
			</output>
		</layer>
		<layer id="234" name="Constant_106237_compressed" type="Const" version="opset1">
			<data element_type="f16" shape="1, 1, 2, 56" offset="1379178" size="224" />
			<output>
				<port id="0" precision="FP16">
					<dim>1</dim>
					<dim>1</dim>
					<dim>2</dim>
					<dim>56</dim>
				</port>
			</output>
		</layer>
		<layer id="235" name="Constant_106237" type="Convert" version="opset1">
			<data destination_type="f32" />
			<rt_info>
				<attribute name="decompression" version="0" />
			</rt_info>
			<input>
				<port id="0" precision="FP16">
					<dim>1</dim>
					<dim>1</dim>
					<dim>2</dim>
					<dim>56</dim>
				</port>
			</input>
			<output>
				<port id="1" precision="FP32">
					<dim>1</dim>
					<dim>1</dim>
					<dim>2</dim>
					<dim>56</dim>
				</port>
			</output>
		</layer>
		<layer id="236" name="CCT_OCR_1/transformer_block_3_1/multi_head_attention_2_1/Mul" type="Add" version="opset1">
			<data auto_broadcast="numpy" />
			<input>
				<port id="0" precision="FP32">
					<dim>-1</dim>
					<dim>512</dim>
					<dim>2</dim>
					<dim>56</dim>
				</port>
				<port id="1" precision="FP32">
					<dim>1</dim>
					<dim>1</dim>
					<dim>2</dim>
					<dim>56</dim>
				</port>
			</input>
			<output>
				<port id="2" precision="FP32" names="CCT_OCR_1/transformer_block_3_1/multi_head_attention_2_1/Mul:0">
					<dim>-1</dim>
					<dim>512</dim>
					<dim>2</dim>
					<dim>56</dim>
				</port>
			</output>
		</layer>
		<layer id="237" name="Constant_100157" type="Const" version="opset1">
			<data element_type="i64" shape="4" offset="806692" size="32" />
			<output>
				<port id="0" precision="I64">
					<dim>4</dim>
				</port>
			</output>
		</layer>
		<layer id="238" name="CCT_OCR_1/transformer_block_3_1/multi_head_attention_2_1/transpose_1" type="Transpose" version="opset1">
			<input>
				<port id="0" precision="FP32">
					<dim>-1</dim>
					<dim>512</dim>
					<dim>2</dim>
					<dim>56</dim>
				</port>
				<port id="1" precision="I64">
					<dim>4</dim>
				</port>
			</input>
			<output>
				<port id="2" precision="FP32" names="CCT_OCR_1/transformer_block_3_1/multi_head_attention_2_1/transpose_1:0">
					<dim>-1</dim>
					<dim>2</dim>
					<dim>56</dim>
					<dim>512</dim>
				</port>
			</output>
		</layer>
		<layer id="239" name="CCT_OCR_1/transformer_block_3_1/multi_head_attention_2_1/MatMul" type="MatMul" version="opset1">
			<data transpose_a="false" transpose_b="false" />
			<input>
				<port id="0" precision="FP32">
					<dim>-1</dim>
					<dim>2</dim>
					<dim>512</dim>
					<dim>56</dim>
				</port>
				<port id="1" precision="FP32">
					<dim>-1</dim>
					<dim>2</dim>
					<dim>56</dim>
					<dim>512</dim>
				</port>
			</input>
			<output>
				<port id="2" precision="FP32" names="CCT_OCR_1/transformer_block_3_1/multi_head_attention_2_1/MatMul:0">
					<dim>-1</dim>
					<dim>2</dim>
					<dim>512</dim>
					<dim>512</dim>
				</port>
			</output>
		</layer>
		<layer id="240" name="CCT_OCR_1/transformer_block_3_1/multi_head_attention_2_1/softmax_3_1/Softmax" type="SoftMax" version="opset8">
			<data axis="2" />
			<input>
				<port id="0" precision="FP32">
					<dim>-1</dim>
					<dim>2</dim>
					<dim>512</dim>
					<dim>512</dim>
				</port>
			</input>
			<output>
				<port id="1" precision="FP32" names="CCT_OCR_1/transformer_block_3_1/multi_head_attention_2_1/softmax_3_1/Softmax:0">
					<dim>-1</dim>
					<dim>2</dim>
					<dim>512</dim>
					<dim>512</dim>
				</port>
			</output>
		</layer>
		<layer id="241" name="Transpose_104426_compressed" type="Const" version="opset1">
			<data element_type="f16" shape="112, 112" offset="1379402" size="25088" />
			<output>
				<port id="0" precision="FP16">
					<dim>112</dim>
					<dim>112</dim>
				</port>
			</output>
		</layer>
		<layer id="242" name="Transpose_104426" type="Convert" version="opset1">
			<data destination_type="f32" />
			<rt_info>
				<attribute name="decompression" version="0" />
			</rt_info>
			<input>
				<port id="0" precision="FP16">
					<dim>112</dim>
					<dim>112</dim>
				</port>
			</input>
			<output>
				<port id="1" precision="FP32">
					<dim>112</dim>
					<dim>112</dim>
				</port>
			</output>
		</layer>
		<layer id="243" name="CCT_OCR_1/transformer_block_3_1/multi_head_attention_2_1/value_1/MatMul" type="MatMul" version="opset1">
			<data transpose_a="false" transpose_b="true" />
			<input>
				<port id="0" precision="FP32">
					<dim>-1</dim>
					<dim>512</dim>
					<dim>112</dim>
				</port>
				<port id="1" precision="FP32">
					<dim>112</dim>
					<dim>112</dim>
				</port>
			</input>
			<output>
				<port id="2" precision="FP32" names="CCT_OCR_1/transformer_block_3_1/multi_head_attention_2_1/value_1/MatMul:0">
					<dim>-1</dim>
					<dim>512</dim>
					<dim>112</dim>
				</port>
			</output>
		</layer>
		<layer id="244" name="CCT_OCR_1/transformer_block_3_1/multi_head_attention_2_1/value_1/Reshape_1" type="Reshape" version="opset1">
			<data special_zero="true" />
			<input>
				<port id="0" precision="FP32">
					<dim>-1</dim>
					<dim>512</dim>
					<dim>112</dim>
				</port>
				<port id="1" precision="I64">
					<dim>4</dim>
				</port>
			</input>
			<output>
				<port id="2" precision="FP32" names="CCT_OCR_1/transformer_block_3_1/multi_head_attention_2_1/value_1/Reshape_1:0">
					<dim>-1</dim>
					<dim>512</dim>
					<dim>2</dim>
					<dim>56</dim>
				</port>
			</output>
		</layer>
		<layer id="245" name="Constant_106238_compressed" type="Const" version="opset1">
			<data element_type="f16" shape="1, 1, 2, 56" offset="1404490" size="224" />
			<output>
				<port id="0" precision="FP16">
					<dim>1</dim>
					<dim>1</dim>
					<dim>2</dim>
					<dim>56</dim>
				</port>
			</output>
		</layer>
		<layer id="246" name="Constant_106238" type="Convert" version="opset1">
			<data destination_type="f32" />
			<rt_info>
				<attribute name="decompression" version="0" />
			</rt_info>
			<input>
				<port id="0" precision="FP16">
					<dim>1</dim>
					<dim>1</dim>
					<dim>2</dim>
					<dim>56</dim>
				</port>
			</input>
			<output>
				<port id="1" precision="FP32">
					<dim>1</dim>
					<dim>1</dim>
					<dim>2</dim>
					<dim>56</dim>
				</port>
			</output>
		</layer>
		<layer id="247" name="CCT_OCR_1/transformer_block_3_1/multi_head_attention_2_1/value_1/Add" type="Add" version="opset1">
			<data auto_broadcast="numpy" />
			<input>
				<port id="0" precision="FP32">
					<dim>-1</dim>
					<dim>512</dim>
					<dim>2</dim>
					<dim>56</dim>
				</port>
				<port id="1" precision="FP32">
					<dim>1</dim>
					<dim>1</dim>
					<dim>2</dim>
					<dim>56</dim>
				</port>
			</input>
			<output>
				<port id="2" precision="FP32" names="CCT_OCR_1/transformer_block_3_1/multi_head_attention_2_1/value_1/Add:0">
					<dim>-1</dim>
					<dim>512</dim>
					<dim>2</dim>
					<dim>56</dim>
				</port>
			</output>
		</layer>
		<layer id="248" name="Constant_100152" type="Const" version="opset1">
			<data element_type="i64" shape="4" offset="1047808" size="32" />
			<output>
				<port id="0" precision="I64">
					<dim>4</dim>
				</port>
			</output>
		</layer>
		<layer id="249" name="CCT_OCR_1/transformer_block_3_1/multi_head_attention_2_1/transpose_3" type="Transpose" version="opset1">
			<input>
				<port id="0" precision="FP32">
					<dim>-1</dim>
					<dim>512</dim>
					<dim>2</dim>
					<dim>56</dim>
				</port>
				<port id="1" precision="I64">
					<dim>4</dim>
				</port>
			</input>
			<output>
				<port id="2" precision="FP32" names="CCT_OCR_1/transformer_block_3_1/multi_head_attention_2_1/transpose_3:0">
					<dim>-1</dim>
					<dim>2</dim>
					<dim>512</dim>
					<dim>56</dim>
				</port>
			</output>
		</layer>
		<layer id="250" name="CCT_OCR_1/transformer_block_3_1/multi_head_attention_2_1/MatMul_1" type="MatMul" version="opset1">
			<data transpose_a="true" transpose_b="false" />
			<input>
				<port id="0" precision="FP32">
					<dim>-1</dim>
					<dim>2</dim>
					<dim>512</dim>
					<dim>512</dim>
				</port>
				<port id="1" precision="FP32">
					<dim>-1</dim>
					<dim>2</dim>
					<dim>512</dim>
					<dim>56</dim>
				</port>
			</input>
			<output>
				<port id="2" precision="FP32" names="CCT_OCR_1/transformer_block_3_1/multi_head_attention_2_1/MatMul_1:0">
					<dim>-1</dim>
					<dim>2</dim>
					<dim>512</dim>
					<dim>56</dim>
				</port>
			</output>
		</layer>
		<layer id="251" name="Constant_100164" type="Const" version="opset1">
			<data element_type="i64" shape="4" offset="1047808" size="32" />
			<output>
				<port id="0" precision="I64">
					<dim>4</dim>
				</port>
			</output>
		</layer>
		<layer id="252" name="CCT_OCR_1/transformer_block_3_1/multi_head_attention_2_1/transpose_4" type="Transpose" version="opset1">
			<input>
				<port id="0" precision="FP32">
					<dim>-1</dim>
					<dim>2</dim>
					<dim>512</dim>
					<dim>56</dim>
				</port>
				<port id="1" precision="I64">
					<dim>4</dim>
				</port>
			</input>
			<output>
				<port id="2" precision="FP32" names="CCT_OCR_1/transformer_block_3_1/multi_head_attention_2_1/transpose_4:0">
					<dim>-1</dim>
					<dim>512</dim>
					<dim>2</dim>
					<dim>56</dim>
				</port>
			</output>
		</layer>
		<layer id="253" name="CCT_OCR_1/transformer_block_3_1/multi_head_attention_2_1/attention_output_1/Reshape" type="Reshape" version="opset1">
			<data special_zero="true" />
			<input>
				<port id="0" precision="FP32">
					<dim>-1</dim>
					<dim>512</dim>
					<dim>2</dim>
					<dim>56</dim>
				</port>
				<port id="1" precision="I64">
					<dim>3</dim>
				</port>
			</input>
			<output>
				<port id="2" precision="FP32" names="CCT_OCR_1/transformer_block_3_1/multi_head_attention_2_1/attention_output_1/Reshape:0">
					<dim>-1</dim>
					<dim>512</dim>
					<dim>112</dim>
				</port>
			</output>
		</layer>
		<layer id="254" name="Transpose_104431_compressed" type="Const" version="opset1">
			<data element_type="f16" shape="112, 112" offset="1404714" size="25088" />
			<output>
				<port id="0" precision="FP16">
					<dim>112</dim>
					<dim>112</dim>
				</port>
			</output>
		</layer>
		<layer id="255" name="Transpose_104431" type="Convert" version="opset1">
			<data destination_type="f32" />
			<rt_info>
				<attribute name="decompression" version="0" />
			</rt_info>
			<input>
				<port id="0" precision="FP16">
					<dim>112</dim>
					<dim>112</dim>
				</port>
			</input>
			<output>
				<port id="1" precision="FP32">
					<dim>112</dim>
					<dim>112</dim>
				</port>
			</output>
		</layer>
		<layer id="256" name="CCT_OCR_1/transformer_block_3_1/multi_head_attention_2_1/attention_output_1/MatMul" type="MatMul" version="opset1">
			<data transpose_a="false" transpose_b="true" />
			<input>
				<port id="0" precision="FP32">
					<dim>-1</dim>
					<dim>512</dim>
					<dim>112</dim>
				</port>
				<port id="1" precision="FP32">
					<dim>112</dim>
					<dim>112</dim>
				</port>
			</input>
			<output>
				<port id="2" precision="FP32" names="CCT_OCR_1/transformer_block_3_1/multi_head_attention_2_1/attention_output_1/MatMul:0">
					<dim>-1</dim>
					<dim>512</dim>
					<dim>112</dim>
				</port>
			</output>
		</layer>
		<layer id="257" name="Constant_106239_compressed" type="Const" version="opset1">
			<data element_type="f16" shape="1, 1, 112" offset="1429802" size="224" />
			<output>
				<port id="0" precision="FP16">
					<dim>1</dim>
					<dim>1</dim>
					<dim>112</dim>
				</port>
			</output>
		</layer>
		<layer id="258" name="Constant_106239" type="Convert" version="opset1">
			<data destination_type="f32" />
			<rt_info>
				<attribute name="decompression" version="0" />
			</rt_info>
			<input>
				<port id="0" precision="FP16">
					<dim>1</dim>
					<dim>1</dim>
					<dim>112</dim>
				</port>
			</input>
			<output>
				<port id="1" precision="FP32">
					<dim>1</dim>
					<dim>1</dim>
					<dim>112</dim>
				</port>
			</output>
		</layer>
		<layer id="259" name="CCT_OCR_1/transformer_block_3_1/multi_head_attention_2_1/attention_output_1/BiasAdd" type="Add" version="opset1">
			<data auto_broadcast="numpy" />
			<input>
				<port id="0" precision="FP32">
					<dim>-1</dim>
					<dim>512</dim>
					<dim>112</dim>
				</port>
				<port id="1" precision="FP32">
					<dim>1</dim>
					<dim>1</dim>
					<dim>112</dim>
				</port>
			</input>
			<output>
				<port id="2" precision="FP32" names="CCT_OCR_1/transformer_block_3_1/multi_head_attention_2_1/attention_output_1/BiasAdd:0">
					<dim>-1</dim>
					<dim>512</dim>
					<dim>112</dim>
				</port>
			</output>
		</layer>
		<layer id="260" name="CCT_OCR_1/transformer_block_3_1/add_22_1/Add" type="Add" version="opset1">
			<data auto_broadcast="numpy" />
			<input>
				<port id="0" precision="FP32">
					<dim>-1</dim>
					<dim>512</dim>
					<dim>112</dim>
				</port>
				<port id="1" precision="FP32">
					<dim>-1</dim>
					<dim>512</dim>
					<dim>112</dim>
				</port>
			</input>
			<output>
				<port id="2" precision="FP32" names="CCT_OCR_1/transformer_block_3_1/add_22_1/Add:0">
					<dim>-1</dim>
					<dim>512</dim>
					<dim>112</dim>
				</port>
			</output>
		</layer>
		<layer id="261" name="Constant_106240_compressed" type="Const" version="opset1">
			<data element_type="f16" shape="1, 1, 1" offset="1430026" size="2" />
			<output>
				<port id="0" precision="FP16">
					<dim>1</dim>
					<dim>1</dim>
					<dim>1</dim>
				</port>
			</output>
		</layer>
		<layer id="262" name="Constant_106240" type="Convert" version="opset1">
			<data destination_type="f32" />
			<rt_info>
				<attribute name="decompression" version="0" />
			</rt_info>
			<input>
				<port id="0" precision="FP16">
					<dim>1</dim>
					<dim>1</dim>
					<dim>1</dim>
				</port>
			</input>
			<output>
				<port id="1" precision="FP32">
					<dim>1</dim>
					<dim>1</dim>
					<dim>1</dim>
				</port>
			</output>
		</layer>
		<layer id="263" name="CCT_OCR_1/transformer_block_3_1/dy_t_5_1/Mul" type="Multiply" version="opset1">
			<data auto_broadcast="numpy" />
			<input>
				<port id="0" precision="FP32">
					<dim>1</dim>
					<dim>1</dim>
					<dim>1</dim>
				</port>
				<port id="1" precision="FP32">
					<dim>-1</dim>
					<dim>512</dim>
					<dim>112</dim>
				</port>
			</input>
			<output>
				<port id="2" precision="FP32" names="CCT_OCR_1/transformer_block_3_1/dy_t_5_1/Mul:0">
					<dim>-1</dim>
					<dim>512</dim>
					<dim>112</dim>
				</port>
			</output>
		</layer>
		<layer id="264" name="CCT_OCR_1/transformer_block_3_1/dy_t_5_1/Tanh" type="Tanh" version="opset1">
			<input>
				<port id="0" precision="FP32">
					<dim>-1</dim>
					<dim>512</dim>
					<dim>112</dim>
				</port>
			</input>
			<output>
				<port id="1" precision="FP32" names="CCT_OCR_1/transformer_block_3_1/dy_t_5_1/Tanh:0">
					<dim>-1</dim>
					<dim>512</dim>
					<dim>112</dim>
				</port>
			</output>
		</layer>
		<layer id="265" name="Constant_106241_compressed" type="Const" version="opset1">
			<data element_type="f16" shape="1, 1, 112" offset="1430028" size="224" />
			<output>
				<port id="0" precision="FP16">
					<dim>1</dim>
					<dim>1</dim>
					<dim>112</dim>
				</port>
			</output>
		</layer>
		<layer id="266" name="Constant_106241" type="Convert" version="opset1">
			<data destination_type="f32" />
			<rt_info>
				<attribute name="decompression" version="0" />
			</rt_info>
			<input>
				<port id="0" precision="FP16">
					<dim>1</dim>
					<dim>1</dim>
					<dim>112</dim>
				</port>
			</input>
			<output>
				<port id="1" precision="FP32">
					<dim>1</dim>
					<dim>1</dim>
					<dim>112</dim>
				</port>
			</output>
		</layer>
		<layer id="267" name="CCT_OCR_1/transformer_block_3_1/dy_t_5_1/mul_1" type="Multiply" version="opset1">
			<data auto_broadcast="numpy" />
			<input>
				<port id="0" precision="FP32">
					<dim>-1</dim>
					<dim>512</dim>
					<dim>112</dim>
				</port>
				<port id="1" precision="FP32">
					<dim>1</dim>
					<dim>1</dim>
					<dim>112</dim>
				</port>
			</input>
			<output>
				<port id="2" precision="FP32" names="CCT_OCR_1/transformer_block_3_1/dy_t_5_1/mul_1:0">
					<dim>-1</dim>
					<dim>512</dim>
					<dim>112</dim>
				</port>
			</output>
		</layer>
		<layer id="268" name="Constant_106242_compressed" type="Const" version="opset1">
			<data element_type="f16" shape="1, 1, 112" offset="1430252" size="224" />
			<output>
				<port id="0" precision="FP16">
					<dim>1</dim>
					<dim>1</dim>
					<dim>112</dim>
				</port>
			</output>
		</layer>
		<layer id="269" name="Constant_106242" type="Convert" version="opset1">
			<data destination_type="f32" />
			<rt_info>
				<attribute name="decompression" version="0" />
			</rt_info>
			<input>
				<port id="0" precision="FP16">
					<dim>1</dim>
					<dim>1</dim>
					<dim>112</dim>
				</port>
			</input>
			<output>
				<port id="1" precision="FP32">
					<dim>1</dim>
					<dim>1</dim>
					<dim>112</dim>
				</port>
			</output>
		</layer>
		<layer id="270" name="CCT_OCR_1/transformer_block_3_1/dy_t_5_1/add" type="Add" version="opset1">
			<data auto_broadcast="numpy" />
			<input>
				<port id="0" precision="FP32">
					<dim>-1</dim>
					<dim>512</dim>
					<dim>112</dim>
				</port>
				<port id="1" precision="FP32">
					<dim>1</dim>
					<dim>1</dim>
					<dim>112</dim>
				</port>
			</input>
			<output>
				<port id="2" precision="FP32" names="CCT_OCR_1/transformer_block_3_1/dy_t_5_1/add:0">
					<dim>-1</dim>
					<dim>512</dim>
					<dim>112</dim>
				</port>
			</output>
		</layer>
		<layer id="271" name="Transpose_104446_compressed" type="Const" version="opset1">
			<data element_type="f16" shape="112, 112" offset="1430476" size="25088" />
			<output>
				<port id="0" precision="FP16">
					<dim>112</dim>
					<dim>112</dim>
				</port>
			</output>
		</layer>
		<layer id="272" name="Transpose_104446" type="Convert" version="opset1">
			<data destination_type="f32" />
			<rt_info>
				<attribute name="decompression" version="0" />
			</rt_info>
			<input>
				<port id="0" precision="FP16">
					<dim>112</dim>
					<dim>112</dim>
				</port>
			</input>
			<output>
				<port id="1" precision="FP32">
					<dim>112</dim>
					<dim>112</dim>
				</port>
			</output>
		</layer>
		<layer id="273" name="CCT_OCR_1/transformer_block_3_1/mlp_2_1/dense_5_1/MatMul" type="MatMul" version="opset1">
			<data transpose_a="false" transpose_b="true" />
			<input>
				<port id="0" precision="FP32">
					<dim>-1</dim>
					<dim>512</dim>
					<dim>112</dim>
				</port>
				<port id="1" precision="FP32">
					<dim>112</dim>
					<dim>112</dim>
				</port>
			</input>
			<output>
				<port id="2" precision="FP32" names="CCT_OCR_1/transformer_block_3_1/mlp_2_1/dense_5_1/MatMul:0">
					<dim>-1</dim>
					<dim>512</dim>
					<dim>112</dim>
				</port>
			</output>
		</layer>
		<layer id="274" name="Constant_106243" type="Const" version="opset1">
			<data element_type="f32" shape="1, 1, 112" offset="1455564" size="448" />
			<output>
				<port id="0" precision="FP32">
					<dim>1</dim>
					<dim>1</dim>
					<dim>112</dim>
				</port>
			</output>
		</layer>
		<layer id="275" name="CCT_OCR_1/transformer_block_3_1/mlp_2_1/dense_5_1/BiasAdd" type="Add" version="opset1">
			<data auto_broadcast="numpy" />
			<input>
				<port id="0" precision="FP32">
					<dim>-1</dim>
					<dim>512</dim>
					<dim>112</dim>
				</port>
				<port id="1" precision="FP32">
					<dim>1</dim>
					<dim>1</dim>
					<dim>112</dim>
				</port>
			</input>
			<output>
				<port id="2" precision="FP32" names="CCT_OCR_1/transformer_block_3_1/mlp_2_1/dense_5_1/BiasAdd:0">
					<dim>-1</dim>
					<dim>512</dim>
					<dim>112</dim>
				</port>
			</output>
		</layer>
		<layer id="276" name="CCT_OCR_1/transformer_block_3_1/mlp_2_1/dense_5_1/mul_1" type="Swish" version="opset4">
			<input>
				<port id="0" precision="FP32">
					<dim>-1</dim>
					<dim>512</dim>
					<dim>112</dim>
				</port>
			</input>
			<output>
				<port id="1" precision="FP32" names="CCT_OCR_1/transformer_block_3_1/mlp_2_1/dense_5_1/mul_1:0">
					<dim>-1</dim>
					<dim>512</dim>
					<dim>112</dim>
				</port>
			</output>
		</layer>
		<layer id="277" name="Transpose_104452_compressed" type="Const" version="opset1">
			<data element_type="f16" shape="112, 112" offset="1456012" size="25088" />
			<output>
				<port id="0" precision="FP16">
					<dim>112</dim>
					<dim>112</dim>
				</port>
			</output>
		</layer>
		<layer id="278" name="Transpose_104452" type="Convert" version="opset1">
			<data destination_type="f32" />
			<rt_info>
				<attribute name="decompression" version="0" />
			</rt_info>
			<input>
				<port id="0" precision="FP16">
					<dim>112</dim>
					<dim>112</dim>
				</port>
			</input>
			<output>
				<port id="1" precision="FP32">
					<dim>112</dim>
					<dim>112</dim>
				</port>
			</output>
		</layer>
		<layer id="279" name="CCT_OCR_1/transformer_block_3_1/mlp_2_1/dense_6_1/MatMul" type="MatMul" version="opset1">
			<data transpose_a="false" transpose_b="true" />
			<input>
				<port id="0" precision="FP32">
					<dim>-1</dim>
					<dim>512</dim>
					<dim>112</dim>
				</port>
				<port id="1" precision="FP32">
					<dim>112</dim>
					<dim>112</dim>
				</port>
			</input>
			<output>
				<port id="2" precision="FP32" names="CCT_OCR_1/transformer_block_3_1/mlp_2_1/dense_6_1/MatMul:0">
					<dim>-1</dim>
					<dim>512</dim>
					<dim>112</dim>
				</port>
			</output>
		</layer>
		<layer id="280" name="Constant_106244" type="Const" version="opset1">
			<data element_type="f32" shape="1, 1, 112" offset="1481100" size="448" />
			<output>
				<port id="0" precision="FP32">
					<dim>1</dim>
					<dim>1</dim>
					<dim>112</dim>
				</port>
			</output>
		</layer>
		<layer id="281" name="CCT_OCR_1/transformer_block_3_1/mlp_2_1/dense_6_1/BiasAdd" type="Add" version="opset1">
			<data auto_broadcast="numpy" />
			<input>
				<port id="0" precision="FP32">
					<dim>-1</dim>
					<dim>512</dim>
					<dim>112</dim>
				</port>
				<port id="1" precision="FP32">
					<dim>1</dim>
					<dim>1</dim>
					<dim>112</dim>
				</port>
			</input>
			<output>
				<port id="2" precision="FP32" names="CCT_OCR_1/transformer_block_3_1/mlp_2_1/dense_6_1/BiasAdd:0">
					<dim>-1</dim>
					<dim>512</dim>
					<dim>112</dim>
				</port>
			</output>
		</layer>
		<layer id="282" name="CCT_OCR_1/transformer_block_3_1/mlp_2_1/dense_6_1/mul_1" type="Swish" version="opset4">
			<input>
				<port id="0" precision="FP32">
					<dim>-1</dim>
					<dim>512</dim>
					<dim>112</dim>
				</port>
			</input>
			<output>
				<port id="1" precision="FP32" names="CCT_OCR_1/transformer_block_3_1/mlp_2_1/dense_6_1/mul_1:0">
					<dim>-1</dim>
					<dim>512</dim>
					<dim>112</dim>
				</port>
			</output>
		</layer>
		<layer id="283" name="CCT_OCR_1/transformer_block_3_1/add_23_1/Add" type="Add" version="opset1">
			<data auto_broadcast="numpy" />
			<input>
				<port id="0" precision="FP32">
					<dim>-1</dim>
					<dim>512</dim>
					<dim>112</dim>
				</port>
				<port id="1" precision="FP32">
					<dim>-1</dim>
					<dim>512</dim>
					<dim>112</dim>
				</port>
			</input>
			<output>
				<port id="2" precision="FP32" names="CCT_OCR_1/transformer_block_3_1/add_23_1/Add:0">
					<dim>-1</dim>
					<dim>512</dim>
					<dim>112</dim>
				</port>
			</output>
		</layer>
		<layer id="284" name="Constant_106245" type="Const" version="opset1">
			<data element_type="f32" shape="1, 1, 1" offset="1481548" size="4" />
			<output>
				<port id="0" precision="FP32">
					<dim>1</dim>
					<dim>1</dim>
					<dim>1</dim>
				</port>
			</output>
		</layer>
		<layer id="285" name="CCT_OCR_1/transformer_block_4_1/dy_t_6_1/Mul" type="Multiply" version="opset1">
			<data auto_broadcast="numpy" />
			<input>
				<port id="0" precision="FP32">
					<dim>1</dim>
					<dim>1</dim>
					<dim>1</dim>
				</port>
				<port id="1" precision="FP32">
					<dim>-1</dim>
					<dim>512</dim>
					<dim>112</dim>
				</port>
			</input>
			<output>
				<port id="2" precision="FP32" names="CCT_OCR_1/transformer_block_4_1/dy_t_6_1/Mul:0">
					<dim>-1</dim>
					<dim>512</dim>
					<dim>112</dim>
				</port>
			</output>
		</layer>
		<layer id="286" name="CCT_OCR_1/transformer_block_4_1/dy_t_6_1/Tanh" type="Tanh" version="opset1">
			<input>
				<port id="0" precision="FP32">
					<dim>-1</dim>
					<dim>512</dim>
					<dim>112</dim>
				</port>
			</input>
			<output>
				<port id="1" precision="FP32" names="CCT_OCR_1/transformer_block_4_1/dy_t_6_1/Tanh:0">
					<dim>-1</dim>
					<dim>512</dim>
					<dim>112</dim>
				</port>
			</output>
		</layer>
		<layer id="287" name="Constant_106246_compressed" type="Const" version="opset1">
			<data element_type="f16" shape="1, 1, 112" offset="1481552" size="224" />
			<output>
				<port id="0" precision="FP16">
					<dim>1</dim>
					<dim>1</dim>
					<dim>112</dim>
				</port>
			</output>
		</layer>
		<layer id="288" name="Constant_106246" type="Convert" version="opset1">
			<data destination_type="f32" />
			<rt_info>
				<attribute name="decompression" version="0" />
			</rt_info>
			<input>
				<port id="0" precision="FP16">
					<dim>1</dim>
					<dim>1</dim>
					<dim>112</dim>
				</port>
			</input>
			<output>
				<port id="1" precision="FP32">
					<dim>1</dim>
					<dim>1</dim>
					<dim>112</dim>
				</port>
			</output>
		</layer>
		<layer id="289" name="CCT_OCR_1/transformer_block_4_1/dy_t_6_1/mul_1" type="Multiply" version="opset1">
			<data auto_broadcast="numpy" />
			<input>
				<port id="0" precision="FP32">
					<dim>-1</dim>
					<dim>512</dim>
					<dim>112</dim>
				</port>
				<port id="1" precision="FP32">
					<dim>1</dim>
					<dim>1</dim>
					<dim>112</dim>
				</port>
			</input>
			<output>
				<port id="2" precision="FP32" names="CCT_OCR_1/transformer_block_4_1/dy_t_6_1/mul_1:0">
					<dim>-1</dim>
					<dim>512</dim>
					<dim>112</dim>
				</port>
			</output>
		</layer>
		<layer id="290" name="Constant_106247" type="Const" version="opset1">
			<data element_type="f32" shape="1, 1, 112" offset="1481776" size="448" />
			<output>
				<port id="0" precision="FP32">
					<dim>1</dim>
					<dim>1</dim>
					<dim>112</dim>
				</port>
			</output>
		</layer>
		<layer id="291" name="CCT_OCR_1/transformer_block_4_1/dy_t_6_1/add" type="Add" version="opset1">
			<data auto_broadcast="numpy" />
			<input>
				<port id="0" precision="FP32">
					<dim>-1</dim>
					<dim>512</dim>
					<dim>112</dim>
				</port>
				<port id="1" precision="FP32">
					<dim>1</dim>
					<dim>1</dim>
					<dim>112</dim>
				</port>
			</input>
			<output>
				<port id="2" precision="FP32" names="CCT_OCR_1/transformer_block_4_1/dy_t_6_1/add:0">
					<dim>-1</dim>
					<dim>512</dim>
					<dim>112</dim>
				</port>
			</output>
		</layer>
		<layer id="292" name="Transpose_104468_compressed" type="Const" version="opset1">
			<data element_type="f16" shape="112, 112" offset="1482224" size="25088" />
			<output>
				<port id="0" precision="FP16">
					<dim>112</dim>
					<dim>112</dim>
				</port>
			</output>
		</layer>
		<layer id="293" name="Transpose_104468" type="Convert" version="opset1">
			<data destination_type="f32" />
			<rt_info>
				<attribute name="decompression" version="0" />
			</rt_info>
			<input>
				<port id="0" precision="FP16">
					<dim>112</dim>
					<dim>112</dim>
				</port>
			</input>
			<output>
				<port id="1" precision="FP32">
					<dim>112</dim>
					<dim>112</dim>
				</port>
			</output>
		</layer>
		<layer id="294" name="CCT_OCR_1/transformer_block_4_1/multi_head_attention_3_1/key_1/MatMul" type="MatMul" version="opset1">
			<data transpose_a="false" transpose_b="true" />
			<input>
				<port id="0" precision="FP32">
					<dim>-1</dim>
					<dim>512</dim>
					<dim>112</dim>
				</port>
				<port id="1" precision="FP32">
					<dim>112</dim>
					<dim>112</dim>
				</port>
			</input>
			<output>
				<port id="2" precision="FP32" names="CCT_OCR_1/transformer_block_4_1/multi_head_attention_3_1/key_1/MatMul:0">
					<dim>-1</dim>
					<dim>512</dim>
					<dim>112</dim>
				</port>
			</output>
		</layer>
		<layer id="295" name="CCT_OCR_1/transformer_block_4_1/multi_head_attention_3_1/key_1/Reshape_1" type="Reshape" version="opset1">
			<data special_zero="true" />
			<input>
				<port id="0" precision="FP32">
					<dim>-1</dim>
					<dim>512</dim>
					<dim>112</dim>
				</port>
				<port id="1" precision="I64">
					<dim>4</dim>
				</port>
			</input>
			<output>
				<port id="2" precision="FP32" names="CCT_OCR_1/transformer_block_4_1/multi_head_attention_3_1/key_1/Reshape_1:0">
					<dim>-1</dim>
					<dim>512</dim>
					<dim>2</dim>
					<dim>56</dim>
				</port>
			</output>
		</layer>
		<layer id="296" name="Constant_106248" type="Const" version="opset1">
			<data element_type="f32" shape="1, 1, 2, 56" offset="1507312" size="448" />
			<output>
				<port id="0" precision="FP32">
					<dim>1</dim>
					<dim>1</dim>
					<dim>2</dim>
					<dim>56</dim>
				</port>
			</output>
		</layer>
		<layer id="297" name="CCT_OCR_1/transformer_block_4_1/multi_head_attention_3_1/key_1/Add" type="Add" version="opset1">
			<data auto_broadcast="numpy" />
			<input>
				<port id="0" precision="FP32">
					<dim>-1</dim>
					<dim>512</dim>
					<dim>2</dim>
					<dim>56</dim>
				</port>
				<port id="1" precision="FP32">
					<dim>1</dim>
					<dim>1</dim>
					<dim>2</dim>
					<dim>56</dim>
				</port>
			</input>
			<output>
				<port id="2" precision="FP32" names="CCT_OCR_1/transformer_block_4_1/multi_head_attention_3_1/key_1/Add:0">
					<dim>-1</dim>
					<dim>512</dim>
					<dim>2</dim>
					<dim>56</dim>
				</port>
			</output>
		</layer>
		<layer id="298" name="Constant_100217" type="Const" version="opset1">
			<data element_type="i64" shape="4" offset="1047808" size="32" />
			<output>
				<port id="0" precision="I64">
					<dim>4</dim>
				</port>
			</output>
		</layer>
		<layer id="299" name="CCT_OCR_1/transformer_block_4_1/multi_head_attention_3_1/transpose" type="Transpose" version="opset1">
			<input>
				<port id="0" precision="FP32">
					<dim>-1</dim>
					<dim>512</dim>
					<dim>2</dim>
					<dim>56</dim>
				</port>
				<port id="1" precision="I64">
					<dim>4</dim>
				</port>
			</input>
			<output>
				<port id="2" precision="FP32" names="CCT_OCR_1/transformer_block_4_1/multi_head_attention_3_1/transpose:0">
					<dim>-1</dim>
					<dim>2</dim>
					<dim>512</dim>
					<dim>56</dim>
				</port>
			</output>
		</layer>
		<layer id="300" name="Transpose_104473_compressed" type="Const" version="opset1">
			<data element_type="f16" shape="112, 112" offset="1507760" size="25088" />
			<output>
				<port id="0" precision="FP16">
					<dim>112</dim>
					<dim>112</dim>
				</port>
			</output>
		</layer>
		<layer id="301" name="Transpose_104473" type="Convert" version="opset1">
			<data destination_type="f32" />
			<rt_info>
				<attribute name="decompression" version="0" />
			</rt_info>
			<input>
				<port id="0" precision="FP16">
					<dim>112</dim>
					<dim>112</dim>
				</port>
			</input>
			<output>
				<port id="1" precision="FP32">
					<dim>112</dim>
					<dim>112</dim>
				</port>
			</output>
		</layer>
		<layer id="302" name="CCT_OCR_1/transformer_block_4_1/multi_head_attention_3_1/query_1/MatMul" type="MatMul" version="opset1">
			<data transpose_a="false" transpose_b="true" />
			<input>
				<port id="0" precision="FP32">
					<dim>-1</dim>
					<dim>512</dim>
					<dim>112</dim>
				</port>
				<port id="1" precision="FP32">
					<dim>112</dim>
					<dim>112</dim>
				</port>
			</input>
			<output>
				<port id="2" precision="FP32" names="CCT_OCR_1/transformer_block_4_1/multi_head_attention_3_1/query_1/MatMul:0">
					<dim>-1</dim>
					<dim>512</dim>
					<dim>112</dim>
				</port>
			</output>
		</layer>
		<layer id="303" name="CCT_OCR_1/transformer_block_4_1/multi_head_attention_3_1/query_1/Reshape_1" type="Reshape" version="opset1">
			<data special_zero="true" />
			<input>
				<port id="0" precision="FP32">
					<dim>-1</dim>
					<dim>512</dim>
					<dim>112</dim>
				</port>
				<port id="1" precision="I64">
					<dim>4</dim>
				</port>
			</input>
			<output>
				<port id="2" precision="FP32" names="CCT_OCR_1/transformer_block_4_1/multi_head_attention_3_1/query_1/Reshape_1:0">
					<dim>-1</dim>
					<dim>512</dim>
					<dim>2</dim>
					<dim>56</dim>
				</port>
			</output>
		</layer>
		<layer id="304" name="Constant_106249" type="Const" version="opset1">
			<data element_type="f32" shape="1, 1, 1, 1" offset="1072928" size="4" />
			<output>
				<port id="0" precision="FP32">
					<dim>1</dim>
					<dim>1</dim>
					<dim>1</dim>
					<dim>1</dim>
				</port>
			</output>
		</layer>
		<layer id="305" name="Multiply_105987" type="Multiply" version="opset1">
			<data auto_broadcast="numpy" />
			<input>
				<port id="0" precision="FP32">
					<dim>-1</dim>
					<dim>512</dim>
					<dim>2</dim>
					<dim>56</dim>
				</port>
				<port id="1" precision="FP32">
					<dim>1</dim>
					<dim>1</dim>
					<dim>1</dim>
					<dim>1</dim>
				</port>
			</input>
			<output>
				<port id="2" precision="FP32">
					<dim>-1</dim>
					<dim>512</dim>
					<dim>2</dim>
					<dim>56</dim>
				</port>
			</output>
		</layer>
		<layer id="306" name="Constant_106250_compressed" type="Const" version="opset1">
			<data element_type="f16" shape="1, 1, 2, 56" offset="1532848" size="224" />
			<output>
				<port id="0" precision="FP16">
					<dim>1</dim>
					<dim>1</dim>
					<dim>2</dim>
					<dim>56</dim>
				</port>
			</output>
		</layer>
		<layer id="307" name="Constant_106250" type="Convert" version="opset1">
			<data destination_type="f32" />
			<rt_info>
				<attribute name="decompression" version="0" />
			</rt_info>
			<input>
				<port id="0" precision="FP16">
					<dim>1</dim>
					<dim>1</dim>
					<dim>2</dim>
					<dim>56</dim>
				</port>
			</input>
			<output>
				<port id="1" precision="FP32">
					<dim>1</dim>
					<dim>1</dim>
					<dim>2</dim>
					<dim>56</dim>
				</port>
			</output>
		</layer>
		<layer id="308" name="CCT_OCR_1/transformer_block_4_1/multi_head_attention_3_1/Mul" type="Add" version="opset1">
			<data auto_broadcast="numpy" />
			<input>
				<port id="0" precision="FP32">
					<dim>-1</dim>
					<dim>512</dim>
					<dim>2</dim>
					<dim>56</dim>
				</port>
				<port id="1" precision="FP32">
					<dim>1</dim>
					<dim>1</dim>
					<dim>2</dim>
					<dim>56</dim>
				</port>
			</input>
			<output>
				<port id="2" precision="FP32" names="CCT_OCR_1/transformer_block_4_1/multi_head_attention_3_1/Mul:0">
					<dim>-1</dim>
					<dim>512</dim>
					<dim>2</dim>
					<dim>56</dim>
				</port>
			</output>
		</layer>
		<layer id="309" name="Constant_100219" type="Const" version="opset1">
			<data element_type="i64" shape="4" offset="806692" size="32" />
			<output>
				<port id="0" precision="I64">
					<dim>4</dim>
				</port>
			</output>
		</layer>
		<layer id="310" name="CCT_OCR_1/transformer_block_4_1/multi_head_attention_3_1/transpose_1" type="Transpose" version="opset1">
			<input>
				<port id="0" precision="FP32">
					<dim>-1</dim>
					<dim>512</dim>
					<dim>2</dim>
					<dim>56</dim>
				</port>
				<port id="1" precision="I64">
					<dim>4</dim>
				</port>
			</input>
			<output>
				<port id="2" precision="FP32" names="CCT_OCR_1/transformer_block_4_1/multi_head_attention_3_1/transpose_1:0">
					<dim>-1</dim>
					<dim>2</dim>
					<dim>56</dim>
					<dim>512</dim>
				</port>
			</output>
		</layer>
		<layer id="311" name="CCT_OCR_1/transformer_block_4_1/multi_head_attention_3_1/MatMul" type="MatMul" version="opset1">
			<data transpose_a="false" transpose_b="false" />
			<input>
				<port id="0" precision="FP32">
					<dim>-1</dim>
					<dim>2</dim>
					<dim>512</dim>
					<dim>56</dim>
				</port>
				<port id="1" precision="FP32">
					<dim>-1</dim>
					<dim>2</dim>
					<dim>56</dim>
					<dim>512</dim>
				</port>
			</input>
			<output>
				<port id="2" precision="FP32" names="CCT_OCR_1/transformer_block_4_1/multi_head_attention_3_1/MatMul:0">
					<dim>-1</dim>
					<dim>2</dim>
					<dim>512</dim>
					<dim>512</dim>
				</port>
			</output>
		</layer>
		<layer id="312" name="CCT_OCR_1/transformer_block_4_1/multi_head_attention_3_1/softmax_4_1/Softmax" type="SoftMax" version="opset8">
			<data axis="2" />
			<input>
				<port id="0" precision="FP32">
					<dim>-1</dim>
					<dim>2</dim>
					<dim>512</dim>
					<dim>512</dim>
				</port>
			</input>
			<output>
				<port id="1" precision="FP32" names="CCT_OCR_1/transformer_block_4_1/multi_head_attention_3_1/softmax_4_1/Softmax:0">
					<dim>-1</dim>
					<dim>2</dim>
					<dim>512</dim>
					<dim>512</dim>
				</port>
			</output>
		</layer>
		<layer id="313" name="Transpose_104480_compressed" type="Const" version="opset1">
			<data element_type="f16" shape="112, 112" offset="1533072" size="25088" />
			<output>
				<port id="0" precision="FP16">
					<dim>112</dim>
					<dim>112</dim>
				</port>
			</output>
		</layer>
		<layer id="314" name="Transpose_104480" type="Convert" version="opset1">
			<data destination_type="f32" />
			<rt_info>
				<attribute name="decompression" version="0" />
			</rt_info>
			<input>
				<port id="0" precision="FP16">
					<dim>112</dim>
					<dim>112</dim>
				</port>
			</input>
			<output>
				<port id="1" precision="FP32">
					<dim>112</dim>
					<dim>112</dim>
				</port>
			</output>
		</layer>
		<layer id="315" name="CCT_OCR_1/transformer_block_4_1/multi_head_attention_3_1/value_1/MatMul" type="MatMul" version="opset1">
			<data transpose_a="false" transpose_b="true" />
			<input>
				<port id="0" precision="FP32">
					<dim>-1</dim>
					<dim>512</dim>
					<dim>112</dim>
				</port>
				<port id="1" precision="FP32">
					<dim>112</dim>
					<dim>112</dim>
				</port>
			</input>
			<output>
				<port id="2" precision="FP32" names="CCT_OCR_1/transformer_block_4_1/multi_head_attention_3_1/value_1/MatMul:0">
					<dim>-1</dim>
					<dim>512</dim>
					<dim>112</dim>
				</port>
			</output>
		</layer>
		<layer id="316" name="CCT_OCR_1/transformer_block_4_1/multi_head_attention_3_1/value_1/Reshape_1" type="Reshape" version="opset1">
			<data special_zero="true" />
			<input>
				<port id="0" precision="FP32">
					<dim>-1</dim>
					<dim>512</dim>
					<dim>112</dim>
				</port>
				<port id="1" precision="I64">
					<dim>4</dim>
				</port>
			</input>
			<output>
				<port id="2" precision="FP32" names="CCT_OCR_1/transformer_block_4_1/multi_head_attention_3_1/value_1/Reshape_1:0">
					<dim>-1</dim>
					<dim>512</dim>
					<dim>2</dim>
					<dim>56</dim>
				</port>
			</output>
		</layer>
		<layer id="317" name="Constant_106251_compressed" type="Const" version="opset1">
			<data element_type="f16" shape="1, 1, 2, 56" offset="1558160" size="224" />
			<output>
				<port id="0" precision="FP16">
					<dim>1</dim>
					<dim>1</dim>
					<dim>2</dim>
					<dim>56</dim>
				</port>
			</output>
		</layer>
		<layer id="318" name="Constant_106251" type="Convert" version="opset1">
			<data destination_type="f32" />
			<rt_info>
				<attribute name="decompression" version="0" />
			</rt_info>
			<input>
				<port id="0" precision="FP16">
					<dim>1</dim>
					<dim>1</dim>
					<dim>2</dim>
					<dim>56</dim>
				</port>
			</input>
			<output>
				<port id="1" precision="FP32">
					<dim>1</dim>
					<dim>1</dim>
					<dim>2</dim>
					<dim>56</dim>
				</port>
			</output>
		</layer>
		<layer id="319" name="CCT_OCR_1/transformer_block_4_1/multi_head_attention_3_1/value_1/Add" type="Add" version="opset1">
			<data auto_broadcast="numpy" />
			<input>
				<port id="0" precision="FP32">
					<dim>-1</dim>
					<dim>512</dim>
					<dim>2</dim>
					<dim>56</dim>
				</port>
				<port id="1" precision="FP32">
					<dim>1</dim>
					<dim>1</dim>
					<dim>2</dim>
					<dim>56</dim>
				</port>
			</input>
			<output>
				<port id="2" precision="FP32" names="CCT_OCR_1/transformer_block_4_1/multi_head_attention_3_1/value_1/Add:0">
					<dim>-1</dim>
					<dim>512</dim>
					<dim>2</dim>
					<dim>56</dim>
				</port>
			</output>
		</layer>
		<layer id="320" name="Constant_100214" type="Const" version="opset1">
			<data element_type="i64" shape="4" offset="1047808" size="32" />
			<output>
				<port id="0" precision="I64">
					<dim>4</dim>
				</port>
			</output>
		</layer>
		<layer id="321" name="CCT_OCR_1/transformer_block_4_1/multi_head_attention_3_1/transpose_3" type="Transpose" version="opset1">
			<input>
				<port id="0" precision="FP32">
					<dim>-1</dim>
					<dim>512</dim>
					<dim>2</dim>
					<dim>56</dim>
				</port>
				<port id="1" precision="I64">
					<dim>4</dim>
				</port>
			</input>
			<output>
				<port id="2" precision="FP32" names="CCT_OCR_1/transformer_block_4_1/multi_head_attention_3_1/transpose_3:0">
					<dim>-1</dim>
					<dim>2</dim>
					<dim>512</dim>
					<dim>56</dim>
				</port>
			</output>
		</layer>
		<layer id="322" name="CCT_OCR_1/transformer_block_4_1/multi_head_attention_3_1/MatMul_1" type="MatMul" version="opset1">
			<data transpose_a="true" transpose_b="false" />
			<input>
				<port id="0" precision="FP32">
					<dim>-1</dim>
					<dim>2</dim>
					<dim>512</dim>
					<dim>512</dim>
				</port>
				<port id="1" precision="FP32">
					<dim>-1</dim>
					<dim>2</dim>
					<dim>512</dim>
					<dim>56</dim>
				</port>
			</input>
			<output>
				<port id="2" precision="FP32" names="CCT_OCR_1/transformer_block_4_1/multi_head_attention_3_1/MatMul_1:0">
					<dim>-1</dim>
					<dim>2</dim>
					<dim>512</dim>
					<dim>56</dim>
				</port>
			</output>
		</layer>
		<layer id="323" name="Constant_100226" type="Const" version="opset1">
			<data element_type="i64" shape="4" offset="1047808" size="32" />
			<output>
				<port id="0" precision="I64">
					<dim>4</dim>
				</port>
			</output>
		</layer>
		<layer id="324" name="CCT_OCR_1/transformer_block_4_1/multi_head_attention_3_1/transpose_4" type="Transpose" version="opset1">
			<input>
				<port id="0" precision="FP32">
					<dim>-1</dim>
					<dim>2</dim>
					<dim>512</dim>
					<dim>56</dim>
				</port>
				<port id="1" precision="I64">
					<dim>4</dim>
				</port>
			</input>
			<output>
…
		<edge from-layer="145" from-port="2" to-layer="157" to-port="0" />
		<edge from-layer="145" from-port="2" to-layer="148" to-port="0" />
		<edge from-layer="145" from-port="2" to-layer="170" to-port="0" />
		<edge from-layer="146" from-port="0" to-layer="147" to-port="0" />
		<edge from-layer="147" from-port="1" to-layer="148" to-port="1" />
		<edge from-layer="148" from-port="2" to-layer="149" to-port="0" />
		<edge from-layer="149" from-port="2" to-layer="152" to-port="0" />
		<edge from-layer="150" from-port="0" to-layer="151" to-port="0" />
		<edge from-layer="151" from-port="1" to-layer="152" to-port="1" />
		<edge from-layer="152" from-port="2" to-layer="154" to-port="0" />
		<edge from-layer="153" from-port="0" to-layer="154" to-port="1" />
		<edge from-layer="154" from-port="2" to-layer="166" to-port="0" />
		<edge from-layer="155" from-port="0" to-layer="156" to-port="0" />
		<edge from-layer="156" from-port="1" to-layer="157" to-port="1" />
		<edge from-layer="157" from-port="2" to-layer="158" to-port="0" />
		<edge from-layer="158" from-port="2" to-layer="160" to-port="0" />
		<edge from-layer="159" from-port="0" to-layer="160" to-port="1" />
		<edge from-layer="160" from-port="2" to-layer="163" to-port="0" />
		<edge from-layer="161" from-port="0" to-layer="162" to-port="0" />
		<edge from-layer="162" from-port="1" to-layer="163" to-port="1" />
		<edge from-layer="163" from-port="2" to-layer="165" to-port="0" />
		<edge from-layer="164" from-port="0" to-layer="165" to-port="1" />
		<edge from-layer="165" from-port="2" to-layer="166" to-port="1" />
		<edge from-layer="166" from-port="2" to-layer="167" to-port="0" />
		<edge from-layer="167" from-port="1" to-layer="176" to-port="0" />
		<edge from-layer="168" from-port="0" to-layer="169" to-port="0" />
		<edge from-layer="169" from-port="1" to-layer="170" to-port="1" />
		<edge from-layer="170" from-port="2" to-layer="171" to-port="0" />
		<edge from-layer="171" from-port="2" to-layer="173" to-port="0" />
		<edge from-layer="172" from-port="0" to-layer="173" to-port="1" />
		<edge from-layer="173" from-port="2" to-layer="175" to-port="0" />
		<edge from-layer="174" from-port="0" to-layer="175" to-port="1" />
		<edge from-layer="175" from-port="2" to-layer="176" to-port="1" />
		<edge from-layer="176" from-port="2" to-layer="178" to-port="0" />
		<edge from-layer="177" from-port="0" to-layer="178" to-port="1" />
		<edge from-layer="178" from-port="2" to-layer="179" to-port="0" />
		<edge from-layer="179" from-port="2" to-layer="182" to-port="0" />
		<edge from-layer="180" from-port="0" to-layer="181" to-port="0" />
		<edge from-layer="181" from-port="1" to-layer="182" to-port="1" />
		<edge from-layer="182" from-port="2" to-layer="185" to-port="0" />
		<edge from-layer="183" from-port="0" to-layer="184" to-port="0" />
		<edge from-layer="184" from-port="1" to-layer="185" to-port="1" />
		<edge from-layer="185" from-port="2" to-layer="186" to-port="1" />
		<edge from-layer="186" from-port="2" to-layer="211" to-port="0" />
		<edge from-layer="186" from-port="2" to-layer="189" to-port="1" />
		<edge from-layer="187" from-port="0" to-layer="188" to-port="0" />
		<edge from-layer="188" from-port="1" to-layer="189" to-port="0" />
		<edge from-layer="189" from-port="2" to-layer="190" to-port="0" />
		<edge from-layer="190" from-port="1" to-layer="193" to-port="0" />
		<edge from-layer="191" from-port="0" to-layer="192" to-port="0" />
		<edge from-layer="192" from-port="1" to-layer="193" to-port="1" />
		<edge from-layer="193" from-port="2" to-layer="196" to-port="0" />
		<edge from-layer="194" from-port="0" to-layer="195" to-port="0" />
		<edge from-layer="195" from-port="1" to-layer="196" to-port="1" />
		<edge from-layer="196" from-port="2" to-layer="199" to-port="0" />
		<edge from-layer="197" from-port="0" to-layer="198" to-port="0" />
		<edge from-layer="198" from-port="1" to-layer="199" to-port="1" />
		<edge from-layer="199" from-port="2" to-layer="202" to-port="0" />
		<edge from-layer="200" from-port="0" to-layer="201" to-port="0" />
		<edge from-layer="201" from-port="1" to-layer="202" to-port="1" />
		<edge from-layer="202" from-port="2" to-layer="203" to-port="0" />
		<edge from-layer="203" from-port="1" to-layer="206" to-port="0" />
		<edge from-layer="204" from-port="0" to-layer="205" to-port="0" />
		<edge from-layer="205" from-port="1" to-layer="206" to-port="1" />
		<edge from-layer="206" from-port="2" to-layer="209" to-port="0" />
		<edge from-layer="207" from-port="0" to-layer="208" to-port="0" />
		<edge from-layer="208" from-port="1" to-layer="209" to-port="1" />
		<edge from-layer="209" from-port="2" to-layer="210" to-port="0" />
		<edge from-layer="210" from-port="1" to-layer="211" to-port="1" />
		<edge from-layer="211" from-port="2" to-layer="260" to-port="0" />
		<edge from-layer="211" from-port="2" to-layer="213" to-port="1" />
		<edge from-layer="212" from-port="0" to-layer="213" to-port="0" />
		<edge from-layer="213" from-port="2" to-layer="214" to-port="0" />
		<edge from-layer="214" from-port="1" to-layer="216" to-port="0" />
		<edge from-layer="215" from-port="0" to-layer="216" to-port="1" />
		<edge from-layer="216" from-port="2" to-layer="218" to-port="0" />
		<edge from-layer="217" from-port="0" to-layer="218" to-port="1" />
		<edge from-layer="218" from-port="2" to-layer="230" to-port="0" />
		<edge from-layer="218" from-port="2" to-layer="221" to-port="0" />
		<edge from-layer="218" from-port="2" to-layer="243" to-port="0" />
		<edge from-layer="219" from-port="0" to-layer="220" to-port="0" />
		<edge from-layer="220" from-port="1" to-layer="221" to-port="1" />
		<edge from-layer="221" from-port="2" to-layer="222" to-port="0" />
		<edge from-layer="222" from-port="2" to-layer="225" to-port="0" />
		<edge from-layer="223" from-port="0" to-layer="224" to-port="0" />
		<edge from-layer="224" from-port="1" to-layer="225" to-port="1" />
		<edge from-layer="225" from-port="2" to-layer="227" to-port="0" />
		<edge from-layer="226" from-port="0" to-layer="227" to-port="1" />
		<edge from-layer="227" from-port="2" to-layer="239" to-port="0" />
		<edge from-layer="228" from-port="0" to-layer="229" to-port="0" />
		<edge from-layer="229" from-port="1" to-layer="230" to-port="1" />
		<edge from-layer="230" from-port="2" to-layer="231" to-port="0" />
		<edge from-layer="231" from-port="2" to-layer="233" to-port="0" />
		<edge from-layer="232" from-port="0" to-layer="233" to-port="1" />
		<edge from-layer="233" from-port="2" to-layer="236" to-port="0" />
		<edge from-layer="234" from-port="0" to-layer="235" to-port="0" />
		<edge from-layer="235" from-port="1" to-layer="236" to-port="1" />
		<edge from-layer="236" from-port="2" to-layer="238" to-port="0" />
		<edge from-layer="237" from-port="0" to-layer="238" to-port="1" />
		<edge from-layer="238" from-port="2" to-layer="239" to-port="1" />
		<edge from-layer="239" from-port="2" to-layer="240" to-port="0" />
		<edge from-layer="240" from-port="1" to-layer="250" to-port="0" />
		<edge from-layer="241" from-port="0" to-layer="242" to-port="0" />
		<edge from-layer="242" from-port="1" to-layer="243" to-port="1" />
		<edge from-layer="243" from-port="2" to-layer="244" to-port="0" />
		<edge from-layer="244" from-port="2" to-layer="247" to-port="0" />
		<edge from-layer="245" from-port="0" to-layer="246" to-port="0" />
		<edge from-layer="246" from-port="1" to-layer="247" to-port="1" />
		<edge from-layer="247" from-port="2" to-layer="249" to-port="0" />
		<edge from-layer="248" from-port="0" to-layer="249" to-port="1" />
		<edge from-layer="249" from-port="2" to-layer="250" to-port="1" />
		<edge from-layer="250" from-port="2" to-layer="252" to-port="0" />
		<edge from-layer="251" from-port="0" to-layer="252" to-port="1" />
		<edge from-layer="252" from-port="2" to-layer="253" to-port="0" />
		<edge from-layer="253" from-port="2" to-layer="256" to-port="0" />
		<edge from-layer="254" from-port="0" to-layer="255" to-port="0" />
		<edge from-layer="255" from-port="1" to-layer="256" to-port="1" />
		<edge from-layer="256" from-port="2" to-layer="259" to-port="0" />
		<edge from-layer="257" from-port="0" to-layer="258" to-port="0" />
		<edge from-layer="258" from-port="1" to-layer="259" to-port="1" />
		<edge from-layer="259" from-port="2" to-layer="260" to-port="1" />
		<edge from-layer="260" from-port="2" to-layer="263" to-port="1" />
		<edge from-layer="260" from-port="2" to-layer="283" to-port="0" />
		<edge from-layer="261" from-port="0" to-layer="262" to-port="0" />
		<edge from-layer="262" from-port="1" to-layer="263" to-port="0" />
		<edge from-layer="263" from-port="2" to-layer="264" to-port="0" />
		<edge from-layer="264" from-port="1" to-layer="267" to-port="0" />
		<edge from-layer="265" from-port="0" to-layer="266" to-port="0" />
		<edge from-layer="266" from-port="1" to-layer="267" to-port="1" />
		<edge from-layer="267" from-port="2" to-layer="270" to-port="0" />
		<edge from-layer="268" from-port="0" to-layer="269" to-port="0" />
		<edge from-layer="269" from-port="1" to-layer="270" to-port="1" />
		<edge from-layer="270" from-port="2" to-layer="273" to-port="0" />
		<edge from-layer="271" from-port="0" to-layer="272" to-port="0" />
		<edge from-layer="272" from-port="1" to-layer="273" to-port="1" />
		<edge from-layer="273" from-port="2" to-layer="275" to-port="0" />
		<edge from-layer="274" from-port="0" to-layer="275" to-port="1" />
		<edge from-layer="275" from-port="2" to-layer="276" to-port="0" />
		<edge from-layer="276" from-port="1" to-layer="279" to-port="0" />
		<edge from-layer="277" from-port="0" to-layer="278" to-port="0" />
		<edge from-layer="278" from-port="1" to-layer="279" to-port="1" />
		<edge from-layer="279" from-port="2" to-layer="281" to-port="0" />
		<edge from-layer="280" from-port="0" to-layer="281" to-port="1" />
		<edge from-layer="281" from-port="2" to-layer="282" to-port="0" />
		<edge from-layer="282" from-port="1" to-layer="283" to-port="1" />
		<edge from-layer="283" from-port="2" to-layer="285" to-port="1" />
		<edge from-layer="283" from-port="2" to-layer="332" to-port="0" />
		<edge from-layer="284" from-port="0" to-layer="285" to-port="0" />
		<edge from-layer="285" from-port="2" to-layer="286" to-port="0" />
		<edge from-layer="286" from-port="1" to-layer="289" to-port="0" />
		<edge from-layer="287" from-port="0" to-layer="288" to-port="0" />
		<edge from-layer="288" from-port="1" to-layer="289" to-port="1" />
		<edge from-layer="289" from-port="2" to-layer="291" to-port="0" />
		<edge from-layer="290" from-port="0" to-layer="291" to-port="1" />
		<edge from-layer="291" from-port="2" to-layer="302" to-port="0" />
		<edge from-layer="291" from-port="2" to-layer="315" to-port="0" />
		<edge from-layer="291" from-port="2" to-layer="294" to-port="0" />
		<edge from-layer="292" from-port="0" to-layer="293" to-port="0" />
		<edge from-layer="293" from-port="1" to-layer="294" to-port="1" />
		<edge from-layer="294" from-port="2" to-layer="295" to-port="0" />
		<edge from-layer="295" from-port="2" to-layer="297" to-port="0" />
		<edge from-layer="296" from-port="0" to-layer="297" to-port="1" />
		<edge from-layer="297" from-port="2" to-layer="299" to-port="0" />
		<edge from-layer="298" from-port="0" to-layer="299" to-port="1" />
		<edge from-layer="299" from-port="2" to-layer="311" to-port="0" />
		<edge from-layer="300" from-port="0" to-layer="301" to-port="0" />
		<edge from-layer="301" from-port="1" to-layer="302" to-port="1" />
		<edge from-layer="302" from-port="2" to-layer="303" to-port="0" />
		<edge from-layer="303" from-port="2" to-layer="305" to-port="0" />
		<edge from-layer="304" from-port="0" to-layer="305" to-port="1" />
		<edge from-layer="305" from-port="2" to-layer="308" to-port="0" />
		<edge from-layer="306" from-port="0" to-layer="307" to-port="0" />
		<edge from-layer="307" from-port="1" to-layer="308" to-port="1" />
		<edge from-layer="308" from-port="2" to-layer="310" to-port="0" />
		<edge from-layer="309" from-port="0" to-layer="310" to-port="1" />
		<edge from-layer="310" from-port="2" to-layer="311" to-port="1" />
		<edge from-layer="311" from-port="2" to-layer="312" to-port="0" />
		<edge from-layer="312" from-port="1" to-layer="322" to-port="0" />
		<edge from-layer="313" from-port="0" to-layer="314" to-port="0" />
		<edge from-layer="314" from-port="1" to-layer="315" to-port="1" />
		<edge from-layer="315" from-port="2" to-layer="316" to-port="0" />
		<edge from-layer="316" from-port="2" to-layer="319" to-port="0" />
		<edge from-layer="317" from-port="0" to-layer="318" to-port="0" />
		<edge from-layer="318" from-port="1" to-layer="319" to-port="1" />
		<edge from-layer="319" from-port="2" to-layer="321" to-port="0" />
		<edge from-layer="320" from-port="0" to-layer="321" to-port="1" />
		<edge from-layer="321" from-port="2" to-layer="322" to-port="1" />
		<edge from-layer="322" from-port="2" to-layer="324" to-port="0" />
		<edge from-layer="323" from-port="0" to-layer="324" to-port="1" />
		<edge from-layer="324" from-port="2" to-layer="325" to-port="0" />
		<edge from-layer="325" from-port="2" to-layer="328" to-port="0" />
		<edge from-layer="326" from-port="0" to-layer="327" to-port="0" />
		<edge from-layer="327" from-port="1" to-layer="328" to-port="1" />
		<edge from-layer="328" from-port="2" to-layer="331" to-port="0" />
		<edge from-layer="329" from-port="0" to-layer="330" to-port="0" />
		<edge from-layer="330" from-port="1" to-layer="331" to-port="1" />
		<edge from-layer="331" from-port="2" to-layer="332" to-port="1" />
		<edge from-layer="332" from-port="2" to-layer="335" to-port="1" />
		<edge from-layer="332" from-port="2" to-layer="356" to-port="0" />
		<edge from-layer="333" from-port="0" to-layer="334" to-port="0" />
		<edge from-layer="334" from-port="1" to-layer="335" to-port="0" />
		<edge from-layer="335" from-port="2" to-layer="336" to-port="0" />
		<edge from-layer="336" from-port="1" to-layer="339" to-port="0" />
		<edge from-layer="337" from-port="0" to-layer="338" to-port="0" />
		<edge from-layer="338" from-port="1" to-layer="339" to-port="1" />
		<edge from-layer="339" from-port="2" to-layer="342" to-port="0" />
		<edge from-layer="340" from-port="0" to-layer="341" to-port="0" />
		<edge from-layer="341" from-port="1" to-layer="342" to-port="1" />
		<edge from-layer="342" from-port="2" to-layer="345" to-port="0" />
		<edge from-layer="343" from-port="0" to-layer="344" to-port="0" />
		<edge from-layer="344" from-port="1" to-layer="345" to-port="1" />
		<edge from-layer="345" from-port="2" to-layer="347" to-port="0" />
		<edge from-layer="346" from-port="0" to-layer="347" to-port="1" />
		<edge from-layer="347" from-port="2" to-layer="348" to-port="0" />
		<edge from-layer="348" from-port="1" to-layer="351" to-port="0" />
		<edge from-layer="349" from-port="0" to-layer="350" to-port="0" />
		<edge from-layer="350" from-port="1" to-layer="351" to-port="1" />
		<edge from-layer="351" from-port="2" to-layer="354" to-port="0" />
		<edge from-layer="352" from-port="0" to-layer="353" to-port="0" />
		<edge from-layer="353" from-port="1" to-layer="354" to-port="1" />
		<edge from-layer="354" from-port="2" to-layer="355" to-port="0" />
		<edge from-layer="355" from-port="1" to-layer="356" to-port="1" />
		<edge from-layer="356" from-port="2" to-layer="358" to-port="1" />
		<edge from-layer="356" from-port="2" to-layer="406" to-port="0" />
		<edge from-layer="357" from-port="0" to-layer="358" to-port="0" />
		<edge from-layer="358" from-port="2" to-layer="359" to-port="0" />
		<edge from-layer="359" from-port="1" to-layer="362" to-port="0" />
		<edge from-layer="360" from-port="0" to-layer="361" to-port="0" />
		<edge from-layer="361" from-port="1" to-layer="362" to-port="1" />
		<edge from-layer="362" from-port="2" to-layer="364" to-port="0" />
		<edge from-layer="363" from-port="0" to-layer="364" to-port="1" />
		<edge from-layer="364" from-port="2" to-layer="389" to-port="0" />
		<edge from-layer="364" from-port="2" to-layer="367" to-port="0" />
		<edge from-layer="364" from-port="2" to-layer="376" to-port="0" />
		<edge from-layer="365" from-port="0" to-layer="366" to-port="0" />
		<edge from-layer="366" from-port="1" to-layer="367" to-port="1" />
		<edge from-layer="367" from-port="2" to-layer="368" to-port="0" />
		<edge from-layer="368" from-port="2" to-layer="371" to-port="0" />
		<edge from-layer="369" from-port="0" to-layer="370" to-port="0" />
		<edge from-layer="370" from-port="1" to-layer="371" to-port="1" />
		<edge from-layer="371" from-port="2" to-layer="373" to-port="0" />
		<edge from-layer="372" from-port="0" to-layer="373" to-port="1" />
		<edge from-layer="373" from-port="2" to-layer="385" to-port="0" />
		<edge from-layer="374" from-port="0" to-layer="375" to-port="0" />
		<edge from-layer="375" from-port="1" to-layer="376" to-port="1" />
		<edge from-layer="376" from-port="2" to-layer="377" to-port="0" />
		<edge from-layer="377" from-port="2" to-layer="379" to-port="0" />
		<edge from-layer="378" from-port="0" to-layer="379" to-port="1" />
		<edge from-layer="379" from-port="2" to-layer="382" to-port="0" />
		<edge from-layer="380" from-port="0" to-layer="381" to-port="0" />
		<edge from-layer="381" from-port="1" to-layer="382" to-port="1" />
		<edge from-layer="382" from-port="2" to-layer="384" to-port="0" />
		<edge from-layer="383" from-port="0" to-layer="384" to-port="1" />
		<edge from-layer="384" from-port="2" to-layer="385" to-port="1" />
		<edge from-layer="385" from-port="2" to-layer="386" to-port="0" />
		<edge from-layer="386" from-port="1" to-layer="396" to-port="0" />
		<edge from-layer="387" from-port="0" to-layer="388" to-port="0" />
		<edge from-layer="388" from-port="1" to-layer="389" to-port="1" />
		<edge from-layer="389" from-port="2" to-layer="390" to-port="0" />
		<edge from-layer="390" from-port="2" to-layer="393" to-port="0" />
		<edge from-layer="391" from-port="0" to-layer="392" to-port="0" />
		<edge from-layer="392" from-port="1" to-layer="393" to-port="1" />
		<edge from-layer="393" from-port="2" to-layer="395" to-port="0" />
		<edge from-layer="394" from-port="0" to-layer="395" to-port="1" />
		<edge from-layer="395" from-port="2" to-layer="396" to-port="1" />
		<edge from-layer="396" from-port="2" to-layer="398" to-port="0" />
		<edge from-layer="397" from-port="0" to-layer="398" to-port="1" />
		<edge from-layer="398" from-port="2" to-layer="399" to-port="0" />
		<edge from-layer="399" from-port="2" to-layer="402" to-port="0" />
		<edge from-layer="400" from-port="0" to-layer="401" to-port="0" />
		<edge from-layer="401" from-port="1" to-layer="402" to-port="1" />
		<edge from-layer="402" from-port="2" to-layer="405" to-port="0" />
		<edge from-layer="403" from-port="0" to-layer="404" to-port="0" />
		<edge from-layer="404" from-port="1" to-layer="405" to-port="1" />
		<edge from-layer="405" from-port="2" to-layer="406" to-port="1" />
		<edge from-layer="406" from-port="2" to-layer="408" to-port="1" />
		<edge from-layer="406" from-port="2" to-layer="430" to-port="0" />
		<edge from-layer="407" from-port="0" to-layer="408" to-port="0" />
		<edge from-layer="408" from-port="2" to-layer="409" to-port="0" />
		<edge from-layer="409" from-port="1" to-layer="412" to-port="0" />
		<edge from-layer="410" from-port="0" to-layer="411" to-port="0" />
		<edge from-layer="411" from-port="1" to-layer="412" to-port="1" />
		<edge from-layer="412" from-port="2" to-layer="415" to-port="0" />
		<edge from-layer="413" from-port="0" to-layer="414" to-port="0" />
		<edge from-layer="414" from-port="1" to-layer="415" to-port="1" />
		<edge from-layer="415" from-port="2" to-layer="418" to-port="0" />
		<edge from-layer="416" from-port="0" to-layer="417" to-port="0" />
		<edge from-layer="417" from-port="1" to-layer="418" to-port="1" />
		<edge from-layer="418" from-port="2" to-layer="421" to-port="0" />
		<edge from-layer="419" from-port="0" to-layer="420" to-port="0" />
		<edge from-layer="420" from-port="1" to-layer="421" to-port="1" />
		<edge from-layer="421" from-port="2" to-layer="422" to-port="0" />
		<edge from-layer="422" from-port="1" to-layer="425" to-port="0" />
		<edge from-layer="423" from-port="0" to-layer="424" to-port="0" />
		<edge from-layer="424" from-port="1" to-layer="425" to-port="1" />
		<edge from-layer="425" from-port="2" to-layer="428" to-port="0" />
		<edge from-layer="426" from-port="0" to-layer="427" to-port="0" />
		<edge from-layer="427" from-port="1" to-layer="428" to-port="1" />
		<edge from-layer="428" from-port="2" to-layer="429" to-port="0" />
		<edge from-layer="429" from-port="1" to-layer="430" to-port="1" />
		<edge from-layer="430" from-port="2" to-layer="468" to-port="0" />
		<edge from-layer="430" from-port="2" to-layer="433" to-port="0" />
		<edge from-layer="430" from-port="2" to-layer="443" to-port="0" />
		<edge from-layer="431" from-port="0" to-layer="432" to-port="0" />
		<edge from-layer="432" from-port="1" to-layer="433" to-port="1" />
		<edge from-layer="433" from-port="2" to-layer="435" to-port="0" />
		<edge from-layer="434" from-port="0" to-layer="469" to-port="1" />
		<edge from-layer="434" from-port="0" to-layer="435" to-port="1" />
		<edge from-layer="435" from-port="2" to-layer="438" to-port="0" />
		<edge from-layer="436" from-port="0" to-layer="437" to-port="0" />
		<edge from-layer="437" from-port="1" to-layer="438" to-port="1" />
		<edge from-layer="438" from-port="2" to-layer="440" to-port="0" />
		<edge from-layer="439" from-port="0" to-layer="440" to-port="1" />
		<edge from-layer="440" from-port="2" to-layer="464" to-port="0" />
		<edge from-layer="441" from-port="0" to-layer="442" to-port="0" />
		<edge from-layer="442" from-port="1" to-layer="450" to-port="0" />
		<edge from-layer="443" from-port="1" to-layer="446" to-port="0" />
		<edge from-layer="444" from-port="0" to-layer="446" to-port="1" />
		<edge from-layer="445" from-port="0" to-layer="446" to-port="2" />
		<edge from-layer="446" from-port="3" to-layer="448" to-port="0" />
		<edge from-layer="447" from-port="0" to-layer="448" to-port="1" />
		<edge from-layer="447" from-port="0" to-layer="448" to-port="2" />
		<edge from-layer="448" from-port="3" to-layer="449" to-port="0" />
		<edge from-layer="449" from-port="1" to-layer="450" to-port="1" />
		<edge from-layer="450" from-port="2" to-layer="485" to-port="1" />
		<edge from-layer="450" from-port="2" to-layer="453" to-port="0" />
		<edge from-layer="451" from-port="0" to-layer="452" to-port="0" />
		<edge from-layer="452" from-port="1" to-layer="453" to-port="1" />
		<edge from-layer="453" from-port="2" to-layer="455" to-port="0" />
		<edge from-layer="454" from-port="0" to-layer="455" to-port="1" />
		<edge from-layer="455" from-port="2" to-layer="458" to-port="0" />
		<edge from-layer="456" from-port="0" to-layer="457" to-port="0" />
		<edge from-layer="457" from-port="1" to-layer="458" to-port="1" />
		<edge from-layer="458" from-port="2" to-layer="461" to-port="0" />
		<edge from-layer="459" from-port="0" to-layer="460" to-port="0" />
		<edge from-layer="460" from-port="1" to-layer="461" to-port="1" />
		<edge from-layer="461" from-port="2" to-layer="463" to-port="0" />
		<edge from-layer="462" from-port="0" to-layer="463" to-port="1" />
		<edge from-layer="463" from-port="2" to-layer="464" to-port="1" />
		<edge from-layer="464" from-port="2" to-layer="465" to-port="0" />
		<edge from-layer="465" from-port="1" to-layer="474" to-port="0" />
		<edge from-layer="466" from-port="0" to-layer="467" to-port="0" />
		<edge from-layer="467" from-port="1" to-layer="468" to-port="1" />
		<edge from-layer="468" from-port="2" to-layer="469" to-port="0" />
		<edge from-layer="469" from-port="2" to-layer="471" to-port="0" />
		<edge from-layer="470" from-port="0" to-layer="471" to-port="1" />
		<edge from-layer="471" from-port="2" to-layer="473" to-port="0" />
		<edge from-layer="472" from-port="0" to-layer="473" to-port="1" />
		<edge from-layer="473" from-port="2" to-layer="474" to-port="1" />
		<edge from-layer="474" from-port="2" to-layer="476" to-port="0" />
		<edge from-layer="475" from-port="0" to-layer="476" to-port="1" />
		<edge from-layer="476" from-port="2" to-layer="478" to-port="0" />
		<edge from-layer="477" from-port="0" to-layer="611" to-port="1" />
		<edge from-layer="477" from-port="0" to-layer="478" to-port="1" />
		<edge from-layer="477" from-port="0" to-layer="537" to-port="1" />
		<edge from-layer="477" from-port="0" to-layer="756" to-port="1" />
		<edge from-layer="477" from-port="0" to-layer="683" to-port="1" />
		<edge from-layer="478" from-port="2" to-layer="481" to-port="0" />
		<edge from-layer="479" from-port="0" to-layer="480" to-port="0" />
		<edge from-layer="480" from-port="1" to-layer="481" to-port="1" />
		<edge from-layer="481" from-port="2" to-layer="484" to-port="0" />
		<edge from-layer="482" from-port="0" to-layer="483" to-port="0" />
		<edge from-layer="483" from-port="1" to-layer="484" to-port="1" />
		<edge from-layer="484" from-port="2" to-layer="485" to-port="0" />
		<edge from-layer="485" from-port="2" to-layer="486" to-port="1" />
		<edge from-layer="486" from-port="2" to-layer="487" to-port="0" />
		<edge from-layer="487" from-port="1" to-layer="490" to-port="0" />
		<edge from-layer="488" from-port="0" to-layer="489" to-port="0" />
		<edge from-layer="489" from-port="1" to-layer="490" to-port="1" />
		<edge from-layer="490" from-port="2" to-layer="493" to-port="0" />
		<edge from-layer="491" from-port="0" to-layer="492" to-port="0" />
		<edge from-layer="492" from-port="1" to-layer="493" to-port="1" />
		<edge from-layer="493" from-port="2" to-layer="495" to-port="1" />
		<edge from-layer="493" from-port="2" to-layer="544" to-port="0" />
		<edge from-layer="494" from-port="0" to-layer="495" to-port="0" />
		<edge from-layer="495" from-port="2" to-layer="496" to-port="0" />
		<edge from-layer="496" from-port="1" to-layer="499" to-port="0" />
		<edge from-layer="497" from-port="0" to-layer="498" to-port="0" />
		<edge from-layer="498" from-port="1" to-layer="499" to-port="1" />
		<edge from-layer="499" from-port="2" to-layer="502" to-port="0" />
		<edge from-layer="500" from-port="0" to-layer="501" to-port="0" />
		<edge from-layer="501" from-port="1" to-layer="502" to-port="1" />
		<edge from-layer="502" from-port="2" to-layer="505" to-port="0" />
		<edge from-layer="502" from-port="2" to-layer="528" to-port="0" />
		<edge from-layer="502" from-port="2" to-layer="515" to-port="0" />
		<edge from-layer="503" from-port="0" to-layer="504" to-port="0" />
		<edge from-layer="504" from-port="1" to-layer="505" to-port="1" />
		<edge from-layer="505" from-port="2" to-layer="507" to-port="0" />
		<edge from-layer="506" from-port="0" to-layer="654" to-port="1" />
		<edge from-layer="506" from-port="0" to-layer="581" to-port="1" />
		<edge from-layer="506" from-port="0" to-layer="589" to-port="1" />
		<edge from-layer="506" from-port="0" to-layer="516" to-port="1" />
		<edge from-layer="506" from-port="0" to-layer="602" to-port="1" />
		<edge from-layer="506" from-port="0" to-layer="747" to-port="1" />
		<edge from-layer="506" from-port="0" to-layer="735" to-port="1" />
		<edge from-layer="506" from-port="0" to-layer="727" to-port="1" />
		<edge from-layer="506" from-port="0" to-layer="507" to-port="1" />
		<edge from-layer="506" from-port="0" to-layer="674" to-port="1" />
		<edge from-layer="506" from-port="0" to-layer="662" to-port="1" />
		<edge from-layer="506" from-port="0" to-layer="529" to-port="1" />
		<edge from-layer="507" from-port="2" to-layer="510" to-port="0" />
		<edge from-layer="508" from-port="0" to-layer="509" to-port="0" />
		<edge from-layer="509" from-port="1" to-layer="510" to-port="1" />
		<edge from-layer="510" from-port="2" to-layer="512" to-port="0" />
		<edge from-layer="511" from-port="0" to-layer="512" to-port="1" />
		<edge from-layer="512" from-port="2" to-layer="524" to-port="0" />
		<edge from-layer="513" from-port="0" to-layer="514" to-port="0" />
		<edge from-layer="514" from-port="1" to-layer="515" to-port="1" />
		<edge from-layer="515" from-port="2" to-layer="516" to-port="0" />
		<edge from-layer="516" from-port="2" to-layer="518" to-port="0" />
		<edge from-layer="517" from-port="0" to-layer="518" to-port="1" />
		<edge from-layer="518" from-port="2" to-layer="521" to-port="0" />
		<edge from-layer="519" from-port="0" to-layer="520" to-port="0" />
		<edge from-layer="520" from-port="1" to-layer="521" to-port="1" />
		<edge from-layer="521" from-port="2" to-layer="523" to-port="0" />
		<edge from-layer="522" from-port="0" to-layer="523" to-port="1" />
		<edge from-layer="523" from-port="2" to-layer="524" to-port="1" />
		<edge from-layer="524" from-port="2" to-layer="525" to-port="0" />
		<edge from-layer="525" from-port="1" to-layer="534" to-port="0" />
		<edge from-layer="526" from-port="0" to-layer="527" to-port="0" />
		<edge from-layer="527" from-port="1" to-layer="528" to-port="1" />
		<edge from-layer="528" from-port="2" to-layer="529" to-port="0" />
		<edge from-layer="529" from-port="2" to-layer="531" to-port="0" />
		<edge from-layer="530" from-port="0" to-layer="531" to-port="1" />
		<edge from-layer="531" from-port="2" to-layer="533" to-port="0" />
		<edge from-layer="532" from-port="0" to-layer="533" to-port="1" />
		<edge from-layer="533" from-port="2" to-layer="534" to-port="1" />
		<edge from-layer="534" from-port="2" to-layer="536" to-port="0" />
		<edge from-layer="535" from-port="0" to-layer="536" to-port="1" />
		<edge from-layer="536" from-port="2" to-layer="537" to-port="0" />
		<edge from-layer="537" from-port="2" to-layer="540" to-port="0" />
		<edge from-layer="538" from-port="0" to-layer="539" to-port="0" />
		<edge from-layer="539" from-port="1" to-layer="540" to-port="1" />
		<edge from-layer="540" from-port="2" to-layer="543" to-port="0" />
		<edge from-layer="541" from-port="0" to-layer="542" to-port="0" />
		<edge from-layer="542" from-port="1" to-layer="543" to-port="1" />
		<edge from-layer="543" from-port="2" to-layer="544" to-port="1" />
		<edge from-layer="544" from-port="2" to-layer="546" to-port="1" />
		<edge from-layer="544" from-port="2" to-layer="568" to-port="0" />
		<edge from-layer="545" from-port="0" to-layer="546" to-port="0" />
		<edge from-layer="546" from-port="2" to-layer="547" to-port="0" />
		<edge from-layer="547" from-port="1" to-layer="550" to-port="0" />
		<edge from-layer="548" from-port="0" to-layer="549" to-port="0" />
		<edge from-layer="549" from-port="1" to-layer="550" to-port="1" />
		<edge from-layer="550" from-port="2" to-layer="553" to-port="0" />
		<edge from-layer="551" from-port="0" to-layer="552" to-port="0" />
		<edge from-layer="552" from-port="1" to-layer="553" to-port="1" />
		<edge from-layer="553" from-port="2" to-layer="556" to-port="0" />
		<edge from-layer="554" from-port="0" to-layer="555" to-port="0" />
		<edge from-layer="555" from-port="1" to-layer="556" to-port="1" />
		<edge from-layer="556" from-port="2" to-layer="559" to-port="0" />
		<edge from-layer="557" from-port="0" to-layer="558" to-port="0" />
		<edge from-layer="558" from-port="1" to-layer="559" to-port="1" />
		<edge from-layer="559" from-port="2" to-layer="560" to-port="0" />
		<edge from-layer="560" from-port="1" to-layer="563" to-port="0" />
		<edge from-layer="561" from-port="0" to-layer="562" to-port="0" />
		<edge from-layer="562" from-port="1" to-layer="563" to-port="1" />
		<edge from-layer="563" from-port="2" to-layer="566" to-port="0" />
		<edge from-layer="564" from-port="0" to-layer="565" to-port="0" />
		<edge from-layer="565" from-port="1" to-layer="566" to-port="1" />
		<edge from-layer="566" from-port="2" to-layer="567" to-port="0" />
		<edge from-layer="567" from-port="1" to-layer="568" to-port="1" />
		<edge from-layer="568" from-port="2" to-layer="570" to-port="1" />
		<edge from-layer="568" from-port="2" to-layer="618" to-port="0" />
		<edge from-layer="569" from-port="0" to-layer="570" to-port="0" />
		<edge from-layer="570" from-port="2" to-layer="571" to-port="0" />
		<edge from-layer="571" from-port="1" to-layer="574" to-port="0" />
		<edge from-layer="572" from-port="0" to-layer="573" to-port="0" />
		<edge from-layer="573" from-port="1" to-layer="574" to-port="1" />
		<edge from-layer="574" from-port="2" to-layer="577" to-port="0" />
		<edge from-layer="575" from-port="0" to-layer="576" to-port="0" />
		<edge from-layer="576" from-port="1" to-layer="577" to-port="1" />
		<edge from-layer="577" from-port="2" to-layer="580" to-port="0" />
		<edge from-layer="577" from-port="2" to-layer="588" to-port="0" />
		<edge from-layer="577" from-port="2" to-layer="601" to-port="0" />
		<edge from-layer="578" from-port="0" to-layer="579" to-port="0" />
		<edge from-layer="579" from-port="1" to-layer="580" to-port="1" />
		<edge from-layer="580" from-port="2" to-layer="581" to-port="0" />
		<edge from-layer="581" from-port="2" to-layer="583" to-port="0" />
		<edge from-layer="582" from-port="0" to-layer="583" to-port="1" />
		<edge from-layer="583" from-port="2" to-layer="585" to-port="0" />
		<edge from-layer="584" from-port="0" to-layer="585" to-port="1" />
		<edge from-layer="585" from-port="2" to-layer="597" to-port="0" />
		<edge from-layer="586" from-port="0" to-layer="587" to-port="0" />
		<edge from-layer="587" from-port="1" to-layer="588" to-port="1" />
		<edge from-layer="588" from-port="2" to-layer="589" to-port="0" />
		<edge from-layer="589" from-port="2" to-layer="591" to-port="0" />
		<edge from-layer="590" from-port="0" to-layer="591" to-port="1" />
		<edge from-layer="591" from-port="2" to-layer="594" to-port="0" />
		<edge from-layer="592" from-port="0" to-layer="593" to-port="0" />
		<edge from-layer="593" from-port="1" to-layer="594" to-port="1" />
		<edge from-layer="594" from-port="2" to-layer="596" to-port="0" />
		<edge from-layer="595" from-port="0" to-layer="596" to-port="1" />
		<edge from-layer="596" from-port="2" to-layer="597" to-port="1" />
		<edge from-layer="597" from-port="2" to-layer="598" to-port="0" />
		<edge from-layer="598" from-port="1" to-layer="608" to-port="0" />
		<edge from-layer="599" from-port="0" to-layer="600" to-port="0" />
		<edge from-layer="600" from-port="1" to-layer="601" to-port="1" />
		<edge from-layer="601" from-port="2" to-layer="602" to-port="0" />
		<edge from-layer="602" from-port="2" to-layer="605" to-port="0" />
		<edge from-layer="603" from-port="0" to-layer="604" to-port="0" />
		<edge from-layer="604" from-port="1" to-layer="605" to-port="1" />
		<edge from-layer="605" from-port="2" to-layer="607" to-port="0" />
		<edge from-layer="606" from-port="0" to-layer="607" to-port="1" />
		<edge from-layer="607" from-port="2" to-layer="608" to-port="1" />
		<edge from-layer="608" from-port="2" to-layer="610" to-port="0" />
		<edge from-layer="609" from-port="0" to-layer="610" to-port="1" />
		<edge from-layer="610" from-port="2" to-layer="611" to-port="0" />
		<edge from-layer="611" from-port="2" to-layer="614" to-port="0" />
		<edge from-layer="612" from-port="0" to-layer="613" to-port="0" />
		<edge from-layer="613" from-port="1" to-layer="614" to-port="1" />
		<edge from-layer="614" from-port="2" to-layer="617" to-port="0" />
		<edge from-layer="615" from-port="0" to-layer="616" to-port="0" />
		<edge from-layer="616" from-port="1" to-layer="617" to-port="1" />
		<edge from-layer="617" from-port="2" to-layer="618" to-port="1" />
		<edge from-layer="618" from-port="2" to-layer="620" to-port="1" />
		<edge from-layer="618" from-port="2" to-layer="641" to-port="0" />
		<edge from-layer="619" from-port="0" to-layer="620" to-port="0" />
		<edge from-layer="620" from-port="2" to-layer="621" to-port="0" />
		<edge from-layer="621" from-port="1" to-layer="624" to-port="0" />
		<edge from-layer="622" from-port="0" to-layer="623" to-port="0" />
		<edge from-layer="623" from-port="1" to-layer="624" to-port="1" />
		<edge from-layer="624" from-port="2" to-layer="627" to-port="0" />
		<edge from-layer="625" from-port="0" to-layer="626" to-port="0" />
		<edge from-layer="626" from-port="1" to-layer="627" to-port="1" />
		<edge from-layer="627" from-port="2" to-layer="630" to-port="0" />
		<edge from-layer="628" from-port="0" to-layer="629" to-port="0" />
		<edge from-layer="629" from-port="1" to-layer="630" to-port="1" />
		<edge from-layer="630" from-port="2" to-layer="633" to-port="0" />
		<edge from-layer="631" from-port="0" to-layer="632" to-port="0" />
		<edge from-layer="632" from-port="1" to-layer="633" to-port="1" />
		<edge from-layer="633" from-port="2" to-layer="634" to-port="0" />
		<edge from-layer="634" from-port="1" to-layer="637" to-port="0" />
		<edge from-layer="635" from-port="0" to-layer="636" to-port="0" />
		<edge from-layer="636" from-port="1" to-layer="637" to-port="1" />
		<edge from-layer="637" from-port="2" to-layer="639" to-port="0" />
		<edge from-layer="638" from-port="0" to-layer="639" to-port="1" />
		<edge from-layer="639" from-port="2" to-layer="640" to-port="0" />
		<edge from-layer="640" from-port="1" to-layer="641" to-port="1" />
		<edge from-layer="641" from-port="2" to-layer="643" to-port="1" />
		<edge from-layer="641" from-port="2" to-layer="690" to-port="0" />
		<edge from-layer="642" from-port="0" to-layer="643" to-port="0" />
		<edge from-layer="643" from-port="2" to-layer="644" to-port="0" />
		<edge from-layer="644" from-port="1" to-layer="647" to-port="0" />
		<edge from-layer="645" from-port="0" to-layer="646" to-port="0" />
		<edge from-layer="646" from-port="1" to-layer="647" to-port="1" />
		<edge from-layer="647" from-port="2" to-layer="650" to-port="0" />
		<edge from-layer="648" from-port="0" to-layer="649" to-port="0" />
		<edge from-layer="649" from-port="1" to-layer="650" to-port="1" />
		<edge from-layer="650" from-port="2" to-layer="653" to-port="0" />
		<edge from-layer="650" from-port="2" to-layer="661" to-port="0" />
		<edge from-layer="650" from-port="2" to-layer="673" to-port="0" />
		<edge from-layer="651" from-port="0" to-layer="652" to-port="0" />
		<edge from-layer="652" from-port="1" to-layer="653" to-port="1" />
		<edge from-layer="653" from-port="2" to-layer="654" to-port="0" />
		<edge from-layer="654" from-port="2" to-layer="656" to-port="0" />
		<edge from-layer="655" from-port="0" to-layer="656" to-port="1" />
		<edge from-layer="656" from-port="2" to-layer="658" to-port="0" />
		<edge from-layer="657" from-port="0" to-layer="658" to-port="1" />
		<edge from-layer="658" from-port="2" to-layer="669" to-port="0" />
		<edge from-layer="659" from-port="0" to-layer="660" to-port="0" />
		<edge from-layer="660" from-port="1" to-layer="661" to-port="1" />
		<edge from-layer="661" from-port="2" to-layer="662" to-port="0" />
		<edge from-layer="662" from-port="2" to-layer="664" to-port="0" />
		<edge from-layer="663" from-port="0" to-layer="664" to-port="1" />
		<edge from-layer="664" from-port="2" to-layer="666" to-port="0" />
		<edge from-layer="665" from-port="0" to-layer="666" to-port="1" />
		<edge from-layer="666" from-port="2" to-layer="668" to-port="0" />
		<edge from-layer="667" from-port="0" to-layer="668" to-port="1" />
		<edge from-layer="668" from-port="2" to-layer="669" to-port="1" />
		<edge from-layer="669" from-port="2" to-layer="670" to-port="0" />
		<edge from-layer="670" from-port="1" to-layer="680" to-port="0" />
		<edge from-layer="671" from-port="0" to-layer="672" to-port="0" />
		<edge from-layer="672" from-port="1" to-layer="673" to-port="1" />
		<edge from-layer="673" from-port="2" to-layer="674" to-port="0" />
		<edge from-layer="674" from-port="2" to-layer="677" to-port="0" />
		<edge from-layer="675" from-port="0" to-layer="676" to-port="0" />
		<edge from-layer="676" from-port="1" to-layer="677" to-port="1" />
		<edge from-layer="677" from-port="2" to-layer="679" to-port="0" />
		<edge from-layer="678" from-port="0" to-layer="679" to-port="1" />
		<edge from-layer="679" from-port="2" to-layer="680" to-port="1" />
		<edge from-layer="680" from-port="2" to-layer="682" to-port="0" />
		<edge from-layer="681" from-port="0" to-layer="682" to-port="1" />
		<edge from-layer="682" from-port="2" to-layer="683" to-port="0" />
		<edge from-layer="683" from-port="2" to-layer="686" to-port="0" />
		<edge from-layer="684" from-port="0" to-layer="685" to-port="0" />
		<edge from-layer="685" from-port="1" to-layer="686" to-port="1" />
		<edge from-layer="686" from-port="2" to-layer="689" to-port="0" />
		<edge from-layer="687" from-port="0" to-layer="688" to-port="0" />
		<edge from-layer="688" from-port="1" to-layer="689" to-port="1" />
		<edge from-layer="689" from-port="2" to-layer="690" to-port="1" />
		<edge from-layer="690" from-port="2" to-layer="693" to-port="1" />
		<edge from-layer="690" from-port="2" to-layer="714" to-port="0" />
		<edge from-layer="691" from-port="0" to-layer="692" to-port="0" />
		<edge from-layer="692" from-port="1" to-layer="693" to-port="0" />
		<edge from-layer="693" from-port="2" to-layer="694" to-port="0" />
		<edge from-layer="694" from-port="1" to-layer="696" to-port="0" />
		<edge from-layer="695" from-port="0" to-layer="696" to-port="1" />
		<edge from-layer="696" from-port="2" to-layer="699" to-port="0" />
		<edge from-layer="697" from-port="0" to-layer="698" to-port="0" />
		<edge from-layer="698" from-port="1" to-layer="699" to-port="1" />
		<edge from-layer="699" from-port="2" to-layer="702" to-port="0" />
		<edge from-layer="700" from-port="0" to-layer="701" to-port="0" />
		<edge from-layer="701" from-port="1" to-layer="702" to-port="1" />
		<edge from-layer="702" from-port="2" to-layer="705" to-port="0" />
		<edge from-layer="703" from-port="0" to-layer="704" to-port="0" />
		<edge from-layer="704" from-port="1" to-layer="705" to-port="1" />
		<edge from-layer="705" from-port="2" to-layer="706" to-port="0" />
		<edge from-layer="706" from-port="1" to-layer="709" to-port="0" />
		<edge from-layer="707" from-port="0" to-layer="708" to-port="0" />
		<edge from-layer="708" from-port="1" to-layer="709" to-port="1" />
		<edge from-layer="709" from-port="2" to-layer="712" to-port="0" />
		<edge from-layer="710" from-port="0" to-layer="711" to-port="0" />
		<edge from-layer="711" from-port="1" to-layer="712" to-port="1" />
		<edge from-layer="712" from-port="2" to-layer="713" to-port="0" />
		<edge from-layer="713" from-port="1" to-layer="714" to-port="1" />
		<edge from-layer="714" from-port="2" to-layer="716" to-port="1" />
		<edge from-layer="714" from-port="2" to-layer="763" to-port="0" />
		<edge from-layer="714" from-port="2" to-layer="808" to-port="0" />
		<edge from-layer="715" from-port="0" to-layer="716" to-port="0" />
		<edge from-layer="716" from-port="2" to-layer="717" to-port="0" />
		<edge from-layer="717" from-port="1" to-layer="720" to-port="0" />
		<edge from-layer="718" from-port="0" to-layer="719" to-port="0" />
		<edge from-layer="719" from-port="1" to-layer="720" to-port="1" />
		<edge from-layer="720" from-port="2" to-layer="723" to-port="0" />
		<edge from-layer="721" from-port="0" to-layer="722" to-port="0" />
		<edge from-layer="722" from-port="1" to-layer="723" to-port="1" />
		<edge from-layer="723" from-port="2" to-layer="734" to-port="0" />
		<edge from-layer="723" from-port="2" to-layer="726" to-port="0" />
		<edge from-layer="723" from-port="2" to-layer="746" to-port="0" />
		<edge from-layer="724" from-port="0" to-layer="725" to-port="0" />
		<edge from-layer="725" from-port="1" to-layer="726" to-port="1" />
		<edge from-layer="726" from-port="2" to-layer="727" to-port="0" />
		<edge from-layer="727" from-port="2" to-layer="729" to-port="0" />
		<edge from-layer="728" from-port="0" to-layer="729" to-port="1" />
		<edge from-layer="729" from-port="2" to-layer="731" to-port="0" />
		<edge from-layer="730" from-port="0" to-layer="731" to-port="1" />
		<edge from-layer="731" from-port="2" to-layer="742" to-port="0" />
		<edge from-layer="732" from-port="0" to-layer="733" to-port="0" />
		<edge from-layer="733" from-port="1" to-layer="734" to-port="1" />
		<edge from-layer="734" from-port="2" to-layer="735" to-port="0" />
		<edge from-layer="735" from-port="2" to-layer="737" to-port="0" />
		<edge from-layer="736" from-port="0" to-layer="737" to-port="1" />
		<edge from-layer="737" from-port="2" to-layer="739" to-port="0" />
		<edge from-layer="738" from-port="0" to-layer="739" to-port="1" />
		<edge from-layer="739" from-port="2" to-layer="741" to-port="0" />
		<edge from-layer="740" from-port="0" to-layer="741" to-port="1" />
		<edge from-layer="741" from-port="2" to-layer="742" to-port="1" />
		<edge from-layer="742" from-port="2" to-layer="743" to-port="0" />
		<edge from-layer="743" from-port="1" to-layer="753" to-port="0" />
		<edge from-layer="744" from-port="0" to-layer="745" to-port="0" />
		<edge from-layer="745" from-port="1" to-layer="746" to-port="1" />
		<edge from-layer="746" from-port="2" to-layer="747" to-port="0" />
		<edge from-layer="747" from-port="2" to-layer="750" to-port="0" />
		<edge from-layer="748" from-port="0" to-layer="749" to-port="0" />
		<edge from-layer="749" from-port="1" to-layer="750" to-port="1" />
		<edge from-layer="750" from-port="2" to-layer="752" to-port="0" />
		<edge from-layer="751" from-port="0" to-layer="752" to-port="1" />
		<edge from-layer="752" from-port="2" to-layer="753" to-port="1" />
		<edge from-layer="753" from-port="2" to-layer="755" to-port="0" />
		<edge from-layer="754" from-port="0" to-layer="755" to-port="1" />
		<edge from-layer="755" from-port="2" to-layer="756" to-port="0" />
		<edge from-layer="756" from-port="2" to-layer="759" to-port="0" />
		<edge from-layer="757" from-port="0" to-layer="758" to-port="0" />
		<edge from-layer="758" from-port="1" to-layer="759" to-port="1" />
		<edge from-layer="759" from-port="2" to-layer="762" to-port="0" />
		<edge from-layer="760" from-port="0" to-layer="761" to-port="0" />
		<edge from-layer="761" from-port="1" to-layer="762" to-port="1" />
		<edge from-layer="762" from-port="2" to-layer="763" to-port="1" />
		<edge from-layer="763" from-port="2" to-layer="765" to-port="1" />
		<edge from-layer="763" from-port="2" to-layer="787" to-port="0" />
		<edge from-layer="764" from-port="0" to-layer="765" to-port="0" />
		<edge from-layer="765" from-port="2" to-layer="766" to-port="0" />
		<edge from-layer="766" from-port="1" to-layer="769" to-port="0" />
		<edge from-layer="767" from-port="0" to-layer="768" to-port="0" />
		<edge from-layer="768" from-port="1" to-layer="769" to-port="1" />
		<edge from-layer="769" from-port="2" to-layer="772" to-port="0" />
		<edge from-layer="770" from-port="0" to-layer="771" to-port="0" />
		<edge from-layer="771" from-port="1" to-layer="772" to-port="1" />
		<edge from-layer="772" from-port="2" to-layer="775" to-port="0" />
		<edge from-layer="773" from-port="0" to-layer="774" to-port="0" />
		<edge from-layer="774" from-port="1" to-layer="775" to-port="1" />
		<edge from-layer="775" from-port="2" to-layer="778" to-port="0" />
		<edge from-layer="776" from-port="0" to-layer="777" to-port="0" />
		<edge from-layer="777" from-port="1" to-layer="778" to-port="1" />
		<edge from-layer="778" from-port="2" to-layer="779" to-port="0" />
		<edge from-layer="779" from-port="1" to-layer="782" to-port="0" />
		<edge from-layer="780" from-port="0" to-layer="781" to-port="0" />
		<edge from-layer="781" from-port="1" to-layer="782" to-port="1" />
		<edge from-layer="782" from-port="2" to-layer="785" to-port="0" />
		<edge from-layer="783" from-port="0" to-layer="784" to-port="0" />
		<edge from-layer="784" from-port="1" to-layer="785" to-port="1" />
		<edge from-layer="785" from-port="2" to-layer="786" to-port="0" />
		<edge from-layer="786" from-port="1" to-layer="787" to-port="1" />
		<edge from-layer="787" from-port="2" to-layer="790" to-port="0" />
		<edge from-layer="787" from-port="2" to-layer="796" to-port="1" />
		<edge from-layer="788" from-port="0" to-layer="789" to-port="0" />
		<edge from-layer="789" from-port="1" to-layer="790" to-port="1" />
		<edge from-layer="790" from-port="2" to-layer="792" to-port="0" />
		<edge from-layer="791" from-port="0" to-layer="792" to-port="1" />
		<edge from-layer="792" from-port="2" to-layer="793" to-port="0" />
		<edge from-layer="793" from-port="1" to-layer="795" to-port="0" />
		<edge from-layer="794" from-port="0" to-layer="795" to-port="1" />
		<edge from-layer="795" from-port="2" to-layer="796" to-port="0" />
		<edge from-layer="796" from-port="2" to-layer="798" to-port="0" />
		<edge from-layer="797" from-port="0" to-layer="798" to-port="1" />
		<edge from-layer="798" from-port="2" to-layer="801" to-port="0" />
		<edge from-layer="799" from-port="0" to-layer="800" to-port="0" />
		<edge from-layer="800" from-port="1" to-layer="801" to-port="1" />
		<edge from-layer="801" from-port="2" to-layer="804" to-port="0" />
		<edge from-layer="802" from-port="0" to-layer="803" to-port="0" />
		<edge from-layer="803" from-port="1" to-layer="804" to-port="1" />
		<edge from-layer="804" from-port="2" to-layer="805" to-port="0" />
		<edge from-layer="805" from-port="1" to-layer="813" to-port="0" />
		<edge from-layer="806" from-port="0" to-layer="807" to-port="0" />
		<edge from-layer="807" from-port="1" to-layer="808" to-port="1" />
		<edge from-layer="808" from-port="2" to-layer="810" to-port="0" />
		<edge from-layer="809" from-port="0" to-layer="810" to-port="1" />
		<edge from-layer="810" from-port="2" to-layer="811" to-port="0" />
		<edge from-layer="811" from-port="1" to-layer="812" to-port="0" />
	</edges>
	<rt_info>
		<info name="OpenVINO Runtime" value="2026.2.1-21919-ede283a88e3-releases/2026/2" />
		<Runtime_version value="2026.2.1-21919-ede283a88e3-releases/2026/2" />
		<conversion_parameters>
			<input_model value="DIR/cct-s-v2-global.onnx" />
			<is_python_object value="False" />
		</conversion_parameters>
	</rt_info>
</net>
